PCA_CNN_GRU_ATT/PCA_CNN_GRU_ATT/result/PCA_LSTM_prediction_model.pth (torch, 139978 bytes, 13 tensors)

lstm.weight_ih_l0 f4 [128, 3]
0.22742641 0.13529938 -0.03647849 0.17599328 -0.03984148 0.034494787 0.05019444 0.12960789
0.17000663 -0.11125374 0.16572347 0.044420082 0.163804 0.027537333 0.088575184 0.055298258
0.14004119 0.03442557 -0.062388808 0.05072444 -0.076127365 0.10980502 -0.062648766 0.13403454
-0.13627176 -0.08085153 -0.050085157 -0.082529455 0.019478194 -0.17222872 0.28546965 -0.14762378
0.12153984 0.15895984 -0.046386912 0.11136274 0.032044522 0.1467204 0.023221083 -0.013377772
0.049753904 -0.045810543 0.2787003 0.08874011 0.07292378 0.01956616 0.12171087 0.03797574
0.12097619 -0.109639585 -0.17756225 -0.073872834 -0.12988667 0.15011077 0.06786971 0.08157804
0.06072374 0.019930422 0.13768151 -0.13204964 0.05762544 -0.1141379 0.0632761 0.042879418
0.0767666 -0.030208739 0.16388771 -0.09973721 -0.10351708 -0.032137062 0.16402331 0.06369581
0.2257296 -0.16611366 -0.16545178 -0.13500805 -0.11684673 0.07392592 0.062684216 0.14352669
-0.095788695 -0.067350164 0.104044765 -0.06233862 0.107373305 -0.04259305 0.102493644 0.04675696
-0.05516697 0.07011742 0.13078453 -0.035353247 0.10995819 0.14289488 -0.11807038 -0.09749117
0.0005100597 -0.06215389 -0.06621992 -0.16884537 -0.102167845 0.04339386 0.09076515 -0.10977543
0.013769844 -0.123385556 -0.14873917 -0.0944698 -0.17008288 -0.11009252 0.17974275 0.06802788
0.062775604 -0.16007498 -0.118780084 -0.056896534 0.029193563 -0.15785554 -0.0719231 -0.100681394
0.0017721476 -0.06547235 -0.012359317 -0.11972512 -0.12064382 -0.10455878 -0.09159375 -0.12849456
0.13498461 0.05033836 0.16928563 0.060098823 -0.14527065 0.12368693 -0.047066238 -0.06375323
-0.1471983 -0.17431824 -0.16829139 -0.08171874 0.018351499 -0.11433803 0.14159533 -0.12275056
-0.0058504213 0.03410113 0.088646255 0.14390227 0.16179094 -0.1384518 0.067416444 -0.069368966
-0.016550684 -0.1444847 0.16476098 -0.13611369 0.004464846 0.060087796 0.060098093 -0.050920334
0.17300396 0.044614233 0.064750254 -0.15128107 0.07671295 0.0105886385 -0.07559833 0.15666923
0.09747613 -0.092405915 -0.08056003 -0.008119708 0.09903851 -0.04423246 -0.106879175 -0.06369772
-0.13523294 0.064972 0.14235355 -0.16220859 0.037714716 0.0898318 0.032640096 0.04438368
0.112690195 0.101742566 0.14576009 -0.016633455 -0.041323904 0.0772309 -0.03111875 -0.05183662
0.13865077 0.08232734 -0.0022964948 -0.017738594 -0.00029385014 0.0108922245 0.08514129 0.04993516
-0.16040203 -0.059473008 0.197283 0.0966783 -0.061422408 -0.11367617 -0.09764231 -0.14576574
-0.07186318 0.053941358 0.08320785 0.09825812 -0.13071184 -0.118409224 -0.09957971 0.13960849
0.042975426 -0.0445337 0.07522129 -0.09061785 -0.09688043 0.13379763 -0.19207056 0.016260048
-0.066069774 0.12964113 0.111246675 0.0536497 -0.14803153 -0.16732323 -0.14664014 -0.026310397
0.09748172 0.14875047 0.3038442 -0.03385778 -0.035328984 -0.081380084 -0.1641827 -0.15196808
-0.04358318 -0.088484235 -0.053319894 -0.07858347 -0.010056566 -0.12054089 -0.09360254 0.048117127
-0.066128716 0.06551185 -0.022778997 -0.08454088 -0.041302025 -0.07957287 -0.033015396 -0.13972387
00000000: 78e2 683e ec8b 0a3e 786a 15bd 9537 343e
00000010: d230 23bd 684a 0d3d af98 4d3d eeb7 043e
00000020: 3816 2e3e 00d9 e3bd 6ab3 293e d5f1 353d
00000030: 3cbc 273e f995 e13c e866 b53d 6d80 623d
00000040: f566 0f3e d401 0d3d 688b 7fbd 6ec4 4f3d
00000050: aae8 9bbd 74e1 e03d ff4d 80bd 5a40 093e
00000060: d38a 0bbe 7d95 a5bd 1826 4dbd 3405 a9bd
00000070: bc90 9f3c ba5c 30be 1429 923e b02a 17be
00000080: e1e9 f83d 5ec6 223e 3400 3ebd 2612 e43d
00000090: 1e41 033d df3d 163e 243a be3c 712e 5bbc
000000a0: c0ca 4b3d d6a3 3bbd ceb1 8e3e 60bd b53d
000000b0: 1059 953d 3649 a03c 8c43 f93d 738c 1b3d
000000c0: 5dc2 f73d b88a e0bd e1d2 35be a44a 97bd
000000d0: 0301 05be a3b6 193e 46ff 8a3d 6312 a73d
000000e0: 75b9 783d 2045 a33c 62fc 0c3e 0538 07be
000000f0: a708 6c3d 22c1 e9bd e696 813d 54a2 2f3d
00000100: cf37 9d3d 5178 f7bc 2ed2 273e 0643 ccbd
00000110: c300 d4bd 27a2 03bd baf5 273e f372 823d
00000120: a925 673e b319 2abe 316c 29be 8d3f 0abe
00000130: 574d efbd 7966 973d 9560 803d a9f8 123e
00000140: dd2c c4bd e2ee 89bd 6c15 d53d c856 7fbd
00000150: 89e6 db3d 0d76 2ebd 30e8 d13d 3a84 3f3d
00000160: c3f6 61bd b999 8f3d 61ec 053e 91ce 10bd
00000170: c231 e13d 0953 123e e2ce f1bd 73a9 c7bd
00000180: 87b5 053a 1495 7ebd 4f9e 87bd cde5 2cbe
00000190: 603d d1bd c3bd 313d 14e3 b93d f1d1 e0bd
000001a0: e99a 613c 91b1 fcbd 154f 18be 6279 c1bd
000001b0: 352a 2ebe 3078 e1bd 7c0e 383e 3352 8b3d
000001c0: 7f90 803d b2ea 23be f942 f3bd 570c 69bd
000001d0: 5727 ef3c e2a4 21be 6b4c 93bd 0c32 cebd
000001e0: 6847 e83a 5e16 86bd bc7e 4abc 7232 f5bd
000001f0: 1b14 f7bd ea22 d6bd 8195 bbbd 1494 03be
00000200: 6839 0a3e 992f 4e3d 3659 2d3e 2f2a 763d
00000210: d4c1 14be 934f fd3d 87c8 40bd 0e91 82bd
00000220: 27bb 16be 7b80 32be 9454 2cbe 285c a7bd
00000230: e255 963c 0f2a eabd 5efe 103e a564 fbbd
00000240: e4b4 bfbb a0ad 0b3d 2b8c b53d 1e5b 133e
00000250: 86ac 253e 4fc6 0dbe a211 8a3d 5111 8ebd
00000260: 4d95 87bc ccf3 13be 1ab7 283e 6361 0bbe
00000270: d84d 923b 9f1e 763d 6b29 763d d791 50bd
00000280: f327 313e 6abd 363d c89b 843d 6de9 1abe
00000290: ae1b 9d3d f87b 2d3c 4cd3 9abd e66d 203e
000002a0: 91a1 c73d 503f bdbd a8fc a4bd 8608 05bc
000002b0: b4d4 ca3d 192d 35bd 78e3 dabd f373 82bd
000002c0: 817a 0abe 0a10 853d 21c5 113e 021a 26be
000002d0: bf7a 1a3d bcf9 b73d 9fb1 053d a9cb 353d
000002e0: 1eca e63d 685e d03d 2242 153e e242 88bc
000002f0: 4143 29bd 3c2b 9e3d c0ec febc a352 54bd
00000300: 78fa 0d3e 3d9b a83d ca80 16bb 8750 91bc
00000310: e60f 9ab9 4d75 323c 8f5e ae3d cf88 4c3d
00000320: 6e40 24be f899 73bd 8e04 4a3e 46ff c53d
00000330: 1096 7bbd 0dcf e8bd b1f8 c7bd 9d43 15be
00000340: 012d 93bd 9df1 5c3d e168 aa3d 8e3b c93d
00000350: 53d9 05be 8980 f2bd 72f0 cbbd 87f5 0e3e
00000360: 0007 303d f868 36bd 9f0d 9a3d da95 b9bd
00000370: 3f69 c6bd 3f02 093e 25ae 44be cb33 853c
00000380: 974f 87bd a5c0 043e 4cd5 e33d cabf 5b3d
00000390: 9495 17be c856 2bbe d528 16be e788 d7bc
000003a0: 7fa4 c73d 0b52 183e 7891 9b3e 75ae 0abd
000003b0: 20b5 10bd 9aaa a6bd 821f 28be 859d 1bbe
000003c0: 4784 32bd 3937 b5bd f665 5abd 5ff0 a0bd
000003d0: 4cc4 24bc 24de f6bd b0b2 bfbd 7716 453d
000003e0: 7e6e 87bd 142b 863d 059b babc c523 adbd
000003f0: 502c 29bd 1af7 a2bd 273b 07bd c613 0fbe

lstm.weight_hh_l0 f4 [128, 32]
0.001952591 0.16076478 -0.14750262 -0.06919725 0.104883365 -0.039173428 -0.0367916 -0.073635526
0.12239522 0.08650371 0.0557375 -0.09812733 -0.14397274 0.016702857 0.05407682 -0.080323994
-0.050733488 0.11775365 0.012173314 0.007452515 -0.04024675 -0.16237493 -0.16444261 -0.08783282
-0.08392622 0.055118404 -0.04956076 -0.06954509 0.16712753 0.05904213 0.13141397 -0.08523926
-0.071296684 0.06493157 -0.11680012 -0.11574993 -0.008569701 -0.065204896 -0.1322992 0.10424239
0.14218824 0.028521363 -0.031627864 -0.16295902 -0.064561725 0.044856012 0.08445596 -0.022653652
-0.07002496 0.0981353 -0.1412868 0.1118893 -0.06863977 0.0019545814 -0.03437727 0.020821357
-0.052084036 0.12855521 -0.00415741 0.13842107 0.16978456 -0.08690685 -0.1276884 0.14126968
0.14883754 -0.13571382 -0.0078098956 -0.17424193 -0.14913787 0.02953955 0.048677135 0.0315281
-0.048093338 0.16181459 0.014894221 -0.096210495 -0.010481846 0.04374669 0.07344259 -0.12912025
0.066426754 -0.09168977 -0.14878386 -0.09437143 0.16619208 0.14527103 0.1608548 0.10085906
0.14185518 -0.023758303 -0.09448421 0.092426226 -0.09195461 -0.12399592 -0.04847534 0.032250203
0.09438191 -0.06841602 -0.101862654 0.023797782 -0.105777 -0.116852954 0.092544176 -0.0314016
0.16150473 0.17183946 0.050090063 0.0645035 0.040803455 0.0030981638 -0.010709812 0.00040361824
0.06523074 0.1641204 -0.046222165 -0.074360445 -0.044583257 -0.08747398 0.031194855 0.13036011
0.1404355 0.080900095 -0.12954886 -0.09327666 -0.038367484 -0.03470636 0.017019706 -0.16461407
0.05713153 -0.13482468 -0.10971956 -0.14755487 0.15408102 -0.16845927 0.1338398 -0.006941729
-0.020493172 0.110490456 -0.017663438 0.11314863 0.12739171 -0.15390986 0.06869867 0.032423317
0.037502736 0.02499058 0.047200378 -0.084749155 -0.022644917 0.16613676 0.120298654 -0.008637897
-0.16335931 0.0074097663 -0.119425036 0.14495333 -0.10708698 -0.014702176 -0.03607873 0.030165289
0.16902897 0.01641681 0.10458987 0.136653 0.14231738 -0.06230273 -0.039286934 0.0839059
-0.04801465 0.08242175 -0.041261002 -0.117553554 0.07126564 0.026560463 0.08164748 0.17485893
0.12021032 0.1663725 0.008068283 -0.15177682 -0.12361186 -0.1123501 -0.15400854 -0.090970844
-0.15880483 -0.16350453 -0.10412407 -0.17327328 -0.10899564 0.0650796 0.15115862 -0.053348
-0.05055264 0.094230615 -0.08754912 -0.08364534 0.10909321 -0.15397143 0.021705186 0.15654473
0.030395746 0.048060723 -0.102977544 -0.0022899488 0.00947118 0.04339464 0.06894702 0.15375896
-0.13461545 0.0048816046 -0.088551424 -0.13969149 -0.013968433 -0.15600422 0.12359296 0.019948455
-0.094773054 0.09210446 -0.16716607 -0.06802989 -0.034569032 -0.15017167 -0.112113476 -0.028543487
0.13880692 0.16996446 0.11529288 -0.10636278 -0.115934 0.15260452 0.06319429 0.0036126997
0.024308436 -0.1425598 -0.06304666 0.1733635 -0.04491429 -0.009548512 -0.14215635 -0.099313416
-0.0035276217 -0.111988515 -0.024208544 0.07299821 -0.17255905 0.0486458 -0.11409125 -0.09020215
0.07482534 0.13975719 -0.046169657 -0.07049473 -0.16048983 -0.09428299 -0.1485799 -0.041034583
00000000: 15ee ff3a 869f 243e ed0a 17be 4ab7 8dbd
00000010: 17cd d63d 5174 20bd cab2 16bd 39ce 96bd
00000020: 58aa fa3d db28 b13d 014d 643d fbf6 c8bd
00000030: 976d 13be 6ed4 883c a87f 5d3d e880 a4bd
00000040: ebcd 4fbd d328 f13d 9472 473c 3a34 f43b
00000050: c7d9 24bd 9d45 26be a563 28be b2e1 b3bd
00000060: 83e1 abbd d6c3 613d 3900 4bbd a86d 8ebd
00000070: 7b23 2b3e 29d6 713d 6291 063e ec91 aebd
00000080: ff03 92bd d8fa 843d e734 efbd 4d0e edbd
00000090: ee67 0cbc 258a 85bd 7179 07be 097d d53d
000000a0: cb99 113e a2a5 e93c 388c 01bd bbde 26be
000000b0: f038 84bd f0ba 373d 3ff7 ac3d 2794 b9bc
000000c0: 3f69 8fbd 29fb c83d 7dad 10be 3826 e53d
000000d0: 0293 8cbd 6f18 003b 2ecf 0cbd 8d91 aa3c
000000e0: 1256 55bd faa3 033e e23a 88bb 41be 0d3e
000000f0: 01dc 2d3e 38fc b1bd bfc0 02be 00a9 103e
00000100: de68 183e 90f8 0abe 27ea ffbb 7a6c 32be
00000110: 99b7 18be edfc f13c ad61 473d 9c23 013d
00000120: 85fd 44bd b9b2 253e e406 743c 020a c5bd
00000130: 0cbc 2bbc bb2f 333d 1269 963d 1938 04be
00000140: c00a 883d d9c7 bbbd cc5a 18be cf45 c1bd
00000150: 422e 2a3e eec1 143e 1fb7 243e 328f ce3d
00000160: 7c42 113e c6a0 c2bc f080 c1bd f649 bd3d
00000170: b352 bcbd 93f1 fdbd 148e 46bd ca18 043d
00000180: 4e4b c13d b31d 8cbd 5e9d d0bd 91f3 c23c
00000190: 9da1 d8bd 9a50 efbd cd87 bd3d f79e 00bd
000001a0: 7f61 253e aff6 2f3e 3d2b 4d3d 691a 843d
000001b0: 8621 273d 900a 4b3b 3578 2fbc b99c d339
000001c0: b297 853d 2e0f 283e 7453 3dbd 4a4a 98bd
000001d0: ef9c 36bd 8f25 b3bd 5a8c ff3c 1f7d 053e
000001e0: 53ce 0f3e f3ae a53d 75a8 04be d507 bfbd
000001f0: 3927 1dbd 4228 0ebd e96c 8b3c 9790 28be
00000200: c002 6a3d 7b0f 0abe a6b4 e0bd a018 17be
00000210: 6ac7 1d3e 9680 2cbe 4d0d 093e 7277 e3bb
00000220: 4ce1 a7bc d248 e23d eab2 90bc 78ba e73d
00000230: f972 023e 8c9a 1dbe e3b1 8c3d 50ce 043d
00000240: 789c 193d 0bb9 cc3c 2f55 413d f790 adbd
00000250: d581 b9bc c11f 2a3e 245f f63d f785 0dbc
00000260: aa47 27be a0cd f23b 1d95 f4bd a56e 143e
00000270: 6b50 dbbd 65e1 70bc 4ac7 13bd 321d f73c
00000280: ee15 2d3e 8c7c 863c 3733 d63d c4ee 0b3e
00000290: a6bb 113e 2631 7fbd 56eb 20bd dbd6 ab3d
000002a0: 02ab 44bd bccc a83d 4c01 29bd ebbf f0bd
000002b0: b8f3 913d 5495 d93c cb36 a73d 380e 333e
000002c0: d430 f63d 8d5d 2a3e d530 043c 626b 1bbe
000002d0: 3728 fdbd cf17 e6bd 6ab4 1dbe ec4e babd
000002e0: bc9d 22be bb6d 27be 003f d5bd 8d6e 31be
000002f0: 1b39 dfbd 7448 853d 53c9 1a3e 6f83 5abd
00000300: 4910 4fbd fbfb c03d f44c b3bd 3f4e abbd
00000310: 436c df3d b0aa 1dbe 13cf b13c 434d 203e
00000320: 8000 f93c 52db 443d e4e5 d2bd f712 16bb
00000330: 022d 1b3c 94be 313d 1834 8d3d fd72 1d3e
00000340: a2d8 09be def5 9f3b 735a b5bd 490b 0fbe
00000350: dbdb 64bc 92bf 1fbe 4e1e fd3d f16a a33c
00000360: 6018 c2bd 43a1 bc3d 952d 2bbe 4153 8bbd
00000370: 4298 0dbd 9ac6 19be c09b e5bd 08d4 e9bc
00000380: 6723 0e3e 2a0b 2e3e ac1e ec3d bbd4 d9bd
00000390: ce6e edbd 5c44 1c3e 026c 813d 0bc3 6c3b
000003a0: 7c22 c73c 32fb 11be 9b1e 81bd 3486 313e
000003b0: 0cf8 37bd 5d71 1cbc 6f91 11be d564 cbbd
000003c0: ac2f 67bb 3c5a e5bd ff50 c6bc 1680 953d
000003d0: 52b3 30be d240 473d aca8 e9bd e8bb b8bd
000003e0: 073e 993d 821c 0f3e 651c 3dbd 8a5f 90bd
000003f0: 7257 24be 7117 c1bd 5425 18be e113 28bd

lstm.bias_ih_l0 f4 [128]
-0.026339432 -0.16274881 0.14171293 0.13547176 -0.100011066 0.025383526 0.11807708 -0.15676498
-0.15593308 0.10057132 0.014215133 0.063069485 -0.07247708 0.044734243 0.17486095 -0.036203858
-0.05256017 -0.170655 -0.028387655 0.11604113 -0.15980501 -0.0068187043 0.12926166 -0.04689101
-0.070349865 -0.054606933 -0.07206096 0.02384144 -0.17075269 0.08186045 -0.043642074 -0.024508452
-0.05514465 0.098862424 -0.09941513 -0.15864466 -0.12979472 -0.13030185 -0.08804733 0.13066721
-0.13665664 -0.10414986 -0.1665998 -0.09051276 -0.0032858457 -0.10249138 -0.034083802 0.059133038
-0.025870256 0.077170044 0.041747265 0.16818264 -0.021080919 0.15273371 0.13792005 0.08369047
0.08682745 -0.11914018 -0.121068366 0.07224738 0.06359873 0.16465129 -0.026448281 -0.02660583
-0.03170933 0.020395253 0.16057026 -0.12806594 -0.010146276 0.06517755 0.062007736 -0.09861139
-0.04551541 0.12754624 0.17397174 0.04975363 -0.08599074 -0.19233361 -0.3425158 -0.016312052
-0.18681863 0.056074116 0.059699845 -0.15942553 0.2576737 0.08581124 0.07518454 -0.044616345
-0.009086844 -0.10836946 0.11715258 -0.14190161 0.0685091 -0.02474926 0.083583154 -0.12164856
-0.033908386 -0.04415624 -0.092672326 -0.08258786 -0.03537544 0.03509761 0.12653208 -0.02249286
0.17351134 -0.08296496 -0.06103593 0.0022523254 -0.030420784 0.069782205 0.20552038 0.072730936
-0.14175884 -0.061040245 -0.030007819 -0.15193787 0.07405698 0.15435511 0.10537822 -0.0011330826
-0.0054376586 -0.08434664 -0.020398404 0.1549703 -0.09104338 0.04183772 -0.13686173 -0.023021048
00000000: cbc5 d7bc a0a7 26be 321d 113e 1cb9 0a3e
00000010: 9ad2 ccbd 1df1 cf3c 65d2 f13d 0087 20be
00000020: ecac 1fbe 56f8 cd3d 97e6 683c 932a 813d
00000030: dd6e 94bd 413b 373d c00e 333e 7f4a 14bd
00000040: 5549 57bd 2fc0 2ebe 3a8d e8bc f9a6 ed3d
00000050: eda3 23be 706f dfbb 2b5d 043e ca10 40bd
00000060: 9713 90bd 85ab 5fbd b294 93bd 204f c33c
00000070: cbd9 2ebe 74a6 a73d 08c2 32bd f3c5 c8bc
00000080: 5bdf 61bd 6278 ca3d 299a cbbd bf73 22be
00000090: e8e8 04be d96d 05be 2952 b4bd a0cd 053e
000000a0: b8ef 0bbe 864c d5bd 2399 2abe c15e b9bd
000000b0: 5857 57bb 00e7 d1bd 759b 0bbd 7c35 723d
000000c0: dced d3bc 540b 9e3d 2eff 2a3d 1238 2c3e
000000d0: e4b1 acbc 3a66 1c3e ea3a 0d3e e965 ab3d
000000e0: 97d2 b13d c4ff f3bd b1f2 f7bd 6ff6 933d
000000f0: 0d40 823d 599a 283e 11aa d8bc 78f4 d9bc
00000100: a4e1 01bd f213 a73c 886c 243e b823 03be
00000110: 913c 26bc cf7b 853d d3fb 7d3d c5f4 c9bd
00000120: 5e6e 3abd 7b9b 023e a625 323e 76ca 4b3d
00000130: ea1b b0bd 1af3 44be 3b5e afbe daa0 85bc
00000140: 624d 3fbe f9ad 653d d387 743d 7240 23be
00000150: cfed 833e cebd af3d 5afa 993d a1bf 36bd
00000160: fce0 14bc cff0 ddbd b1ed ef3d a84e 11be
00000170: 804e 8c3d f6be cabc a52d ab3d e122 f9bd
00000180: 85e3 0abd 2cdd 34bd fdca bdbd d323 a9bd
00000190: d6e5 10bd 83c2 0f3d a091 013e f242 b8bc
000001a0: f5ac 313e 88e9 a9bd d000 7abd c09b 133b
000001b0: 0235 f9bc f9e9 8e3d ef73 523e f5f3 943d
000001c0: 3b29 11be 5605 7abd f5d2 f5bc 9a95 1bbe
000001d0: 30ab 973d 440f 1e3e 89d0 d73d f183 94ba
000001e0: 632e b2bb eebd acbd 8e1a a7bc 89b0 1e3e
000001f0: f474 babd 075e 2b3d 7b25 0cbe a396 bcbc

lstm.bias_hh_l0 f4 [128]
0.014995739 -0.13159266 0.056952268 -0.14740819 -0.065646164 0.13043165 0.16652176 -0.0027095478
-0.12608287 -0.14266251 -0.0257269 -0.08343343 0.14155869 -0.11333549 0.1640231 0.040654514
-0.049227323 0.14176889 0.09726451 -0.0021587827 -0.11255434 -0.045192983 0.057400256 0.15673578
-0.06469108 -0.07475076 -0.17315936 0.111338235 0.17198724 0.13601442 -0.09749848 0.12463725
-0.096810274 0.0925311 0.11375632 -0.14190584 0.041823234 0.06995141 -0.10825278 0.15448496
0.13810569 0.14750917 -0.024085645 -0.096289046 -0.09492845 0.067782216 -0.07107261 0.13989812
0.15225697 0.01453991 -0.14354034 0.0675827 0.14614122 -0.044889823 -0.08691166 -0.042170003
0.012110386 -0.13191406 0.09173231 0.072318666 -0.06817646 -0.060364872 -0.08731039 0.14407583
-0.048051003 0.06493139 -0.01332126 0.0062646647 0.21840829 0.11350987 -0.12043908 0.1247455
-0.066185065 -0.007112855 0.02330471 -0.08039594 -0.016888201 -0.18810786 -0.108180925 0.24634686
-0.20183206 0.019692648 -0.109933704 -0.081453666 0.18031801 0.032380175 0.062964775 -0.027406393
0.03722628 -0.06666781 0.021381557 -0.02769274 0.11384195 0.057254385 0.07531888 0.07215523
0.11327496 0.005793112 0.07202243 0.17861992 -0.043364108 -0.055167858 0.1293788 0.074155815
-0.1666263 0.06403069 -0.14340402 -0.08450269 0.07076239 0.10675361 0.0022664412 0.16184014
0.18184035 0.13720232 -0.15724978 -0.05526568 0.030155122 0.14372489 -0.0120725455 0.039295778
0.10106569 -0.09405267 -0.10781475 0.17475112 -0.0041027395 0.1386416 -0.1795304 -0.042154636
00000000: b0b0 753c 3ac0 06be c846 693d 2cf2 16be
00000010: 7f71 86bd e08f 053e ae84 2a3e ab92 31bb
00000020: de1b 01be 1f16 12be 38c1 d2bc 25df aabd
00000030: c3f4 103e 701c e8bd acf5 273e 5985 263d
00000040: 97a2 49bd dd2b 113e 9e32 c73d 5d7a 0dbb
00000050: e482 e6bd 471c 39bd 881c 6b3d 587f 203e
00000060: c27c 84bd ed16 99bd b050 31be 4d05 e43d
00000070: 6c1d 303e 5d47 0b3e 48ad c7bd d141 ff3d
00000080: 7744 c6bd f280 bd3d 13f9 e83d c44f 11be
00000090: d74e 2b3d af42 8f3d a2b3 ddbd 4e31 1e3e
000000a0: 946b 0d3e a50c 173e 424f c5bc 3133 c5bd
000000b0: d969 c2bd 67d1 8a3d 848e 91bd 7441 0f3e
000000c0: 40e9 1b3e cd38 6e3c 3dfc 12be cc68 8a3d
000000d0: 0ba6 153e 64de 37bd befe b1bd 74ba 2cbd
000000e0: a46a 463c 7b14 07be 26de bb3d cf1b 943d
000000f0: 1aa0 8bbd 2841 77bd cacf b2bd 9d88 133e
00000100: 21d1 44bd c0fa 843d 6a41 5abc d147 cd3b
00000110: 6ca6 5f3e dd77 e83d c4a8 f6bd 927a ff3d
00000120: 098c 87bd f412 e9bb 85e9 be3c a0a6 a4bd
00000130: 2059 8abc 599f 40be f68d ddbd 5a42 7c3e
00000140: 10ad 4ebe 7a52 a13c ec24 e1bd 2ed1 a6bd
00000150: 49a5 383e 13a1 043d adf3 803d 5f83 e0bc
00000160: 957a 183d 2289 88bd 6028 af3c e3db e2bc
00000170: f825 e93d 9383 6a3d c940 9a3d 1fc6 933d
00000180: b4fc e73d 25d4 bd3b 7f80 933d 24e8 363e
00000190: 909e 31bd b1f7 61bd e07b 043e 01df 973d
000001a0: 16a0 2abe 8622 833d 81d8 12be bf0f adbd
000001b0: dfeb 903d a3a1 da3d 9388 143b 6cb9 253e
000001c0: 5b34 3a3e c47e 0c3e 1606 21be 445e 62bd
000001d0: e007 f73c 9e2c 133e edcb 45bc 9cf4 203d
000001e0: 87fb ce3d b09e c0bd fbcd dcbd f5f1 323e
000001f0: 4670 86bb 10f8 0d3e d1d6 37be 57aa 2cbd

lstm.weight_ih_l1 f4 [128, 32]
0.14898561 -0.02000516 0.06651864 -0.14730847 0.16326876 -0.09504896 -0.005708547 -0.124961175
-0.078085914 -0.15472089 -0.17308119 -0.021578658 -0.07891429 0.13207397 0.02379181 0.13267978
-0.026727574 0.033715617 0.16719165 -0.13191533 -0.08571329 0.13826913 -0.037601802 -0.054953456
0.028999893 -0.096618295 0.017221982 -0.062620796 0.05403194 -0.042838693 -0.043532066 -0.07187967
0.052998528 0.088364206 -0.15328117 -0.12403253 -0.17120223 0.07837612 0.13451734 -0.17480251
0.046238918 0.03454227 -0.101286195 0.04584912 0.1348557 0.1720598 0.083472066 -0.03822893
-0.10234967 -0.07003167 -0.0017090794 -0.012485856 0.12700576 -0.16573057 0.020273698 -0.06158744
0.026623763 0.16959938 0.007735057 -0.025251357 -0.05968524 -0.18320592 -0.14865431 0.07217304
-0.07410621 0.0963127 -0.03990497 0.06462756 0.11738873 0.01512235 0.06565272 0.13566385
-0.055108692 0.1252123 -0.17546584 0.18165563 -0.059426893 -0.0034867146 0.13736403 0.0064483965
0.15893511 -0.083113834 -0.10146128 0.16566063 -0.11831849 0.104324445 0.17394583 0.110460974
-0.0452228 -0.0040757926 -0.15279067 -0.08217996 -0.04116999 -0.124953166 0.12383176 0.085123345
-0.042515077 -0.029171439 0.17095904 -0.010333748 0.14683875 0.16244118 -0.06106049 -0.1712305
0.16500154 -0.09594485 0.16363141 -0.109154105 0.03245012 0.052803196 -0.034307458 0.13736475
-0.1584214 -0.07374878 -0.027827354 0.13745067 0.07856849 0.109618016 0.07564246 0.15706132
-0.041373074 -0.05534438 -0.02314012 0.072673306 -0.052667063 0.06484816 0.05240086 0.041487753
0.16371253 0.026753454 0.12893976 -0.05005736 -0.16373436 0.10058982 0.07671132 0.13968863
0.068013184 0.00086771755 -0.1417869 -0.15340126 0.03364845 0.14335635 0.004320733 -0.06304533
0.0882718 -0.09077144 0.057368375 -0.14077868 -0.16612644 -0.115172304 -0.02432776 0.05067207
0.108192176 -0.113067895 -0.031294417 0.06856694 -0.04024845 -0.006378095 0.13266382 -0.058256127
0.09897416 0.14258435 0.059065863 -0.03092803 -0.115238495 -0.118212335 -0.03381093 0.05330108
0.09684783 -0.00921959 0.13672362 -0.06634111 0.0356384 -0.089511976 0.054947875 0.14988738
0.063744254 0.011396606 -0.065253906 -0.14296283 -0.12472893 -0.15535213 0.12538837 -0.07541095
-0.023711631 -0.15901329 -0.048153736 0.15295483 0.031918313 -0.031846482 0.09574912 0.13609813
0.14536555 -0.13178425 0.0143487565 -0.14421017 -0.1254388 0.13343956 -0.13975835 -0.089733884
0.08485825 0.17073378 -0.17817798 -0.10934456 -0.06953307 0.13836299 0.11221177 0.10831804
0.11465021 -0.045409378 0.1302336 -0.0033719258 0.01274003 -0.05045788 0.075225785 0.07770527
-0.014170094 0.15541261 -0.04505708 0.048550647 0.15976319 0.098293416 -0.05998409 -0.08196432
0.039024476 -0.0016677871 0.01564618 0.11359068 0.060409185 -0.100568466 -0.14345807 0.16456507
-0.019508578 -0.0699238 -0.13300276 0.17324856 0.0887263 -0.11294703 -0.15084559 0.15210842
0.07552592 -0.026643429 -0.1482482 0.10729179 -0.121876866 0.08383832 -0.16584395 -0.16026576
-0.16584416 0.15946601 0.16218553 -0.1483602 0.13761225 -0.10979008 -0.15945253 0.08305223
00000000: af8f 183e dce1 a3bc ed3a 883d 08d8 16be
00000010: ed2f 273e 07a9 c2bd c30e bbbb a5eb ffbd
00000020: 82eb 9fbd 276f 1ebe 323c 31be bac5 b0bc
00000030: d19d a1bd 663e 073e 0be7 c23c 35dd 073e
00000040: c9f3 dabc 6319 0a3d 4a34 2b3e d014 07be
00000050: 738a afbd 6c96 0d3e 5904 1abd e016 61bd
00000060: 2f91 ed3c d0df c5bd 1d15 8d3c 553f 80bd
00000070: 9850 5d3d a077 2fbd ae4e 32bd a635 93bd
00000080: fc14 593d 4bf8 b43d bdf5 1cbe c404 febd
00000090: a34f 2fbe a983 a03d eabe 093e 6eff 32be
000000a0: 0565 3d3d 327c 0d3d 236f cfbd 49cc 3b3d
000000b0: 9d17 0a3e 7230 303e 67f3 aa3d f095 1cbd
000000c0: b49c d1bd c46c 8fbd 3003 e0ba 7a91 4cbc
000000d0: cc0d 023e 46b5 29be 0715 a63c 1d43 7cbd
000000e0: 141a da3c 76ab 2d3e 5c76 fd3b efdb cebc
000000f0: 8378 74bd 559a 3bbe d638 18be 75cf 933d
00000100: ffc4 97bd 983f c53d 6573 23bd 745b 843d
00000110: 8169 f03d bcc3 773c ef74 863d 77eb 0a3e
00000120: a7b9 61bd a737 003e 51ad 33be ef03 3a3e
00000130: 9d69 73bd 5d81 64bb 28a9 0c3e 124d d33b
00000140: e3bf 223e 9637 aabd eeca cfbd f1a2 293e
00000150: f750 f2bd 0ea8 d53d db1e 323e 5d39 e23d
00000160: 8b3b 39bd 3a8e 85bb 2875 1cbe f84d a8bd
00000170: dda1 28bd 72e7 ffbd 819b fd3d 2655 ae3d
00000180: 4a24 2ebd f1f8 eebc e30f 2f3e e14e 29bc
00000190: e65c 163e fb56 263e 901a 7abd 0c57 2fbe
000001a0: 2af6 283e bc7e c4bd fe8e 273e 308c dfbd
000001b0: 6bea 043d 2a48 583d fa85 0cbd 58a9 0c3e
000001c0: 3839 22be 9a09 97bd 31f6 e3bc debf 0c3e
000001d0: 84e8 a03d 697f e03d 6fea 9a3d afd4 203e
000001e0: d076 29bd cab0 62bd 5990 bdbc bed5 943d
000001f0: 6bb9 57bd 1dcf 843d 49a2 563d 10ef 293d
00000200: 42a4 273e 0f2a db3c c908 043e f208 4dbd
00000210: fba9 27be 0902 ce3d d31a 9d3d 890a 0f3e
00000220: 7f4a 8b3d 8a77 633a 9630 11be 3815 1dbe
00000230: f5d2 093d 02cc 123e ef94 8d3b e91d 81bd
00000240: d8c7 b43d 60e6 b9bd 1afb 6a3d 4928 10be
00000250: 0d1d 2abe 75df ebbd 034b c7bc 848d 4f3d
00000260: dc93 dd3d 2490 e7bd 932e 00bd d36c 8c3d
00000270: 8fdb 24bd 57ff d0bb 06d9 073e fa9d 6ebd
00000280: f7b2 ca3d a201 123e 0cef 713d c85c fdbc
00000290: 2902 ecbd 4f19 f2bd 547d 0abd 3c52 5a3d
000002a0: 2858 c63d c30d 17bc 4701 0c3e d9dd 87bd
000002b0: 92f9 113d 0e52 b7bd 0611 613d 147c 193e
000002c0: 598c 823d d5b8 3a3c d7a3 85bd d964 12be
000002d0: e271 ffbd a114 1fbe cf65 003e 0e71 9abd
000002e0: e53e c2bc 61d4 22be da3c 45bd 31a0 1c3e
000002f0: c7bc 023d 7571 02bd 1d18 c43d 4f5d 0b3e
00000300: b5da 143e 73f2 06be 0c17 6b3c d5ab 13be
00000310: 0773 00be 61a4 083e d01c 0fbe 66c6 b7bd
00000320: 2aca ad3d d6d4 2e3e 4a74 36be 0af0 dfbd
00000330: 5b67 8ebd 07af 0d3e 49cf e53d d9d5 dd3d
00000340: bbcd ea3d 2fff 39bd f55b 053e 87fb 5cbb
00000350: 8fbb 503c ecac 4ebd fa0f 9a3d f123 9f3d
00000360: af29 68bc 7c24 1f3e c68d 38bd 0bdd 463d
00000370: f698 233e 0f4e c93d e1b1 75bd e9dc a7bd
00000380: 21d8 1f3d a699 daba 6b2c 803c 3ba2 e83d
00000390: 9f6f 773d d7f6 cdbd ace6 12be bf83 283e
000003a0: 74d0 9fbc 3634 8fbd e031 08be 1268 313e
000003b0: 22b6 b53d c650 e7bd 4477 1abe 4fc2 1b3e
000003c0: 55ad 9a3d 5243 dabc 60ce 17be ccbb db3d
000003d0: 949a f9bd 6db3 ab3d ffd2 29be b51c 24be
000003e0: 0dd3 29be 0f4b 233e f713 263e bceb 17be
000003f0: 3aea 0c3e 9fd9 e0bd 8647 23be 4a17 aa3d

lstm.weight_hh_l1 f4 [128, 32]
-0.053634364 -0.11640697 -0.1218904 -0.04217296 0.122457005 0.06495797 -0.05746339 -0.15347235
-0.107853696 0.037047293 0.14805943 0.09228814 -0.021850133 0.0925278 0.013918091 0.023525413
0.08584666 -0.045156002 0.050667796 0.012747392 0.057092328 -0.036638442 0.11320459 -0.16035227
0.11790045 -0.14678217 -0.11789154 -0.111335635 -0.015342318 -0.016876992 -0.16864549 0.09421509
0.04125301 0.1744773 -0.12248515 -0.14362422 0.04080018 0.13522002 0.12004016 0.0716029
0.028750025 0.08742341 -0.0710714 -0.17528856 -0.14730446 -0.11405488 0.04083921 0.15818074
0.11863188 -0.11524663 0.04786111 0.15366796 0.007276365 -0.032059677 -0.09752084 -0.013838258
0.13482983 -0.05053264 -0.026307367 0.08241344 -0.0664039 -0.08217834 0.034236293 0.12945798
0.016577838 -0.0021898963 -0.13644949 0.10506908 0.0036786622 -0.0795684 -0.15412813 -0.083480924
-0.124845184 0.036188047 0.12873258 -0.033624444 0.108921684 -0.03971105 -0.082114354 -0.16348925
-0.11524539 0.12979217 0.117621616 0.16674708 -0.013737168 0.061063826 -0.022279644 0.1729284
-0.14083907 -0.049390983 -0.16688433 0.01498369 -0.13552968 -0.12361574 0.044442073 0.17583534
0.14740142 0.122067615 -0.043372568 -0.00513219 -0.15929724 0.11845381 0.04851918 0.14984208
-0.1717616 -0.043255363 -0.11376738 -0.13496138 -0.10493601 0.05615124 0.11735263 0.07994445
-0.060139574 0.0777927 0.17472227 0.008480594 -0.063345514 -0.13920018 0.12476414 -0.04020451
-0.1389853 0.10226295 0.03472426 -0.07173088 -0.173605 0.023068255 -0.05228961 -0.030674046
-0.06253832 0.14917423 0.099594414 0.13830599 0.06290336 0.04859232 0.17726949 -0.0007016612
0.100456804 0.07117393 -0.17006208 0.12168322 -0.017151162 -0.121524654 0.12150198 -0.1439526
0.08929552 -0.14640899 -0.05295335 -0.17084561 0.1313628 0.044684026 0.14201717 0.052039362
-0.08586504 0.025232716 0.121713266 -0.14121208 -0.115575194 -0.045375634 -0.104154296 -0.030716779
0.16693361 0.0992539 -0.14269935 -0.095359124 0.14069892 -0.013997764 -0.07412834 0.034894187
-0.028194398 0.059615344 0.0031098828 0.10067649 0.09782509 0.061528735 0.05511791 -0.04607274
-0.1632837 -0.018035619 -0.13448976 -0.14228371 -0.15493244 -0.04387855 -0.13065241 0.029496666
0.07628781 0.10449334 -0.16977443 0.14826529 0.05310152 0.14350134 0.0860728 0.03191666
-0.034354005 0.14891323 -0.11439726 0.13778514 0.15327665 0.028485537 -0.07574392 -0.14247823
-0.0099219885 0.15024248 0.007956113 -0.044438634 -0.087435976 0.012586349 0.09823741 0.03388441
0.030859483 -0.12317991 0.085082345 0.017596398 -0.17305121 0.14728047 0.11255097 0.0007696826
-0.034761272 0.15836768 0.1760784 0.028615437 0.1643947 0.074553005 0.085000515 -0.010601041
-0.014242875 0.113960035 -0.07536406 -0.12696852 0.109016605 -0.043341286 0.12621751 -0.029570958
-0.10814139 -0.0033623336 -0.020895185 0.041392084 -0.13637362 -0.15009296 0.009546877 0.15937862
-0.10916747 -0.08935766 0.016435126 0.13088827 0.13717945 -0.03624148 -0.0103135705 -0.13924827
0.17353067 0.10680039 0.04546895 -0.17403147 0.10078279 -0.099451244 0.009496728 0.08563203
00000000: b5af 5bbd c766 eebd ada1 f9bd 8ebd 2cbd
00000010: bdca fa3d af08 853d bb5e 6bbd db27 1dbe
00000020: 66e2 dcbd e7be 173d e49c 173e 9001 bd3d
00000030: 0dff b2bc 377f bd3d b408 643c 5eb8 c03c
00000040: 60d0 af3d 80f5 38bd 0989 4f3d 70da 503c
00000050: a5d9 693d 3112 16bd cfd7 e73d 6333 24be
00000060: cb75 f13d 114e 16be 1f71 f1bd f003 e4bd
00000070: 595e 7bbc 9e41 8abc 67b1 2cbe d7f3 c03d
00000080: ebf8 283d 2daa 323e 7fd9 fabd 3a12 13be
00000090: 171e 273d 1e77 0a3e 9ed7 f53d 8ba4 923d
000000a0: 2c85 eb3c 0b0b b33d e28d 91bd d87e 33be
000000b0: fbd6 16be 9b95 e9bd 0447 273d 22fa 213e
000000c0: 45f5 f23d 6d06 ecbd 030a 443d 225b 1d3e
000000d0: 936e ee3b 0251 03bd 02b9 c7bd dcb9 62bc
000000e0: d510 0a3e 50fb 4ebd 8c82 d7bc 61c8 a83d
000000f0: c5fe 87bd 1e4d a8bd 5b3b 0c3d a290 043e
00000100: 3fce 873c 5d84 0fbb 6ab9 0bbe 752e d73d
00000110: b615 713b c2f4 a2bd c4d3 1dbe 0cf8 aabd
00000120: d5ae ffbd eb39 143d 79d2 033e c9b9 09bd
00000130: 5512 df3d 0ea8 22bd 922b a8bd ba69 27be
00000140: c605 ecbd 3de8 043e 9ae3 f03d bfbf 2a3e
00000150: dc11 61bc 101e 7a3d cd83 b6bc 2414 313e
00000160: 1e38 10be 334e 4abd bae3 2abe 277e 753c
00000170: 4bc8 0abe 402a fdbd e408 363d 2e0e 343e
00000180: 66f0 163e 96fe f93d 6fa7 31bd ee2b a8bb
00000190: d11e 23be e997 f23d 0cbc 463d 3470 193e
000001a0: 46e2 2fbe 892c 31bd dffe e8bd 5133 0abe
000001b0: b1e8 d6bd d8fe 653d 9356 f03d eab9 a33d
000001c0: ea54 76bd c751 9f3d 65ea 323e 30f2 0a3c
000001d0: 4bbb 81bd 7e8a 0ebe 5784 ff3d 7cad 24bd
000001e0: 2a52 0ebe 3d6f d13d 073b 0e3d a4e7 92bd
000001f0: 82c5 31be a3f9 bc3c a12d 56bd 2348 fbbc
00000200: 1714 80bd 21c1 183e 28f8 cb3d 16a0 0d3e
00000210: 7ad3 803d be08 473d 2286 353e b0ef 37ba
00000220: 4cbc cd3d a3c3 913d c124 2ebe 0d35 f93d
00000230: 9880 8cbc ebe1 f8bd 08d6 f83d 4f68 13be
00000240: 92e0 b63d 3dec 15be 9de5 58bd 27f2 2ebe
00000250: f883 063e 9906 373d f36c 113e 3a27 553d
00000260: 03da afbd d7b4 ce3c ce44 f93d e699 10be
00000270: b0b2 ecbd cddb 39bd d94e d5bd c1a1 fbbc
00000280: a5f0 2a3e a145 cb3d c71f 12be a54b c3bd
00000290: 6113 103e e156 65bc 99d0 97bd 35ed 0e3d
000002a0: f0f7 e6bc 382f 743d 2dcf 4b3b 7a2f ce3d
000002b0: 8558 c83d 8e05 7c3d 51c3 613d c5b6 3cbd
000002c0: d833 27be 6fbf 93bc afb7 09be d2b2 11be
000002d0: 9ca6 1ebe ffb9 33bd bfc9 05be fea2 f13c
000002e0: c93c 9c3d 9b00 d63d 59d9 2dbe dbd2 173e
000002f0: fb80 593d 04f2 123e f046 b03d 0bbb 023d
00000300: c9b6 0cbd b67c 183e 1c49 eabd 8c17 0d3e
00000310: 8ef4 1c3e 805a e93c a11f 9bbd d0e5 11be
00000320: d68f 22bc 2ad9 193e 5b5a 023c 4905 36bd
00000330: a211 b3bd f936 4e3c b230 c93d 61ca 0a3d
00000340: 07cd fc3c c045 fcbd a73f ae3d 5226 903c
00000350: 5634 31be b1d0 163e 1f81 e63d 86c4 493a
00000360: d661 0ebd 232b 223e e54d 343e ec6a ea3c
00000370: 1657 283e 3faf 983d c014 ae3d fdaf 2dbc
00000380: f35a 69bc e163 e93d 7958 9abd 0904 02be
00000390: 1944 df3d a286 31bd 2a3f 013e cb3e f2bc
000003a0: 3c79 ddbd 995a 5cbb 612c abbc bf8a 293d
000003b0: 87a5 0bbe f8b1 19be 816a 1c3c 2634 233e
000003c0: 3293 dfbd 2601 b7bd f5a2 863c 9307 063e
000003d0: c578 0c3e f271 14bd 40fa 28bc 1997 0ebe
000003e0: 06b2 313e 2aba da3d a63d 3a3d 4e35 32be
000003f0: 3567 ce3d 18ad cbbd 2a98 1b3c d95f af3d

lstm.bias_ih_l1 f4 [128]
0.10136353 0.120819435 -0.09686331 -0.13564529 0.11801505 -0.071510606 -0.1557166 0.16040967
-0.13171856 -0.061252218 -0.09618234 0.1555048 -0.0065129353 -0.06711036 0.17183231 0.19405553
0.102091745 0.16424972 -0.13369893 -0.12776658 0.12196624 -0.03896989 0.079943605 0.17706542
-0.030691084 -0.07856585 0.22936152 -0.086019635 -0.09443263 0.16210373 0.0076212166 -0.087177515
0.061335046 -0.09208569 0.0074257227 -0.14045395 -0.047265172 0.13548952 0.02339496 -0.020423274
0.13422377 0.09526801 0.09984293 0.08477778 -0.05936667 -0.15864411 -0.10334973 -0.10475875
0.047062963 0.13888097 0.16425996 0.13838065 0.024050374 0.12132736 0.01145695 0.08268728
-0.11657231 0.16805619 0.079481214 -0.009108439 -0.07305248 0.033629946 -0.019801592 -0.11511907
-0.031120582 -0.12443344 -0.020938389 -0.08864026 0.20919622 -0.03367681 0.08327257 -0.062476467
-0.014564573 0.035218086 0.053891186 0.08869871 -0.067944095 -0.0125316065 -0.040408798 -0.016026862
0.038540997 0.14380257 0.11772323 0.06904078 -0.0672033 -0.09203968 -0.10768885 0.053011466
0.12805898 0.029684162 0.00828562 -0.04137555 -0.113452084 0.13938713 -0.08645842 0.13267756
0.0069344277 0.1229887 0.04903518 -0.08032852 -0.060638066 0.10997819 0.045457844 -0.014305
-0.029757109 -0.07424238 -0.10839208 0.041475985 -0.13376132 0.025815943 0.14945309 0.11636086
0.09903333 0.07779937 -0.07630755 0.12037721 0.16616216 0.072414815 0.12736091 -0.12629937
-0.14672782 -0.023607027 0.12313317 0.12343722 -0.042077404 -0.059515342 0.13180883 -0.0064510875
00000000: af97 cf3d 2e70 f73d 4560 c6bd 99e6 0abe
00000010: e0b1 f13d 2774 92bd 2c74 1fbe 6f42 243e
00000020: 3be1 06be 9be3 7abd 3ffb c4bd a63c 1f3e
00000030: 766a d5bb 2871 89bd cff4 2f3e 7eb6 463e
00000040: 7a15 d13d 1431 283e 5fe8 08be 3ed5 02be
00000050: 70c9 f93d e49e 1fbd 79b9 a33d a350 353e
00000060: de6b fbbc 22e7 a0bd bfdd 6a3e 102b b0bd
00000070: e565 c1bd 85fe 253e 66bb f93b 208a b2bd
00000080: 753a 7b3d 6c97 bcbd 7a53 f33b 29d3 0fbe
00000090: 2099 41bd c4bd 0a3e caa6 bf3c b64e a7bc
000000a0: f571 093e e01b c33d 737a cc3d f99f ad3d
000000b0: 772a 73bd 9a73 22be 06a9 d3bd c18b d6bd
000000c0: 18c5 403d d036 0e3e c333 283e a8b3 0d3e
000000d0: 4a05 c53c 7b7a f83d eeb5 3b3c f357 a93d
000000e0: 77bd eebd ec16 2c3e 0cc7 a23d 903b 15bc
000000f0: 8a9c 95bd 8ebf 093d f336 a2bc 8cc3 ebbd
00000100: 97f0 febc f6d6 febd fc86 abbc 0689 b5bd
00000110: 8937 563e b2f0 09bd cf8a aa3d 53e7 7fbd
00000120: 3fa0 6ebc d740 103d 01bd 5c3d aba7 b53d
00000130: 4626 8bbd 5e51 4dbc b283 25bd c44a 83bc
00000140: 2add 1d3d fb40 133e e018 f13d 4165 8d3d
00000150: e2a1 89bd 4d7f bcbd f98b dcbd 8d22 593d
00000160: e521 033e 332c f33c 69c0 073c 6979 29bd
00000170: 9159 e8bd 80bb 0e3e 1d11 b1bd a0dc 073e
00000180: 323a e33b 80e1 fb3d 1dd9 483d 4783 a4bd
00000190: 9f5f 78bd 3f3c e13d 0132 3a3d 855f 6abc
000001a0: 2ec5 f3bc 640c 98bd abfc ddbd b9e2 293d
000001b0: baf8 08be f57b d33c 3b0a 193e 9a4e ee3d
000001c0: fdd1 ca3d 4755 9f3d 2247 9cbd 5488 f63d
000001d0: 6a26 2a3e 384e 943d e66a 023e 9f54 01be
000001e0: d13f 16be 8663 c1bc 3e2d fc3d a7cc fc3d
000001f0: 5b59 2cbd 5cc6 73bd e5f8 063e a563 d3bb

lstm.bias_hh_l1 f4 [128]
0.03016846 -0.1522132 0.0026417074 0.09007733 0.1971637 0.018540952 0.11184546 0.037297692
-0.13420765 -0.00683443 -0.045550194 -0.021835744 -0.052355442 0.15744953 -0.12007547 -0.076726474
-0.046513587 0.17388558 -0.010691526 0.104131736 0.11203259 0.15202825 -0.035840154 0.045806557
-0.07658317 0.001917271 -0.08776966 -0.14551406 0.05494355 -0.1152453 0.10728213 0.12969881
0.060313776 0.06491651 -0.15962742 -0.08293451 -0.13223016 -0.16927601 0.073081285 0.044000793
0.1683677 -0.04917716 -0.11640438 -0.15127985 0.01200826 -0.098141104 0.032694116 0.11725194
0.14898206 -0.03171486 -0.11410481 -0.09916553 0.111231886 0.045330662 0.013778148 -0.17117104
0.09567208 0.10960983 0.016001806 -0.041222345 -0.08675676 0.004112726 0.009345231 0.049169738
0.07091133 0.113678336 0.0524324 0.06525371 -0.045167502 -0.020723192 0.04616316 -0.18281832
0.034415603 0.05475664 -0.055915754 0.036392 -0.07667001 0.18154947 -0.097837955 0.24175367
0.1213711 0.06741085 0.058211785 0.051717464 0.07535309 0.076891854 -0.027845357 0.1555446
-0.104375936 0.05135981 -0.094555475 -0.14917211 0.07739905 0.012256076 0.1017997 -0.014915005
0.034866143 -0.030842356 -0.04643356 -0.06253529 0.17807245 0.16387163 0.05288564 0.11186209
0.08091308 -0.0006413739 -0.11753152 0.046605665 -0.044195753 0.095846385 -0.09189761 0.023692796
-0.06595887 -0.11841031 -0.140857 0.19336022 0.028021358 -0.15232931 0.033216264 0.0053444365
0.15272953 0.18393707 0.03118017 -0.0962179 -0.09148342 -0.028264444 -0.07924411 0.1583039
00000000: d923 f73c c7dd 1bbe 7f20 2d3b 777a b83d
00000010: 48e5 493e 32e3 973c 3c0f e53d 77c5 183d
00000020: bb6d 09be 5bf3 dfbb d792 3abd e0e0 b2bc
00000030: a972 56bd 733a 213e 21ea f5bd c522 9dbd
00000040: 0885 3ebd 100f 323e 832b 2fbc 0543 d53d
00000050: 5871 e53d 4bad 1b3e 20cd 12bd a89f 3b3d
00000060: a3d7 9cbd f04c fb3a 94c0 b3bd a301 15be
00000070: 7d0c 613d ba05 ecbd bcb6 db3d c4cf 043e
00000080: 940b 773d f2f2 843d 5f75 23be 92d9 a9bd
00000090: 5867 07be b156 2dbe a4ab 953d 2d3a 343d
000000a0: 9568 2c3e fd6d 49bd 6b65 eebd 1be9 1abe
000000b0: 4bbe 443c 34fe c8bd 44ea 053d c921 f03d
000000c0: c18e 183e 71e7 01bd c8af e9bd 4c17 cbbd
000000d0: 8bcd e33d a5ac 393d bebd 613c 7647 2fbe
000000e0: b9ef c33d 1e7b e03d 3816 833c c3d8 28bd
000000f0: 87ad b1bd 0cc4 863b bd1c 193c 3566 493d
00000100: f639 913d 30d0 e83d 5bc3 563d bda3 853d
00000110: 8f01 39bd afc3 a9bc 9515 3d3d ba34 3bbe
00000120: 60f7 0c3d 8048 603d eb07 65bd c70f 153d
00000130: 2b05 9dbd 1be8 393e 445f c8bd 468e 773e
00000140: 6991 f83d b30e 8a3d 7b6f 6e3d b1d5 533d
00000150: b952 9a3d 7a79 9d3d f21b e4bc 1547 1f3e
00000160: 0dc3 d5bd aa5e 523d 4da6 c1bd 93c0 18be
00000170: 6583 9e3d b5cd 483c 5c7c d03d 115e 74bc
00000180: cdcf 0e3d 1ca9 fcbc 1e31 3ebd 8112 80bd
00000190: a058 363e f7cd 273e 9d9e 583d f417 e53d
000001a0: c2b5 a53d e021 28ba 5eb4 f0bd 95e5 3e3d
000001b0: 9b06 35bd 1c4b c43d d034 bcbd 6517 c23c
000001c0: 7215 87bd 1b81 f2bd d13c 10be 3900 463e
000001d0: 0c8d e53c 37fc 1bbe c70d 083d 6220 af3b
000001e0: 2165 1c3e 005a 3c3e 8e6d ff3c e40d c5bd
000001f0: a95b bbbd d68a e7bc bc4a a2bd 6b1a 223e

lstm_fc.weight f4 [128, 32]
-0.08682702 0.11941559 0.100763544 0.033944026 0.05422674 0.13773178 0.07836051 0.087454304
-0.15273193 -0.013110759 -0.0031934115 0.13918033 0.08818885 0.113640115 0.15481792 -0.10508627
0.037704222 0.1394533 0.04358021 0.070082195 0.09791908 -0.05233168 0.046922483 -0.14171164
0.16822521 -0.008094086 0.17224735 -0.1308496 -0.15128613 0.008800119 -0.0002481006 -0.075836666
0.08923713 -0.111727625 0.15842855 -0.17424361 0.03189848 -0.10532663 0.03924449 0.17708915
-0.022541903 0.041098475 -0.07095008 -0.09117592 -0.14893197 0.098040074 0.001032657 0.05738455
-0.13366228 -0.15150206 -0.16413283 -0.10663698 -0.019303186 -0.026091853 0.07852347 -0.088479064
0.17429355 -0.08381676 -0.16127491 0.13222297 -0.11201708 0.013625439 -0.012739851 -0.03723416
-0.0232901 -0.14006342 0.18289895 -0.12328364 0.0681072 -0.118801735 -0.039631087 0.009542006
-0.07592952 -0.073100895 -0.15812036 -0.121386655 0.008721692 -0.0815049 -0.002421395 0.015356105
-0.009202397 -0.20483102 -0.0885444 0.018073738 0.09491537 0.0898063 0.017073037 0.09673037
-0.11395438 -0.17141137 -0.0028562204 -0.006987174 0.14195926 -0.1187283 -0.09810039 -0.010694492
0.06225546 -0.18942395 -0.08929326 -0.13254327 0.07240887 0.0259868 -0.15919794 -0.1297868
0.014158658 -0.050431382 -0.12895408 -0.053087164 -0.17699756 0.0038634927 -0.03928721 0.03306243
0.005313861 -0.0011702536 0.1614111 -0.03556183 0.055389855 0.06284954 -0.028356913 -0.10935088
-0.1550261 0.06575121 0.019771403 0.112873055 -0.08837928 0.15731256 0.15686785 -0.023493487
-0.056937847 -0.06980642 -0.16654925 0.1068089 0.036650352 0.08816397 0.10962874 -0.08074324
0.005361138 0.14260001 -0.13128738 0.15419993 0.0852262 -0.042627934 -0.15428595 0.106722936
0.074426465 -0.06491271 0.09513252 0.06881505 0.1586359 0.08727588 0.025964571 -0.16501783
0.13825181 0.16182496 -0.066532254 -0.0065554897 -0.013193137 -0.0031218554 0.08158588 0.024248464
-0.16288146 0.06509341 -0.098368034 0.045949515 0.065457076 -0.09081249 0.1225049 0.008648588
-0.09137601 0.1510269 0.10986699 0.12937047 -0.11802374 -0.14423364 -0.1488614 0.106120504
0.110923186 -0.11797374 0.06197566 0.022905953 -0.065117635 0.007104311 -0.10605845 -0.059198752
0.07448356 0.016447382 -0.119192615 0.039919436 -0.0311774 -0.13581277 -0.15150148 0.00723285
-0.15227695 -0.078417145 0.06629883 0.0020683694 -0.11455729 0.014971181 0.09474766 -0.056204047
-0.0695559 0.032947417 0.034114093 0.062144563 0.13446538 -0.037740756 0.0790965 -0.1270795
-0.0066403514 0.09988441 -0.19305159 -0.1487546 -0.12340427 0.15213692 -0.015536119 0.14050972
-0.086796306 -0.067633525 0.15035577 -0.1867431 -0.1596844 -0.13373768 0.029293977 -0.16554466
0.0297566 0.14920568 -0.032967992 -0.032890514 -0.15742567 -0.0393801 0.016013678 0.037489835
-0.059249107 -0.108635046 -0.09338918 0.12169902 -0.09603533 0.011529281 -0.03001382 -0.07234534
-0.0045372513 0.1324103 0.13208525 -0.040023945 -0.033760022 -0.09895078 -0.0826626 -0.03149961
0.13394658 0.022571618 -0.1488331 -0.047580246 -0.1521677 0.16124037 0.020396102 -0.044075448
00000000: 5dd2 b1bd 2990 f43d 1e5d ce3d e408 0b3d
00000010: dc1c 5e3d 8f09 0d3e 7a7b a03d 3e1b b33d
00000020: c265 1cbe 82ce 56bc 8e48 51bb 4a85 0e3e
00000030: 5b9c b43d 26bc e83d 9788 1e3e 7837 d7bd
00000040: be6f 1a3d d9cc 0e3e 2a81 323d 4187 8f3d
00000050: cc89 c83d be59 56bd ca31 403d db1c 11be
00000060: 3b43 2c3e 0f9d 04bc 9c61 303e 70fd 05be
00000070: c0ea 1abe 602e 103c 8013 82b9 4150 9bbd
00000080: f5c1 b63d 74d1 e4bd 183b 223e eb6c 32be
00000090: fba7 023d 7db5 d7bd d5be 203d dc56 353e
000000a0: cca9 b8bc e056 283d 474e 91bd 71ba babd
000000b0: 9f81 18be 3cc9 c83d 385a 873a 100c 6b3d
000000c0: c4de 08be 5b23 1bbe 7012 28be 7d64 dabd
000000d0: b721 9ebc 95be d5bc ead0 a03d 8334 b5bd
000000e0: 027a 323e 1fa8 abbd 4025 25be 7565 073e
000000f0: 3669 e5bd 3c3d 5f3c cfba 50bc d982 18bd
00000100: e1ca bebc c96c 0fbe dd49 3b3e 227c fcbd
00000110: ca7b 8b3d 534e f3bd 3554 22bd 1356 1c3c
00000120: f080 9bbd ecb5 95bd 4eea 21be 9199 f8bd
00000130: 6de5 0e3c 0aec a6bd 44b0 1ebb 2c98 7b3c
00000140: a7c5 16bc 39bf 51be c456 b5bd 600f 943c
00000150: fd62 c23d 5eec b73d c1dc 8b3c 921a c63d
00000160: ea60 e9bd 7686 2fbe 6d2f 3bbb aaf4 e4bb
00000170: c55d 113e d327 f3bd dbe8 c8bd f337 2fbc
00000180: 95ff 7e3d 5af8 41be 62df b6bd 6cb9 07be
00000190: 1a4b 943d 45e2 d43c c904 23be d5e6 04be
000001a0: b7f9 673c 2391 4ebd 8a0c 04be ed71 59bd
000001b0: d93e 35be a732 7d3b a0eb 20bd 786c 073d
000001c0: e61f ae3b 3263 99ba f448 253e 48a9 11bd
000001d0: 79e0 623d 42b7 803d c24c e8bc 5bf3 dfbd
000001e0: 29bf 1ebe 92a8 863d a3f7 a13c fd29 e73d
000001f0: 3200 b5bd 8b16 213e f7a1 203e 6a75 c0bc
00000200: a937 69bd abf6 8ebd e38b 2abe a0be da3d
00000210: ae1e 163d 508f b43d 0885 e03d b65c a5bd
00000220: 7cac af3b bd05 123e 3370 06be 96e6 1d3e
00000230: 138b ae3d a19a 2ebd 23fd 1dbe 8e91 da3d
00000240: e76c 983d f4f0 84bd d7d4 c23d e8ee 8c3d
00000250: 7371 223e b2bd b23d a7b3 d43c 6ffa 28be
00000260: e291 0d3e 71b5 253e 1042 88bd 6fcf d6bb
00000270: 0728 58bc 0b98 4cbb 7f16 a73d b7a4 c63c
00000280: 66ca 26be b24f 853d 2e75 c9bd 8f35 3c3d
00000290: 5c0e 863d e6fb b9bd d9e3 fa3d cfb2 0d3c
000002a0: 5823 bbbd cca6 1a3e f201 e13d b179 043e
000002b0: 6eb6 f1bd fcb1 13be 1f6f 18be b555 d93d
000002c0: b22b e33d 379c f1bd 31da 7d3d 44a5 bb3c
000002d0: 655c 85bd 48cb e83b 2c35 d9bd 647a 72bd
000002e0: d68a 983d a9bc 863c 421b f4bd 9082 233d
000002f0: bf67 ffbc 8112 0bbe 3423 1bbe 8b01 ed3b
00000300: 7dee 1bbe 2b99 a0bd aec7 873d 7b8d 073b
00000310: 039d eabd af49 753c 100b c23d 3736 66bd
00000320: 5373 8ebd dff3 063d 38bb 0b3d 4c8b 7e3d
00000330: 4bb1 093e 0d96 1abd 59fd a13d 2121 02be
00000340: 4e97 d9bb 3390 cc3d 51af 45be 2053 18be
00000350: 61bb fcbd c8c9 1b3e 358b 7ebc c8e1 0f3e
00000360: 43c2 b1bd 7283 8abd ddf6 193e 9539 3fbe
00000370: 4f84 23be 88f2 08be ecf9 ef3c 8a84 29be
00000380: 1dc4 f33c 60c9 183e 7209 07bd 34b8 06bd
00000390: 3234 21be 074d 21bd 1e2f 833c f18e 193d
000003a0: 31af 72bd 0d7c debd d442 bfbd 563d f93d
000003b0: 2cae c4bd 4fe5 3c3c 8bdf f5bc cb29 94bd
000003c0: 39ad 94bb 9196 073e 5b41 073e 26f0 23bd
000003d0: f347 0abd b5a6 cabd 024b a9bd bc05 01bd
000003e0: 4b29 093e 1de8 b83c b467 18be 81e3 42bd
000003f0: d9d1 1bbe 321c 253e ba15 a73c 7588 34bd

lstm_fc.bias f4 [128]
0.10209407 0.1493068 0.10591254 -0.14862052 -0.00866712 0.16492385 0.13564049 0.071393855
-0.040836744 -0.1740266 0.14782773 -0.056874976 0.06276947 -0.027625307 -0.068777 0.05961342
0.14751351 -0.06164782 0.09168304 0.057158876 0.0011486864 0.029520728 0.08378224 0.15658295
-0.07965403 0.14673036 -0.02334779 0.042662803 -0.13575551 0.11141159 0.15010619 0.04508097
0.03958508 0.079034574 -0.12990022 -0.1936563 0.10758505 -0.15272483 -0.059167728 -0.09347454
-0.15209682 -0.08095638 0.010295072 -0.17353874 -0.12843513 -0.18175375 -0.0009408982 -0.05267393
0.14992759 -0.16587126 -0.16674407 -0.039291095 0.19138187 0.16406514 -0.028800534 -0.024596224
0.06195435 0.021014543 0.0362495 -0.06771778 -0.014040789 0.046512444 0.117845446 -0.12892802
-0.007867309 0.09944148 0.14150658 0.097702794 -0.03987327 0.03185917 -0.06578771 0.12582488
0.12357148 -0.15730102 0.094020344 0.15767953 0.025651464 -0.1366098 0.09763452 0.0369451
-0.09479065 0.07463892 0.14198042 0.09149449 -0.15892242 0.09229956 -0.1043385 -0.1752848
-0.11949021 0.123657554 0.13707069 0.07076216 0.11355761 -0.17372338 -0.09818751 -0.111485645
-0.14509434 -0.112688825 -0.12353721 -0.13525085 0.006931565 -0.082632445 -0.0057645836 -0.04221291
0.042156056 -0.13826019 -0.12854092 -0.14602676 0.1501072 0.010589251 -0.13627678 -0.12183258
0.0045329737 -0.11343727 0.15658152 0.11982566 0.032138146 -0.022979023 0.11194554 0.06702266
0.029076088 -0.015674045 -0.16579701 0.07992624 0.053047553 0.08350433 0.09023456 0.15105654
00000000: b216 d13d e2e3 183e ace8 d83d fa2f 18be
00000010: 8900 0ebc cce1 283e 57e5 0a3e f136 923d
00000020: 6e44 27bd 0734 32be 2760 173e bcf5 68bd
00000030: 488d 803d 784e e2bc f5da 8cbd 342d 743d
00000040: c80d 173e 6d82 7cbd 51c4 bb3d 6d1f 6a3d
00000050: 858f 963a 74d5 f13c 0696 ab3d 4857 203e
00000060: a721 a3bd 7c40 163e dd43 bfbc 31bf 2e3d
00000070: 7e03 0bbe c22b e43d 70b5 193e d3a6 383d
00000080: f723 223d e1dc a13d 9004 05be d64d 46be
00000090: 8d55 dc3d e663 1cbe dc59 72bd 946f bfbd
000000a0: 45bf 1bbe 75cc a5bd a9ac 283c 24b4 31be
000000b0: 8084 03be a81d 3abe 9ca6 76ba 9ec0 57bd
000000c0: 9e86 193e 28da 29be f5be 2abe b3ef 20bd
000000d0: 9cf9 433e b100 283e 19ef ebbc 057e c9bc
000000e0: d8c3 7d3d b126 ac3c 5b7a 143d 9faf 8abd
000000f0: 560b 66bc d583 3e3d f458 f13d b505 04be
00000100: e3e5 00bc faa7 cb3d 1ae7 103e 6718 c83d
00000110: 2752 23bd c37e 023d b5bb 86bd 3dd8 003e
00000120: 0b13 fd3d 8513 21be bd8d c03d be76 213e
00000130: 0523 d23c 70e3 0bbe 9bf4 c73d bf53 173d
00000140: 9a21 c2bd 4adc 983d 5163 113e 7761 bb3d
00000150: 8fbc 22be 8d07 bd3d 6caf d5bd dc7d 33be
00000160: 49b7 f4bd 2c40 fd3d 425c 0c3e c0eb 903d
00000170: e490 e83d 8be4 31be 8916 c9bd 9652 e4bd
00000180: 9c93 14be 66c9 e6bd 1401 fdbd 337f 0abe
00000190: 2e22 e33b 333b a9bd d5e4 bcbb 72e7 2cbd
000001a0: d4ab 2c3d 1494 0dbe 3ba0 03be 0a88 15be
000001b0: b4b5 193e 8a7e 2d3c 248c 0bbe 5c83 f9bd
000001c0: 5789 943b cd51 e8bd e856 203e 2867 f53d
000001d0: 4aa3 033d 813e bcbc b443 e53d 2d43 893d
000001e0: fa30 ee3c db66 80bc b1c6 29be 5eb0 a33d
000001f0: 6448 593d 5104 ab3d e6cc b83d 91ae 1a3e
