PCA_CNN_GRU_ATT/result/PCA_CNN_LSTM_ATT_prediction_model.pth (torch, 248133 bytes, 23 tensors)

Wa f4 [128, 128]
0	0x00000000	0.0
1	0x00000000	0.0
2	0x00000000	0.0
3	0x00000000	0.0
4	0x00000000	0.0
5	0x00000000	0.0
6	0x00000000	0.0
7	0x00000000	0.0
8	0x00000000	0.0
9	0x00000000	0.0
10	0x00000000	0.0
11	0x00000000	0.0
12	0x00000000	0.0
13	0x00000000	0.0
14	0x00000000	0.0
15	0x00000000	0.0
16	0x00000000	0.0
17	0x00000000	0.0
18	0x00000000	0.0
19	0x00000000	0.0
20	0x00000000	0.0
21	0x00000000	0.0
22	0x00000000	0.0
23	0x00000000	0.0
24	0x00000000	0.0
25	0x00000000	0.0
26	0x00000000	0.0
27	0x00000000	0.0
28	0x00000000	0.0
29	0x00000000	0.0
30	0x00000000	0.0
31	0x00000000	0.0
32	0x00000000	0.0
33	0x00000000	0.0
34	0x00000000	0.0
35	0x00000000	0.0
36	0x00000000	0.0
37	0x00000000	0.0
38	0x00000000	0.0
39	0x00000000	0.0
40	0x00000000	0.0
41	0x00000000	0.0
42	0x00000000	0.0
43	0x00000000	0.0
44	0x00000000	0.0
45	0x00000000	0.0
46	0x00000000	0.0
47	0x00000000	0.0
48	0x00000000	0.0
49	0x00000000	0.0
50	0x00000000	0.0
51	0x00000000	0.0
52	0x00000000	0.0
53	0x00000000	0.0
54	0x00000000	0.0
55	0x00000000	0.0
56	0x00000000	0.0
57	0x00000000	0.0
58	0x00000000	0.0
59	0x00000000	0.0
60	0x00000000	0.0
61	0x00000000	0.0
62	0x00000000	0.0
63	0x00000000	0.0
64	0x00000000	0.0
65	0x00000000	0.0
66	0x00000000	0.0
67	0x00000000	0.0
68	0x00000000	0.0
69	0x00000000	0.0
70	0x00000000	0.0
71	0x00000000	0.0
72	0x00000000	0.0
73	0x00000000	0.0
74	0x00000000	0.0
75	0x00000000	0.0
76	0x00000000	0.0
77	0x00000000	0.0
78	0x00000000	0.0
79	0x00000000	0.0
80	0x00000000	0.0
81	0x00000000	0.0
82	0x00000000	0.0
83	0x00000000	0.0
84	0x00000000	0.0
85	0x00000000	0.0
86	0x00000000	0.0
87	0x00000000	0.0
88	0x00000000	0.0
89	0x00000000	0.0
90	0x00000000	0.0
91	0x00000000	0.0
92	0x00000000	0.0
93	0x00000000	0.0
94	0x00000000	0.0
95	0x00000000	0.0
96	0x00000000	0.0
97	0x00000000	0.0
98	0x00000000	0.0
99	0x00000000	0.0
100	0x00000000	0.0
101	0x00000000	0.0
102	0x00000000	0.0
103	0x00000000	0.0
104	0x00000000	0.0
105	0x00000000	0.0
106	0x00000000	0.0
107	0x00000000	0.0
108	0x00000000	0.0
109	0x00000000	0.0
110	0x00000000	0.0
111	0x00000000	0.0
112	0x00000000	0.0
113	0x00000000	0.0
114	0x00000000	0.0
115	0x00000000	0.0
116	0x00000000	0.0
117	0x00000000	0.0
118	0x00000000	0.0
119	0x00000000	0.0
120	0x00000000	0.0
121	0x00000000	0.0
122	0x00000000	0.0
123	0x00000000	0.0
124	0x00000000	0.0
125	0x00000000	0.0
126	0x00000000	0.0
127	0x00000000	0.0
128	0x2d73a34c	1.384921e-11
129	0xaeaab74e	-7.7632664e-11
130	0xaf00e02a	-1.1721171e-10
131	0xae10acff	-3.289546e-11
132	0xa98f1e4c	-6.3557314e-14
133	0xade52689	-2.6051399e-11
134	0x2f209017	1.4603106e-10
135	0xadd40f30	-2.4108354e-11
136	0x2d8448e1	1.5039027e-11
137	0xac7c37a3	-3.5842238e-12
138	0x2d0b3146	7.912176e-12
139	0xae6074d3	-5.1035464e-11
140	0xaec383d9	-8.890994e-11
141	0xae5a2ca8	-4.9607124e-11
142	0x2e39a954	4.2214524e-11
143	0x2eada5c1	7.896573e-11
144	0xae738626	-5.537095e-11
145	0x2e928878	6.663553e-11
146	0x2e6bb87e	5.3596676e-11
147	0xadd182db	-2.381866e-11
148	0x2e47e795	4.5453048e-11
149	0xae9bc1db	-7.0830196e-11
150	0xac213149	-2.2906835e-12
151	0xad43b77e	-1.112521e-11
152	0x2e51f31b	4.773702e-11
153	0xac89a94b	-3.9125695e-12
154	0x2e661115	5.2311117e-11
155	0x2d96f1ea	1.7160457e-11
156	0xaebda862	-8.624636e-11
157	0x2de7a927	2.6336778e-11
158	0x2ea7c683	7.6295435e-11
159	0xadd6d8ad	-2.4425207e-11
160	0xad64578b	-1.2979738e-11
161	0x2f15a4b6	1.3609988e-10
162	0xad15835b	-8.498836e-12
163	0x2e919540	6.620349e-11
164	0xad7773ff	-1.4066081e-11
165	0x2e1738bf	3.4383826e-11
166	0x2f097156	1.2500342e-10
167	0x2e46ad2b	4.5173792e-11
168	0xaf12bf4f	-1.3346589e-10
169	0xaee53901	-1.042384e-10
170	0x2e9f1192	7.233604e-11
171	0xaec5acac	-8.9891955e-11
172	0xae47799b	-4.535537e-11
173	0x2db1dc31	2.0220355e-11
174	0x2eafc407	7.9929e-11
175	0x2e3ae0cd	4.2491167e-11
176	0x2efb4b54	1.14275395e-10
177	0x2e12e2a3	3.339785e-11
178	0x2ec55951	8.9743886e-11
179	0xaf15f10a	-1.3637105e-10
180	0x2f08cc3d	1.2441688e-10
181	0xab37c038	-6.528142e-13
182	0x2e027851	2.966544e-11
183	0xaed146f0	-9.516821e-11
184	0xae86609f	-6.110778e-11
185	0x2eaa365f	7.740363e-11
186	0xae63416c	-5.167193e-11
187	0xae863cb9	-6.104401e-11
188	0x2ee5dff1	1.0453494e-10
189	0x2f00c1e3	1.1710415e-10
190	0xaddb4344	-2.492729e-11
191	0x2f1cd8a0	1.4265078e-10
192	0xaf0e5a10	-1.2946821e-10
193	0xae0ccf6c	-3.2016542e-11
194	0xaec9f8b7	-9.1846024e-11
195	0x2d603c34	1.2746294e-11
196	0x2dac1d13	1.9567048e-11
197	0xaec7416a	-9.061092e-11
198	0xaf53c13d	-1.925899e-10
199	0x2e0c2f3a	3.187426e-11
200	0x2f49fbee	1.8370347e-10
201	0xaf01f954	-1.1821061e-10
202	0xad22747c	-9.234499e-12
203	0x2eac25bc	7.8283574e-11
204	0x2c879425	3.853378e-12
205	0xae93645b	-6.702613e-11
206	0xaeb55a25	-8.24694e-11
207	0xae592623	-4.937396e-11
208	0xae3318b8	-4.0721843e-11
209	0x2eb82223	8.373415e-11
210	0xadb612c9	-2.0699347e-11
211	0xaf055b4a	-1.2128712e-10
212	0xabeb93e6	-1.6738804e-12
213	0xaf11eedd	-1.3272534e-10
214	0xae5a5d46	-4.9650305e-11
215	0x2e9ea479	7.2142244e-11
216	0xac8bff81	-3.9789842e-12
217	0x2d19c585	8.740901e-12
218	0xae0518db	-3.0262775e-11
219	0x2df50b9d	2.7858433e-11
220	0x2e4dbe7e	4.6780795e-11
221	0x2ea85dc2	7.65641e-11
222	0xac8da84e	-4.0261466e-12
223	0x2ec88391	9.118318e-11
224	0x2c11d012	2.0721242e-12
225	0x2d9d8995	1.7909932e-11
226	0xae0b57a5	-3.1682785e-11
227	0x2c3f591a	2.7192194e-12
228	0x2f0c36ab	1.2752348e-10
229	0xaf0e21ae	-1.292679e-10
230	0x2eabf494	7.8196255e-11
231	0x2e36ced3	4.1565706e-11
232	0x2f514570	1.9033108e-10
233	0xaf43d9b6	-1.7812493e-10
234	0x2ed76d77	9.796513e-11
235	0xada7c20a	-1.9071873e-11
236	0xae52451c	-4.7809853e-11
237	0xac326555	-2.5351572e-12
238	0x2e1b0d50	3.5254744e-11
239	0x2edfa02a	1.0169317e-10
240	0xaf1c488b	-1.421389e-10
241	0x2e64fa7e	5.206368e-11
242	0x2f022844	1.1837736e-10
243	0xaefb5876	-1.1429872e-10
244	0x2ebc9325	8.575388e-11
245	0xacea137d	-6.6528436e-12
246	0xade4a25e	-2.5992705e-11
247	0xadd785c4	-2.4502074e-11
248	0x2e10d933	3.293472e-11
249	0x2c4b994e	2.8933136e-12
250	0xaf48aac0	-1.8250557e-10
251	0xad625a4b	-1.2866662e-11
252	0x2f052336	1.2108789e-10
253	0xaf11d734	-1.3264129e-10
254	0xae1cf518	-3.568798e-11
255	0xada7ffb2	-1.9099253e-11

ba f4 [128]
0	0xfc080e00	-2.8257453e+36
1	0xaf274295	-1.5212216e-10
2	0xaf274295	-1.5212216e-10
3	0xaf274295	-1.5212216e-10
4	0xaf274295	-1.5212216e-10
5	0xaf274295	-1.5212216e-10
6	0xaf274295	-1.5212216e-10
7	0xaf274295	-1.5212216e-10
8	0xaf274295	-1.5212216e-10
9	0xaf274295	-1.5212216e-10
10	0xaf274295	-1.5212216e-10
11	0xaf274295	-1.5212216e-10
12	0xaf274295	-1.5212216e-10
13	0xaf274295	-1.5212216e-10
14	0xaf274295	-1.5212216e-10
15	0xaf274295	-1.5212216e-10
16	0xaf274295	-1.5212216e-10
17	0xaf274295	-1.5212216e-10
18	0xaf274295	-1.5212216e-10
19	0xaf274295	-1.5212216e-10
20	0xaf274295	-1.5212216e-10
21	0xaf274295	-1.5212216e-10
22	0xaf274295	-1.5212216e-10
23	0xaf274295	-1.5212216e-10
24	0xaf274295	-1.5212216e-10
25	0xaf274295	-1.5212216e-10
26	0xaf274295	-1.5212216e-10
27	0xaf274295	-1.5212216e-10
28	0xaf274295	-1.5212216e-10
29	0xaf274295	-1.5212216e-10
30	0xaf274295	-1.5212216e-10
31	0xaf274295	-1.5212216e-10
32	0xaf274295	-1.5212216e-10
33	0xaf274295	-1.5212216e-10
34	0xaf274295	-1.5212216e-10
35	0xaf274295	-1.5212216e-10
36	0xaf274295	-1.5212216e-10
37	0xaf274295	-1.5212216e-10
38	0xaf274295	-1.5212216e-10
39	0xaf274295	-1.5212216e-10
40	0xaf274295	-1.5212216e-10
41	0xaf274295	-1.5212216e-10
42	0xaf274295	-1.5212216e-10
43	0xaf274295	-1.5212216e-10
44	0xaf274295	-1.5212216e-10
45	0xaf274295	-1.5212216e-10
46	0xaf274295	-1.5212216e-10
47	0xaf274295	-1.5212216e-10
48	0xaf274295	-1.5212216e-10
49	0xaf274295	-1.5212216e-10
50	0xaf274295	-1.5212216e-10
51	0xaf274295	-1.5212216e-10
52	0xaf274295	-1.5212216e-10
53	0xaf274295	-1.5212216e-10
54	0xaf274295	-1.5212216e-10
55	0xaf274295	-1.5212216e-10
56	0xaf274295	-1.5212216e-10
57	0xaf274295	-1.5212216e-10
58	0xaf274295	-1.5212216e-10
59	0xaf274295	-1.5212216e-10
60	0xaf274295	-1.5212216e-10
61	0xaf274295	-1.5212216e-10
62	0xaf274295	-1.5212216e-10
63	0xaf274295	-1.5212216e-10
64	0xaf274295	-1.5212216e-10
65	0xaf274295	-1.5212216e-10
66	0xaf274295	-1.5212216e-10
67	0xaf274295	-1.5212216e-10
68	0xaf274295	-1.5212216e-10
69	0xaf274295	-1.5212216e-10
70	0xaf274295	-1.5212216e-10
71	0xaf274295	-1.5212216e-10
72	0xaf274295	-1.5212216e-10
73	0xaf274295	-1.5212216e-10
74	0xaf274295	-1.5212216e-10
75	0xaf274295	-1.5212216e-10
76	0xaf274295	-1.5212216e-10
77	0xaf274295	-1.5212216e-10
78	0xaf274295	-1.5212216e-10
79	0xaf274295	-1.5212216e-10
80	0xaf274295	-1.5212216e-10
81	0xaf274295	-1.5212216e-10
82	0xaf274295	-1.5212216e-10
83	0xaf274295	-1.5212216e-10
84	0xaf274295	-1.5212216e-10
85	0xaf274295	-1.5212216e-10
86	0xaf274295	-1.5212216e-10
87	0xaf274295	-1.5212216e-10
88	0xaf274295	-1.5212216e-10
89	0xaf274295	-1.5212216e-10
90	0xaf274295	-1.5212216e-10
91	0xaf274295	-1.5212216e-10
92	0xaf274295	-1.5212216e-10
93	0xaf274295	-1.5212216e-10
94	0xaf274295	-1.5212216e-10
95	0xaf274295	-1.5212216e-10
96	0xaf274295	-1.5212216e-10
97	0xaf274295	-1.5212216e-10
98	0xaf274295	-1.5212216e-10
99	0xaf274295	-1.5212216e-10
100	0xaf274295	-1.5212216e-10
101	0xaf274295	-1.5212216e-10
102	0xaf274295	-1.5212216e-10
103	0xaf274295	-1.5212216e-10
104	0xaf274295	-1.5212216e-10
105	0xaf274295	-1.5212216e-10
106	0xaf274295	-1.5212216e-10
107	0xaf274295	-1.5212216e-10
108	0xaf274295	-1.5212216e-10
109	0xaf274295	-1.5212216e-10
110	0xaf274295	-1.5212216e-10
111	0xaf274295	-1.5212216e-10
112	0xaf274295	-1.5212216e-10
113	0xaf274295	-1.5212216e-10
114	0xaf274295	-1.5212216e-10
115	0xaf274295	-1.5212216e-10
116	0xaf274295	-1.5212216e-10
117	0xaf274295	-1.5212216e-10
118	0xaf274295	-1.5212216e-10
119	0xaf274295	-1.5212216e-10
120	0xaf274295	-1.5212216e-10
121	0xaf274295	-1.5212216e-10
122	0xaf274295	-1.5212216e-10
123	0xaf274295	-1.5212216e-10
124	0xaf274295	-1.5212216e-10
125	0xaf274295	-1.5212216e-10
126	0xaf274295	-1.5212216e-10
127	0xaf274295	-1.5212216e-10

cnn.0.weight f4 [8, 3, 2]
0	0x3e674147	0.22583495
1	0x3f259ce3	0.64692515
2	0xbe07bfab	-0.1325671
3	0x3ebce8c9	0.3689635
4	0xbe28ceea	-0.16485181
5	0x3db337cf	0.08750879
6	0xbe4e6449	-0.20155443
7	0x3e83f4d1	0.25772718
8	0x3ea4cbf7	0.32186863
9	0xbea76ee2	-0.32701784
10	0x3ea465ed	0.32109013
11	0x3d0f7d18	0.035031408
12	0x3e8a0a02	0.2696076
13	0x3d811263	0.06302335
14	0x3e4a6eea	0.19768873
15	0xbd449f2c	-0.04800336
16	0x3e9d4546	0.30716914
17	0x3d7a4fd2	0.06111128
18	0xbe5d6a2c	-0.21622533
19	0x3d99ede8	0.0751608
20	0xbe26d763	-0.16293101
21	0xbcb78752	-0.022403393
22	0xbe26cf67	-0.16290055
23	0x3e8c371b	0.27385792
24	0xbea9208f	-0.33032653
25	0xbe4818f1	-0.19540764
26	0xbdd58938	-0.10426563
27	0xbe6f377d	-0.23361011
28	0x3d38f63f	0.045156714
29	0xbecb575a	-0.3971508
30	0x3efde69d	0.49590006
31	0xbeb59b9c	-0.35470283
32	0x3e6f122f	0.2334678
33	0x3a143b21	0.0005654563
34	0xbda60169	-0.08105738
35	0x3e8a0cc4	0.26962864
36	0x3c9a59a3	0.01884157
37	0x3ec87186	0.39149112
38	0x3d18e7ed	0.037330557
39	0xbe0104ec	-0.12599534
40	0x3dc9136f	0.0981816
41	0xbdbdc407	-0.09265905
42	0x3dd849f1	0.10560978
43	0x3f3277b8	0.69713926
44	0x3e50a9d1	0.2037728
45	0xbe31b007	-0.17352305
46	0x3e24fe3a	0.16112605
47	0x3da40fef	0.080108516

cnn.0.bias f4 [8]
0	0x3dcc3a87	0.09972101
1	0xbe6b424f	-0.22974513
2	0xbed77532	-0.420816
3	0xbe2a59b5	-0.16635783
4	0xbea32975	-0.31867567
5	0x3ed293bb	0.41128334
6	0x3dc9f75d	0.09861634
7	0x3d6fabf2	0.05851359

cnn.3.weight f4 [16, 8, 2]
0	0x3d6d5041	0.057937864
1	0x3d9b5d86	0.075861976
2	0x3e36b607	0.17842875
3	0xbe37686a	-0.17910925
4	0x3be0132b	0.0068382225
5	0xbe1ffdc8	-0.15624154
6	0x3da069d5	0.07832686
7	0xbdadd0de	-0.08487104
8	0x3d9cdc1a	0.076591685
9	0xbd55970c	-0.052146003
10	0x3e38a254	0.18030673
11	0xbe4a9163	-0.19782023
12	0xbe16049a	-0.14650193
13	0xbdc73d33	-0.0972847
14	0x3e4b588d	0.19857998
15	0x3e1bef53	0.15228014
16	0x3ea86487	0.32889196
17	0xbe7724ea	-0.24135175
18	0xbe55e8c7	-0.20889579
19	0xbe370d53	-0.17876177
20	0xbe0e7b48	-0.13914216
21	0x3de2f0bc	0.11081073
22	0x3db573c2	0.0885997
23	0x3e53bdc6	0.20677862
24	0xbe03f1b6	-0.12885174
25	0xbe2e37a4	-0.17013413
26	0x3e1d962c	0.15389317
27	0xbd16afb3	-0.036788654
28	0x3e3f1033	0.18658523
29	0xbdb689f8	-0.08913034
30	0x3e6e08dd	0.23245569
31	0xbe67eb8e	-0.2264845
32	0xbe0130bc	-0.12616247
33	0x3d9c18b8	0.07621902
34	0x3d587b38	0.052851886
35	0xbd8289f4	-0.06373969
36	0x3e189802	0.14901736
37	0x3e2e07fa	0.1699523
38	0xbe39a4fb	-0.18129341
39	0xbe08ab96	-0.13346705
40	0x3e6a68d1	0.22891547
41	0xbdacc3f0	-0.084358096
42	0xbdb5832c	-0.0886291
43	0xbe77b448	-0.24189866
44	0xbe129a7c	-0.14316744
45	0x3d7fcca3	0.062451016
46	0xbd07294e	-0.032998376
47	0xbe39d3b3	-0.18147163
48	0x3bc02840	0.005864173
49	0xbe2ede6e	-0.17077038
50	0xbe593086	-0.21209916
51	0xbe0cf83a	-0.13766566
52	0xbe600de6	-0.21880302
53	0xbe230144	-0.15918452
54	0x3e7fe65e	0.24990222
55	0x3d416870	0.04721874
56	0x3d9dc71c	0.07703993
57	0xbe6ec466	-0.23317108
58	0xbe282254	-0.16419345
59	0xbdaa6c14	-0.083213955
60	0x3d201fc0	0.03909278
61	0xbe614286	-0.21998033
62	0xbddc9b64	-0.10771826
63	0xbe194258	-0.14966714
64	0x3a35bb61	0.00069325237
65	0xbdbe8414	-0.09302536
66	0xbc8deaf0	-0.017323941
67	0xbe2d7924	-0.16940743
68	0xbe2fb798	-0.17159879
69	0xbe1559d2	-0.14585045
70	0xbdaf4187	-0.0855742
71	0xbe4a0e43	-0.19732003
72	0x3e56a600	0.20961761
73	0xbd4b3a07	-0.049615886
74	0x3e5c42f6	0.21509919
75	0x3d9f87b0	0.07789552
76	0xbe58c77d	-0.21169849
77	0x3e31296b	0.17300956
78	0xbd8cdf95	-0.068785824
79	0xbdc44317	-0.09583109
80	0xbe547df8	-0.20751178
81	0xbe7e7fce	-0.24853441
82	0x3d927d18	0.07152766
83	0xbd5fafc0	-0.054610968
84	0x3dc7555c	0.09733078
85	0xbe521700	-0.20516586
86	0x3e3e1054	0.18560916
87	0xbe3bea63	-0.1835113
88	0xbd30d09e	-0.043167703
89	0x3d55e26c	0.052217886
90	0x3e042914	0.12906295
91	0x3e4eabe4	0.20182759
92	0x3e693724	0.2277494
93	0xbe4afa74	-0.19822103
94	0x3d80ddc1	0.06292296
95	0xbddc362e	-0.107525215
96	0xbcf47170	-0.029839247
97	0xbe427077	-0.18988214
98	0x3e68c008	0.22729504
99	0xbe3c2b69	-0.18375935
100	0x3e0783d0	0.13233876
101	0x3db11888	0.08647257
102	0x3da669eb	0.08125671
103	0xbe0a6180	-0.13513756
104	0x3e68b10c	0.22723788
105	0x3d610640	0.0549376
106	0x3d026e67	0.03184357
107	0xbe61df2b	-0.22057788
108	0x3dd42acb	0.103597246
109	0xbd1f70bc	-0.03892587
110	0xbdeee22e	-0.11664234
111	0x3e598fb7	0.21246229
112	0x3db0c40e	0.086311445
113	0xbe13b0f3	-0.1442297
114	0xbe05ddaf	-0.13072847
115	0xbcbbb3c1	-0.022912862
116	0x3e0c304f	0.13690303
117	0xbda6929d	-0.08133433
118	0xbe127060	-0.1430068
119	0xbdb0092f	-0.08595502
120	0xbe3f12ab	-0.18659465
121	0x3db6fcd9	0.089349456
122	0x3e4e8ad0	0.2017014
123	0xbe67a550	-0.22621655
124	0x3d915a5f	0.07097315
125	0x3df84cf8	0.121240556
126	0x3d89156a	0.066935375
127	0xbddd18ba	-0.10795732
128	0x3d86ba88	0.06578547
129	0x3f071ec0	0.52781296
130	0x3d048c18	0.032360166
131	0xbd014a04	-0.031564727
132	0xbd86abe1	-0.06575752
133	0x3dd46bef	0.10372149
134	0xbd2608db	-0.04053579
135	0xbd9140d7	-0.07092445
136	0x3e22d8d9	0.15903033
137	0x3e5b0f07	0.21392451
138	0xbdc054c3	-0.09391167
139	0xbe88a099	-0.26685026
140	0x3be45022	0.0069675604
141	0x3e588025	0.21142633
142	0xbc5b6197	-0.013389966
143	0x3ed70ba5	0.42001072
144	0xbe688384	-0.22706419
145	0xbdbcf284	-0.09225944
146	0x3e5795cc	0.21053237
147	0x3dc773c0	0.097388744
148	0xbc4bb9a0	-0.012434393
149	0xbe1a5808	-0.15072644
150	0xbe1c9f42	-0.15295127
151	0xbe6550fa	-0.22394171
152	0xbda6e48c	-0.081490606
153	0x3dace790	0.084426045
154	0x3e233b2c	0.15940541
155	0x3dec6398	0.115424335
156	0xbe624a28	-0.22098601
157	0xbe19f2e4	-0.15034062
158	0xbd219ab0	-0.039454162
159	0x3e77a438	0.24183738
160	0x3d32e53d	0.04367565
161	0xbd6cc1c8	-0.05780199
162	0x3dd39910	0.10331929
163	0xbdc443fb	-0.09583279
164	0xbe2470dd	-0.16058679
165	0x3e3bc12a	0.18335405
166	0xbde8ceac	-0.113675445
167	0xbd4d4728	-0.050116688
168	0xbe7eab7e	-0.24870107
169	0x3e2b5552	0.16731766
170	0x3e45ab2b	0.19303577
171	0x3dc184e0	0.09449172
172	0xbe2fc09a	-0.17163315
173	0xbe7a415d	-0.24438997
174	0xbe4a3737	-0.19747625
175	0x3e438877	0.19095026
176	0x3dcf02ca	0.10107954
177	0x3e8d27ac	0.2756933
178	0x3ded41e5	0.11584834
179	0x3d812b87	0.0630713
180	0xba780229	-0.0009460771
181	0xbe3b4274	-0.18287069
182	0xbe5af0b8	-0.2138089
183	0xbe6f0a44	-0.2334376
184	0x3dd15ba9	0.10222561
185	0xbdfba6d2	-0.12287678
186	0xbd51b003	-0.05119325
187	0xbe3bff15	-0.18359025
188	0xbd4bd532	-0.049763866
189	0xbe0cdbbd	-0.13755699
190	0xbe38e0ba	-0.18054476
191	0x3e131f86	0.14367494
192	0xbd0d1e40	-0.034452677
193	0x3dd39e79	0.10332961
194	0xbd760dfc	-0.06007193
195	0xbe36c5ed	-0.1784894
196	0xbd147c9c	-0.03625165
197	0xbdfde22f	-0.12396657
198	0xbd9d7b61	-0.07689548
199	0xbe7407e5	-0.23831137
200	0x3e0f3acc	0.13987273
201	0xbe3231a9	-0.17401756
202	0x3e0a2f08	0.13494503
203	0x3e225306	0.15851983
204	0x3e43f091	0.19134738
205	0xbe658359	-0.22413386
206	0x3e61fac4	0.22068316
207	0xbe257676	-0.1615847
208	0x3dc6a2dc	0.09699032
209	0x3e45e726	0.19326457
210	0xbd25a93d	-0.0404446
211	0xbc4cf83d	-0.0125103565
212	0xbd91f42f	-0.071266524
213	0xbe6f1149	-0.23346438
214	0x3df5b5d4	0.119975716
215	0xbe7e22c2	-0.24817947
216	0x3e1eecbe	0.15519997
217	0x3e3f8bae	0.18705627
218	0x3e6d07d9	0.23147525
219	0xbd3edcfd	-0.04659747
220	0xbe4bb02d	-0.19891424
221	0x3d236f58	0.039901108
222	0x3e11af5c	0.1422705
223	0xbe92841c	-0.28616416
224	0xbd686e68	-0.056745917
225	0xbe1975ea	-0.14986387
226	0xbcb32030	-0.021865934
227	0xbdfc0368	-0.12305337
228	0xbdd149fc	-0.102191895
229	0xbda289f8	-0.07936472
230	0xbe734720	-0.23757601
231	0x3e520cc8	0.20512688
232	0x3e569ce0	0.2095828
233	0xbd20a248	-0.039217263
234	0xbce93b00	-0.028470516
235	0xbdd0f518	-0.10202998
236	0xbe672f20	-0.2257657
237	0xbe791ffe	-0.2432861
238	0x3dbe4a04	0.09291461
239	0xbe0c8e4a	-0.13726154
240	0xbe306f93	-0.17230062
241	0x3dbbdb3f	0.09172677
242	0xbdda6ec8	-0.10665661
243	0xbdaa9eba	-0.08331056
244	0x3c22932a	0.009922782
245	0xbced6e2d	-0.0289832
246	0xbdadbddd	-0.08483479
247	0xbdf28de6	-0.11843471
248	0xbe506538	-0.20351112
249	0x3e568655	0.20949681
250	0xbdf764c5	-0.12079767
251	0x3bdfa86d	0.006825498
252	0xbda6576e	-0.08122145
253	0x3db3e5b2	0.08784045
254	0x3e5da857	0.21646248
255	0x3e5bfc8c	0.21483058

cnn.3.bias f4 [16]
0	0xbe822b94	-0.25423872
1	0x3e21eec2	0.15813735
2	0x3e73019c	0.23731083
3	0x3d86b2dc	0.065770835
4	0x3e2ba134	0.16760713
5	0x3e7c6643	0.24648385
6	0xbd1d5c85	-0.03841831
7	0x3da47488	0.08030039
8	0xbea4434b	-0.3208259
9	0xbd5305e0	-0.051519275
10	0x3e40cadb	0.18827383
11	0x3dd9a826	0.10627775
12	0xbdfeb816	-0.12437455
13	0xbe36171b	-0.17782252
14	0xbe2ef0ec	-0.17084092
15	0xbe961c28	-0.29318357

cnn.6.weight f4 [32, 16, 2]
0	0xbe0baf08	-0.13640988
1	0xbd33136e	-0.0437197
2	0x3df400c4	0.119142085
3	0x3cf117b6	0.029430252
4	0xbe09af37	-0.13445745
5	0xbe1137dc	-0.14181465
6	0x3db41af2	0.08794202
7	0xbe06a650	-0.1314938
8	0xbcb24ec1	-0.021766068
9	0x3dadac11	0.08480085
10	0xbda78ea9	-0.08181507
11	0xbc9de955	-0.0192763
12	0xbc7c1b90	-0.015387431
13	0xbd2b4dfc	-0.04182242
14	0xbdb7ac40	-0.08968401
15	0xbe216b81	-0.15763666
16	0xbe12a146	-0.14319333
17	0xbdc276d4	-0.09495321
18	0x3e2ed5d7	0.17073761
19	0xbdaedeb8	-0.08538574
20	0xbdf31e7d	-0.118710496
21	0x3d2f831c	0.042849645
22	0x3d46c990	0.04853207
23	0x3dc5f8a0	0.09666562
24	0x3e098cf5	0.13432677
25	0x3dc9847b	0.09839722
26	0xbe338c77	-0.17534052
27	0x3c7fac93	0.01560511
28	0x3ddb4e5a	0.10708304
29	0xbc85d8a8	-0.016338661
30	0xbdd55783	-0.10417082
31	0x3e2c92ad	0.16852827
32	0xbda15921	-0.07878328
33	0xbd9a3325	-0.07529286
34	0xbe22915e	-0.15875766
35	0xbd69a632	-0.05704326
36	0x3da06e6a	0.0783356
37	0x3d2048a8	0.03913179
38	0x3d0f2fa4	0.034957543
39	0xbe094865	-0.13406523
40	0xbe290d39	-0.1650895
41	0x3b4c0240	0.003112927
42	0x3e250f43	0.16119103
43	0x3dd0de2a	0.101986244
44	0xbdd2c55b	-0.10291549
45	0xbcbbe8b6	-0.022938114
46	0xbe0c94a6	-0.1372858
47	0xbdce679b	-0.10078355
48	0xbc2cb356	-0.010540804
49	0x3e6c5485	0.23079117
50	0x3e15f36b	0.14643638
51	0xbe2631e8	-0.16229975
52	0x3df19235	0.11795465
53	0xbe00bb8d	-0.12571545
54	0x3d51d581	0.051229004
55	0x3e44f02b	0.19232242
56	0x3bd04c06	0.006356719
57	0x3e0bd4f8	0.1365546
58	0xbe12e772	-0.14346102
59	0xbd830881	-0.06398106
60	0x3dd328fe	0.10310553
61	0xbd1dc0d0	-0.03851396
62	0xbd264856	-0.04059633
63	0xbcd27cc3	-0.025694257
64	0x3de16ad5	0.11006705
65	0x3dc1798b	0.094470106
66	0x3d52cf14	0.051467016
67	0xbdfdc599	-0.123912044
68	0xbe12f13b	-0.14349835
69	0x3c9ca268	0.01912041
70	0x3d568760	0.052375197
71	0xbda72855	-0.081619896
72	0xbd4a985c	-0.049461707
73	0x3df4825e	0.11938928
74	0x3c66b954	0.014082272
75	0x3c02ae63	0.007976147
76	0xbd31f701	-0.043448452
77	0xbe23de8f	-0.16002868
78	0xbe3033ad	-0.17207213
79	0xbdbcf553	-0.092264794
80	0xbdec073a	-0.11524816
81	0x3dd59072	0.104279414
82	0xbd52c964	-0.051461592
83	0xbd8da335	-0.06915895
84	0x3e2c8dfe	0.1685104
85	0x3d7a0af0	0.061045587
86	0x3df34c87	0.11879831
87	0xbd939c87	-0.072075896
88	0xbd936845	-0.07197622
89	0x3d6b736a	0.057483114
90	0xbde50487	-0.11182504
91	0xbde57738	-0.1120438
92	0xbc0be410	-0.008538261
93	0xbd846b65	-0.064657964
94	0xbe0b6914	-0.13614303
95	0x3dfc1e4a	0.12310465
96	0x3e026514	0.1273387
97	0x3d546534	0.051854327
98	0xbc9e59bc	-0.019329898
99	0xbe5e07a3	-0.216826
100	0xbd83de56	-0.064388916
101	0x3d3856f4	0.0450048
102	0x3daab662	0.08335568
103	0xbcb71278	-0.022347674
104	0xbd8f220d	-0.069889165
105	0x3dc9bcc6	0.09850459
106	0xbe1029eb	-0.1407849
107	0x3de4d0a2	0.11172606
108	0xbd8c8338	-0.068609655
109	0x3b2fe296	0.0026837937
110	0xbd2e8a12	-0.042612143
111	0x3beae822	0.0071687857
112	0xbdc7221f	-0.09723305
113	0x3e7fa609	0.24965681
114	0xbb969780	-0.004595697
115	0x3e0d4db9	0.1379918
116	0x3e2df8e8	0.16989481
117	0xbdb29e0d	-0.08721552
118	0xbe15cde5	-0.14629324
119	0x3e377cfb	0.1791877
120	0x3e1727d6	0.1476129
121	0xbe1d169d	-0.15340658
122	0xbb6bea53	-0.0035997822
123	0xbe2c2b2d	-0.16813345
124	0xbe142ea9	-0.14470924
125	0x3d0bd9a4	0.034143105
126	0x3d2db126	0.04240527
127	0x3da7d44e	0.08194791
128	0xbd628320	-0.05530083
129	0x3e28a3a8	0.1646868
130	0x3cbdf918	0.023190066
131	0xbde9ca5f	-0.11415552
132	0xbc23f8a0	-0.010008007
133	0x3d2de23c	0.042452082
134	0x3d7d910c	0.061905906
135	0xbdfffd98	-0.12499541
136	0x3d87b036	0.066254064
137	0xbdb8f57b	-0.09031197
138	0xbe166a91	-0.1468909
139	0xbdc5bf8b	-0.096556745
140	0x3e2e8f35	0.17046817
141	0x3e1aba7e	0.15110204
142	0x3e1f2ca9	0.1554438
143	0x3dcd5d06	0.100275084
144	0x3dedb408	0.11606604
145	0xbc1d2972	-0.009592401
146	0xbdc7342a	-0.097267464
147	0x3db4e51e	0.08832763
148	0xbdbb6408	-0.09149939
149	0xbdf47128	-0.11935645
150	0xbd7421b1	-0.059602443
151	0x3d2d875d	0.04236542
152	0x3db9d71a	0.090742305
153	0xbd93a378	-0.072089136
154	0xbdcefaa1	-0.101063974
155	0x3cd0ceb5	0.02548919
156	0xbdd565ca	-0.10419805
157	0xbdebb59c	-0.115092486
158	0x3db75287	0.08951288
159	0xbcbd3a52	-0.023099098
160	0x3e1940c4	0.14966112
161	0x3e50e2d3	0.20399027
162	0x3d48e5d1	0.049047295
163	0xbc3274c6	-0.010892099
164	0x3d26be76	0.04070898
165	0x3b357161	0.0027685987
166	0xbc52a7e0	-0.012857407
167	0x3b1f3a80	0.0024296343
168	0x3d8731b9	0.06601281
169	0x3e284e77	0.16436182
170	0xbd3ba5d9	-0.04581246
171	0xbd9909af	-0.0747255
172	0xbd2efc80	-0.04272127
173	0xbdaeb9f1	-0.08531559
174	0x3cbd98dd	0.02314418
175	0x3deca100	0.11554146
176	0x3de3609d	0.11102412
177	0x3e82b90e	0.2553181
178	0xbe0537c4	-0.13009554
179	0xbdc24ed1	-0.09487689
180	0xbd20d88c	-0.039269015
181	0xbd0a77ae	-0.03380554
182	0x3bac0a47	0.0052502486
183	0xbdddf58d	-0.10837851
184	0x3d6c9b53	0.057765316
185	0xbe24a665	-0.160791
186	0xbdd48730	-0.103773475
187	0xbe122329	-0.14271225
188	0x3e1db9c7	0.154029
189	0xbe2b6a17	-0.16739689
190	0x3e045974	0.12924749
191	0x3d492a62	0.049112685
192	0xbca70ef4	-0.020392872
193	0x3de31871	0.11088646
194	0xbc84716c	-0.016167365
195	0x3de2eec5	0.11080698
196	0x3e02e12f	0.12781213
197	0xbe1d29b1	-0.15347935
198	0x3d8b4e82	0.068020836
199	0x3d08b0cc	0.03337173
200	0x3d1baf63	0.03800906
201	0x3cd36b0f	0.025807885
202	0x3d460e41	0.048353437
203	0xbdae2a64	-0.08504179
204	0xbcb94750	-0.022617012
205	0x3e2bfd77	0.16795908
206	0x3df337d3	0.11875882
207	0xbbda1592	-0.0066554034
208	0xbe29aaa0	-0.16568995
209	0x3c15049a	0.009095335
210	0xbdf689ec	-0.12038025
211	0x3e133411	0.1437533
212	0xbddbc9cf	-0.10731851
213	0xbc512019	-0.012764
214	0xbd202d2f	-0.03910559
215	0x3d028567	0.031865504
216	0x3e2a7700	0.16646957
217	0x3c893a71	0.0167515
218	0x3dd1c8ab	0.102433525
219	0x3e0c83a8	0.13722098
220	0x3e122391	0.1427138
221	0xbd7a0fa8	-0.061050087
222	0xbd219d42	-0.039456613
223	0x3daf1414	0.085487515
224	0xbd4593cc	-0.048236653
225	0x3da9879a	0.08277817
226	0xbd1e3000	-0.038619995
227	0xbdf58db7	-0.119899206
228	0x3d935d8c	0.07195577
229	0x3cde0738	0.027103052
230	0x3da16a12	0.078815594
231	0x3e33d717	0.17562519
232	0x3df72cfe	0.120691285
233	0x3e2b9a59	0.16758098
234	0x3c1b04c0	0.009461582
235	0xbe1bb711	-0.15206553
236	0xbdfdfae0	-0.12401366
237	0xbde0e390	-0.10980904
238	0xbe1f85e3	-0.15578417
239	0xbdb57892	-0.088608876
240	0xbe26a3fc	-0.16273493
241	0xbe2702de	-0.16309687
242	0xbdd8567e	-0.10563372
243	0xbe32747a	-0.17427245
244	0xbdde394e	-0.10850774
245	0x3d8a0c6a	0.06740649
246	0x3e16facd	0.1474411
247	0xbd5762d6	-0.05258449
248	0xbd529e64	-0.051420584
249	0x3dc14fce	0.0943905
250	0xbdb29e8d	-0.087216474
251	0xbdab2f05	-0.08358578
252	0x3ddf100e	0.10891734
253	0xbe1db8f2	-0.15402582
254	0x3cb112a0	0.021615326
255	0x3e1fe8c3	0.15616135

cnn.6.bias f4 [32]
0	0x3d823f7d	0.06359766
1	0xbcf5684c	-0.02995696
2	0x3dc90627	0.098156266
3	0xbd68475f	-0.05670869
4	0xbdfd00a8	-0.12353641
5	0x3daee97d	0.08540628
6	0x3cca901c	0.02472692
7	0xbd4f5fdc	-0.050628528
8	0xbdf67578	-0.12034124
9	0x3a79368a	0.0009506723
10	0xbe31752b	-0.17329852
11	0xbc1f608e	-0.00972761
12	0x3db16181	0.086611755
13	0xbe1eca4e	-0.1550686
14	0xbded0448	-0.11573082
15	0xbe0223b4	-0.12708932
16	0x3dd2fcac	0.103020996
17	0x3e03e7be	0.12881371
18	0x3c34db41	0.011038602
19	0x3e0c1c8a	0.13682762
20	0xbd720d38	-0.059094638
21	0xbe2fbcd3	-0.17161874
22	0x3db24bb8	0.087058485
23	0x3d7481b3	0.059694003
24	0x3defee34	0.117153555
25	0xb65d00b6	-3.293198e-06
26	0x3dfa1ad1	0.12212146
27	0x3d770e07	0.060316112
28	0x3df475d4	0.119365364
29	0xbe3a3937	-0.18185888
30	0x3e1050a4	0.14093262
31	0xbe282b65	-0.16422804

cnn_fc.weight f4 [128, 64]
0	0x3de57fc2	0.112060085
1	0xbba9dc23	-0.005183713
2	0xbde70a4c	-0.11281261
3	0x3d0d1e82	0.034452923
4	0xbcdca729	-0.026935177
5	0xbde6024a	-0.11230905
6	0xbd4437ed	-0.047904897
7	0x3c606121	0.013695032
8	0x3dc38529	0.09546883
9	0xbd20eb49	-0.039286885
10	0x3d8ad70e	0.067793
11	0x3c41e2fc	0.011833902
12	0x3b89d0fc	0.004205821
13	0x3cc3e336	0.023912054
14	0xbda8013a	-0.08203359
15	0xbdd4c968	-0.10389978
16	0xbd21d4c0	-0.039509535
17	0xbdee4f8b	-0.11636265
18	0xbd7c6d73	-0.061627816
19	0x3b85c2cf	0.004082061
20	0xbda830d3	-0.082124375
21	0xbd5279ed	-0.05138581
22	0xbce1f589	-0.0275829
23	0xbc8aea66	-0.016957473
24	0xbd8d6989	-0.06904895
25	0x3bc34c58	0.0059600286
26	0xbc8fbaa8	-0.01754506
27	0x3d126e04	0.03574945
28	0x3bb90180	0.0056459308
29	0xbd7fad64	-0.062421218
30	0xbd3045fc	-0.043035492
31	0xbabcd680	-0.0014407188
32	0xbdaa1704	-0.08305171
33	0x3bf1716e	0.007368258
34	0xbc2ee590	-0.010674849
35	0x3d462596	0.04837569
36	0x3cf2587f	0.029583214
37	0x3dbf9613	0.09354796
38	0xbc0bf35b	-0.008541907
39	0xbdc1d330	-0.09464109
40	0x3d64de5d	0.055876125
41	0xbdad03b5	-0.08447973
42	0xbc8cc050	-0.017181545
43	0xbd25c978	-0.04047534
44	0xbd43e3fd	-0.04782485
45	0xbd43f96b	-0.047845285
46	0x3deb337e	0.11484431
47	0x3d92816a	0.0715359
48	0x3cf2a900	0.029621601
49	0x3dedf593	0.11619105
50	0xbde7fe1e	-0.11327766
51	0x3ca53d44	0.020170815
52	0x3d9cfd87	0.07665544
53	0x3da59044	0.08084157
54	0xbdd4a977	-0.10383885
55	0x3d2f47d9	0.04279313
56	0xbd920ffd	-0.07131956
57	0xbba2c552	-0.00496737
58	0xbcdcd856	-0.026958626
59	0xbdd3e26c	-0.10345921
60	0xbdf6b987	-0.12047105
61	0xbda84b5a	-0.08217497
62	0x3d68693e	0.05674099
63	0x3d69b6b3	0.057059
64	0xbddea65b	-0.108715735
65	0xbd4042ba	-0.046938635
66	0xb998f623	-0.00029175085
67	0xbdca2dd8	-0.09872025
68	0x3d8e104a	0.06936701
69	0x3df7e111	0.12103475
70	0x3ca1473e	0.019687291
71	0xbd98f673	-0.074688815
72	0x3cdd982c	0.0270501
73	0x3d4c88df	0.049935218
74	0x3db6db65	0.08928565
75	0xbd703f72	-0.058654256
76	0xbde556a9	-0.1119817
77	0x3d60fa6b	0.054926317
78	0x3bff0080	0.007782042
79	0xbd26d2b8	-0.0407283
80	0xbd5ac4f5	-0.05341049
81	0xbd82def8	-0.06390184
82	0x3dc86fff	0.097869866
83	0xbc559edb	-0.013038362
84	0x3dbabb17	0.09117716
85	0x3de8c9cb	0.11366614
86	0x3c375e2b	0.011191885
87	0x3d21dba5	0.03951611
88	0xbc0b1c88	-0.008490689
89	0x3dafda3e	0.08586548
90	0xbde6adb2	-0.112635985
91	0x3d4b9d1c	0.049710378
92	0xbca6d6d0	-0.020366102
93	0x3d69c99c	0.057077035
94	0xba11f300	-0.0005567521
95	0xbd3d9384	-0.04628326
96	0xbca35dff	-0.019942282
97	0x3da2f6bd	0.07957218
98	0xbdb94e9b	-0.09048196
99	0xbd9308ec	-0.07179436
100	0xbce55eea	-0.02799936
101	0xbd39b6de	-0.04534041
102	0x3d3811f5	0.044939
103	0x3dc263c3	0.09491684
104	0xbc5b567b	-0.013387318
105	0x3df21121	0.11819673
106	0xbd55ec80	-0.052227497
107	0xbd8fa824	-0.07014492
108	0xbd6d5914	-0.05794628
109	0xbdc0ddda	-0.09417315
110	0xbdb3632c	-0.0875915
111	0xbde40ceb	-0.111352764
112	0xbdeef629	-0.11668045
113	0x3d531bd3	0.051540207
114	0x3d9c1fb9	0.07623238
115	0x3df058ca	0.11735685
116	0x3dcfbdeb	0.10143646
117	0xbba127be	-0.0049180677
118	0x3ca1b743	0.019740706
119	0xbd7c5000	-0.06159973
120	0x3d45417c	0.048158154
121	0xbdf5b8e6	-0.11998157
122	0x3d6cd934	0.05782433
123	0x3d060c6e	0.032726698
124	0x3d194d2a	0.037427105
125	0x3d55dc42	0.052212007
126	0xbd6bc318	-0.057559103
127	0x3dda2053	0.106506966
128	0x3d745c1e	0.059658162
129	0x3da82b29	0.08211357
130	0x3c539aa9	0.012915292
131	0x3dae6c4b	0.08516749
132	0x3da74a16	0.08168428
133	0x3d7facf5	0.062420804
134	0x3db98cb7	0.09060042
135	0xbbeaea05	-0.0071690106
136	0x3da3a587	0.07990556
137	0x3d039cb8	0.03213188
138	0x3d85969d	0.06522868
139	0x3e0133ef	0.12617467
140	0x3ce7dc99	0.028303431
141	0xbd3e0a43	-0.046396505
142	0xbc4bc4a0	-0.012437016
143	0x3d102480	0.03519106
144	0x3ca21d69	0.019789414
145	0xbd0a4b35	-0.03376313
146	0x3dc207ae	0.09474121
147	0x3da75477	0.08170407
148	0xbd9c15c0	-0.07621336
149	0xbbf5399a	-0.0074836733
150	0xbc955bf7	-0.018232329
151	0xbd8fbe7c	-0.07018754
152	0x3c952d73	0.018210148
153	0xbd1d505d	-0.03840672
154	0xbd8429b6	-0.06453268
155	0xbd24a1d0	-0.04019338
156	0xbd368d88	-0.04456857
157	0x3df4e65c	0.11958
158	0x3d44638c	0.047946498
159	0x3dfbeed8	0.12301415
160	0x3cdc417d	0.026886696
161	0x3d156f7e	0.03648328
162	0x3d4141e9	0.047181997
163	0x3ce4b795	0.02791957
164	0xbdc8e6d7	-0.09809654
165	0xbd9762fb	-0.07391926
166	0xbd17bd5e	-0.03704583
167	0x3beb4e91	0.0071809967
168	0x3d40e0b9	0.047089312
169	0x3d45250d	0.048131038
170	0x3dcb1696	0.09916417
171	0x3cd07560	0.025446594
172	0xbd3194a6	-0.043354653
173	0xbdcffa5e	-0.101551756
174	0xbdbb7ead	-0.09155021
175	0xbd98ea03	-0.07466509
176	0x3cfbb823	0.030727452
177	0x3daa0c81	0.08303166
178	0x3ddffa2d	0.10936389
179	0xbd21f3fa	-0.039539315
180	0xbc754d4f	-0.014972045
181	0xbd13eb75	-0.03611322
182	0xbc015781	-0.007894398
183	0x3d45a1f4	0.048250154
184	0xbb46c205	-0.0030328047
185	0x3bb6a752	0.0055741454
186	0x3c627000	0.013820648
187	0x3d6315df	0.05544078
188	0xbd270313	-0.040774416
189	0xbd8f40b5	-0.06994764
190	0x3cee8ca8	0.029119805
191	0xbc81c665	-0.015841672
192	0xbd67e747	-0.056617048
193	0x3d571139	0.05250666
194	0xbabf6514	-0.0014602267
195	0xbc89a254	-0.016801037
196	0xbd7a8887	-0.06116536
197	0xbc694a7c	-0.01423895
198	0xbddea0da	-0.10870524
199	0x3d049feb	0.032379072
200	0xba311bac	-0.00067561376
201	0x3d9aedce	0.07564889
202	0xbaae5342	-0.0013299959
203	0x3bdee025	0.0068016225
204	0x3d0b9494	0.034077242
205	0x3dc2d9e8	0.095142186
206	0xbd71f314	-0.059069708
207	0x3d98d554	0.07462564
208	0x3cf7630d	0.030198598
209	0xbdaaa8a1	-0.08332945
210	0x3d1fc310	0.039004385
211	0xbd9a2b47	-0.07527786
212	0xbd20c6ec	-0.039252207
213	0xbd72791a	-0.059197523
214	0xbdbaab66	-0.09114723
215	0x3dc9eace	0.098592386
216	0xbde49a00	-0.11162186
217	0x3d8035a4	0.06260231
218	0xbde6672e	-0.11250149
219	0xbc794100	-0.015213251
220	0x3bf44b60	0.0074552745
221	0x3db5fe3c	0.08886382
222	0xbd394a1c	-0.04523669
223	0x3d135e20	0.035978436
224	0x3c52242e	0.012826009
225	0x3d96aab2	0.07356776
226	0x3bb92aa2	0.005650834
227	0x3d464668	0.04840699
228	0xbd9aa59f	-0.07551121
229	0xbdb1e58e	-0.08686362
230	0x3dda3fad	0.106566764
231	0xbdb95821	-0.090500124
232	0xbcae5346	-0.021279942
233	0xbc778fe3	-0.015109989
234	0x3dfa565a	0.122235015
235	0xbcdd4ce0	-0.027014196
236	0xbdc5cffd	-0.09658811
237	0xbd0e3ff3	-0.034728955
238	0x3d842a7e	0.06453417
239	0x3d4b206a	0.04959146
240	0x3dc712c3	0.097203754
241	0xbcc12b12	-0.023580108
242	0x3d712ddb	0.05888162
243	0xbdf0e7b6	-0.11762945
244	0x3d318812	0.043342657
245	0x3d61274f	0.05496913
246	0x3d9bdf05	0.07610897
247	0xbd8fd300	-0.07022667
248	0xbd0801bc	-0.03320478
249	0x3cf90752	0.030398998
250	0xbdb8126a	-0.08987887
251	0xbdc6f46b	-0.09714588
252	0xbdf8550f	-0.12125599
253	0x3c06534f	0.008198573
254	0x3d9ea728	0.07746726
255	0x3d0257b0	0.031821907

cnn_fc.bias f4 [128]
0	0xbda3c5c2	-0.07996704
1	0x3d7c4ee7	0.061598685
2	0xbbecc1ab	-0.0072252355
3	0xbbc82b36	-0.006108667
4	0xbd0f74e0	-0.03502357
5	0xbdf77e0d	-0.12084589
6	0xbdc4f029	-0.096161194
7	0x3db81a5a	0.08989401
8	0xbcddb548	-0.02706398
9	0x38c9b2dd	9.617743e-05
10	0xbda039df	-0.07823538
11	0xbcdc219b	-0.026871493
12	0xbd5dc6ae	-0.054144554
13	0x3bfb916e	0.0076772487
14	0xbdec38f2	-0.11534299
15	0x3c8066e9	0.015674071
16	0xbdf02513	-0.11725821
17	0xbd9f32cf	-0.07773363
18	0x3b84b49d	0.004049851
19	0xbc1970bb	-0.009365256
20	0xbd0342b4	-0.032046035
21	0x3d855105	0.06509594
22	0x3c415c16	0.01180174
23	0x3cd8e6ff	0.026477335
24	0x3d47f188	0.048814327
25	0x3c3d210b	0.011543523
26	0xbdee37a8	-0.11631709
27	0xbd261a72	-0.040552564
28	0x3da1ca2a	0.07899888
29	0x3d96335f	0.07334017
30	0x3d622e2c	0.055219814
31	0x3de948ea	0.113908604
32	0xbd8ae637	-0.06782191
33	0xbc9f4843	-0.019443637
34	0xbcc0c1d1	-0.023529919
35	0xbc61c6e0	-0.013780326
36	0x3dcdc440	0.10047197
37	0xbe0012e8	-0.12507212
38	0x3cd8c4fb	0.026461115
39	0x3e01e77c	0.1268596
40	0xbda5292b	-0.08064493
41	0x3db9cdaf	0.09072434
42	0xbdd735ad	-0.10508285
43	0x3c5dfe5d	0.013549414
44	0xbda204d6	-0.07911079
45	0x3cfab3ee	0.030603375
46	0x3d24dbf7	0.040248837
47	0x3ce04411	0.027376207
48	0xbcdac8f9	-0.02670716
49	0xbd0048e4	-0.031319514
50	0xbdf5760e	-0.11985408
51	0x3c0ad8c4	0.0084745325
52	0x3df98f8c	0.121855825
53	0xbdd01069	-0.1015938
54	0xbd4dece2	-0.050274737
55	0x3cab1a86	0.02088667
56	0x3d60912b	0.054825943
57	0x3d6db19b	0.058030706
58	0x3d9f844f	0.07788908
59	0x3c36210a	0.011116276
60	0xbccf2bb7	-0.0252894
61	0xbdcc93d0	-0.099891305
62	0xbe067fbd	-0.13134666
63	0xbdb7a09e	-0.08966182
64	0x3d4bb175	0.049729783
65	0x3de2f532	0.110819235
66	0x3de54951	0.111956246
67	0x3daf8f82	0.08572294
68	0x3c8358d3	0.016033566
69	0x3dacacba	0.084313825
70	0x3cbf909a	0.023384381
71	0xbda335a2	-0.07969214
72	0xbb04cd01	-0.0020263793
73	0xbe01cd4f	-0.12675975
74	0x3dd8e8be	0.10591267
75	0x3d0aeb74	0.03391595
76	0x3de6b91d	0.11265776
77	0xbc8d844b	-0.017274996
78	0x3dbb6e71	0.091519244
79	0x3d3a92fb	0.045550328
80	0xbc6ff473	-0.014645684
81	0x3a57d5e0	0.0008233469
82	0x3db708c5	0.089372195
83	0xbc948c90	-0.018133432
84	0x3dca94b8	0.09891647
85	0x3c9bac03	0.01900292
86	0xbd60b1f9	-0.054857228
87	0xbd7e7a81	-0.062128548
88	0xbd786fcf	-0.060653504
89	0x3d9aa9cf	0.0755192
90	0x3dcd02ee	0.100103244
91	0xbd848ec6	-0.06472544
92	0xbdde207a	-0.10846038
93	0x3da8f82d	0.08250461
94	0xbd00109e	-0.031265847
95	0xbde29b67	-0.11064797
96	0x3caec5ee	0.021334615
97	0xbc1764ae	-0.0092403125
98	0x3dacd473	0.08438959
99	0x3cfb6b29	0.030690746
100	0xbd96a553	-0.07355752
101	0xbd097b4d	-0.033564854
102	0xbda13a8c	-0.07872495
103	0x3d7ce2e0	0.061739802
104	0x3d61ec55	0.055157024
105	0x3d755851	0.05989868
106	0xbdaf548a	-0.085610464
107	0xbdabbe9b	-0.083859645
108	0xbda60edd	-0.08108304
109	0xbdc789ae	-0.09743057
110	0xbddf2bcd	-0.10897026
111	0xbdc65487	-0.09684091
112	0x3d9ece4c	0.07754192
113	0xbd275354	-0.040850952
114	0xbcafdc20	-0.021467268
115	0x3ccd5fa6	0.025070023
116	0x3d03bc80	0.03216219
117	0x3d51f59c	0.051259622
118	0xbdb2dcf1	-0.087335475
119	0x3ddd2ee2	0.10799958
120	0xbb96783a	-0.004591969
121	0xbd6a17e7	-0.0571517
122	0x3d71683a	0.05893729
123	0xbdd28fe2	-0.1028135
124	0xbd859cd1	-0.06524051
125	0x3d7dd900	0.061974525
126	0x3d624536	0.055241786
127	0xbd5823f1	-0.05276865

lstm.weight_ih_l0 f4 [128, 3]
0	0xbc264764	-0.010148857
1	0xbd02434b	-0.031802457
2	0x3d91abea	0.07112868
3	0x3d107e22	0.03527654
4	0x3d83f7b3	0.06443729
5	0x3e15782e	0.14596626
6	0xbde902b3	-0.11377468
7	0xbe08db2b	-0.13364856
8	0xbd30f7d3	-0.043205094
9	0xbda11ef3	-0.07867231
10	0xbe005101	-0.125309
11	0x3e2884e1	0.1645694
12	0x3e17dfc2	0.1483145
13	0x3e1243b0	0.14283633
14	0xbddceaeb	-0.107869945
15	0xbcadf1cf	-0.021233467
16	0xbe0d27b1	-0.13784672
17	0xbd855822	-0.065109506
18	0x3e17c62a	0.14821687
19	0x3cbaa1f9	0.022782313
20	0x3d7a0dcd	0.061048318
21	0xbe33bff6	-0.17553696
22	0x3d987198	0.07443541
23	0x3df4b5e9	0.11948759
24	0xbd90862c	-0.07056841
25	0x3e079ded	0.13243838
26	0x3da51c4d	0.080620386
27	0xbe04357f	-0.12911032
28	0xbe0802a9	-0.13282265
29	0x3b3c9d46	0.0028780266
30	0xbe2e5d1b	-0.17027704
31	0xbdfd9b8a	-0.12383182
32	0x3d8e04c8	0.06934506
33	0xbd6a08ab	-0.057137173
34	0xbbc5262e	-0.0060165143
35	0xbd9523d7	-0.072822265
36	0x3deb6ade	0.11494993
37	0x3e131fe1	0.1436763
38	0x3e031524	0.12801033
39	0xbe21f86a	-0.15817419
40	0xbd52b676	-0.05144354
41	0x3dae9950	0.08525336
42	0x3dd9e8ab	0.10640081
43	0xbd1c600c	-0.038177535
44	0x3dc488e7	0.095964245
45	0xbc0b0011	-0.008483903
46	0x3c92173a	0.01783334
47	0x3df48c3a	0.119408086
48	0x3df8cc07	0.1214829
49	0xbe013e53	-0.12621431
50	0xbdd86feb	-0.10568222
51	0x3d821fb3	0.063537024
52	0x3dd9c3e3	0.106330656
53	0xbd2874f6	-0.041127168
54	0x3e210ede	0.15728328
55	0xbca772a6	-0.02044041
56	0xbdb6ce10	-0.08926022
57	0xbca2ecbd	-0.019888276
58	0xbe1a29b6	-0.15054974
59	0x3d60b906	0.054863952
60	0xbe2d0e8a	-0.16900077
61	0x3e293a1e	0.16526076
62	0xbe09094c	-0.13382453
63	0x3deacd50	0.114649415
64	0xbe0797d0	-0.13241506
65	0xbcd36241	-0.025803687
66	0xbdc4c020	-0.096069574
67	0x3dbafa47	0.09129768
68	0x3dd33a00	0.10313797
69	0xbe29f0af	-0.1659572
70	0xbe1b3901	-0.15158464
71	0x3cbe9100	0.0232625
72	0xbbdb6601	-0.0066955094
73	0xb854c0c4	-5.0724266e-05
74	0x3d594acb	0.053049844
75	0xbd0e1ac0	-0.03469348
76	0x3e1838d9	0.14865436
77	0x3c3dce6f	0.011584862
78	0xbda46191	-0.08026422
79	0x3d77987b	0.06044815
80	0xbe0c417b	-0.13696854
81	0xbda76a6a	-0.08174594
82	0x3d4e53f2	0.050373025
83	0xbd93428e	-0.07190429
84	0xbe2ceb4e	-0.16886637
85	0x3db55dbe	0.088557705
86	0x3d3a8cd8	0.045544475
87	0x3d530c66	0.051525496
88	0x3d7cc179	0.061707947
89	0xbe333381	-0.17500116
90	0xbdabe24f	-0.08392774
91	0xbdb42513	-0.08796134
92	0x3e2de45f	0.16981648
93	0xbd95a2de	-0.07306455
94	0xbded2567	-0.115793996
95	0xbd7d0b2f	-0.061778244
96	0x3ca283f4	0.01983831
97	0x3d92e965	0.07173423
98	0x3e0505a3	0.12990431
99	0x3e0266d0	0.12734532
100	0x3c90ff0b	0.017699739
101	0x3e24df05	0.161007
102	0x3dc5dc04	0.09661105
103	0x3dc3b938	0.09556812
104	0xbe1b25c9	-0.15151133
105	0x3c7c0caf	0.015383883
106	0xbd19e34b	-0.03757028
107	0xbe2b7851	-0.16745116
108	0xbdb032c1	-0.086034305
109	0x3e0aeea9	0.13567604
110	0x3d85017f	0.06494426
111	0x3e2882cf	0.1645615
112	0x3df6d26c	0.120518535
113	0xbaa239ae	-0.0012376809
114	0x3e234ddd	0.15947671
115	0x3d1bc69e	0.038031213
116	0xbcd72dad	-0.026266897
117	0xbd99c016	-0.075073406
118	0x3deb37d3	0.11485257
119	0x3da26d4c	0.07931003
120	0x3df97035	0.12179605
121	0xbd02f5ae	-0.03197258
122	0xbe26d3ac	-0.16291684
123	0x3d03b8c5	0.03215863
124	0x3c9e2f24	0.019309588
125	0xbdeb82ce	-0.114995584
126	0x3d2fccb9	0.042919848
127	0xbcb0a2d9	-0.021562027
128	0x3e1a88e3	0.1509128
129	0x3c111f10	0.0088575035
130	0xbdb25ed3	-0.087094925
131	0x3e109f5e	0.14123294
132	0x3bc8cf5c	0.006128235
133	0xbcfd6eab	-0.03093656
134	0x3daddeeb	0.08489784
135	0x3e2de5ba	0.16982165
136	0x3da6395b	0.081164084
137	0x3ba26bd9	0.004956704
138	0x3e1558e9	0.14584698
139	0xbd9bd8d3	-0.07609715
140	0x3e1f3b59	0.15549983
141	0xbdcf32e5	-0.10117129
142	0x3b1d4d6b	0.0024002444
143	0x3e250384	0.16114622
144	0x3d938a6b	0.072041355
145	0xbd1cf8ee	-0.038323335
146	0x3de0a5eb	0.10969146
147	0x3dd6c6c3	0.104871295
148	0xbe23067e	-0.15920445
149	0xbca12333	-0.019670105
150	0xbe0dd9c5	-0.13852604
151	0xbd1c5931	-0.038170997
152	0xbcac2372	-0.021012995
153	0xbd9263e9	-0.071479626
154	0xbd845496	-0.06461446
155	0x3dc3f5ff	0.095684044
156	0xbbfadaad	-0.0076554627
157	0xbe335fad	-0.17516966
158	0x3cf7fb54	0.03027121
159	0xbe3258ea	-0.1741673
160	0xbdf7da8c	-0.121022314
161	0x3ddd2910	0.10798848
162	0x3e0ac2a0	0.13550806
163	0xbd7eab7d	-0.062175263
164	0xbddaa033	-0.10675087
165	0x3da30e19	0.07961673
166	0xbe2ce841	-0.16885473
167	0x3ddf49bc	0.109027356
168	0x3df5b1ca	0.11996801
169	0x3d971791	0.07377542
170	0x3d59e26a	0.05319444
171	0x3d12f6cb	0.03587989
172	0xbe0af616	-0.13570437
173	0xbd92c9f9	-0.071674295
174	0x3deaa300	0.11456871
175	0x3e181184	0.14850432
176	0x3b9fb039	0.0048733023
177	0x3d4040aa	0.04693667
178	0xbe2c4c04	-0.16825873
179	0x3e00dd89	0.12584509
180	0xbdd2ceaa	-0.10293324
181	0xbdc1e2ff	-0.09467124
182	0x3e329748	0.17440522
183	0xbd4e1fb9	-0.05032322
184	0xbdb6e625	-0.08930615
185	0x3cc3d81f	0.023906766
186	0x3e0c1a9b	0.13682024
187	0x3e239257	0.15973793
188	0x3c6f0f78	0.01459109
189	0x3df7aca7	0.12093478
190	0x3e012f77	0.12615763
191	0xbceff169	-0.029289918
192	0xbe15340b	-0.14570634
193	0x3af5e384	0.0018759822
194	0xbd7b8bc1	-0.061412577
195	0x3d76f2db	0.0602902
196	0xbe0565ef	-0.13027166
197	0xbdf03d5b	-0.117304526
198	0xbe09dac5	-0.1346236
199	0xbe027b55	-0.1274236
200	0x3e050dc0	0.12993526
201	0xbe2d2199	-0.16907348
202	0xbbdb50ea	-0.0066929953
203	0xbde4c4d3	-0.11170354
204	0xbd9bb0c7	-0.07602077
205	0xbd4a0c36	-0.04932805
206	0x3d9fb912	0.07798971
207	0x3df52636	0.11970179
208	0xbd224426	-0.039615773
209	0x3bd1e7b9	0.0064057973
210	0x3c3cf4a7	0.011532939
211	0x3e28d9b1	0.16489293
212	0x3da1cd28	0.079004586
213	0xbd136fbf	-0.03599524
214	0x3dfac87d	0.12245271
215	0xbe108830	-0.14114451
216	0x3d75f957	0.060052242
217	0x3e0a8fa1	0.13531353
218	0xbdc12fb0	-0.09432924
219	0x3d8a31e1	0.06747795
220	0x3da3061d	0.079601504
221	0xbe16e8ae	-0.14737198
222	0x3d5750d8	0.052567333
223	0x3e084cc0	0.13310528
224	0x3c800ca4	0.015631028
225	0xbd1316a8	-0.03591028
226	0xbd8d83d0	-0.06909907
227	0xbdf4029d	-0.11914561
228	0x3d3ea0b2	0.04653997
229	0xbe24136e	-0.16023037
230	0xbe1920d7	-0.14953934
231	0xbd77e479	-0.060520623
232	0xbe298337	-0.1655396
233	0x3e276f6c	0.16351098
234	0xbd9ee9da	-0.077594474
235	0xbdbacc0f	-0.09120952
236	0x3d1a94fb	0.037739735
237	0x3d9be261	0.07611538
238	0x3e09b92c	0.13449544
239	0xbd973daa	-0.07384808
240	0x39fc12d3	0.0004807921
241	0xbe00cf64	-0.12579113
242	0xbe1c4890	-0.15262055
243	0xbda732f5	-0.08164016
244	0x3c98ddad	0.01866039
245	0xbdb4118a	-0.08792408
246	0xbd4bf88a	-0.049797572
247	0x3d80e11c	0.06292936
248	0x3d08fe2e	0.03344553
249	0x3ddce4ee	0.107858524
250	0x3da7fe41	0.08202792
251	0x3dbf1770	0.09330642
252	0xbdc0ff12	-0.09423651
253	0x3dcddac8	0.10051495
254	0xbe1c8191	-0.152838
255	0x3d4f6830	0.05063647

lstm.weight_hh_l0 f4 [128, 32]
0	0x3cf5c7a8	0.03000243
1	0xbd67f131	-0.056626502
2	0xbdc260b0	-0.09491098
3	0x3d8ef325	0.0697997
4	0xbd275768	-0.04085484
5	0xbce63ca0	-0.02810508
6	0xbd6d4b38	-0.057933062
7	0x3cfbcb0e	0.030736472
8	0x3d2a3073	0.04155011
9	0x3e14d542	0.14534476
10	0x3e20d5dd	0.15706582
11	0xbd3ae015	-0.045623858
12	0x3cd74883	0.026279693
13	0xbdf21e2e	-0.118221626
14	0xbe07ecca	-0.13273922
15	0x3e16307a	0.1466693
16	0x3cab0ef0	0.020881146
17	0xbdb41afc	-0.08794209
18	0x3db5e3c2	0.08881332
19	0x3d923b6e	0.071402416
20	0x3d8182ca	0.06323774
21	0x3d994738	0.07484287
22	0x3c19246c	0.009347063
23	0xbe03b530	-0.12862086
24	0xbe20b98d	-0.15695782
25	0x3e30b263	0.17255549
26	0x3dfcccb8	0.123437345
27	0xbe0d29fa	-0.13785544
28	0x3e0de18b	0.13855569
29	0xbe296761	-0.16543342
30	0x3df086f3	0.117444895
31	0x3dfbfc22	0.1230395
32	0x3de378ab	0.11107
33	0x3d994706	0.0748425
34	0xbddb441b	-0.107063495
35	0xbd9b4e6c	-0.07583317
36	0x3d1b4b4c	0.037913606
37	0x3d8ecdbb	0.06972834
38	0x3e1ea176	0.1549128
39	0x3c00cd93	0.007861513
40	0x3d950366	0.07276039
41	0xbe08b61b	-0.13350718
42	0xbd13054d	-0.035893727
43	0x3dd75620	0.10514474
44	0x3c6d5872	0.014486419
45	0x3e0f1f2a	0.13976732
46	0xbe1139f3	-0.14182262
47	0xbdf19aa8	-0.117970765
48	0x3d63e02b	0.055633705
49	0xbbf1a833	-0.0073747872
50	0xbe1aae27	-0.15105496
51	0x3d9a7a46	0.07542853
52	0x3bee7daa	0.007278164
53	0x3d2f1e38	0.04275343
54	0x3d1f1aca	0.038843907
55	0xbdf9ac48	-0.12191063
56	0xbdf2e201	-0.11859513
57	0xbe10d2e7	-0.14142953
58	0x3e038188	0.12842381
59	0xbdc6a3dd	-0.09699223
60	0x3e22f61d	0.15914197
61	0xbd6746d1	-0.05646402
62	0x3d204d3d	0.03913616
63	0x3e2ce07e	0.16882512
64	0xbdc29c8d	-0.09502516
65	0xbe2b9f58	-0.16760004
66	0x3ccf206a	0.02528401
67	0xbe029e2e	-0.12755653
68	0x3dc6ce2c	0.09707293
69	0x3d90926d	0.070591785
70	0x3e0334c1	0.12813093
71	0xbc9662b8	-0.01835762
72	0xbdec1084	-0.115265876
73	0xbe26ae9a	-0.16277543
74	0xbde9a68c	-0.114087194
75	0x3e212474	0.15736562
76	0xbd1b254c	-0.037877366
77	0xbb57ea77	-0.0032946148
78	0xbd1a0ee8	-0.037611872
79	0xbdb8b880	-0.090195656
80	0x3e143546	0.14473447
81	0xbd3be291	-0.045870367
82	0xbdafcaeb	-0.085836254
83	0x3e276074	0.16345388
84	0x3dd894ae	0.105752334
85	0x3dc0f680	0.09422016
86	0x3e01aad4	0.12662822
87	0xbde61b01	-0.11235619
88	0x3d6c7181	0.057725433
89	0xbd49c4bb	-0.049259882
90	0x3bce28e6	0.0062914966
91	0x3daa7c1c	0.08324453
92	0xbd7051ca	-0.05867175
93	0x3e319068	0.17340243
94	0x3a37a66c	0.0007005695
95	0x3dd09946	0.101854846
96	0x3c84efb7	0.016227586
97	0xbe2e6440	-0.1703043
98	0xbdd84ce6	-0.10561542
99	0xbe16b0e3	-0.14715914
100	0x3cab071c	0.020877413
101	0xbdf30926	-0.11866979
102	0xbe0fe467	-0.14051972
103	0x3d1b1b80	0.037868023
104	0xbe1e5718	-0.15462911
105	0xbdc51d28	-0.09624702
106	0xbdea3e85	-0.11437706
107	0x3db0b5c7	0.08628421
108	0x3e25ef39	0.16204537
109	0x3d7da250	0.06192237
110	0xbdcabbf5	-0.09899131
111	0x3e08efea	0.1337277
112	0x3e27f476	0.16401848
113	0xbd446c7c	-0.04795502
114	0x3e05a320	0.13050508
115	0x3d36f846	0.044670366
116	0xbdfbd087	-0.12295633
117	0xbd3d428b	-0.04620604
118	0xbe103c31	-0.14085461
119	0x3d59df1d	0.053191293
120	0x3dc7d911	0.09758199
121	0xbe32162b	-0.17391269
122	0xbd941e87	-0.07232385
123	0x3b7062e9	0.0036680049
124	0x3e10ea9d	0.14151998
125	0xbdc503ae	-0.096198425
126	0xbc28a2bc	-0.010292705
127	0xbba01d0f	-0.0048862766
128	0xbdb627f3	-0.088943385
129	0xbda23d27	-0.0792182
130	0xbd414f8c	-0.047195002
131	0xbd5803de	-0.052738063
132	0xbd689957	-0.05678686
133	0x3c8a02f0	0.016847104
134	0xbc714fb8	-0.014728479
135	0xbdb04943	-0.086077236
136	0x3ddb4de7	0.10708218
137	0x3e016bfb	0.12638848
138	0xbce322cc	-0.027726553
139	0xbd08ce69	-0.033399973
140	0xbe3078ca	-0.17233577
141	0xbe0441df	-0.12915753
142	0xbc042105	-0.008064513
143	0xbd0a408a	-0.033752955
144	0x3d538d87	0.051648643
145	0xbdb43902	-0.08799936
146	0xbd15c4b0	-0.03656453
147	0x3cd8aa02	0.026448254
148	0x3e31adf7	0.17351519
149	0x3e0e6a12	0.1390765
150	0xbdedf7a1	-0.11619497
151	0xbc7306fe	-0.01483321
152	0xbcee0df8	-0.029059395
153	0xbbba71b3	-0.0056898235
154	0x3d96ae80	0.07357502
155	0xbd91ef88	-0.07125765
156	0xbd1a6480	-0.0376935
157	0xbe33382e	-0.175019
158	0xbd80815b	-0.062746726
159	0xbe31747a	-0.17329589
160	0x3d8032ea	0.06259711
161	0xbe0b4708	-0.13601315
162	0xbdb2fd6b	-0.08739742
163	0xbe034997	-0.12821041
164	0x3e099fcd	0.13439865
165	0xbd545c4b	-0.05184583
166	0x3e1d3b2c	0.15354604
167	0xbdb3e032	-0.08782996
168	0x3e09158d	0.13387127
169	0xbd0e4198	-0.034730524
170	0xbe07f886	-0.13278398
171	0x3e176394	0.1478408
172	0xbdf64b07	-0.12026029
173	0xbdd4e10e	-0.10394488
174	0x3dc66b5e	0.096884474
175	0xbc8751ec	-0.016518556
176	0xbb2a1b3c	-0.0025956174
177	0x3e338f83	0.17535214
178	0xbe0fab9a	-0.14030305
179	0xbd82b7cd	-0.063827135
180	0x3d933e01	0.07189561
181	0xbd0b8c27	-0.034069207
182	0x3b431bfc	0.0029771319
183	0xbd74f87b	-0.059807282
184	0xbce087c2	-0.027408484
185	0x3e10852b	0.141133
186	0xbd06aaac	-0.03287761
187	0x3d91b09c	0.07113764
188	0x3e08945f	0.13337849
189	0x3e0c1e8a	0.13683525
190	0x3dab93d4	0.08377805
191	0x3df8da74	0.121510416
192	0xbd3be74c	-0.04587488
193	0x3c665eb0	0.014060661
194	0xbd9b676f	-0.07588088
195	0xbe2f938b	-0.17146127
196	0x3e183ad9	0.14866199
197	0xbe2d0279	-0.16895474
198	0xbde41711	-0.11137212
199	0xbd8100fb	-0.06299015
200	0xbe258ae5	-0.16166265
201	0xbe0c7064	-0.13714749
202	0xbdbd52a1	-0.09244276
203	0x3cab3414	0.020898856
204	0xbe1e4c94	-0.154589
205	0xbe0227aa	-0.12710443
206	0xbdd3ac4f	-0.103356
207	0xbe0815b0	-0.13289523
208	0x3d29eff9	0.04148862
209	0x3bc3d6c5	0.0059765303
210	0x3d1ed8d1	0.03878099
211	0x3e2351ce	0.15949175
212	0xbd9e859e	-0.07740329
213	0xbd87bda3	-0.06627967
214	0x3d66d7f4	0.056358293
215	0x3e1ec764	0.15505749
216	0x3d675e5f	0.056486484
217	0xbc785b5f	-0.015158503
218	0x3d6b3185	0.057420272
219	0xbe324c69	-0.1741196
220	0xbdf7a5ad	-0.12092147
221	0xbd984a17	-0.074360065
222	0xbe23e66c	-0.16005868
223	0xbe08b9d2	-0.13352135
224	0xbe0b3ce1	-0.13597442
225	0x3d4fabcc	0.050700948
226	0x3d5b741e	0.053577535
227	0xbb8850bf	-0.0041600163
228	0xbd277f5d	-0.040892947
229	0x3b99ab64	0.004689621
230	0x3ddb19b9	0.106982656
231	0xbe08498e	-0.13309309
232	0x3e00c646	0.12575635
233	0x3d9d7bfb	0.07689663
234	0xbd7c9f75	-0.061675508
235	0x3dfdf177	0.123995714
236	0xb971d2b5	-0.00023062046
237	0xbda60686	-0.08106713
238	0x3e23028d	0.15918942
239	0x3d5613d3	0.052265
240	0x3e0871c8	0.13324654
241	0xbd44a9d9	-0.04801354
242	0xbe1b0f72	-0.1514261
243	0x3e112492	0.14174107
244	0x3c2802f7	0.010254613
245	0x3dabda2e	0.08391224
246	0xbd3b7f2b	-0.045775574
247	0x3dab4f78	0.08364767
248	0xbe0f0bcf	-0.13969348
249	0x3bcb1324	0.00619735
250	0x3e0960c5	0.13415821
251	0xbd430705	-0.047614116
252	0x3e1b731d	0.15180631
253	0x3d8548e8	0.065080464
254	0x3db283ef	0.087165706
255	0x3e32f09f	0.17474602
