result/noPCA_LSTM_prediction_model.pth (torch, 142932 bytes, 13 tensors)

lstm.weight_ih_l0 f4 [128, 6]
0.14086461 0.1556005 -0.034170758 0.16970184 -0.0072914264 0.052433882 -0.078300595 0.10258826
0.15787894 -0.12480462 0.14450833 0.030298147 0.14517188 0.04237021 0.10094541 -0.0110286
0.16658713 0.030606797 -0.28723544 -0.010488527 -0.099628165 -0.034593742 -0.13570948 0.06723928
-0.12644495 -0.064801514 -0.039036967 -0.09635687 0.046881363 -0.16624378 0.24520016 -0.15924762
0.12971312 0.0366517 -0.111981705 0.06614773 0.03481389 0.14357771 0.022505328 -0.05565888
0.049078155 -0.0507778 0.07710908 0.16230546 0.105261065 -0.07383494 0.10739719 0.032911964
0.09896518 -0.10732349 -0.17089613 -0.067291066 -0.13819253 0.1378747 0.13174093 0.06966722
0.046191767 -0.023907712 0.054331407 -0.12386875 0.008233329 -0.1234728 0.051588275 -0.062148232
0.049814068 -0.036158774 0.19193852 -0.11899506 -0.09354083 -0.07632302 0.13257316 0.083889656
0.30752167 -0.09925605 -0.11600387 -0.07878037 -0.021745423 0.058570202 0.0793195 0.15394285
-0.08348891 -0.114914574 0.10111641 -0.06825916 0.18330075 -0.02283511 0.1320023 -0.11600454
-0.06968605 0.03819185 0.13686271 -0.025519725 0.12287506 0.14760102 -0.010504833 -0.007182539
0.3031952 -0.009035844 0.0023289463 -0.11727747 -0.031463858 0.02244667 -0.025301294 -0.13608858
-0.0005227182 -0.1267524 -0.1613032 -0.101125516 -0.15151219 -0.11039345 0.1790533 0.035006788
0.062301908 -0.16250302 -0.056536876 -0.08185966 0.039844554 -0.2188679 -0.014673304 -0.061596714
0.08006607 -0.09425796 -0.03076896 -0.172265 -0.062209465 -0.019416826 -0.055540282 -0.13918807
0.14862332 -0.035291277 0.1521662 0.05908377 -0.13991964 0.12835228 -0.042802665 -0.062295485
-0.14830856 -0.18867485 0.058636952 -0.018649554 0.07878444 -0.13434103 0.16704232 -0.11243378
-0.0060098562 0.046325848 0.110514104 0.15455385 0.21236208 -0.11483169 0.06620656 -0.07580005
-0.009802793 -0.12734279 0.1531538 -0.13082671 0.1016093 0.06850137 0.06242404 -0.08887092
0.17373948 0.040063374 0.10385002 -0.10231875 0.13409758 0.025303429 -0.0054798964 0.15336187
0.051444452 -0.08250999 -0.07749332 0.004812311 0.13464983 -0.035341837 -0.064613774 -0.054550916
-0.11164213 0.07753801 0.18470804 -0.11810977 0.059647776 0.08896472 0.041163906 -0.055821512
0.076628156 0.06318262 0.09865147 -0.025837338 -0.03225377 0.03810592 0.041604333 -0.022524789
0.11914076 0.16296245 -0.008039413 -0.029325394 0.038741887 0.010147835 0.0730791 0.044086806
-0.15045702 -0.058778178 0.1556587 0.06707624 0.011158412 -0.093825646 -0.095604554 -0.14296332
0.0039024174 0.09617672 0.11711657 0.12025807 -0.13439669 -0.08238931 0.056181084 0.20758705
0.02782967 -0.042334527 0.075253904 -0.06524189 -0.10900464 0.1308874 -0.04333376 -0.03798938
-0.16068073 0.12793736 0.14026019 0.062103152 -0.11341458 -0.17071542 -0.13834216 0.13368805
0.09864203 0.15276451 0.102968074 0.058271937 0.008658022 -0.12494425 -0.13008781 -0.16432965
0.075546876 -0.08631133 -0.0337657 -0.101104826 -0.03189752 -0.12693463 -0.11635991 0.023521502
-0.074312426 0.08770612 -0.119304925 -0.1583446 -0.03293201 -0.08728638 -0.05571651 -0.16931446
00000000: d03e 103e bd55 1f3e a3f6 0bbd 52c6 2d3e
00000010: ebec eebb e9c4 563d 105c a0bd cb19 d23d
00000020: 04ab 213e 9199 ffbd fef9 133e d233 f83c
00000030: f0a7 143e 638c 2d3d 78bc ce3d 4db1 34bc
00000040: d195 2a3e 1bbb fa3c 8610 93be 12d8 2bbc
00000050: da09 ccbd 2bb2 0dbd 6df7 0abe bfb4 893d
00000060: c97a 01be a8b6 84bd 3ae5 1fbd c056 c5bd
00000070: ac06 403d cf3b 2abe c015 7b3e cf11 23be
00000080: 84d3 043e 1820 163d aa56 e5bd 7678 873d
00000090: 0299 0e3d 0906 133e 185d b83c 91fa 63bd
000000a0: 2d06 493d 62fc 4fbd 5eeb 9d3d 6733 263e
000000b0: 1d93 d73d c636 97bd 0ff3 db3d b2ce 063d
000000c0: 42ae ca3d 6bcc dbbd 65ff 2ebe e6cf 89bd
000000d0: 5882 0dbe 062f 0d3e 18e7 063e b0ad 8e3d
000000e0: 9433 3d3d 1bda c3bc 9c8a 5e3d e6ae fdbd
000000f0: 16e5 063c 4fdf fcbd 3a4e 533d 258f 7ebd
00000100: d609 4c3d 391b 14bd 888b 443e afb3 f3bd
00000110: 5692 bfbd 3e4f 9cbd 42c1 073e 57ce ab3d
00000120: 7b73 9d3e c246 cbbd 7093 edbd 9a57 a1bd
00000130: 7523 b2bc 4fe7 6f3d 4372 a23d 32a3 1d3e
00000140: 3cfc aabd 5558 ebbd 1f16 cf3d 75cb 8bbd
00000150: 31b3 3b3e b210 bbbc 9c2b 073e ca93 edbd
00000160: 8fb7 8ebd 0f6f 1c3d bd25 0c3e be0e d1bc
00000170: eba5 fb3d b924 173e 771c 2cbc 815b ebbb
00000180: 673c 9b3e 140b 14bc 3ca1 183b 2c2f f0bd
00000190: 3fe0 00bd 14e2 b73c a944 cfbc ce5a 0bbe
000001a0: 0607 09ba 62cb 01be ab2c 25be e51a cfbd
000001b0: 0326 1bbe f615 e2bd c059 373e 4763 0f3d
000001c0: 4930 7f3d 3167 26be 3693 67bd 0aa6 a7bd
000001d0: 0b34 233d e81e 60be 4c68 70bc d64c 7cbd
000001e0: aef9 a33d 510a c1bd 300f fcbc 3c66 30be
000001f0: 5acf 7ebd 0910 9fbc 357e 63bd 5187 0ebe
00000200: b630 183e 968d 10bd 75d1 1b3e d301 723d
00000210: 1847 0fbe c86e 033e d951 2fbd 8d29 7fbd
00000220: 33de 17be fb33 41be 4d2d 703d f3c6 98bc
00000230: bd59 a13d b290 09be 240d 2b3e af43 e6bd
00000240: 54ee c4bb 2cc0 3d3d 3855 e23d 5d43 1e3e
00000250: 7275 593e e12c ebbd 4e97 873d 0e3d 9bbd
00000260: e59b 20bc 2666 02be 5ad4 1c3e 70f7 05be
00000270: 8918 d03d 724a 8c3d 5ab0 7f3d f501 b6bd
00000280: c3e8 313e 7e19 243d 52af d43d 7e8c d1bd
00000290: e050 093e 2349 cf3c b490 b3bb e50a 1d3e
000002a0: 6bb7 523d fffa a8bd d1b4 9ebd 97b0 9d3b
000002b0: a5e1 093e 9ac2 10bd 3a54 84bd c870 5fbd
000002c0: a1a4 e4bd 40cc 9e3d 1b24 3d3e 89e3 f1bd
000002d0: 3a51 743d 2333 b63d 7c9b 283d 19a5 64bd
000002e0: 39ef 9c3d e465 813d c809 ca3d d3a8 d3bc
000002f0: 871c 04bd f414 1c3d 4e69 2a3d e885 b8bc
00000300: 1200 f43d a1df 263e beb7 03bc cf3b f0bc
00000310: d0af 1e3d 1b43 263c 7faa 953d 5e94 343d
00000320: 6811 1abe 63c1 70bd ff64 1f3e 455f 893d
00000330: c6d1 363c a927 c0bd 52cc c3bd fa64 12be
00000340: b3bf 7f3b 4df8 c43d d0da ef3d dd49 f63d
00000350: 499f 09be babb a8bd 231e 663d b391 543e
00000360: 0cfb e33c f866 2dbd b81e 9a3d 8a9d 85bd
00000370: d33d dfbd 5907 063e be7e 31bd c19a 1bbd
00000380: 7d89 24be 0302 033e 5ea0 0f3e e05f 7e3d
00000390: e745 e8bd 06d0 2ebe 91a9 0dbe 85e5 083e
000003a0: d504 ca3d 4d6e 1c3e ede0 d23d 8eae 6e3d
000003b0: 60da 0d3c c5e2 ffbd bd35 05be 0846 28be
000003c0: 52b8 9a3d ffc3 b0bd e74d 0abd 0c10 cfbd
000003d0: f9a6 02bd 27fb 01be 1b4e eebd 2ab0 c03c
000003e0: 1d31 98bd 449f b33d 2456 f4bd 1625 22be
000003f0: b7e3 06bd 34c3 b2bd ff36 64bd c560 2dbe

lstm.weight_hh_l0 f4 [128, 32]
-0.113398544 0.17524089 0.06785454 0.07063478 -0.105753206 -0.078160085 -0.02645546 -0.03244588
-0.121151805 0.015131608 0.017629068 -0.022323148 0.024810266 -0.070965454 0.04645767 0.066400625
-0.0934216 -0.17525312 0.09258329 0.04236024 -0.08991996 0.16952977 -0.07990873 0.11943343
0.089709766 -0.14866051 0.11413533 -0.1622049 -0.097583905 -0.029391041 -0.119787164 0.17257833
-0.035842 0.0713567 -0.15805201 0.10198806 -0.054896876 -0.13457322 0.025856985 0.086081654
0.15296306 -0.10832395 -0.087041266 0.03381694 0.04781171 0.06760573 0.09687579 -0.04040315
0.09773755 0.13025416 -0.046246964 0.12581053 0.08637122 0.15573901 -0.1001995 -0.0870365
-0.05136799 0.008715582 0.10600383 -0.10072587 0.08833793 -0.06327559 0.10694101 -0.008537102
-0.15338264 -0.09535878 -0.12649111 0.08681509 -0.11836659 -0.01723225 0.039373998 -0.09789442
0.050996996 -0.17087899 -0.1262893 -0.16123217 -0.05206038 -0.06738664 0.0272069 -0.033735864
0.08183894 0.16216347 0.063714966 -0.06837111 -0.16625981 0.061538737 -0.0876944 0.08976677
0.11682222 0.0667929 0.16695361 0.16870423 0.038288422 -0.12706728 0.15561849 -0.08542303
-0.07442812 0.1603092 0.14729618 0.045600496 0.011535898 -0.17229056 -0.014185055 0.16535509
0.044647325 0.028006611 -0.035665665 -0.078171894 0.11923685 -0.016033998 0.12727435 -0.051931147
0.0696161 0.073500484 0.029704558 0.11979934 0.105154164 0.13552853 0.1359928 -0.048487265
-0.12922959 0.017555758 0.0033835585 -0.027955027 -0.018527336 0.013655318 0.112010546 0.04448257
-0.06178937 -0.07102094 -0.042849403 -0.06892659 0.15906924 0.091782376 0.16062334 -4.8975835e-05
0.035654623 0.06250349 -0.16724993 0.014386886 -0.010387391 -0.10150903 -0.13576111 0.15561913
0.14265914 0.08197477 0.16888781 -0.07106327 -0.030925395 0.06485334 -0.029225541 -0.03424897
-0.14611913 0.04663948 -0.10612552 0.007886494 0.17292176 -0.052932233 -0.05753116 0.10555376
-0.06792713 -0.01738078 0.16364092 -0.06995641 -0.12680493 -0.09614306 -0.049495574 -0.08245678
-0.091759786 0.06975809 0.02962157 -0.057405647 -0.13889852 -0.051249832 -0.07643163 -0.056083463
-0.15954143 0.037820175 -0.13048194 -0.13985223 -0.14352499 0.07831642 -0.106326796 -0.073560126
0.13918766 0.09547691 0.09905103 -0.17137529 -0.13021635 -0.06485025 0.1477095 0.020123687
-0.13210346 0.00150732 -0.13720572 -0.038756315 -0.048590325 0.15255076 0.054909866 -0.031080078
0.029864512 -0.05083252 0.06945523 0.06919909 0.048001457 -0.069478065 0.15120834 -0.025986688
-0.06914706 0.11072748 0.14410935 0.17620872 0.052128293 -0.06071792 0.08975606 0.15175727
-0.17335051 -0.022173904 -0.12062256 0.033299882 0.07315219 -0.03591469 -0.015151574 0.07900748
-0.029458785 -0.14805941 0.14183019 -0.08908859 -0.0193817 0.016171101 -0.0103678815 -0.16654679
0.08111786 -0.07992655 -0.09167406 0.042104103 -0.09184251 -0.08236137 -0.059109904 -0.0666635
-0.074146956 -0.047657013 0.04600941 -0.14285006 -0.10720649 0.0020815614 0.02456165 0.09760986
-0.12461309 0.056246493 0.100700155 0.09837709 -0.16447864 -0.067196935 -0.15248993 -0.11227953
00000000: 7f3d e8bd 5972 333e 52f7 8a3d f8a8 903d
00000010: 2395 d8bd 6512 a0bd 1fb9 d8bc f9e5 04bd
00000020: 701e f8bd 90ea 773c d66a 903c 09df b6bc
00000030: e63e cb3c 5656 91bd 664a 3e3d 0dfd 873d
00000040: d353 bfbd 8e75 33be 4f9c bd3d ee81 2d3d
00000050: f527 b8bd 3699 2d3e 30a7 a3bd 8499 f43d
00000060: c1b9 b73d 763a 18be c9bf e93d 0b19 26be
00000070: 12da c7bd 7bc5 f0bc f952 f5bd 60b8 303e
00000080: 10cf 12bd 7623 923d 63d8 21be 1edf d03d
00000090: 8cdb 60bd 90cd 09be 07d2 d33c 944b b03d
000000a0: 59a2 1c3e f2d8 ddbd b142 b2bd a283 0a3d
000000b0: 36d6 433d df74 8a3d d066 c63d c67d 25bd
000000c0: a02a c83d 5961 053e 756d 3dbd 7ad4 003e
000000d0: 65e3 b03d 0c7a 1f3e 6535 cdbd 3140 b2bd
000000e0: 3e67 52bd cdcb 0e3c 8918 d93d 5d49 cebd
000000f0: 84ea b43d a296 81bd e303 db3d 33df 0bbc
00000100: 5710 1dbe 774b c3bd e386 01be 1ccc b13d
00000110: 2f6a f2bd a62a 8dbc a146 213d df7c c8bd
00000120: 3ae2 503d e7fa 2ebe fb51 01be 0c1a 25be
00000130: 443d 55bd 0202 8abd 01e1 de3c 9e2e 0abd
00000140: 2d9b a73d 2e0e 263e fe7c 823d 2706 8cbd
00000150: 0340 2abe 0b10 7c3d 1f99 b3bd a4d7 b73d
00000160: 7d40 ef3d b7ca 883d e3f5 2a3e cdc0 2c3e
00000170: 52d4 1c3d ed1d 02be 745a 1f3e 45f2 aebd
00000180: c56d 98bd 1828 243e cfd4 163e 96c7 3a3d
00000190: 1001 3d3c f06c 30be 6f68 68bc d852 293e
000001a0: 1de0 363d 1f6e e53c 2916 12bd 9618 a0bd
000001b0: 7332 f43d bb59 83bc 3554 023e c1b5 54bd
000001c0: e392 8e3d 6c87 963d f956 f33c 5b59 f53d
000001d0: 115b d73d fec7 0a3e b241 0b3e 959a 46bd
000001e0: c354 04be 18d1 8f3c b1be 5d3b f101 e5bc
000001f0: a4c6 97bc 8eba 5f3c c965 e53d 5b33 363d
00000200: da16 7dbd 6d73 91bd db82 2fbd 6229 8dbd
00000210: 0ce3 223e 66f8 bb3d 727a 243e 676b 4db8
00000220: 950a 123d d401 803d 9143 2bbe f9b6 6b3c
00000230: e02f 2abc f7e3 cfbd f604 0bbe 9f5a 1f3e
00000240: 3d15 123e 63e2 a73d edf0 2c3e 9f89 91bd
00000250: 4157 fdbc d4d1 843d 676a efbc a648 0cbd
00000260: 41a0 15be 0a09 3f3d 5658 d9bd 5a36 013c
00000270: 6712 313e 78cf 58bd cba5 6bbd 922c d83d
00000280: 611d 8bbd 2362 8ebc 7c91 273e 4e45 8fbd
00000290: 27d9 01be a7e6 c4bd dfbb 4abd 1adf a8bd
000002a0: 8eec bbbd 54dd 8e3d efa8 f23c 2f22 6bbd
000002b0: 6a3b 0ebe 58eb 51bd 3088 9cbd c6b7 65bd
000002c0: d45e 23be 54e9 1a3d 0f9d 05be 6c35 0fbe
000002d0: 37f8 12be 5c64 a03d ddc1 d9bd b1a6 96bd
000002e0: 3687 0e3e 6689 c33d 44db ca3d 017d 2fbe
000002f0: 6f57 05be 35d0 84bd 2941 173e 6eda a43c
00000300: 2146 07be 4491 c53a a87f 0cbe f1be 1ebd
00000310: a606 47bd 4436 1c3e 2be9 603d a69b febc
00000320: 6ca6 f43c c335 50bd 8b3e 8e3d 41b8 8d3d
00000330: 2d9d 443d 844a 8ebd 5cd6 1a3e 09e2 d4bc
00000340: f99c 8dbd 17c5 e23d 6791 133e 0f70 343e
00000350: 7a84 553d 5bb3 78bd 06d2 b73d 4266 1b3e
00000360: cc82 31be 0ca6 b5bc f608 f7bd 7565 083d
00000370: d1d0 953d 481b 13bd 4f3e 78bc acce a13d
00000380: 8d53 f1bc e39c 17be ef3b 113e 1474 b6bd
00000390: 5fc6 9ebc 4279 843c 0cde 29bc 3e8b 2abe
000003a0: 1f21 a63d 88b0 a3bd 9cbf bbbd 5a75 2c3d
000003b0: ed17 bcbd 14ad a8bd 3a1d 72bd e086 88bd
000003c0: 5cda 97bd 0034 43bd 5d74 3c3d 4947 12be
000003d0: 148f dbbd ce6a 083b 8335 c93c aee7 c73d
000003e0: 2635 ffbd b962 663d e23b ce3d ee79 c93d
000003f0: 176d 28be 8c9e 89bd 5226 1cbe cff2 e5bd

lstm.bias_ih_l0 f4 [128]
0.14639847 0.027170412 0.12188924 -0.021289928 -0.15539332 0.100542925 0.07351957 0.14941339
0.06773622 -0.022644382 -0.12804475 -0.18271124 0.03621035 0.14520183 -0.008695599 -0.060316216
0.077895604 -0.08712347 0.063137464 -0.09204053 -0.14649749 -0.103535324 -0.029230244 0.061120216
0.09294859 -0.11540372 -0.03501583 0.060526423 -0.034703504 0.0025108447 0.11064783 -0.053346176
0.094031364 0.14285211 0.06755063 -0.020287374 -0.1112825 -0.119120605 -0.033126988 0.05817145
0.09688718 -0.01953254 0.14213295 -0.0917368 0.03187653 -0.09104536 0.050568823 0.14022848
0.05747121 0.011468973 -0.064807974 -0.13789101 -0.11821594 -0.15119125 0.12568118 -0.069856964
-0.03251182 -0.16094755 -0.047764 0.14190547 0.037081324 -0.031974744 0.08904326 0.12970068
0.14533949 -0.15413764 0.03949763 -0.14669801 -0.1194498 0.12744793 -0.13622996 -0.09122166
0.08976139 0.1370736 -0.17139864 0.024397062 -0.079908356 0.13153341 0.103067316 0.1807128
0.14011918 -0.044439137 0.13172196 0.018924313 0.004666351 -0.048038475 0.0668547 0.09741773
-0.20352767 0.16117197 -0.03104281 -0.032998174 0.17136623 0.053932186 -0.06453065 -0.061610933
0.067587316 -0.017759377 0.048246723 0.13519657 0.06443544 -0.10474133 -0.14407976 0.17352347
-0.019511418 -0.08990141 -0.13046747 0.17121334 0.08693128 -0.1154421 -0.14404328 0.14641681
0.06496666 -0.027080623 -0.1455203 0.113320224 -0.117227435 0.08799238 -0.16713981 -0.15799557
-0.16000624 0.15013126 0.18500161 -0.15218425 0.17279875 -0.11946956 -0.19691347 0.084115334
00000000: 7be9 153e 7c94 de3c 11a1 f93d 3768 aebc
00000010: 6d1f 1fbe 73e9 cd3d 6e91 963d d3ff 183e
00000020: 4ab9 8a3d b680 b9bc 2a1e 03be a818 3bbe
00000030: 4e51 143d caaf 143e fc77 0ebc 230e 77bd
00000040: bb87 9f3d ca6d b2bd 374e 813d bf7f bcbd
00000050: 7003 16be 540a d4bd 4474 efbc 3159 7a3d
00000060: d55b be3d c958 ecbd c26c 0fbd 8eea 773d
00000070: 4325 0ebd fc8c 243b 549b e23d 8581 5abd
00000080: 8493 c03d d347 123e fc57 8a3d b531 a6bc
00000090: 14e8 e3bd 81f5 f3bd 2ab0 07bd 3045 6e3d
000000a0: c96c c63d b502 a0bc 4d8b 113e 81e0 bbbd
000000b0: f790 023d fd75 babd 4121 4f3d 0e98 0f3e
000000c0: ee66 6b3d 5ce8 3b3c 0bba 84bd 4d33 0dbe
000000d0: 331b f2bd e1d1 1abe 91b2 003e 2b11 8fbd
000000e0: 1d2b 05bd 6fcf 24be 2fa4 43bd ab4f 113e
000000f0: 96e2 173d f3f7 02bd 505c b63d 41d0 043e
00000100: e0d3 143e 42d6 1dbe 44c8 213d 0138 16be
00000110: 19a2 f4bd b681 023e de7f 0bbe 6cd2 babd
00000120: d2d4 b73d 065d 0c3e 2083 2fbe 59dc c73c
00000130: fea6 a3bd b2b0 063e f514 d33d c70c 393e
00000140: 677b 0f3e d005 36bd 1fe2 063e 2907 9b3c
00000150: 30e8 983b fec3 44bd 1eeb 883d f282 c73d
00000160: 8f69 50be 440a 253e 7e4d febc 1829 07bd
00000170: a17a 2f3e ffe7 5c3d a528 84bd bf5b 7cbd
00000180: 386b 8a3d 1d7c 91bc 5b9e 453d f870 0a3e
00000190: baf6 833d 9f82 d6bd a589 13be 23b0 313e
000001a0: 69d6 9fbc 3b1e b8bd 4499 05be 8d52 2f3e
000001b0: 0709 b23d e86c ecbd 1580 13be 4aee 153e
000001c0: 3e0d 853d 2fd8 ddbc 4603 15be 6f14 e83d
000001d0: f014 f0bd 5935 b43d b326 2bbe 97c9 21be
000001e0: add8 23be 02bc 193e 1071 3d3e 30d6 1bbe
000001f0: 28f2 303e 75ac f4bd afa3 49be a944 ac3d

lstm.bias_hh_l0 f4 [128]
0.1025787 0.09921663 0.035606638 0.1976499 -0.14882182 0.07406723 -0.055813596 0.0096382275
0.12211184 -0.1527677 0.07702294 -0.050420396 0.115075104 -0.0036550409 0.09275185 0.16697058
-0.073660426 -0.17567077 0.1675082 -0.04591583 0.05410829 0.10954008 -0.026415057 0.13966721
0.118065365 -0.039103016 0.04763899 0.015716782 0.17722063 0.12224218 -0.1215391 0.014683601
0.09823817 0.13436036 0.068976894 0.086239286 -0.031989537 0.0015533227 -0.12112831 0.14845406
0.13940689 -0.1083459 -0.15166806 0.11612749 -0.16005436 0.11282987 -0.16911978 -0.10102229
-0.07931819 0.16576341 -0.029661283 0.15963128 0.054115202 0.17170452 0.11712577 0.13408187
0.1480615 -0.054765087 -0.04707558 0.048503887 0.16031052 -0.065464094 -0.14214952 -0.14487141
-0.07389309 0.0048658494 0.006349258 -0.048677202 -0.08020967 0.03768334 -0.14100257 0.16939014
-0.022393053 -0.0019405761 0.058559522 0.069685146 0.1289221 -0.006718013 0.014547069 -0.097779535
0.048728596 0.060458243 0.026014501 0.0063726166 0.12154089 0.13860181 0.11356808 -0.012205516
-0.1542521 -0.11788117 -0.1176029 -0.10863816 0.030567965 -0.14863074 -0.14771469 0.09888462
0.098101914 -0.13321665 0.15343866 -0.11081228 0.13636717 0.08831433 -0.05949237 0.1746972
-0.09930564 -0.10100784 0.14026614 -0.044093914 -0.07366929 0.02397529 -0.021238588 0.10421547
0.13318194 0.0775214 0.039628185 0.05058403 0.0073751477 0.021883987 0.0041151005 0.12016223
0.10843738 -0.027898438 0.09111286 0.008432141 0.098614216 0.13311452 -0.15290035 0.024161814
00000000: c814 d23d 1732 cb3d 44d8 113d bc64 4a3e
00000010: bf64 18be 8fb0 973d cc9c 64bd a8e9 1d3c
00000020: c615 fa3d 236f 1cbe 34be 9d3d 9e85 4ebd
00000030: 7fac eb3d 6989 6fbb aff4 bd3d 56fa 2a3e
00000040: 47db 96bd 0ae3 33be 4587 2b3e 3d12 3cbd
00000050: a7a0 5d3d 8d56 e03d 6464 d8bc ec04 0f3e
00000060: 41cc f13d 7c2a 20bd 1a21 433d 7bc0 803c
00000070: 5379 353e 1c5a fa3d 7ee9 f8bd 7d93 703c
00000080: 1831 c93d c395 093e c243 8d3d 399e b03d
00000090: 7607 03bd dc98 cb3a 1f12 f8bd 5704 183e
000000a0: aec0 0e3e 75e4 ddbd df4e 1bbe 40d4 ed3d
000000b0: 4ae5 23be 5913 e73d bc2d 2dbe c6e4 cebd
000000c0: 9371 a2bd e2bd 293e 38fc f2bc 6276 233e
000000d0: e7a7 5d3d 4fd3 2f3e a3df ef3d c24c 093e
000000e0: 6f9d 173e 5b51 60bd 53d2 40bd 03ac 463d
000000f0: 7128 243e 0a12 86bd a58f 11be 2c59 14be
00000100: 4355 97bd b471 9f3b 700d d03b bf61 47bd
00000110: f844 a4bd d959 1a3d fa62 10be 9c74 2d3e
00000120: a371 b7bc ee5a feba 1cdc 6f3d 16b7 8e3d
00000130: 2804 043e c722 dcbb d456 6e3c a340 c8bd
00000140: a397 473d 10a3 773d 5d1c d53c 62d1 d03b
00000150: 6eea f83d a2ed 0d3e 6296 e83d a5f9 47bc
00000160: 43f4 1dbe af6b f1bd cad9 f0bd af7d debd
00000170: ab69 fa3c a832 18be 8542 17be 0584 ca3d
00000180: a8e9 c83d f269 08be 061f 1d3e 8cf1 e2bd
00000190: d6a3 0b3e 25de b43d 45ae 73bd d3e3 323e
000001a0: c160 cbbd 33dd cebd eda1 0f3e d29b 34bd
000001b0: eddf 96bd d467 c43c 8cfc adbc ec6e d53d
000001c0: d960 083e 8ac3 9e3d 2a51 223d 3331 4f3d
000001d0: 39ab f13b 0c46 b33c f7d7 863b 9e17 f63d
000001e0: 6b14 de3d 448b e4bc 6199 ba3d f626 0a3c
000001f0: 40f6 c93d 2c4f 083e e991 1cbe ffee c53c

lstm.weight_ih_l1 f4 [128, 32]
-0.036350675 -0.17262034 -0.17138724 -0.023111144 0.12654233 -0.11705328 0.057587024 0.10179551
-0.1288301 0.0759297 0.033370413 -0.1606985 -0.0028841305 -0.16655578 0.15530056 0.08254118
0.067380846 0.13569881 0.13516122 0.17596094 0.07257912 -0.12848036 0.1641461 0.04901884
-0.07143953 -0.065748945 0.16574037 0.038442787 0.12898166 0.014237353 0.1628147 -0.12978733
0.0498786 0.06543848 0.005412115 0.15000483 0.03599576 -0.016750796 0.12918505 -0.01707032
-0.011736108 -0.1303755 -0.0002976237 -0.095160834 0.115284696 0.12493187 -0.15137257 -0.11574547
0.15969376 -0.075074516 0.1578045 0.179813 -0.043411173 -0.16996178 0.08799898 0.075968266
0.15562397 0.012039674 0.10303259 -0.13933414 0.034551438 0.058109995 0.093637824 -0.10748827
-0.020452151 -0.10541014 -0.11892957 0.07293785 0.026999217 0.06931882 -0.003878244 -0.0046384824
-0.00682805 0.09539698 -0.12224251 0.03724612 0.09640747 0.10119443 -0.084899776 0.13696265
-0.11742957 0.09221881 0.14468579 0.005536679 0.05450381 -0.168728 -0.06997354 -0.068984926
-0.16383275 -0.037301965 0.123952284 -0.017178869 0.17593978 -0.15763861 0.070955805 0.15348314
0.17190914 -0.06936948 -0.15969676 -0.064910315 0.13107063 0.016406154 0.16877344 -0.1291194
-0.11067991 0.08965202 0.060644858 -0.114392556 0.16488208 -0.06712468 -0.14689322 0.049568545
-0.09882724 -0.08411956 -0.098723434 0.048178803 0.08235229 0.119600706 -0.09996119 -0.04182529
0.16342312 -0.09036317 -0.06364249 -0.035050437 -0.1567159 -0.13088642 0.1577604 0.03228425
0.035485793 0.06987743 0.10799037 0.11540946 0.12671939 0.06910682 0.13392073 0.11435544
-0.02968379 0.016351111 -0.09230317 -0.1337288 0.1673641 -0.1349631 -0.11087109 -0.17089379
-0.13376147 0.04033171 0.08509071 -0.14620723 0.014026307 -0.13435842 0.033465333 0.10585121
-0.06750462 -0.07980627 0.11621759 -0.11419993 -0.03250687 -0.14761023 0.12446389 0.057858944
-0.059140228 0.17890036 0.17266944 0.070599444 -0.124871574 -0.09874916 0.15660292 0.12251812
-0.05864638 0.14939179 -0.115297146 0.01915224 0.19182916 -0.03076895 -0.10678023 0.013149592
0.06663084 0.12324173 -0.11650082 -0.024333699 -0.01132884 -0.090412766 -0.03954091 -0.066791594
0.06687719 0.046670906 -0.030247431 0.16870965 0.006907896 0.074145876 -0.00046631997 -0.09342303
-0.0074417037 -0.021490598 0.066007264 -0.094381325 -0.081102036 -0.16889644 -0.07683774 0.056365017
0.14289172 -0.17584436 -0.063525364 0.110681385 -0.09763682 0.12154309 0.005869054 -0.16404672
0.031489845 -0.10595746 0.03435866 -0.15845455 0.1660804 -0.07323948 0.11302581 -0.11047901
-0.15135007 0.07081575 0.10680851 -0.0052565555 -0.14976923 -0.046655655 -0.12031228 0.05216796
0.028213594 0.12651968 0.17511909 -0.082579024 0.13927025 0.11725461 0.028661152 -0.17290594
-0.12264301 0.07964357 0.13097075 0.090368904 0.016951282 -0.11339678 -0.15583809 -0.10349672
0.0014074049 0.023146747 0.13496722 -0.12925513 0.09474775 0.14442952 -0.15981872 -0.093350396
-0.04165953 0.031017974 0.15620962 0.040963903 0.12092144 0.14548603 0.13796923 -0.16110373
00000000: 72e4 14bd 63c3 30be 2380 2fbe 9553 bdbc
00000010: 5094 013e a1b9 efbd 5fe0 6b3d 2a7a d03d
00000020: 0aec 03be 0881 9b3d 6aaf 083d 268e 24be
00000030: ae03 3dbb 998d 2abe 1c07 1f3e 5a0b a93d
00000040: f8fe 893d a1f4 0a3e b467 0a3e 1b2f 343e
00000050: 5da4 943d 5b90 03be ea15 283e fbc7 483d
00000060: e34e 92bd 62a7 86bd d8b7 293e 2f76 1d3d
00000070: c513 043e c943 693c e6b8 263e f8e6 04be
00000080: 814d 4c3d 9c04 863d 1c58 b13b de9a 193e
00000090: 4a70 133d f738 89bc 1649 043e 0ed7 8bbc
000000a0: ce48 40bc 2881 05be 600a 9cb9 afe3 c2bd
000000b0: 621a ec3d 48dc ff3d 6901 1bbe f60b edbd
000000c0: c386 233e abc0 99bd 8197 213e e620 383e
000000d0: eacf 31bd 760a 2ebe cf38 b43d 4095 9b3d
000000e0: e45b 1f3e 0e42 453c c002 d33d 9cad 0ebe
000000f0: cf85 0d3d bf04 6e3d 30c5 bf3d cf22 dcbd
00000100: 458b a7bc 45e1 d7bd 5991 f3bd 7160 953d
00000110: 762d dd3c 07f7 8d3d 232a 7ebb 69fe 97bb
00000120: d6bd dfbb 7e5f c33d 485a fabd 638f 183d
00000130: 4871 c53d 063f cf3d efdf adbd f03f 0c3e
00000140: ea7e f0bd 37dd bc3d 8328 143e 086d b53b
00000150: 633f 5f3d 08c7 2cbe 4a4e 8fbd f847 8dbd
00000160: c6c3 27be f2c9 18bd b2da fd3d b3ba 8cbc
00000170: 8f29 343e 046c 21be 4751 913d af2a 1d3e
00000180: f308 303e 9611 8ebd 8c87 23be b3ef 84bd
00000190: 6137 063e 3366 863c f2d2 2c3e e037 04be
000001a0: 26ac e2bd 7a9b b73d be66 783d a546 eabd
000001b0: d9d6 283e aa78 89bd 2d6b 16be 6308 4b3d
000001c0: f065 cabd e046 acbd 832f cabd 2357 453d
000001d0: 51a8 a83d 37f1 f43d 74b8 ccbd ff50 2bbd
000001e0: 6458 273e 5310 b9bd fe56 82bd 0c91 0fbd
000001f0: 227a 20be 1707 06be f18b 213e 7d3c 043d
00000200: 8d59 113d e61b 8f3d 0e2a dd3d cc5b ec3d
00000210: bac2 013e e087 8d3d 8422 093e 2f33 ea3d
00000220: 6b2b f3bc c4f2 853c 7209 bdbd 34f0 08be
00000230: 7f61 2b3e c433 0abe 6210 e3bd c8fe 2ebe
00000240: c4f8 08be dd32 253d 0a44 ae3d 59b7 15be
00000250: 98ce 653c 4195 09be f212 093d 85c8 d83d
00000260: dd3f 8abd 7871 a3bd 7d03 ee3d a7e1 e9bd
00000270: ec25 05bd 2327 17be ede6 fe3d 80fd 6c3d
00000280: 063d 72bd a831 373e 42d0 303e 7196 903d
00000290: abbc ffbd 003d cabd 845c 203e c8ea fa3d
000002a0: 3037 70bd 29fa 183e e920 ecbd 29e5 9c3c
000002b0: dd6e 443e 2a0f fcbc 98af dabd 6371 573c
000002c0: c075 883d 2966 fc3d fb97 eebd 7757 c7bc
000002d0: 999c 39bc 542a b9bd a6f5 21bd 08ca 88bd
000002e0: e8f6 883d fe29 3f3d 76c9 f7bc 39c2 2c3e
000002f0: a25b e23b cbd9 973d 687c f4b9 9354 bfbd
00000300: 89d9 f3bb 0d0d b0bc d12e 873d ff4a c1bd
00000310: d318 a6bd 30f3 2cbe 1b5d 9dbd 01df 663d
00000320: 3552 123e 8b10 34be 9619 82bd ecac e23d
00000330: d0f5 c7bd 95eb f83d 3151 c03b ddfb 27be
00000340: 7ffb 003d 3a00 d9bd abbb 0c3d e941 22be
00000350: fb10 2a3e 95fe 95bd 137a e73d d242 e2bd
00000360: 83fb 1abe d907 913d 6cbe da3d 2f3f acbb
00000370: 1b5d 19be 001a 3fbd 4966 f6bd 12ae 553d
00000380: 3220 e73c 608e 013e 6b52 333e 311f a9bd
00000390: dc9c 0e3e 2f23 f03d cbca ea3c 410e 31be
000003a0: 422c fbbd 2b1c a33d 321d 063e 5513 b93d
000003b0: 6add 8a3c 923c e8bd 0594 1fbe 17f6 d3bd
000003c0: ac78 b83a 3f9e bd3c d934 0a3e 755b 04be
000003d0: 1c0b c23d 55e5 133e 85a7 23be 7e2e bfbd
000003e0: 2fa3 2abd 6819 fe3c 6af5 1f3e c4c9 273d
000003f0: a9a5 f73d 4afa 143e ce47 0d3e 60f8 24be

lstm.weight_hh_l1 f4 [128, 32]
0.109793715 -0.09144132 -0.025136717 0.016103594 0.12235896 0.077714294 0.17048652 -0.0949389
-0.014056495 -0.014718003 0.1439631 0.16670835 0.04465423 -0.14291486 -0.12820391 0.03233207
-0.15572163 -0.061852258 -0.13276169 0.09042826 -0.024146112 -0.1384591 0.11536389 -0.15666579
-0.017066123 0.16999398 0.08869718 -0.15351568 0.018992694 -0.026299704 0.07858377 0.16336699
0.14908089 -0.014784404 0.08018905 -0.1710875 0.14189544 0.10153337 -0.12952073 -0.04902316
-0.07041522 -0.09423821 0.06546858 -0.05417236 0.08031423 -0.0583549 0.14191201 -0.071744576
-0.029268434 -0.052618228 0.0149939265 -0.07419186 -0.12482111 -0.16546868 0.100822404 0.032279372
-0.1210527 0.0884312 0.021436678 -0.06382024 -0.019104522 0.016641546 0.1202597 -0.1607904
-0.13716885 -0.14203535 -0.13874546 0.0012265352 0.09813994 0.04688151 0.074688084 0.021520816
-0.0034824512 -0.15967129 0.15737413 0.17085625 -0.0005702174 0.031842113 0.03313383 0.17477173
-0.00010278008 -0.028548751 -0.09555728 0.045166567 0.0811061 -0.14899214 0.060153633 0.044815797
0.077713415 0.08289037 -0.046177566 0.024305345 -0.12436225 0.10651451 -0.1491201 -0.1550762
-0.13109793 -0.09868314 0.0073806015 0.11579009 -0.023272695 0.12663104 -0.028731711 0.1499325
0.122092284 0.11137067 0.0723219 -0.11905275 0.1730068 -0.16822448 -0.12405518 -0.10679307
-0.046765786 0.076601505 0.036341857 -0.1520037 0.17072868 0.16573678 0.0874267 -0.1732841
0.098912306 0.050426055 -0.021919997 -0.14821914 0.14992468 -0.05266538 -0.14287116 0.13637619
0.06881839 0.053114947 0.11435348 0.06166745 -0.038377006 -0.02876853 0.145355 -0.0053172875
-0.14783934 -0.12051652 -0.1349489 0.016475264 0.13019116 0.10536249 0.047859512 0.058588263
-0.08314956 0.16639698 0.06955112 -0.11284637 -0.11840325 -0.15772022 -0.05146149 0.13128884
0.008121906 -0.08359924 0.049384046 -0.1214226 0.051217567 0.12078623 0.084687315 -0.053802926
-0.06162639 0.080659695 0.10387536 -0.04041739 0.005505426 -0.0045809858 -0.030577723 -0.1541722
-0.15078336 0.16915551 -0.09966792 0.12388672 0.12469595 -0.037598897 -0.07505127 0.0027651277
-0.027410688 -0.102492705 0.1824101 -0.033289574 -0.027266243 -0.11415435 0.0104930205 0.04039067
0.15959455 -0.06282685 0.10629836 0.0075528715 0.079844505 -0.005443572 -0.04328596 0.07320753
-0.0787394 0.10707222 -0.14803661 -0.12688169 0.16823205 -0.067308396 -0.14019684 -0.12909971
0.17151111 -0.025393702 -0.14830524 -0.025269374 -0.086515665 -0.11816575 -0.086667456 0.13374245
0.07120123 0.10331625 0.013859383 -0.07378028 -0.072384715 -0.11888732 -0.12715681 -0.15266795
0.031940315 0.09283137 0.1441713 -0.004562022 -0.025351174 -0.014386236 0.0699976 -0.02822199
-0.062093258 -0.04762576 -0.17257777 -0.13508588 -0.07552417 0.01903325 -0.11150046 0.06758741
-0.096772335 0.17261738 -0.15725312 0.09819292 -0.09076602 -0.06254336 -0.16436027 -0.16405222
-0.16669613 -0.0027203788 0.16503862 0.080037184 0.11070918 0.040208872 -0.06926336 -0.06773968
-0.05398121 -0.16499083 0.09738984 -0.050967623 -0.10107059 0.043500625 -0.00051507575 0.09669479
00000000: 87db e03d 9645 bbbd 84eb cdbc afeb 833c
00000010: 5697 fa3d ac28 9f3d 0594 2e3e 536f c2bd
00000020: 374d 66bc c723 71bc 106b 133e 98b5 2a3e
00000030: 5be7 363d 4658 12be e347 03be a26e 043d
00000040: 7e75 1fbe cb58 7dbd aef2 07be 7432 b93d
00000050: 11ce c5bc 39c8 0dbe e743 ec3d ff6c 20be
00000060: 41ce 8bbc e712 2e3e dea6 b53d 3733 1dbe
00000070: 9196 9b3c 7a72 d7bc 87f0 a03d ad49 273e
00000080: a9a8 183e 493a 72bc 283a a43d 9031 2fbe
00000090: 0a4d 113e baf0 cf3d 15a1 04be 82cc 48bd
000000a0: db35 90bd f6ff c0bd 6414 863d d6e3 5dbd
000000b0: c97b a43d 8c05 6fbd 6251 113e d2ee 92bd
000000c0: 5bc4 efbc 3686 57bd 16a9 753c e7f1 97bd
000000d0: 36a2 ffbd 9f70 29be fa7b ce3d 6037 043d
000000e0: 7aea f7bd 6b1b b53d f99b af3c 30b4 82bd
000000f0: 1681 9cbc da53 883c b84a f63d 3da6 24be
00000100: fe75 0cbe b771 11be 4a13 0ebe b1c3 a03a
00000110: 98fd c83d d406 403d 11f6 983d 6c4c b03c
00000120: d639 64bb df80 23be af26 213e f1f4 2e3e
00000130: a47a 15ba e06c 023d 57b7 073d 5cf7 323e
00000140: a38b d7b8 12df e9bc 89b3 c3bd 9400 393d
00000150: f41a a63d 6591 18be a863 763d c590 373d
00000160: 3628 9f3d 6dc2 a93d b024 3dbd 011c c73c
00000170: a3b1 febd 4824 da3d f1b2 18be 4ccc 1ebe
00000180: 893e 06be 631a cabd f9d8 f13b 5b23 ed3d
00000190: 61a6 bebc 91ab 013e c45e ebbc e887 193e
000001a0: 850b fa3d 4e16 e43d 811d 943d eed1 f3bd
000001b0: b228 313e 0a43 2cbe a410 febd 53b6 dabd
000001c0: 7b8d 3fbd 40e1 9c3d 33db 143d dca6 1bbe
000001d0: 80d3 2e3e e7b6 293e c50c b33d 6371 31be
000001e0: 8992 ca3d 8d8b 4e3d 9191 b3bc c2c6 17be
000001f0: db85 193e a7b7 57bd d14c 12be 33a6 0b3e
00000200: a8f0 8c3d 0f8f 593d 2832 ea3d 0297 7c3d
00000210: 3531 1dbd fbab ebbc f1d7 143e a43c aebb
00000220: 3263 17be 5ed1 f6bd 0b30 0abe 22f7 863c
00000230: d550 053e 4ac8 d73d 5608 443d 3ffa 6f3d
00000240: 514a aabd f863 2a3e d170 8e3d ff1b e7bd
00000250: 677d f2bd 6981 21be 49c9 52bd 9570 063e
00000260: be11 053c 1436 abbd ed46 4a3d 69ac f8bd
00000270: 83c9 513d c55e f73d 8b70 ad3d 7560 5cbd
00000280: f46b 7cbd e930 a53d 9bbc d43d b58c 25bd
00000290: dc66 b43b 181c 96bb 227e fabc 51df 1dbe
000002a0: f466 1abe 1a37 2d3e b21e ccbd 52b8 fd3d
000002b0: 9760 ff3d 4d01 1abd 7bb4 99bd 2537 353b
000002c0: 618c e0bc b2e7 d1bd b7c9 3a3e a65a 08bd
000002d0: 755d dfbc c1c9 e9bd ebea 2b3c b070 253d
000002e0: c16c 233e 5dab 80bd f4b2 d93d 147e f73b
000002f0: 8485 a33d fe5f b2bb 9e4c 31bd d4ed 953d
00000300: 1f42 a1bd ae48 db3d e996 17be 46ed 01be
00000310: 0645 2c3e fcd8 89bd c38f 0fbe b732 04be
00000320: 9ca0 2f3e 7406 d0bc 54dd 17be b801 cfbc
00000330: 202f b1bd e200 f2bd b57e b1bd c8f3 083e
00000340: f3d1 913d 7897 d33d 7712 633c 1e1a 97bd
00000350: 703e 94bd 327b f3bd 6535 02be fd54 1cbe
00000360: d9d3 023d 601e be3d a4a1 133e 047d 95bb
00000370: 44ad cfbc 3fb4 6bbc e75a 8f3d ce31 e7bc
00000380: 8055 7ebd 3b13 43bd 3ab8 30be f453 0abe
00000390: 6bac 9abd 9eeb 9b3c 5a5a e4bd 456b 8a3d
000003a0: 9330 c6bd 9cc2 303e f606 21be 5f19 c93d
000003b0: 89e3 b9bd bc16 80bd 0f4e 28be 4efd 27be
000003c0: 64b2 2abe 6248 32bb e2ff 283e 89ea a33d
000003d0: 7fbb e23d 0fb2 243d f3d9 8dbd 1abb 8abd
000003e0: 671b 5dbd 5bf3 28be 5374 c73d 6dc3 50bd
000003f0: 19fe cebd b62d 323d 2606 07ba eb07 c63d

lstm.bias_ih_l1 f4 [128]
-0.0680537 -0.020590039 -0.15159485 0.100984156 0.025066018 0.15420407 0.11159972 -0.07026462
0.003954219 0.15318449 -0.13094164 0.16221854 0.12389766 -0.044433076 -0.1363273 0.099571295
0.08488013 -0.064149454 0.10289775 0.056954626 0.18012732 0.09430665 0.023000482 -0.15162107
0.18052307 0.15199299 -0.043380704 0.038561847 -0.0049509616 -0.00381392 0.09837839 0.026394382
-0.15362316 0.049832966 -0.10883542 0.049333982 0.07894994 -0.08136433 0.11859566 0.00599337
-0.0881704 0.14976242 0.11586345 0.13300294 -0.1216417 -0.13339049 -0.1559291 0.114559606
0.10147121 -0.11138423 0.055200387 0.03864799 -0.077709034 0.0065741967 -0.110118724 -0.05009045
0.057387985 0.025223913 -0.12995163 0.03597652 -0.034361806 -0.12711726 -0.16219552 0.008321614
-0.15300679 -0.13353245 0.054318544 -0.03138277 -0.03280569 -0.07330882 0.089993104 -0.08794232
-0.0646375 0.055208296 0.033567436 0.013753838 0.018339489 0.017538244 0.042726435 -0.09983911
-0.02645598 0.024251614 -0.19753009 -0.11055923 -0.11424059 0.14713997 -0.0021052416 0.15328462
-0.0059397686 -0.050900597 0.10724836 -0.27140963 -0.18409953 -0.100875296 -0.029963626 -0.15881325
0.033993058 0.17505828 -0.034052484 -0.032387767 -0.14820525 0.06551842 0.012261966 0.040930875
-0.0561094 -0.08426206 -0.082819164 0.12859131 -0.053619746 0.028649336 -0.025519295 -0.06421696
-0.006622225 0.15496257 0.15290113 -0.028453974 -0.028627764 -0.09407515 -0.08331261 0.000707029
0.1837368 0.024914457 -0.1456766 0.05171474 -0.15413761 0.16956277 0.02267504 -0.041898202
00000000: bd5f 8bbd 71ac a8bc ae3b 1bbe c8d0 ce3d
00000010: 4057 cd3c ace7 1d3e 658e e43d e6e6 8fbd
00000020: 6592 813b 65dc 1c3e 9115 06be 9e1c 263e
00000030: 0ebe fd3d 75ff 35bd 6299 0bbe 09ec cb3d
00000040: a2d5 ad3d ca60 83bd 0ebc d23d 4149 693d
00000050: 4c73 383e d823 c13d 826b bc3c 8e42 1bbe
00000060: 0adb 383e 0da4 1b3e f7af 31bd 07f3 1d3d
00000070: ad3b a2bb f6f2 79bb 9c7a c93d 0839 d83c
00000080: 644f 1dbe a71d 4c3d 1be5 debd 6e12 4a3d
00000090: 82b0 a13d 58a2 a6bd 48e2 f23d 0864 c43b
000000a0: af92 b4bd 525b 193e d149 ed3d ec31 083e
000000b0: 491f f9bd 8497 08be e1ab 1fbe 3a9e ea3d
000000c0: 23d0 cf3d 6a1d e4bd cd19 623d 5b4d 1e3d
000000d0: ea25 9fbd 5c6c d73b ed85 e1bd a52b 4dbd
000000e0: aa0f 6b3d 61a2 ce3c 0a12 05be 1e5c 133d
000000f0: f7be 0cbd 072b 02be 9516 26be 6157 083c
00000100: d0ad 1cbe bbbc 08be 1f7d 5e3d 388b 00bd
00000110: 425f 06bd ef22 96bd 4e4e b83d 1a1b b4bd
00000120: aa60 84bd 1822 623d 027e 093d c757 613c
00000130: b23c 963c 5dac 8f3c ea01 2f3d 7378 ccbd
00000140: 36ba d8bc 52ab c63c 5445 4abe e16c e2bd
00000150: f8f6 e9bd dcab 163e 18f8 09bb a5f6 1c3e
00000160: 64a2 c2bb 257d 50bd 07a5 db3d 34f6 8abe
00000170: 9684 3cbe b597 cebd 4776 f5bc f19f 22be
00000180: 4e3c 0b3d 7a42 333e 9e7a 0bbd 09a9 04bd
00000190: 1ec3 17be 852e 863d 6ae6 483c 22a7 273d
000001a0: f8d2 65bd 9691 acbd 189d a9bd 71ad 033e
000001b0: 61a0 5bbd 03b2 ea3c d70d d1bc 2e84 83bd
000001c0: 40ff d8bb 82ae 1e3e 1d92 1c3e 4f18 e9bc
000001d0: c684 eabc 79aa c0bd cd9f aabd ea57 393a
000001e0: 8025 3c3e 6719 cc3c 3f2c 15be d6d2 533d
000001f0: 40d6 1dbe dda1 2d3e 01c1 b93c 739d 2bbd

lstm.bias_hh_l1 f4 [128]
0.07171956 -0.13078249 -0.05626581 0.015657589 0.13335897 0.21695238 -0.007888416 -0.17190106
0.034964763 -0.089412116 0.1647787 -0.040804148 -0.016136521 -0.0151690515 0.17186213 0.082670756
-0.12136947 0.046883967 0.074946076 -0.041426685 0.064800054 -0.15479767 -0.09541907 0.1362876
0.20088115 0.056365516 -0.09453137 0.11681027 -0.09988247 -0.13466398 -0.114362925 -0.014254526
0.03765746 0.0061190077 0.16965263 -0.013681157 0.16462314 -0.12833102 -0.09216309 0.025715956
0.10610181 0.050753612 0.17625912 -0.09049647 0.16551267 0.05777632 0.04617423 -0.004264676
-0.12886709 0.09094375 0.02424142 0.124974884 0.12763123 -0.14963302 0.16028738 -0.039040204
-0.13094175 0.15455171 -0.026355593 0.020618027 0.027447835 -0.09234331 0.1133488 0.067730084
0.11948861 -0.074603885 -0.1179897 -0.0076582385 -0.00027044892 -0.100622706 -0.14283676 0.13886061
-0.0945639 0.008021918 -0.005188251 -0.12414282 0.002983619 -0.11468661 -0.039778464 -0.112595715
0.10091379 -0.23539229 0.11367961 -0.14717034 -0.13810764 0.004365047 -0.15617694 0.15604983
0.25446677 -0.08355681 0.12560354 -0.16333055 0.031427782 -0.10639816 -0.044938896 -0.050156645
0.040920928 0.08238484 -0.16322204 0.010682086 0.14425692 0.24529973 0.07767908 0.008837023
0.123388365 0.11757523 -0.10648517 -0.0033840416 -0.121215805 0.02735277 0.01897698 -0.109517604
0.04323139 0.14358935 -0.1313652 -0.14900024 -0.079456665 0.027855048 -0.17266415 -0.004277114
0.1882954 -0.14617147 -0.04159697 0.059786074 0.105418794 -0.059537753 0.14050679 -0.08563022
00000000: b4e1 923d d8eb 05be fa76 66bd 5844 803c
00000010: 418f 083e c428 5e3e 6a3e 01bc d506 30be
00000020: 3637 0f3d b31d b7bd bfbb 283e 4022 27bd
00000030: bd30 84bc 9d87 78bc a0fc 2f3e 494f a93d
00000040: 8f90 f8bd 6709 403d 547d 993d 07af 29bd
00000050: e4b5 843d 4883 1ebe 136b c3bd fa8e 0b3e
00000060: cab3 4d3e 87df 663d aa99 c1bd 393a ef3d
00000070: 2e8f ccbd 5be5 09be 1c37 eabd d18b 69bc
00000080: b53e 1a3d f581 c83b 6bb9 2d3e ee26 60bc
00000090: f892 283e 3569 03be 01c0 bcbd 45aa d23c
000000a0: e84b d93d 05e3 4f3d 457d 343e 3756 b9bd
000000b0: 277c 293e dda6 6c3d 3021 3d3d b2be 8bbb
000000c0: bcf5 03be b840 ba3d f195 c63c d5f2 ff3d
000000d0: c3b1 023e 6639 19be 6022 243e 9fe8 1fbd
000000e0: 9815 06be ce42 1e3e afe7 d7bc 23e7 a83c
000000f0: 48da e03c 7d1e bdbd 6a23 e83d 12b6 8a3d
00000100: 72b6 f43d ecc9 98bd 95a4 f1bd f6f1 fabb
00000110: 0acb 8db9 4713 cebd cd43 12be 7a31 0e3e
00000120: b8aa c1bd 5d6e 033c 3402 aabb 973e febd
00000130: d288 433b d0e0 eabd beee 22bd 9598 e6bd
00000140: e4ab ce3d ad0a 71be dbd0 e83d d2b3 16be
00000150: 176c 0dbe ab08 8f3b d9ec 1fbe 87cb 1f3e
00000160: 7849 823e d51f abbd 379e 003e 2040 27be
00000170: 6bba 003d 47e7 d9bd d911 38bd 0e71 4dbd
00000180: b49c 273d 62b9 a83d ae23 27be eb03 2f3c
00000190: 16b8 133e da2f 7b3e 3616 9f3d 29c9 103c
000001a0: 0ab3 fc3d 48cb f03d e614 dabd ccc6 5dbb
000001b0: fe3f f8bd eb12 e03c 9d75 9b3c c44a e0bd
000001c0: 6613 313d 1609 133e 9984 06be 8593 18be
000001d0: 2dba a2bd 4530 e43c dfce 30be 0827 8cbb
000001e0: 82d0 403e f9ad 15be 9661 2abd 3ee2 743d
000001f0: cfe5 d73d dcdd 73bd 03e1 0f3e e65e afbd

lstm_fc.weight f4 [128, 32]
0.059592098 -0.04837474 0.15139806 -0.09013694 -0.06294272 0.13689461 -0.13975085 0.050246116
0.09110045 -0.020736758 0.15618166 -0.1683248 -0.04168668 -0.08926867 0.06197815 0.16875497
-0.17736043 -0.09265961 -0.13921347 -0.08964914 0.061401684 -0.0011850316 -0.13561597 -0.11546493
-0.100009464 0.016781766 -0.14807278 -0.1632911 -0.13954754 0.14820044 0.12979704 -0.085279346
0.041972123 -0.022638084 -0.070741825 0.08379203 -0.11875038 0.0038731932 0.13067493 -0.15037762
0.14652975 0.11938157 0.07602084 -0.022455515 -0.06387242 -0.10141455 -0.12609014 -0.1720421
-0.026083574 0.03819892 -0.16555983 0.17114651 -0.12849964 0.014134521 -0.063299775 0.16423959
-0.08312977 0.046393175 0.05671441 0.08485557 -0.12691295 -0.09860311 0.00032776588 -0.17449068
-0.05889322 -0.11585882 0.081196666 0.020578787 -0.17236178 0.21795876 0.07430107 -0.09624091
-0.024814349 0.139947 -0.11288084 0.051925108 0.08539307 -0.12619139 -0.08002651 -0.018370805
-0.13417035 0.1720382 0.07173015 -0.07054092 -0.014838049 0.012864734 0.048675504 0.14007492
-0.18073443 -0.07013644 0.0697166 -0.05531844 -0.016192095 -0.06438281 0.093555294 -0.08875822
0.15692735 0.07311433 -0.12743583 -0.03710097 -0.015506392 -0.19106343 -0.14986894 0.14404823
0.12949842 -0.12930891 0.0030190316 0.046076003 0.095171735 0.16285092 0.10406569 0.14451587
-0.11670881 -0.047772624 0.076339945 -0.12633662 -0.1665595 0.09536408 0.13612498 0.06239162
0.12661773 0.08586719 0.020650364 -0.054382488 0.029713284 -0.055508014 0.14840554 0.14771663
-0.05164178 0.08528822 -0.047096707 0.14177847 -0.16162197 0.03491831 -0.012181563 0.12192741
0.017569613 0.037110344 -0.17331807 -0.094291426 0.17005542 -0.017990425 0.07774837 -0.140856
0.09130831 -0.0717361 -0.014099956 0.16552018 0.12185149 -0.15256976 -0.0795768 0.1062041
-0.039257187 0.13843913 0.07343338 -0.0087073315 -0.11034144 0.007990277 0.13898787 0.13724715
-0.06986897 -0.026217151 0.05901409 -0.14605556 0.020793242 0.08020937 0.1707403 -0.017949857
0.16697918 0.18780093 -0.09906888 0.030931935 0.12642306 -0.03223278 -0.084115565 0.04344357
0.082147054 -0.12711103 -0.12552795 -0.15062225 -0.14536768 0.16210024 -0.090687804 -0.0060793487
-0.07479025 -0.0967062 0.15512489 -0.032637157 0.098168075 -0.09254402 0.16599481 0.047946423
-0.027789747 0.010361811 0.07454152 -0.09311988 -0.05483554 -0.118166715 -0.11814923 0.0840292
-0.017024204 -0.08379226 0.0072783576 0.103306614 0.16971076 -0.10418331 0.075679325 0.02008195
-0.08680509 0.046074044 0.02484233 0.10095263 0.14101867 0.08624748 0.03229504 -0.12989736
-0.15547042 0.08152264 -0.107324414 0.016189862 0.13539878 0.085218824 -0.02323089 0.02959683
-0.0022040932 -0.0071689817 0.15111028 -0.109055445 0.16025859 -0.019912325 0.16442369 -0.07723471
0.11308293 -0.10550692 -0.1439721 0.121607296 0.043731283 0.17933449 0.0638903 -0.0839869
-0.10857069 0.12905867 -0.04618086 -0.09790531 -0.12041267 -0.124549896 -0.07285429 -0.14936464
0.1889886 0.02474053 0.05551297 -0.11973928 0.005893594 0.12720698 -0.058454122 0.13926412
00000000: d816 743d 9724 46bd 1808 1b3e b799 b8bd
00000010: 1de8 80bd 1a2e 0c3e d91a 0fbe dfce 4d3d
00000020: df92 ba3d 22e0 a9bc 16ee 1f3e 565d 2cbe
00000030: a7bf 2abd 7ed2 b6bd cddc 7d3d 1ace 2c3e
00000040: f99d 35be 52c4 bdbd fa8d 0ebe f899 b7bd
00000050: 5580 7b3d 1053 9bba eade 0abe e178 ecbd
00000060: c3d1 ccbd ea79 893c 64a0 17be c835 27be
00000070: 8de5 0ebe dbc1 173e 84e9 043e f0a6 aebd
00000080: f6ea 2b3d 8173 b9bc 17e1 90bd 289b ab3d
00000090: 6633 f3bd 66d5 7d3b a6cf 053e 97fc 19be
000000a0: e50b 163e 537e f43d d0b0 9b3d a1f4 b7bc
000000b0: 8bcf 82bd 6eb2 cfbd c61d 01be ce2b 30be
000000c0: 38ad d5bc 7976 1c3d 8488 29be 0841 2f3e
000000d0: 6995 03be 7a94 673c 50a3 81bd 6c2e 283e
000000e0: f13f aabd c506 3e3d 5f4d 683d c2c8 ad3d
000000f0: 78f5 01be 6df0 c9bd fed7 ab39 afad 32be
00000100: 043a 71bd 6447 edbd 704a a63d d894 a83c
00000110: 9b7f 30be 9530 5f3e 292b 983d f419 c5bd
00000120: 7647 cbbc 444e 0f3e 122e e7bd 6caf 543d
00000130: 90e2 ae3d 5138 01be f0e4 a3bd 5f7e 96bc
00000140: f463 09be c82a 303e 42e7 923d c277 90bd
00000150: 4a1b 73bc 9bc6 523c f75f 473d cd6f 0f3e
00000160: 7212 39be b2a3 8fbd 94c7 8e3d 9795 62bd
00000170: 49a5 84bc 22db 83bd eb99 bf3d dfc6 b5bd
00000180: 90b1 203e f7bc 953d 8a7e 02be 30f7 17bd
00000190: 860e 7ebc 22a6 43be 3e77 19be 6181 133e
000001a0: 3c9b 043e 8e69 04be f2da 453b 31ba 3c3d
000001b0: 66e9 c23d 64c2 263e 6420 d53d f8fb 133e
000001c0: 0705 efbd 3aad 43bd 1e58 9c3d 635e 01be
000001d0: 938e 2abe 3e4e c33d 5964 0b3e 5b8e 7f3d
000001e0: 14a8 013e 23db af3d f42a a93c 2cc0 5ebd
000001f0: 4669 f33c 5f5c 63bd 9ff7 173e 0743 173e
00000200: 5586 53bd 97ab ae3d 7ae8 40bd 602e 113e
00000210: 3b80 25be 8006 0f3d 2e95 47bc 14b5 f93d
00000220: 26ee 8f3c 0401 183d 4b7a 31be dd1b c1bd
00000230: 0223 2e3e a860 93bc 8a3a 9f3d 8e3c 10be
00000240: daff ba3d 60ea 92bd 8003 67bc 1f7e 293e
00000250: 468d f93d 3f3b 1cbe 29f9 a2bd 8981 d93d
00000260: 25cc 20bd fdc2 0d3e 3d64 963d 32a9 0ebc
00000270: b1fa e1bd a7e9 023c d652 0e3e 848a 0c3e
00000280: 7617 8fbd 5ac5 d6bc c2b8 713d 978f 15be
00000290: 9756 aa3c cf44 a43d 8cd6 2e3e 940b 93bc
000002a0: 97fc 2a3e e34e 403e a0e4 cabd f864 fd3c
000002b0: 0c75 013e 8506 04bd c844 acbd e3f1 313d
000002c0: b73c a83d 6529 02be 668a 00be b83c 1abe
000002d0: 44db 14be 9bfd 253e 87ba b9bd 4635 c7bb
000002e0: a12b 99bd e60d c6bd 0fd9 1e3e 8aae 05bd
000002f0: 580c c93d b887 bdbd 8bfa 293e 7863 443d
00000300: 53a7 e3bc 96c4 293c 39a9 983d a3b5 bebd
00000310: 3b9b 60bd 6401 f2bd 39f8 f1bd 8017 ac3d
00000320: 5876 8bbc 479b abbd 4a7f ee3b 6b92 d33d
00000330: a8c8 2d3e 0f5e d5bd c3fd 9a3d e782 a43c
00000340: dec6 b1bd 23b8 3c3d 2482 cb3c 41c0 ce3d
00000350: 3367 103e 85a2 b03d ce47 043d d003 05be
00000360: a333 1fbe 58f5 a63d e7cc dbbd 9aa0 843c
00000370: faa5 0a3e 3587 ae3d b54e bebc 0d75 f23c
00000380: 8c72 10bb c7e9 eabb a7bc 1a3e 7658 dfbd
00000390: d41a 243e 2c1f a3bc af5e 283e 3b2d 9ebd
000003a0: 0698 e73d 0314 d8bd 6c6d 13be 3f0d f93d
000003b0: 931f 333d 76a3 373e ebd8 823d 5301 acbd
000003c0: 4f5a debd f527 043e 2428 3dbd 9482 c8bd
000003d0: eb9a f6bd 0414 ffbd a134 95bd 0bf3 18be
000003e0: 3a86 413e a7ac ca3c 9161 633d de39 f5bd
000003f0: 0d1f c13b 8c42 023e 976d 6fbd 419b 0e3e

lstm_fc.bias f4 [128]
-0.04508024 -0.1254054 0.17562813 0.03713619 0.014141133 0.09660152 0.08161437 -0.15974277
0.11871354 0.12649593 -0.008428273 -0.042380247 0.017215975 0.034605138 -0.01431144 -0.13164657
0.12635447 -0.021453934 0.01589682 -0.0049375114 0.15466973 -0.09681726 -0.026697224 -0.11399946
0.13722752 -0.06750859 0.0038238165 0.013767657 0.15219083 -0.17701961 -0.11113337 -0.16395988
-0.029873274 -0.1545347 0.00030040435 0.09490111 -0.017976757 0.024203824 -0.04124425 -0.1446611
-0.009433822 0.11104589 0.017856162 0.10219652 -0.05220374 0.14501324 0.13904122 0.023674905
0.16640945 0.036266744 -0.034128513 0.05084096 -0.19561419 0.104064696 -0.13996907 -0.11680612
-0.04544122 -0.11203773 -0.1320956 0.2102696 -0.056417774 0.05449237 0.060012847 0.19277929
-0.11646354 -0.112022355 0.11732796 -0.14587165 -0.18770452 -0.03405494 0.11076957 0.07610812
-0.10174977 -0.1609341 0.03877762 -0.099110164 0.099588245 -0.0908836 -0.07015524 -0.03273393
0.19138914 -0.079836935 -0.14965913 0.096094325 0.08770146 -0.024778716 0.13285486 -0.029810375
-0.08785534 -0.15530054 -0.088725425 -0.12890583 0.038010925 -0.031865627 0.14663625 -0.108565725
0.14333889 0.15975285 -0.04952708 -0.1226601 0.120540105 -0.20479427 0.10161194 0.11499616
-0.011138634 -0.0864359 0.006704226 0.15176582 0.03241929 0.056384914 0.06464797 0.10618824
0.05508306 -0.13455568 -0.017856423 -0.057398845 0.10108917 -0.05903518 0.14517388 0.059329107
-0.16942759 -0.08702926 -0.053221844 -0.02664581 -0.025950812 -0.059630048 0.11365191 0.09103182
00000000: 0fa6 38bd 466a 00be dcd7 333e 1e1c 183d
00000010: 36b0 673c 05d7 c53d 6f25 a73d 9c93 23be
00000020: 1620 f33d 2688 013e bd16 0abc e996 2dbd
00000030: 8408 8d3c 1ebe 0d3d 887a 6abc 5cce 06be
00000040: 1163 013e 29c0 afbc 0c3a 823c d9ca a1bb
00000050: be61 1e3e 2148 c6bd 23b4 dabc 8d78 e9bd
00000060: 5f85 0c3e f241 8abd ff98 7a3b bd91 613c
00000070: ead7 1b3e a144 35be e499 e3bd 19e5 27be
00000080: ccb8 f4bc 583e 1ebe 977f 9d39 835b c23d
00000090: fe43 93bc 1947 c63c bbef 28bd 0a22 14be
000000a0: 5190 1abc 076c e33d 1647 923c 694c d13d
000000b0: 97d3 55bd 5a7e 143e d260 0e3e e0f1 c13c
000000c0: 3d67 2a3e 708c 143d 57ca 0bbd 9c3e 503d
000000d0: 164f 48be df1f d53d 0d54 0fbe 0c38 efbd
000000e0: 9320 3abd 0a74 e5bd 1244 07be ea50 573e
000000f0: 5316 67bd 6433 5f3d 08d0 753d ef67 453e
00000100: 7084 eebd fa6b e5bd a449 f03d 615f 15be
00000110: 9d35 40be 317d 0bbd 28db e23d 93de 9b3d
00000120: 2f62 d0bd e9cb 24be 48d5 1e3d 45fa cabd
00000130: ecf4 cb3d 2e21 babd 8dad 8fbd 0314 06bd
00000140: 84fb 433e 8c81 a3bd 3e40 19be 1acd c43d
00000150: d39c b33d bcfc cabc 1b0b 083e e334 f4bc
00000160: 80ed b3bd 1b07 1fbe adb5 b5bd e4ff 03be
00000170: 58b1 1b3d 8885 02bd d027 163e b557 debd
00000180: 6ec7 123e 4096 233e e8dc 4abd 3835 fbbd
00000190: bbdd f63d 97b5 51be ec19 d03d 1b83 eb3d
000001a0: d17e 36bc 4e05 b1bd 20af db3b 8068 1b3e
000001b0: 17ca 043d def3 663d 2866 843d 3879 d93d
000001c0: c69e 613d f7c8 09be a247 92bc 0d1b 6bbd
000001d0: d707 cf3d dfce 71bd 76a8 143e 1403 733d
000001e0: 6d7e 2dbe 663c b2bd 26ff 59bd 5048 dabc
000001f0: cc96 d4bc a33e 74bd 55c2 e83d e46e ba3d
