result/noPCA_GRU_prediction_model.pth (torch, 127957 bytes, 13 tensors)

gru.weight_ih_l0 f4 [96, 6]
0	0x3e0bc612	0.13649777
1	0x3e17d1f9	0.14826192
2	0xbd23d518	-0.039998144
3	0x3e27db80	0.16392326
4	0xbd10103e	-0.03517174
5	0x3d18aab2	0.037272163
6	0xbdab8637	-0.08375209
7	0x3dd5cebe	0.104398236
8	0x3e21234b	0.1573612
9	0xbe02dfa9	-0.12780632
10	0x3e232aee	0.15934345
11	0x3d22fae0	0.039790034
12	0x3e08fea3	0.13378386
13	0x3cda1621	0.02662188
14	0x3db443df	0.08802008
15	0xbcb7446e	-0.022371497
16	0x3e112355	0.14173634
17	0x3cd88894	0.026432313
18	0xbdab7dfe	-0.083736405
19	0x3d3b834b	0.045779508
20	0xbda73d17	-0.08165949
21	0xbca81325	-0.020516941
22	0xbd9096e6	-0.070600316
23	0x3df34f08	0.118803084
24	0xbe154c51	-0.14579894
25	0xbdaaa608	-0.08332449
26	0xbd5c8c02	-0.05384446
27	0xbdde4975	-0.108538546
28	0x3c55cd28	0.013049401
29	0xbe2f4e85	-0.17119797
30	0x3e17b31b	0.14814417
31	0xbe1ddb31	-0.15415646
32	0x3e0384f6	0.1284369
33	0x3cc5450f	0.024080781
34	0xbd829c94	-0.06377521
35	0x3dee094f	0.11622869
36	0x3d004d62	0.031323798
37	0x3e100ab1	0.14066578
38	0x3cb11f1d	0.021621281
39	0xbd6568d4	-0.056008175
40	0x3d288504	0.04114248
41	0xbd5cabae	-0.053874664
42	0x3d96e100	0.07367134
43	0x3e1fd0d2	0.15607002
44	0x3dcf50b9	0.101228185
45	0xbda0e9e1	-0.07857109
46	0x3dbe272b	0.092848144
47	0x3d02e6f2	0.031958528
48	0x3db654b2	0.08902873
49	0xbdd5fe81	-0.104489334
50	0xbe2fe8aa	-0.17178598
51	0xbd864dd2	-0.06557812
52	0xbe007aef	-0.12546895
53	0x3e1b9636	0.1519402
54	0x3d87cc12	0.0663072
55	0x3dac6c17	0.08419054
56	0x3d78cb12	0.060740538
57	0x3aa05297	0.0012231645
58	0x3e2ac336	0.1667603
59	0xbdf7b691	-0.12095369
60	0xbcb4d29d	-0.022073084
61	0xbdacb8fd	-0.08433721
62	0x3d372aad	0.044718433
63	0xbd921f53	-0.07134881
64	0x3da8a9ce	0.08235513
65	0xbd909633	-0.07059898
66	0x3e16b255	0.14716466
67	0xbdd6dd89	-0.10491473
68	0xbdd73fbd	-0.10510204
69	0xbdd7d5b5	-0.10538808
70	0x3e222f5c	0.15838379
71	0x3d6c83c8	0.057742864
72	0x3e28b226	0.16474208
73	0xbe0e77ef	-0.13912939
74	0xbe2a7cd6	-0.16649184
75	0xbe073872	-0.13205126
76	0xbdb6806a	-0.08911212
77	0x3dc4589a	0.09587212
78	0x3d8c50fe	0.068513855
79	0x3e19454d	0.14967842
80	0xbdb30327	-0.08740836
81	0xbdf095a4	-0.11747292
82	0x3dc40cb1	0.09572733
83	0xbd98611d	-0.07440398
84	0x3ddbfb06	0.10741238
85	0xbd2b3fa3	-0.041808736
86	0x3dcf5c29	0.10125
87	0xbe0c8727	-0.13723432
88	0xbdb62052	-0.08892883
89	0x3d5d3b5c	0.054011688
90	0x3d34afeb	0.04411308
91	0xbd3ad5ee	-0.045614175
92	0x3ddfbcfe	0.10924719
93	0x3df9c5c1	0.12195922
94	0xbdd6e5e4	-0.10493067
95	0xbd98ee99	-0.07467384
96	0x3e25446c	0.16139382
97	0xbd75f6e4	-0.060049906
98	0xbd810567	-0.062998585
99	0xbe2f8caa	-0.17143503
100	0xbdd08f53	-0.10183587
101	0x3d347931	0.04406089
102	0xbc9eabd8	-0.01936905
103	0xbe025b3a	-0.12730113
104	0x3bf3cf55	0.0074404874
105	0xbdf49123	-0.11941745
106	0xbe198d4d	-0.14995308
107	0xbdceb0eb	-0.10092338
108	0xbe23f14f	-0.1601002
109	0xbddd93d9	-0.10819215
110	0x3e2eae6b	0.17058723
111	0x3ceaf782	0.028682474
112	0x3d5ffd5a	0.054684974
113	0xbe27e800	-0.16397095
114	0xbdf3d65f	-0.119061224
115	0xbd81a392	-0.06330027
116	0x3cc5e06b	0.024154862
117	0xbe228df0	-0.15874457
118	0xbda97861	-0.082749136
119	0xbdda1f48	-0.10650498
120	0x3ad278b5	0.0016057702
121	0xbd85f9a7	-0.06541758
122	0xbc3d4a4d	-0.011553359
123	0xbdf3bbba	-0.119010404
124	0xbdf4dda3	-0.11956336
125	0xbdd22095	-0.10260121
126	0xbd7bc16c	-0.06146376
127	0xbe0f5bf2	-0.13999918
128	0x3e171449	0.14753832
129	0xbd11ade1	-0.035566214
130	0x3e1ad27f	0.1511936
131	0x3d608d3b	0.054822188
132	0xbe23cfd7	-0.15997253
133	0x3de4ea91	0.111775525
134	0xbd722e38	-0.05912611
135	0xbd9d9944	-0.07695249
136	0xbe2e0ef7	-0.16997896
137	0xbe386597	-0.18007503
138	0x3d8843a5	0.06653527
139	0xbd07b6ab	-0.03313319
140	0x3d8da688	0.06916529
141	0xbe0dde62	-0.13854364
142	0x3e08a885	0.13345535
143	0xbe0f4d7c	-0.13994402
144	0xbd15d948	-0.03658417
145	0x3d06df63	0.032927882
146	0x3db4d356	0.08829372
147	0x3e0e43c0	0.13893032
148	0x3e250b5c	0.16117615
149	0xbe0c0cb4	-0.13676721
150	0x3d1a15df	0.037618514
151	0xbd9a7f4e	-0.07543813
152	0xbc98b26f	-0.018639771
153	0xbe08196e	-0.1329095
154	0x3e2ec2ff	0.17066573
155	0xbdfcafb7	-0.123382024
156	0x3dbe8f9c	0.09304735
157	0x3d7b214d	0.061311055
158	0x3d664cd4	0.056225613
159	0xbdc57c54	-0.09642854
160	0x3e23732e	0.15961906
161	0x3d2226a7	0.039587643
162	0x3d5662fd	0.052340496
163	0xbde87358	-0.11350125
164	0x3df3c33d	0.11902473
165	0xbab18819	-0.0013544589
166	0xbcff5dd5	-0.031172672
167	0x3e5d568c	0.21615046
168	0x3d15c9f2	0.036569543
169	0xbdcbb57c	-0.09946725
170	0xbdc0b253	-0.09409013
171	0xbc8c3ca7	-0.017118765
172	0x3dbfdd8e	0.0936843
173	0xbd594bb9	-0.05305073
174	0xbd60b2ac	-0.054857895
175	0xbd241097	-0.040054884
176	0xbdf400ee	-0.1191424
177	0x3dc72240	0.097233295
178	0x3e8bf8d2	0.27338272
179	0xbe08c221	-0.13355304
180	0x3d277a7d	0.0408883
181	0x3dbabc51	0.0911795
182	0x3d02b7fb	0.03191374
183	0xbd812b88	-0.06307131
184	0x3dbcaa8d	0.092122175
185	0x3dbe6105	0.09295849
186	0x3d8900bb	0.066895925
187	0xbd17d2e5	-0.03706636
188	0xbd42bc0b	-0.047542613
189	0x3c9f7b76	0.01946805
190	0xbcd2385c	-0.02566164
191	0xbd393a9d	-0.045221914
192	0x3e539381	0.20661737
193	0x3e560b6a	0.20902792
194	0x3b9d0546	0.0047918884
195	0xba7c275c	-0.0009618902
196	0xbd88bbe8	-0.06676465
197	0x3def5ee0	0.11688018
198	0x3a904884	0.001100794
199	0x3cd8ae56	0.026450317
200	0xbe4c86ef	-0.19973348
201	0xbdbba1d5	-0.091617264
202	0x3cf29627	0.029612614
203	0x3da51fb9	0.08062691
204	0xbc136c8d	-0.0089980485
205	0xbdd8e02a	-0.10589631
206	0xbddb7cf7	-0.107171945
207	0xbe21f7a4	-0.15817124
208	0xbd6d6f3e	-0.057967417
209	0x3d6a51ef	0.057207044
210	0x3d95cda3	0.07314613
211	0x3d855f8a	0.06512363
212	0xbe301e89	-0.17199148
213	0xbdfa28da	-0.12214823
214	0xbdf2d20a	-0.11856468
215	0x3dcd4085	0.10022072
216	0x3cadfa8e	0.021237638
217	0xbd18728c	-0.037218615
218	0x3daa852a	0.0832618
219	0xbd656385	-0.056003112
220	0xbdbece65	-0.093167104
221	0x3e22d9de	0.15903422
222	0xbd983b5f	-0.07433199
223	0xbcd52fae	-0.026023712
224	0xbe258254	-0.16162997
225	0x3e2f2f2b	0.17107837
226	0x3e029fd9	0.1275629
227	0x3ce469ce	0.027882483
228	0xbe43e28d	-0.19129391
229	0xbe569ed0	-0.2095902
230	0xbe3eabfd	-0.18620296
231	0x3dd041e4	0.10168818
232	0x3d8d595e	0.06901811
233	0x3dbc5dc6	0.09197573
234	0x3db4848f	0.08814346
235	0x3ce833a5	0.028344939
236	0xbbda87fe	-0.0066690436
237	0xbe1081ca	-0.1411201
238	0xbe195644	-0.14974314
239	0xbe2cd60b	-0.16878526
240	0x3d2a7619	0.041616533
241	0xbde2ee2c	-0.11080584
242	0xbd6ac390	-0.05731541
243	0xbdf6fa57	-0.12059467
244	0xbd8aa707	-0.06770139
245	0xbe05ae8a	-0.13054863
246	0xbddd9500	-0.10819435
247	0x3d52084d	0.051277447
248	0xbd5a75f8	-0.05333516
249	0x3de3bad8	0.11119622
250	0xbd9074e6	-0.070535466
251	0xbe1719a9	-0.14755882
252	0xbd6e6e27	-0.05821052
253	0xbd8d17c8	-0.068893015
254	0xbd6a3fa0	-0.057189584
255	0xbe2d7d3d	-0.16942306

gru.weight_hh_l0 f4 [96, 32]
0	0xbd522103	-0.051301014
1	0x3dc18f8c	0.094512075
2	0xbdb2223c	-0.08697936
3	0xbdabe38d	-0.08393011
4	0x3ddfaeb7	0.10921996
5	0xbe1dcee7	-0.15410958
6	0x3cb2cf6a	0.021827418
7	0x3e20366d	0.15645762
8	0x3cf7ff91	0.03027323
9	0x3d45b199	0.048265073
10	0xbdd2e94a	-0.102984026
11	0xbb1e71b1	-0.0024176652
12	0x3c22e400	0.009942055
13	0x3d315bc6	0.043300413
14	0x3d8d6311	0.06903661
15	0x3e1d3ff0	0.15356421
16	0xbe0a84ae	-0.13527176
17	0x3bb96972	0.005658322
18	0xbdb45454	-0.08805147
19	0xbe0f49b6	-0.13992962
20	0xbc688524	-0.014191899
21	0xbe1f8af7	-0.15580355
22	0x3dfca2dd	0.12335751
23	0x3ca9b32f	0.020715324
24	0xbdc2c1cc	-0.0950962
25	0x3dbcda34	0.092213064
26	0xbe2b392f	-0.16721033
27	0xbd8bc220	-0.06824136
28	0xbd0cd94d	-0.03438692
29	0xbe199e9c	-0.15001911
30	0xbde6c583	-0.11268141
31	0xbced5dfe	-0.028975483
32	0x3e095dd4	0.13414699
33	0x3e2ecd2b	0.17070453
34	0x3de747bf	0.11292981
35	0xbdd903c0	-0.105964184
36	0xbdec0853	-0.11525025
37	0x3e1e0141	0.15430166
38	0x3d80a3f5	0.06281272
39	0x3ba80a94	0.005128214
40	0x3cbf2f55	0.023338
41	0xbe10f816	-0.14157137
42	0xbd716f99	-0.05894432
43	0x3e2e283b	0.17007534
44	0xbd3152d6	-0.04329189
45	0xbc10f07b	-0.0088463975
46	0xbe15e6bf	-0.14638804
47	0xbdcb4457	-0.09925144
48	0xbb83aca6	-0.004018384
49	0xbde00fa1	-0.10940481
50	0xbcaefc3f	-0.021360515
51	0x3d93c7bc	0.07215831
52	0xbe3112aa	-0.17292276
53	0x3d56a5af	0.052404102
54	0xbdee752e	-0.11643444
55	0xbdaffe96	-0.0859348
56	0x3d8bdcb4	0.06829205
57	0x3e1044cb	0.14088742
58	0xbd463516	-0.04839047
59	0xbd943ba9	-0.07237942
60	0xbe23c42f	-0.15992807
61	0xbdbb1ac1	-0.09135962
62	0xbe1ecb15	-0.15507157
63	0xbd25f634	-0.040518
64	0x3d14cf79	0.036330674
65	0xbe2915f5	-0.16512282
66	0x3e1e8cb5	0.15483363
67	0x3de1bd32	0.11022414
68	0xbe309513	-0.17244367
69	0xbdad975b	-0.084761344
70	0x3d6e3464	0.058155432
71	0xbd127f3b	-0.035765868
72	0xbc9f75ec	-0.01946541
73	0xbda35461	-0.079750784
74	0x3e1184b5	0.1421078
75	0xbdcad38d	-0.09903631
76	0x3e168c16	0.14701876
77	0x3c353f4e	0.011062456
78	0x3d147334	0.03624268
79	0x3e0caf0e	0.13738653
80	0xbcf3d263	-0.029763406
81	0xbdccffb9	-0.10009713
82	0xbce8057b	-0.028322926
83	0x3e128483	0.14308362
84	0xbe06932c	-0.13142079
85	0x3d221db2	0.0395791
86	0xbe3198c6	-0.17343435
87	0x3dbeba0a	0.09312828
88	0x3d869a5c	0.065724105
89	0x3bf29157	0.0074025798
90	0x3d9bdeaf	0.07610833
91	0x39e4f75c	0.00043671846
92	0x3dc87907	0.09788709
93	0xbe0ec8ff	-0.13943861
94	0xbcda58bf	-0.026653646
95	0x3d9f7640	0.07786226
96	0x3e34567b	0.17611115
97	0x3db85b1c	0.09001753
98	0xbe035d5c	-0.12828583
99	0x3e0b2242	0.13587287
100	0xbd20a872	-0.039223142
101	0xbd1b4e3c	-0.037916407
102	0xbe247533	-0.16060333
103	0xbce37f3d	-0.027770633
104	0x3e003752	0.12521103
105	0x3ccb2ab8	0.024800643
106	0xbdd3359b	-0.10312959
107	0x3d5ecb35	0.054393012
108	0xbd67ef98	-0.05662498
109	0x3e252ad9	0.16129626
110	0xbe1d11f7	-0.15338884
111	0xbd644f06	-0.055739425
112	0xbe2ee9da	-0.17081395
113	0xbd8e7e99	-0.0695774
114	0x3d64941d	0.055805314
115	0x3e2e4f04	0.1702233
116	0x3cf32ed2	0.029685412
117	0x3e31546b	0.17317359
118	0x3d0cd7b2	0.03438539
119	0x3dd12766	0.10212593
120	0x3e1125a9	0.14174522
121	0x3e174ce4	0.14775425
122	0xbdca6e45	-0.098843135
123	0x3e2651b2	0.16242102
124	0x3ddb8aa9	0.10719807
125	0xbda947ac	-0.082656235
126	0xbdacd46c	-0.08438954
127	0xbe17dc09	-0.1483003
128	0x3d354576	0.044255696
129	0xbe136bfe	-0.14396665
130	0x3d99cab1	0.075093634
131	0x3d66b0e0	0.056321025
132	0xbe1d0a36	-0.15335926
133	0x3d4426c4	0.047888532
134	0xbc692cd5	-0.01423188
135	0x3da4c933	0.08046188
136	0x3dd0c1f1	0.101932414
137	0xbe3395e7	-0.17537652
138	0x3e25567e	0.16146275
139	0x3e1810b2	0.14850119
140	0x3d8f880a	0.07008369
141	0xbe2562e0	-0.16150999
142	0xbd82b8d8	-0.063829124
143	0xbd4ebedc	-0.050474986
144	0xbd397821	-0.04528058
145	0x3dcb0921	0.099138506
146	0x3d83b70f	0.064314
147	0x3e101753	0.14071397
148	0xbd86ed4e	-0.06588231
149	0x3d73b713	0.059500765
150	0x3d7f1319	0.062274072
151	0xbe170021	-0.14746143
152	0xbe2ffae7	-0.17185555
153	0xbdbbc24f	-0.09167921
154	0x3df87d88	0.12133318
155	0xbe2b0a5b	-0.16703169
156	0xbe1d226f	-0.15345167
157	0x3dc96ccf	0.09835207
158	0x3dc4c9e2	0.096088186
159	0x3e157235	0.14594348
160	0xbe09242b	-0.13392703
161	0xbe063189	-0.13104834
162	0x3dbc8dd1	0.09206737
163	0x3e1e6a33	0.154702
164	0x3ddac3e2	0.10681893
165	0x3cdb04e2	0.026735727
166	0x3d73215d	0.05935799
167	0x3e2b510e	0.16730139
168	0xbde83b21	-0.11339403
169	0xbda25420	-0.07926202
170	0x3dfa2316	0.12213723
171	0xbdf6075e	-0.12013124
172	0xbdc87be1	-0.09789253
173	0x3e045f85	0.12927063
174	0x3d5e403c	0.054260477
175	0x3d7048ff	0.058663364
176	0xbd994db2	-0.07485522
177	0xbb69a980	-0.0035654008
178	0x3e26c2a6	0.1628519
179	0xbdd5ae97	-0.10433691
180	0x3b139713	0.0022520467
181	0x3dab1e23	0.083553575
182	0xbdfcc00e	-0.12341319
183	0x3e2fbc4e	0.17161676
184	0xbdb6dd75	-0.08928958
185	0xbd30488f	-0.043037947
186	0xbd3f1948	-0.04665497
187	0xbdee7c5c	-0.116448134
188	0xbe306392	-0.17225483
189	0x3dc7fc99	0.09764976
190	0x3d46b5eb	0.048513334
191	0xbe280a96	-0.16410288
192	0xbde8a1de	-0.11358999
193	0x3e3349e4	0.17508656
194	0x3d88d8b0	0.06681955
195	0x3d9216f0	0.07133281
196	0xbdd9f359	-0.10642118
197	0xbd9ed530	-0.07755506
198	0xbce09974	-0.027416922
199	0xbd069a75	-0.032862145
200	0xbdf89c70	-0.12139213
201	0x3c620622	0.0137954075
202	0x3c96490b	0.018345376
203	0xbcba09e4	-0.022709794
204	0x3cc558d4	0.024090208
205	0xbd8f7b0b	-0.070058905
206	0x3d3ae834	0.045631602
207	0x3d880257	0.06641071
208	0xbdbda08c	-0.092591375
209	0xbe33e6f5	-0.17568572
210	0x3dbb949f	0.091592066
211	0x3d29cdef	0.04145616
212	0xbdb92f7a	-0.090422586
213	0x3e2e980b	0.17050187
214	0xbda34bef	-0.079734676
215	0x3df36471	0.11884392
216	0x3db79b67	0.089651875
217	0xbe17053a	-0.14748088
218	0x3de8cd36	0.11367266
219	0xbe26ad56	-0.1627706
220	0xbdca2222	-0.098697916
221	0xbcf2fc89	-0.029661434
222	0xbdf39040	-0.11892748
223	0x3e30fd89	0.17284216
224	0xbd11fc23	-0.035640847
225	0x3d8f0fd1	0.069854386
226	0xbe2223c0	-0.1583395
227	0x3dd2733b	0.10275885
228	0xbd62e18f	-0.05539089
229	0xbe0a37d1	-0.13497855
230	0x3cce4fe3	0.025184577
231	0x3dacee67	0.08443909
232	0x3e1d0165	0.15332563
233	0xbddd8217	-0.10815828
234	0xbdb1dcdc	-0.08684704
235	0x3d0b6fc1	0.034042124
236	0x3d40f0f5	0.047104795
237	0x3d8b58de	0.068040594
238	0x3dc47c89	0.09594066
239	0xbd240663	-0.040045153
240	0x3dca95e0	0.09891868
241	0x3e046874	0.1293047
242	0xbd3d28f1	-0.046181623
243	0x3e00b896	0.12570414
244	0x3db11431	0.08646429
245	0x3e1f8a11	0.15580012
246	0xbdce5be1	-0.10076118
247	0xbdb43a8d	-0.0880023
248	0xbd53883a	-0.051643588
249	0x3c11f37b	0.008908148
250	0x3dd94297	0.10608404
251	0xbdcf487e	-0.10121249
252	0x3db4ea25	0.08833722
253	0xbd8393df	-0.064246885
254	0x3ddc62b0	0.10761011
255	0xbc0053b5	-0.007832457

gru.bias_ih_l0 f4 [96]
0	0x3df6a20d	0.120426275
1	0x3d9ce2e4	0.076604635
2	0x3dbbbc5b	0.09166785
3	0xbcc0ae2f	-0.023520557
4	0x3dabe7a0	0.08393788
5	0xbd7f336e	-0.062304907
6	0x3e1c6a25	0.15274866
7	0xbbb8b531	-0.005636834
8	0xbc0831e3	-0.008312675
9	0xbe1d5126	-0.15362987
10	0x3e4bae5d	0.19890733
11	0xbcca69cb	-0.02470865
12	0x3e0c1e76	0.13683495
13	0xbdeb3134	-0.11483994
14	0xbe176aad	-0.14786787
15	0xbce182f2	-0.02752826
16	0xbe10d43a	-0.14143458
17	0x3d0cfe40	0.03442216
18	0x3b4d4be3	0.003132575
19	0xbd868dbd	-0.06570003
20	0x3de30af6	0.11086075
21	0x3dea46d5	0.114392914
22	0xbe22be2b	-0.15892856
23	0xbe0f90ee	-0.1402013
24	0x3dd2efa7	0.10299616
25	0xbdd93d68	-0.106074154
26	0x3d0ab6f5	0.033865888
27	0xbc7bd6d0	-0.0153710395
28	0x3d05faa2	0.032709725
29	0xbda937d2	-0.082626
30	0x3a0b795e	0.00053205143
31	0xbd802b0a	-0.06258209
32	0xbde19d05	-0.11016277
33	0xbdc14bfd	-0.09438322
34	0x3d22bd5a	0.03973136
35	0x3de5bc8c	0.11217603
36	0xbb53cc5e	-0.0032317857
37	0xbc749ab5	-0.014929463
38	0x3e1a5513	0.15071516
39	0x3e112c44	0.14177042
40	0xbcf463f9	-0.029832827
41	0xbe14932c	-0.14509267
42	0x3d2a97c0	0.041648626
43	0x3d1a14c1	0.03761745
44	0xbe15c19e	-0.1462464
45	0xbe3628af	-0.17788957
46	0x3ca5e1d8	0.020249292
47	0x3e304f31	0.17217709
48	0xbe217373	-0.15766697
49	0xbdb12ab8	-0.08650726
50	0xbd76c676	-0.06024786
51	0xbe24911e	-0.16070983
52	0xbdea8653	-0.114514016
53	0x3e0f5069	0.13995518
54	0x3e0a579b	0.13509981
55	0xbe0c3429	-0.13691773
56	0x3b766613	0.0037597462
57	0xbe16be34	-0.14720994
58	0x3da43f46	0.08019881
59	0xbe00a383	-0.12562375
60	0xbdb93fe0	-0.09045386
61	0xbdd7a836	-0.105301306
62	0x3d12311c	0.035691366
63	0x3de38883	0.11110022
64	0xbd7b72bb	-0.061388712
65	0x3bc6fe54	0.0060727987
66	0x3e1fc75f	0.15603398
67	0xbc4b5af5	-0.012411823
68	0x3cd18341	0.025575282
69	0xbbca81dd	-0.0061800317
70	0xbc6fec8c	-0.0146437995
71	0x3dcbd590	0.09952843
72	0x3e4c7b35	0.19968875
73	0xbded11c5	-0.11575655
74	0xbca65f45	-0.0203091
75	0x3db6dfe5	0.08929423
76	0xbdea0a8e	-0.114277944
77	0x3e1225b9	0.14272203
78	0x3c21fd96	0.00988712
79	0x3e556a67	0.2084137
80	0xbe1b01c9	-0.151374
81	0x3dfee828	0.12446624
82	0x3e0f55e7	0.13997613
83	0xbdd4908c	-0.10379133
84	0xbe2a77fe	-0.16647336
85	0xbd55a1a5	-0.05215611
86	0xbe5191e4	-0.20465809
87	0xbd018dcc	-0.03162937
88	0x3cdc8030	0.026916593
89	0xbd81f675	-0.06345836
90	0x3df78943	0.120867275
91	0xbe36432b	-0.1779906
92	0xbd0ab567	-0.033864405
93	0xbe651a6e	-0.22373363
94	0x3d64b335	0.055834968
95	0xbde938d6	-0.11387794

gru.bias_hh_l0 f4 [96]
0	0xb956ed68	-0.00020497071
1	0x3cd6ce8c	0.026221536
2	0xbdc95cbc	-0.09832141
3	0x3d59b1eb	0.05314819
4	0x3d09b6d3	0.03362162
5	0x3deed5e8	0.11661893
6	0x3de1a53c	0.11017844
7	0xbe139e9b	-0.14415972
8	0xbe044420	-0.12916613
9	0xbd80c3f0	-0.06287372
10	0xbdbbee7c	-0.09176347
11	0x3d6320d1	0.055451218
12	0xbde29d88	-0.11065203
13	0xbe09609b	-0.13415758
14	0x3d530624	0.051519528
15	0x3ddc1152	0.10745491
16	0xbd52db23	-0.051478516
17	0xbe33e9f8	-0.17569721
18	0x3cd2d337	0.02573548
19	0x3db7be06	0.08971791
20	0x3e0d95e3	0.13826708
21	0x3c884ef8	0.016639218
22	0x3df582e7	0.11987858
23	0xbe20676f	-0.15664457
24	0x3e2cbe9c	0.16869587
25	0xbde7222c	-0.11285815
26	0xbdf79ef9	-0.120908685
27	0x3e226223	0.15857749
28	0xbd1c669e	-0.0381838
29	0x3dfdfe4a	0.124020174
30	0xbdfda5b4	-0.12385121
31	0x3e08f458	0.1337446
32	0x3e0c6aa0	0.13712549
33	0x3d3ca377	0.04605433
34	0x3e12478b	0.14285104
35	0xbe0388f2	-0.12845209
36	0xbd1b47ad	-0.037910152
37	0x3d265049	0.04060391
38	0x3dd68ab1	0.10475672
39	0xbdc2cf77	-0.09512227
40	0x3dddd683	0.108319305
41	0xbd6fb448	-0.05852154
42	0xbdc0e6fb	-0.09419056
43	0x3c9f0d84	0.019415624
44	0xbe16b327	-0.14716779
45	0xbe39e910	-0.18155313
46	0x3d77bfbb	0.060485583
47	0x3d74cfb0	0.05976838
48	0x3d8c2402	0.068428054
49	0xbcbd0302	-0.023072723
50	0xbe03a6f0	-0.1285665
51	0xbe1616ec	-0.14657182
52	0x3e276a0c	0.16349047
53	0xbe1bb432	-0.15205458
54	0x3d59cd15	0.053174097
55	0x3e0bfdb2	0.13670996
56	0x3e0a438f	0.13502334
57	0xbdeae41a	-0.11469288
58	0xbd4db761	-0.050223712
59	0xbe15bb38	-0.146222
60	0x3de258c5	0.11052088
61	0xbe41cccc	-0.1892578
62	0xbe1cc71a	-0.15310326
63	0xbe000ba8	-0.12504447
64	0x3e1ed522	0.15510991
65	0x3dbface7	0.093591504
66	0x3e06d810	0.13168359
67	0x3e0b5c86	0.13609514
68	0xbda5f4a6	-0.081033036
69	0xbde2cf82	-0.11074735
70	0xbded661f	-0.11591744
71	0x3d5f39e0	0.054498553
72	0x3dba3d97	0.090937786
73	0x3c9eb1d3	0.019371903
74	0xbe62a70e	-0.22134039
75	0x3bfca3a3	0.0077099367
76	0xbdf6e450	-0.12055266
77	0xbd2a4ded	-0.041578222
78	0xbcdf015f	-0.027222333
79	0x3d2233bb	0.039600115
80	0xbe1f1b8f	-0.15537857
81	0x3e1774e0	0.14790678
82	0xbdb87751	-0.09007133
83	0x3d766dee	0.06016343
84	0x3df3e208	0.119083464
85	0x3d90c8c5	0.07069544
86	0x3dee8f3a	0.11648412
87	0x3d8a380d	0.06748972
88	0x3dc39576	0.09549992
89	0x3cd2b18c	0.025719427
90	0x3de15324	0.11002186
91	0xbe4866ea	-0.19570509
92	0xbdae190b	-0.0850087
93	0x3ce36817	0.027759595
94	0x3d3dc4fb	0.046330433
95	0x3c6d9706	0.014501339

gru.weight_ih_l1 f4 [96, 32]
0	0xbe193d41	-0.14964773
1	0x3d6d2ba4	0.057902947
2	0x3deb1d60	0.11480212
3	0xbca99b22	-0.020703856
4	0x3d280203	0.041017544
5	0x3da1741f	0.078834765
6	0xbe321b6b	-0.17393272
7	0xbce9f5d5	-0.028559605
8	0xbd886ecc	-0.06661758
9	0xbdb74f4e	-0.08950673
10	0x3dde514f	0.10855352
11	0x3e33369e	0.17501304
12	0x3cebbb8b	0.02877595
13	0x3de21f42	0.11041118
14	0xbe05f101	-0.13080217
15	0x3cf658b3	0.030071592
16	0xbcbf1825	-0.023326943
17	0xbdde3211	-0.10849393
18	0x3d180656	0.037115417
19	0x3d663564	0.05620326
20	0xbc09deb6	-0.008414915
21	0x3d999051	0.07498229
22	0x3db03215	0.086033024
23	0x3e24d082	0.16095164
24	0x3c31baf5	0.010847797
25	0x3be12786	0.0068711666
26	0xbb2b0679	-0.0026096387
27	0x3cce5812	0.02518848
28	0xbdeabe59	-0.11462087
29	0xbcad980c	-0.021190666
30	0xbe19690b	-0.14981477
31	0xbdfe7308	-0.12424284
32	0xbe21eb27	-0.1581236
33	0x3e073c63	0.1320663
34	0xbdd33a2b	-0.10313829
35	0xbc53ac90	-0.01291956
36	0x3c8a030d	0.016847158
37	0x3e24c6d9	0.1609148
38	0x3daac963	0.08339193
39	0xbdfe6920	-0.12422395
40	0x3e2b3321	0.16718723
41	0xbe25f76f	-0.1620767
42	0x3cdc83da	0.02691834
43	0x3e24641f	0.16053818
44	0x3e20c851	0.15701415
45	0xbd0c8a5d	-0.03431164
46	0xbdf478b0	-0.11937082
47	0x3d8e00b1	0.069337256
48	0x3e0bf539	0.13667764
49	0xbdbacee0	-0.091214895
50	0xbcc31d12	-0.023817573
51	0xbde03d73	-0.109492205
52	0x3d8e775b	0.06956359
53	0x3d22691a	0.039651014
54	0x3dc35433	0.09537544
55	0xbd6b628b	-0.057467025
56	0xbe2c99c8	-0.16855538
57	0xbd8ef9cf	-0.06981241
58	0xbe10b9d5	-0.1413339
59	0xbd131cb6	-0.035916053
60	0x3d8397d6	0.06425445
61	0xbe0fcc83	-0.14042859
62	0xbc019707	-0.007909543
63	0xbe32e97a	-0.17471877
64	0xbe010c6c	-0.12602395
65	0xbdfdb404	-0.12387851
66	0xbd7622e9	-0.060091887
67	0xbdb772fd	-0.08957479
68	0x3cdccfc6	0.026954543
69	0x3ddcdf28	0.10784751
70	0x3e082c21	0.13298084
71	0x3d63403e	0.055481188
72	0xba67d5b9	-0.0008843798
73	0xbd042d89	-0.03226999
74	0x3df75aea	0.12077887
75	0xbdd2f032	-0.1029972
76	0x3e01ec6d	0.12687846
77	0xbe2f19b9	-0.17099656
78	0xbe07049b	-0.1318535
79	0x3d3bd24f	0.045854863
80	0xbd93fe5a	-0.07226248
81	0x3d0682b3	0.03283949
82	0x3e1e114d	0.15436287
83	0x3da5e90c	0.08101091
84	0x3e30a77c	0.1725139
85	0xbd9a0608	-0.075206816
86	0xbdaa2936	-0.083086416
87	0xbcc1c36c	-0.023652755
88	0xbd133876	-0.035942517
89	0xbd9c4aa0	-0.07631421
90	0xbc2bb5a0	-0.0104803145
91	0x3e22e9d5	0.15909512
92	0xbdc6d8e0	-0.097093344
93	0x3dca0621	0.0986445
94	0x3da74365	0.08167151
95	0x3dd0a449	0.10187585
96	0x3d3bfec6	0.045897268
97	0xbd8587f8	-0.065200746
98	0x3d9202ea	0.07129462
99	0xbda762eb	-0.08173164
100	0xbde1e5ab	-0.11030134
101	0x3e29e034	0.16589433
102	0x3e160342	0.1464968
103	0xbe04373b	-0.12911694
104	0x3e1351ee	0.14386722
105	0x3d0fb583	0.035085212
106	0x3d3e5675	0.04646917
107	0x3e2d29ca	0.16910473
108	0xbc2a114a	-0.010380099
109	0xbd63c96e	-0.05561202
110	0x3de051b2	0.10953082
111	0xbd42592d	-0.047448326
112	0xbd2763a9	-0.040866528
113	0xbd94bdbb	-0.07262751
114	0x3e30e613	0.17275266
115	0x3dac6454	0.084175736
116	0xbcea8ba7	-0.028631045
117	0xbb4f15b2	-0.0031598625
118	0x3c580779	0.013185375
119	0xbdd905c7	-0.10596805
120	0x3d4834fb	0.04887865
121	0xbe0c15e2	-0.13680223
122	0xbc0be6ce	-0.008538915
123	0xbd07f82d	-0.033195663
124	0xbd9473da	-0.072486594
125	0x3e28605d	0.1644301
126	0x3d4ba01f	0.04971325
127	0x3dad1660	0.08451533
128	0xbde595ed	-0.11210237
129	0x3cdd0584	0.02698017
130	0x3d4e755e	0.0504049
131	0x3db5a49c	0.08869287
132	0xbd4dbe4c	-0.05023031
133	0xbd1a60a7	-0.03768983
134	0xbe14c396	-0.14527735
135	0x3ddd67cf	0.108108155
136	0x3df5bd6a	0.119990185
137	0x3da1c62c	0.078991264
138	0x3da937c0	0.082625866
139	0x3dd261ef	0.102725856
140	0x3e29c551	0.16579176
141	0x3d54dd53	0.051968884
142	0x3d897d83	0.067133926
143	0x3d6e4654	0.05817254
144	0xbdcf0d43	-0.10109951
145	0x3d306598	0.043065637
146	0x3d50a919	0.050942514
147	0xbe0d6771	-0.13808991
148	0xbd61641b	-0.05502711
149	0xbde11b94	-0.10991588
150	0xbded9969	-0.11601526
151	0x3df9025e	0.12158655
152	0x3e0e1802	0.13876346
153	0xbcc371de	-0.023858007
154	0x3d6520b0	0.055939376
155	0xbd451e81	-0.048124794
156	0x3d1b24d7	0.03787693
157	0xbd1a0069	-0.037598047
158	0xbdc0edfd	-0.09420393
159	0xbd968428	-0.073494256
160	0x3e35f8a9	0.17770638
161	0x3cf243e5	0.02957339
162	0xbdb84579	-0.08997626
163	0x3c566da7	0.013087667
164	0xbe2ec1ab	-0.17066066
165	0xb91bb370	-0.00014848798
166	0x3e0d2590	0.1378386
167	0x3cdb123e	0.026742097
168	0x3d150e20	0.036390424
169	0xbe27a66f	-0.16372083
170	0xbd1ebc2e	-0.03875368
171	0x3dd04629	0.10169632
172	0xbdff697e	-0.12471293
173	0xbdb075dc	-0.0861623
174	0x3e01ba3c	0.12668699
175	0x3d4997d5	0.049217064
176	0x3d9cbbbc	0.07652995
177	0xbe241587	-0.16023837
178	0x3df306cb	0.1186653
179	0xbd137b56	-0.036006294
180	0x3d130637	0.0358946
181	0x3e10a841	0.14126684
182	0xbe24a18b	-0.16077249
183	0x3d6301e5	0.05542173
184	0xbe1edc44	-0.15513712
185	0x3e08572a	0.133145
186	0x3d58d5d4	0.052938297
187	0x3c8ee0cd	0.017441178
188	0xbd8e6a44	-0.06953862
189	0x3d79fd81	0.061032776
190	0xbdc5ae3b	-0.096523724
191	0x3d1874c8	0.037220746
192	0x3e1737cc	0.14767379
193	0xbe06c1d2	-0.13159874
194	0xbd4e41e3	-0.050355803
195	0x3d28e0dc	0.041230068
196	0x3cfdf12b	0.030998787
197	0x3b1796f0	0.0023130737
198	0x3e1c348a	0.15254417
199	0xbd3c9a72	-0.046045728
200	0x3d3657f2	0.044517465
201	0x3dc07409	0.09397132
202	0xbd0921b8	-0.033479422
203	0x3deaaa09	0.11458213
204	0x3ded90e8	0.11599904
205	0x3da2a0d2	0.0794083
206	0xbd309fb7	-0.043121066
207	0x3e1a762c	0.15084141
208	0xbdd1ac16	-0.10237901
209	0x3d5fa0a0	0.054596543
210	0x3d104f39	0.035231803
211	0x3dfdfa37	0.1240124
212	0xbe145dc3	-0.14488892
213	0x3cf99c9b	0.030470183
214	0xbdcc7c78	-0.09984678
215	0x3dc0f05e	0.094208464
216	0x3d7b3be6	0.06133642
217	0xbe0c45f1	-0.13698556
218	0xbc46559b	-0.012105371
219	0x3d4ea9c6	0.050454877
220	0x3d991cc7	0.07476192
221	0x3e227812	0.15866116
222	0x3da14e10	0.07876217
223	0x3d050521	0.032475594
224	0x3dbf1414	0.093300015
225	0xbe2a1fde	-0.16613719
226	0x3df36ba9	0.11885769
227	0xbcb002cc	-0.021485709
228	0x3dce14e3	0.100625776
229	0x3d4d9c1b	0.050197702
230	0xbc02c586	-0.007981664
231	0x3e00160b	0.12508409
232	0xbdd2fc4d	-0.10302029
233	0x3d50794c	0.050896928
234	0x3d9d39a9	0.076770134
235	0xbd82d625	-0.06388501
236	0x3d84ab88	0.064780295
237	0xbe32d02d	-0.17462225
238	0xbdb5c7da	-0.08876009
239	0x3dae17a9	0.085006066
240	0x3db904c6	0.090341136
241	0xbe252dd2	-0.1613076
242	0x3d7e628b	0.062105697
243	0x3c7e59bc	0.015524324
244	0x3e308f5e	0.1724219
245	0xbe31a34d	-0.1734745
246	0xbd24eb5f	-0.04026353
247	0xbdcb14ae	-0.09916054
248	0xbddabfc7	-0.1068111
249	0xbce0ef48	-0.027457848
250	0xbe26959b	-0.16268007
251	0x3e0dc2b4	0.13843805
252	0xbd80abba	-0.06282754
253	0x3d80f5c0	0.06296873
254	0xbdd70dfb	-0.105007134
255	0xba102b31	-0.00054996

gru.weight_hh_l1 f4 [96, 32]
0	0xbe13cf02	-0.14434436
1	0x3e19572b	0.14974658
2	0x3e04823c	0.12940305
3	0x3e1bdaee	0.15220234
4	0xbc4331ea	-0.011913756
5	0xbd05525b	-0.032549243
6	0xbe225068	-0.15850985
7	0x3e059640	0.13045597
8	0xbc192228	-0.009346522
9	0xbe34bf10	-0.1765101
10	0x3e30c662	0.17263177
11	0xbcbb6fa3	-0.022880381
12	0x3dda138b	0.10648259
13	0xbcd6c444	-0.026216634
14	0xbce512c9	-0.027963059
15	0x3e1f3aee	0.15549824
16	0x3e16565f	0.14681385
17	0xbda90379	-0.082526155
18	0x3bbd116d	0.0057698996
19	0x3df5ec6e	0.12007986
20	0x3c0c6c8d	0.008570802
21	0xbd0231d2	-0.031785794
22	0x3e21ba9c	0.15793842
23	0x3e211121	0.1572919
24	0xbd426f58	-0.047469467
25	0x3e0928aa	0.13394418
26	0xbc8f2a42	-0.017476205
27	0x3bafcaf9	0.0053647724
28	0x3e112f2d	0.14178152
29	0xbc620149	-0.013794252
30	0xbc8fa458	-0.01753442
31	0xbd1da339	-0.03848574
32	0xbe16204c	-0.14660758
33	0x3e0db9ff	0.13840483
34	0xbe0c5432	-0.13703993
35	0xbe0c60de	-0.13708827
36	0x3cd22537	0.025652511
37	0xbcb0b353	-0.021569883
38	0x3bb8795e	0.0056297025
39	0x3c5e5857	0.013570867
40	0x3e33ba2e	0.1755149
41	0xbe2f17d1	-0.17098929
42	0xbdd39575	-0.10331241
43	0x3cfa4fc2	0.03055561
44	0xbe2240b7	-0.15844999
45	0xbe0c7349	-0.13715853
46	0x3e0dbeb6	0.13842282
47	0x3d86d7f3	0.06584158
48	0xbd630b77	-0.055430856
49	0x3d3a5c77	0.045498338
50	0x3cf5bcf9	0.029997336
51	0xbc95aced	-0.018270934
52	0x3e13d55e	0.14436862
53	0x388f42ad	6.831191e-05
54	0x3e025082	0.12726024
55	0xbe0e8663	-0.13918452
56	0xbd9700a2	-0.073731676
57	0x3cd60c93	0.026129043
58	0x3dc245d2	0.094859734
59	0xbd982c35	-0.07430307
60	0x3e01d80c	0.12680072
61	0xbe159b5e	-0.14610049
62	0xbd884c05	-0.066551246
63	0x3e084a9c	0.13309711
64	0xbe0746b4	-0.13210565
65	0xbe2ae898	-0.1669029
66	0xbd3b7142	-0.045762308
67	0xbe1618ad	-0.1465785
68	0x3d57b14e	0.052659325
69	0xbcfda66b	-0.030963143
70	0xbd542c69	-0.051800165
71	0x3dc7dd62	0.09759022
72	0x3c29b6c7	0.010358519
73	0xbe21fd9c	-0.158194
74	0xbe2bdd80	-0.16783714
75	0x3de5023b	0.11182066
76	0x3d9c7bfa	0.07640834
77	0x3dc5f5f8	0.096660554
78	0xbe1aff24	-0.15136391
79	0xbd0cc51c	-0.034367666
80	0x3e1a86de	0.1509051
81	0x3e117f21	0.14208652
82	0x3df64e62	0.12026669
83	0x3e2784e4	0.16359288
84	0xbd647133	-0.055772018
85	0xbe0c1f3f	-0.13683794
86	0x3dcb4af7	0.09926408
87	0x3de7a86d	0.113114215
88	0xbd5be9f1	-0.0536899
89	0xbc7eb50c	-0.015546095
90	0xbc03d8f1	-0.008047328
91	0xbe1fc139	-0.15601052
92	0xbd95d114	-0.07315269
93	0xbd66eefc	-0.056380257
94	0x3d86832c	0.06567988
95	0xbd55ed22	-0.0522281
96	0x3da5b402	0.080909744
97	0x3e2337f8	0.15939319
98	0xbd1ca1ab	-0.038240116
99	0xbd301189	-0.042985473
100	0xbde10f19	-0.10989208
101	0xbc6bc5dc	-0.014390435
102	0xbe25d96e	-0.16196224
103	0x3df3c38b	0.11902531
104	0x3e1cadb0	0.15300632
105	0x3d435368	0.047686964
106	0x3e2c3ad5	0.16819318
107	0x3db6a9fe	0.08919142
108	0x3def94de	0.11698316
109	0x3e272cb4	0.16325647
110	0xbdf830d4	-0.12118688
111	0xbc70d1c3	-0.014698449
112	0x3d87e965	0.06636313
113	0xbd4375aa	-0.047719635
114	0xbe013e7a	-0.12621489
115	0xbd6745cb	-0.056463044
116	0xbdb61445	-0.08890585
117	0xbd804a2b	-0.062641464
118	0xbe09a8fc	-0.13443369
119	0xbd5b0d2c	-0.05347936
120	0x3dcd6e8e	0.10030852
121	0xbd9f806a	-0.07788165
122	0x3d9b636c	0.075873226
123	0xbe14e003	-0.14538579
124	0xbde50b1f	-0.11183762
125	0x3c959230	0.018258184
126	0x3e2798f5	0.16366942
127	0xbe26ca45	-0.16288097
128	0x3d9863f2	0.07440938
129	0x3ceeb1bd	0.029137487
130	0xbe1442c0	-0.14478588
131	0xbe0201d5	-0.12696011
132	0x3db24ebf	0.08706426
133	0xbdb63d89	-0.08898456
134	0x3dfefe46	0.124508426
135	0xbdf7a406	-0.12091832
136	0x3e081ff1	0.13293435
137	0xbdb81154	-0.0898768
138	0x3d90b155	0.070650734
139	0x3d5f7326	0.054553173
140	0xbe0dd5e8	-0.1385113
141	0xbdbfd69d	-0.09367106
142	0xbd30d054	-0.043167427
143	0x3b38bf8f	0.002819035
144	0x3db55887	0.08854776
145	0xbd9612b0	-0.07327783
146	0x3cde0d0e	0.027105834
147	0xbdc1b6e3	-0.09458711
148	0xbda7192c	-0.08159098
149	0x3dee496e	0.11635099
150	0xbd4b7a2e	-0.049677067
151	0xbe1cea21	-0.15323688
152	0x3c1cd097	0.009571216
153	0xbcbbee4d	-0.02294078
154	0x3d492db3	0.049115848
155	0xbdb6db8f	-0.08928596
156	0x3c0fcfdc	0.008777585
157	0xbdb31c5f	-0.08745646
158	0xbddcbfda	-0.1077878
159	0x3d23f5fc	0.04002951
160	0x3d4ac856	0.04950746
161	0x3cefa2a0	0.02925235
162	0x3e276a98	0.16349256
163	0x3c97699d	0.018482978
164	0x3c2c5232	0.010517644
165	0xbcb72aa3	-0.022359198
166	0xbe2e5d5f	-0.17027806
167	0x3d922cbb	0.07137438
168	0x3e0b82cb	0.13624112
169	0x3c96b7b0	0.018398136
170	0xbe108401	-0.14112855
171	0x3e23ca53	0.1599515
172	0x3d24ccf4	0.04023452
173	0x3e01feac	0.12694806
174	0x3d9af2e1	0.07565857
175	0x3cfeadbf	0.031088708
176	0xbd4f63a5	-0.050632138
177	0x3d10d6ef	0.035361227
178	0x3d775ea9	0.06039301
179	0xbc03cc36	-0.008044293
180	0xbddeecf3	-0.10885038
181	0xbdb8f9c2	-0.090320125
182	0xbe26dcab	-0.16295116
183	0xbd8bd03e	-0.068268284
184	0xbcd2ec31	-0.02574739
185	0x3e171d12	0.14757183
186	0xbdc514df	-0.096231215
187	0xbe31801b	-0.17334025
188	0x3dc9f087	0.0986033
189	0x3e1bc058	0.15210092
190	0xbe0e879e	-0.13918921
191	0xbb540aa8	-0.0032354984
192	0x3d679e8c	0.056547686
193	0x3dea367a	0.11436172
194	0xbd033a94	-0.032038286
195	0x3da6d053	0.081452034
196	0x3e0b9cb8	0.13634002
197	0x3dd2c9fe	0.10292433
198	0x3db13184	0.086520225
199	0x3ddc0cd3	0.107446335
200	0xbe227b17	-0.15867268
201	0x3d1bfe32	0.038084216
202	0x3e0c36e4	0.13692814
203	0xbe0f301c	-0.13983196
204	0xbe1e35df	-0.15450238
205	0xbe15d0ee	-0.14630482
206	0x3d61622f	0.055025276
207	0x3e27e5c4	0.16396242
208	0xbc821fae	-0.015884247
209	0xbd8f9955	-0.07011668
210	0x3c2c582c	0.010519069
211	0xbe15db82	-0.14634517
212	0x3cfb0de3	0.03064627
213	0xbdee9ddc	-0.11651203
214	0xbdf3e564	-0.11908987
215	0xbe04236d	-0.12904139
216	0xbd4e6d66	-0.0503973
217	0x3deb2fbe	0.114837155
218	0x3d1370b3	0.03599615
219	0x3dfc6c1e	0.12325309
220	0xbe2ed111	-0.1707194
221	0xbe13784d	-0.1440136
222	0x3dde5c06	0.10857396
223	0x3e0ec1d2	0.13941124
224	0x3e1965b2	0.149802
225	0xbe27eff1	-0.16400124
226	0x3da246be	0.07923649
227	0xbe32239f	-0.17396401
228	0xbd542487	-0.051792648
229	0x3b31b6cd	0.0027117014
230	0x3da98287	0.08276849
231	0xbd5c4a16	-0.05378159
232	0xbe1d0468	-0.15333712
233	0xbe2f73ce	-0.1713402
234	0xbd8f858a	-0.070078924
235	0x3e09ec1e	0.13468978
236	0x3d9d1e14	0.076717526
237	0x3db3d018	0.08779925
238	0xbe1125ad	-0.14174528
239	0xbe230114	-0.1591838
240	0x3e27681d	0.1634831
241	0x3dec5839	0.11540265
242	0xbd9c0b74	-0.07619372
243	0x3c72bb44	0.014815155
244	0x3e02ac30	0.12760997
245	0x3e23445b	0.15944044
246	0xbe114931	-0.14188077
247	0xbdb34732	-0.08753814
248	0x3d8c001b	0.068359576
249	0x3e09867a	0.13430205
250	0x3cfab96b	0.030605992
251	0xbc343b40	-0.011000454
252	0x3be5ee9c	0.00701697
253	0x3e24e0bb	0.16101353
254	0xbe0db33b	-0.13837902
255	0x3da48c0c	0.08034524

gru.bias_ih_l1 f4 [96]
0	0xbc6187c8	-0.013765283
1	0x3dd747f0	0.10511768
2	0xbe3274c3	-0.17427354
3	0xbe31b972	-0.17355898
4	0x3c2edb82	0.010672452
5	0xbd844881	-0.064591415
6	0x3da95224	0.0826762
7	0x3d7eedbf	0.06223845
8	0x3cb5a60a	0.0221739
9	0x3d8b088a	0.06788738
10	0x3e25e8e4	0.16202122
11	0x3cec1fd2	0.028823767
12	0x3df21fb9	0.11822457
13	0xbdc1911a	-0.09451504
14	0x3e18e3fa	0.14930716
15	0xbcfcc658	-0.030856296
16	0x3dc3ba29	0.095569916
17	0xbe162492	-0.14662388
18	0xbdcb698e	-0.09932242
19	0xbdd3ab72	-0.10335435
20	0x3dbb15c7	0.09135013
21	0xbbc05437	-0.005869414
22	0xbe25b1cb	-0.16181104
23	0x3e31650d	0.17323704
24	0x3d38cf51	0.045119587
25	0x3e248a62	0.16068414
26	0x3cb7ffd7	0.022460861
27	0x3cc35f59	0.023849176
28	0x3e02a0ab	0.12756602
29	0xbde814b9	-0.113320775
30	0x3e2b6f34	0.1674164
31	0xbde8fa0e	-0.11375819
32	0x3c2753d0	0.010212854
33	0xbe0a3595	-0.13497002
34	0xbe0b4b13	-0.13602857
35	0x3e02cd6c	0.12773675
36	0xbd90ed58	-0.0707652
37	0xbd8f40d8	-0.0699479
38	0x3e06518d	0.13117047
39	0x3e342f55	0.1759618
40	0xbe2090b0	-0.15680194
41	0xbc189326	-0.009312427
42	0x3cb88349	0.02252354
43	0x3e27ea81	0.1639805
44	0xbdb6f814	-0.08934036
45	0xbdc6886f	-0.096939914
46	0xbe1a2704	-0.15053946
47	0x3d38a159	0.045075748
48	0x3d2f8c6b	0.042858522
49	0xbb60fecd	-0.003433156
50	0xbd29d14f	-0.041459378
51	0xbdfceccc	-0.12349853
52	0xbd9fca3b	-0.07802244
53	0xbd944945	-0.072405376
54	0x3d3180e5	0.043335814
55	0x3d9b9d5c	0.07598373
56	0x3da9c0a0	0.082886934
57	0xbe188274	-0.14893514
58	0xbc77e932	-0.015131282
59	0xbd25fe80	-0.040525913
60	0x3e357b38	0.17722785
61	0x3dc83f91	0.09777749
62	0xbe076bdb	-0.13224737
63	0xbdc65c3e	-0.096855626
64	0xbe28858f	-0.16457199
65	0xbd140a19	-0.036142442
66	0xbe10a3ac	-0.14124936
67	0x3d526e74	0.051374868
68	0xbd8e3d41	-0.06945277
69	0xbe27c08d	-0.16382046
70	0x3c8600c9	0.016357796
71	0xbd532b8a	-0.051555194
72	0x3e05ac8c	0.13054103
73	0x3e28cc52	0.16484192
74	0xbde3083e	-0.110855564
75	0x3da168af	0.07881295
76	0xbcaed69a	-0.021342564
77	0x3df10131	0.11767805
78	0x3c967699	0.018367099
79	0xbc960d9f	-0.018317042
80	0xbb8aaae5	-0.004231798
81	0x3d3ce35b	0.04611526
82	0x3d67d98d	0.056603957
83	0x3dabe862	0.08393933
84	0x3d3b16a8	0.045675904
85	0xbe04b53b	-0.12959759
86	0xbddc6564	-0.10761526
87	0xbdb3ca17	-0.0877878
88	0xbe2e41be	-0.17017266
89	0x3e23ab6f	0.15983365
90	0xbdbcc208	-0.09216696
91	0xbe036740	-0.12832355
92	0xbdb33d4e	-0.08751927
93	0x3ddd4469	0.10804064
94	0xbdf5f1b6	-0.12008993
95	0xbe11253d	-0.14174362

gru.bias_hh_l1 f4 [96]
0	0xbe06f525	-0.13179453
1	0x3d191758	0.037375778
2	0xbbeb3286	-0.0071776537
3	0xbe24cee2	-0.16094545
4	0xbdf0dd8f	-0.11761009
5	0xbe158561	-0.14601661
6	0x3d78954c	0.060689256
7	0x3da4eff3	0.08053579
8	0x3cfa171a	0.030528594
9	0xbd61b566	-0.055104636
10	0xbdabe3e6	-0.083930776
11	0x3d90b33d	0.07065437
12	0xbd211a89	-0.039331947
13	0xbcbe3c9c	-0.02322226
14	0xbd5e67da	-0.05429826
15	0x3d003458	0.03129992
16	0x3d294c29	0.041332398
17	0x3e150591	0.14552905
18	0x3e27d6e9	0.16390575
19	0xbd3a1519	-0.045430277
20	0x3cc6904d	0.02423873
21	0xbdf1f1a3	-0.11813667
22	0xbe0774aa	-0.13228098
23	0x3e15f90d	0.14645787
24	0x3ca2c46f	0.019869057
25	0xbdb7e9f1	-0.08980168
26	0x3db6d1a2	0.08926703
27	0x3d8effe5	0.06982402
28	0x3d81e4e8	0.063424885
29	0x3da76ada	0.08174677
30	0x3c226114	0.009910841
31	0xbe03bdf4	-0.1286543
32	0xbe26df7a	-0.16296187
33	0x3e1c3f8f	0.1525862
34	0x3dd60979	0.104510255
35	0xbe15c113	-0.14624433
36	0x3dea6771	0.11445511
37	0xbe4ef4b0	-0.20210528
38	0x3de2997d	0.11064432
39	0x3e00e494	0.12587196
40	0x3de8dcc3	0.11370232
41	0x3d8c77f4	0.06858817
42	0xbe0a449d	-0.13502736
43	0xbda708d0	-0.08155978
44	0x3c9be748	0.019031182
45	0x3cf84fd4	0.030311503
46	0x3ddd41a7	0.10803538
47	0x3bfea0ff	0.007770657
48	0x3d93924c	0.07205638
49	0xbe095e77	-0.13414942
50	0xbd735911	-0.059411112
51	0x3dd66b97	0.1046974
52	0x3c140352	0.009033995
53	0x3e09ce13	0.13457517
54	0xbe146d5f	-0.14494847
55	0xbdf5d5e2	-0.120036855
56	0x3d651916	0.055932127
57	0xbcaf38d1	-0.021389397
58	0xbe1c3649	-0.15255083
59	0x3d8c9219	0.068638034
60	0x3c060742	0.008180441
61	0x3c545d08	0.0129616335
62	0x3d1dee49	0.038557325
63	0xbdf91269	-0.121617146
64	0xbe0b7f70	-0.13622832
65	0xbe0b5dc2	-0.13609985
66	0x3e0746ca	0.13210598
67	0xbddbef88	-0.10739046
68	0x3e219046	0.15777692
69	0xbdaf6c0f	-0.085655324
70	0x3d32a1a7	0.043611195
71	0x3e2dba1f	0.16965531
72	0xbdc3e3d5	-0.0956494
73	0xbe2b5a54	-0.16733676
74	0x3d743ebd	0.059630144
75	0xbe028fe7	-0.12750207
76	0x3daadf4b	0.08343371
77	0x3d9c9261	0.07645107
78	0x3e319157	0.17340599
79	0xbca02702	-0.01954985
80	0xbde98c04	-0.11403659
81	0xbe2e8aff	-0.1704521
82	0xbe0500f1	-0.1298864
83	0x3e2629ea	0.16226926
84	0xbcd15ef6	-0.025557976
85	0x3b98633d	0.004650502
86	0xbd2b0feb	-0.041763227
87	0xbda6e359	-0.08148832
88	0x3e195f12	0.14977673
89	0xbd5d8b8c	-0.05408816
90	0xbdc046fd	-0.0938854
91	0x3e238ee3	0.15972476
92	0x3dccd022	0.10000636
93	0x3dbb821b	0.09155675
94	0x3dfb99f3	0.12285223
95	0xbde31c57	-0.1108939

gru_fc.weight f4 [128, 32]
0	0x3d3fe119	0.04684553
1	0xbd9972d8	-0.07492608
2	0xbc998412	-0.018739734
3	0x3de33b35	0.11095277
4	0xbdac04dd	-0.08399365
5	0x3e57f750	0.21090436
6	0x3c115fde	0.008872954
7	0x3dd59d52	0.10430397
8	0x3c1e2fad	0.0096549215
9	0xbe1da45e	-0.15394732
10	0xbe10944d	-0.14119072
11	0xbe10c600	-0.14138031
12	0x3d3844a3	0.044987332
13	0xbe143b3d	-0.14475723
14	0xbe4172d6	-0.18891463
15	0x3d38d7a2	0.04512752
16	0xbe268b38	-0.16264045
17	0xbdcbfbac	-0.09960112
18	0xbdac8cc4	-0.084252864
19	0x3db6181c	0.08891317
20	0x3e34254e	0.17592356
21	0x3d878960	0.06617999
22	0xbdde7b05	-0.10863308
23	0x3e049707	0.12948237
24	0x3e20a566	0.15688094
25	0xbd0ce7b4	-0.034400657
26	0x3e0d689e	0.1380944
27	0x3d803771	0.062605746
28	0xbdf5d683	-0.120038055
29	0xbd898a4d	-0.06715832
30	0xbe0abf48	-0.1354953
31	0x3d378321	0.04480279
32	0x3dbf3d2c	0.093378395
33	0xbe284b55	-0.16434987
34	0xbd7383d4	-0.059451893
35	0xbb73c330	-0.0037195198
36	0x3e18a143	0.14905266
37	0xbde73e09	-0.11291129
38	0xbc4584b9	-0.012055569
39	0xb9f3047c	-0.00046351913
40	0xbdbdbc23	-0.092644
41	0xbdb328a1	-0.08747984
42	0xbd0b9998	-0.034082025
43	0xbd60cf8e	-0.05488544
44	0xbd884cf3	-0.06655302
45	0x3cecd404	0.02890969
46	0x3c216e18	0.009852909
47	0xbdafb6af	-0.08579766
48	0x3de6160b	0.11234673
49	0x3e03acc3	0.12858872
50	0xbd0f38fd	-0.034966458
51	0xbd017ce7	-0.031613257
52	0xbe2db95e	-0.16965243
53	0xbe00dfde	-0.12585399
54	0xbb9c806f	-0.0047760527
55	0xbcf22481	-0.029558422
56	0x3d730482	0.05933047
57	0xbdbdddba	-0.092708066
58	0xbd314f5f	-0.043288585
59	0x3c97b887	0.018520607
60	0x3e33ba35	0.17551501
61	0x3e16b55c	0.1471762
62	0xbdf47937	-0.119371824
63	0xbc515146	-0.012775725
64	0xbd3ff313	-0.046862673
65	0xbb6a8dad	-0.0035790012
66	0x3da337fb	0.07969662
67	0xbd7f8318	-0.06238088
68	0xbd13f4cc	-0.03612213
69	0xbe382510	-0.17982888
70	0xbd72baaf	-0.059260067
71	0xbe2617c1	-0.16219999
72	0x3d437c1a	0.047725774
73	0xbe0f4611	-0.13991572
74	0xbdaf35e0	-0.08555198
75	0xbe01e0a5	-0.12683351
76	0x3e0650ae	0.13116714
77	0xbd3f4e8f	-0.04670578
78	0x3e2bb4d9	0.16768207
79	0xbda80c18	-0.08205432
80	0x3e11e62e	0.14247963
81	0xbcf5c3cd	-0.030000592
82	0xbdfff55d	-0.12497971
83	0x3e1a1079	0.15045346
84	0xbdd4e244	-0.10394719
85	0xbdc13899	-0.09434623
86	0x3dc68e03	0.09695055
87	0xbc2eb50d	-0.010663283
88	0x3c2b5a06	0.010458475
89	0x3e364270	0.17798781
90	0xbe16e56e	-0.14735958
91	0xbd82b14f	-0.06381475
92	0x3da19606	0.07889943
93	0xbcf6eed8	-0.030143186
94	0x3a040e94	0.00050375727
95	0xbd85595b	-0.06511184
96	0xbd0f130c	-0.034930274
97	0x3e0865ee	0.13320133
98	0xbd03904e	-0.03212004
99	0x3d9577ab	0.072982155
100	0x3df0d2c1	0.11758948
101	0x3e135f90	0.14391923
102	0x3daba58f	0.08381187
103	0x3dffae04	0.12484363
104	0xbd42adf1	-0.047529165
105	0x3c871806	0.016490947
106	0xbdb2a716	-0.08723275
107	0xbe320aec	-0.17386979
108	0x3e1caff0	0.1530149
109	0xbe31732f	-0.17329095
110	0xbdfa9be1	-0.12236763
111	0xbd700a6d	-0.058603693
112	0xbe26b534	-0.16280061
113	0xbe104be9	-0.14091457
114	0xbda8a27d	-0.08234117
115	0x3ce8c66c	0.028414927
116	0xbe17eb18	-0.14835775
117	0xbdf871ec	-0.12131104
118	0xbdd6a69c	-0.10480997
119	0xbe0a9a8e	-0.1353552
120	0x3d34b811	0.044120852
121	0x3bb90b6c	0.0056471135
122	0x3d13797b	0.036004525
123	0x3e211b96	0.1573318
124	0xbd9e5b15	-0.07732216
125	0xbd9149d5	-0.070941605
126	0x3d6c1ed1	0.057646576
127	0x3e1dcc75	0.15410025
128	0x3d743c72	0.059627958
129	0x3af4a9ad	0.001866629
130	0x3d9bca1a	0.07606907
131	0xbe45aeac	-0.19304913
132	0xbddbcada	-0.1073205
133	0xbdc7d15d	-0.0975673
134	0xbe2a432d	-0.16627188
135	0xbe079316	-0.13239703
136	0xbe086fe2	-0.1332393
137	0x3d19d42c	0.03755586
138	0x3d941a22	0.07231547
139	0xbc35316c	-0.011059146
140	0xbd69744e	-0.056995682
141	0x3cbf5de7	0.023360206
142	0x3e0d3ffe	0.13793942
143	0xbe0a4072	-0.13501146
144	0x3e07bbe1	0.13255264
145	0x3da3c77e	0.079970345
146	0xbd9f04d5	-0.077645935
147	0x3dfeb130	0.124361396
148	0xbbf66cd5	-0.007520298
149	0xbdab3307	-0.08359342
150	0x3e293d30	0.16527247
151	0x3d5128f3	0.051064443
152	0x3e102cd8	0.14079607
153	0xbd613e6c	-0.05499117
154	0xbe21505e	-0.15753314
155	0x3e030cbf	0.12797831
156	0x3c0bf6c1	0.008542717
157	0x3dc978ec	0.09837517
158	0xbd5a6e2e	-0.05332773
159	0x3db5bdaf	0.0887407
160	0xbe0c76c2	-0.13717178
161	0x3c0f69bf	0.008753239
162	0x3e08f959	0.13376369
163	0xbd419fc7	-0.047271516
164	0x3e21e753	0.158109
165	0x3d827a67	0.06371003
166	0x3db5d4d3	0.088784836
167	0x3e316735	0.17324527
168	0xbd2ee45b	-0.042698245
169	0xbd2c2da4	-0.042035714
170	0x3dee5344	0.116369754
171	0xbdaf4005	-0.08557133
172	0xbe072ed0	-0.13201451
173	0x3decac23	0.1155627
174	0xbe1a4af6	-0.15067658
175	0xbdad4b6f	-0.084616534
176	0x3d326b3f	0.04355931
177	0x3ce5bee1	0.02804512
178	0xbde4e5bd	-0.111766316
179	0xbd427910	-0.047478735
180	0x3de7b055	0.113129295
181	0xbdeb4d4a	-0.11489351
182	0x3dd228bb	0.10261675
183	0xbc74a436	-0.014931729
184	0xbd82fa5e	-0.0639541
185	0xbe29a1f5	-0.16565688
186	0xbd3c7716	-0.046012007
187	0x3e1727b2	0.14761236
188	0xbdc4db9d	-0.096122004
189	0xbe0d0021	-0.1376958
190	0xbc48440c	-0.012223255
191	0x3dffd0a4	0.12490967
192	0xbd5c5b64	-0.053798094
193	0x3e24994e	0.16074106
194	0x3e25e47e	0.16200444
195	0x3e2dc9c5	0.169715
196	0xbdee0bc4	-0.11623338
197	0xbddd9979	-0.10820288
198	0xbe2807cf	-0.16409229
199	0xbd073037	-0.033004966
200	0xbdee25c9	-0.11628301
201	0x3db2945f	0.08719706
202	0xbb31d791	-0.0027136544
203	0x3e1083cd	0.14112778
204	0xbe1e5bc5	-0.15464695
205	0xbe22a314	-0.15882522
206	0xbd635fa9	-0.05551115
207	0x3d5373c7	0.051624086
208	0x3e14c1ad	0.14527006
209	0xbc89a0fa	-0.016800392
210	0x3e281eb7	0.16417967
211	0xbd342ea8	-0.043989807
212	0xbc9df31e	-0.019280966
213	0xbd864c6a	-0.065575436
214	0xbda18c24	-0.07888058
215	0xbd90d6af	-0.07072198
216	0xbe1e392e	-0.154515
217	0xbc669632	-0.014073895
218	0xbd695200	-0.056962967
219	0xbddf95e2	-0.1091726
220	0xbe052997	-0.13004147
221	0xbe36e6ba	-0.17861453
222	0xbd233d00	-0.039853096
223	0xbe17a5ac	-0.14809293
224	0x3e244923	0.16043524
225	0xbd20a0ac	-0.03921573
226	0x3d628dab	0.055310886
227	0xbe0883dd	-0.13331552
228	0x3cda4a99	0.026646899
229	0xbe359a88	-0.1773473
230	0x3da0ad3d	0.078455426
231	0x3dabdde4	0.08391932
232	0xbe2faa20	-0.17154741
233	0x3d9329a7	0.07185679
234	0x3d08b531	0.033375923
235	0xbde467a9	-0.11152584
236	0xbdb5ec7a	-0.08882995
237	0x3e3a3387	0.18183719
238	0xbd9cb657	-0.07651966
239	0x3e1cd087	0.15313922
240	0x3d225ddc	0.039640293
241	0x3daa10b8	0.0830397
242	0xbdc6a0b6	-0.09698622
243	0x3d661076	0.056168042
244	0x3d117fa2	0.03552211
245	0x3e0fddc9	0.14049448
246	0xbe2f7901	-0.17136003
247	0xbd7ffaca	-0.06249503
248	0x3befe4d1	0.007320978
249	0xbe04c5e7	-0.12966119
250	0x3cdef654	0.027217068
251	0x3ddf0d24	0.10891178
252	0x3dd9002a	0.105957344
253	0xbdabf36f	-0.08396041
254	0x3d8e7c11	0.069572575
255	0xbe0130f4	-0.1261633

gru_fc.bias f4 [128]
0	0x3e2e36db	0.17013113
1	0x3c958aae	0.018254604
2	0xbd1dec2e	-0.038555317
3	0x3e25db62	0.16196969
4	0xbdb2044b	-0.08692225
5	0xbc364b8b	-0.011126409
6	0xbd4b0063	-0.049560916
7	0xbddd3a48	-0.10802132
8	0xbe124981	-0.14285852
9	0x3e44574c	0.19173926
10	0x3e237c60	0.15965414
11	0x3debb512	0.11509146
12	0xbdb3d234	-0.087803274
13	0xbd9354e7	-0.07193928
14	0x3e06ecd3	0.13176279
15	0x3e03c80f	0.12869285
16	0x3e4ff7f9	0.20309438
17	0x3dbab2ad	0.09116111
18	0xbd8fb8c9	-0.07017667
19	0xbda24261	-0.07922817
20	0x3e2fa836	0.17154011
21	0xbe0b01ab	-0.13574855
22	0xbe386c0d	-0.18009968
23	0xbd0b6806	-0.03403475
24	0xbd3214d4	-0.043476894
25	0x3dc6c603	0.097057365
26	0xbe0cdf57	-0.13757072
27	0xbd340f43	-0.043959867
28	0xbdf2f508	-0.11863142
29	0x3df581ae	0.11987625
30	0x3d0fc80f	0.0351029
31	0xbdc8ed84	-0.098109275
32	0xbd07528d	-0.03303771
33	0x3de9dc73	0.114190005
34	0x3e1a4aaf	0.15067552
35	0xbe2ad12f	-0.1668136
36	0xbdd385ae	-0.10328232
37	0x3d2fd2bd	0.042925585
38	0x3d004b7b	0.031321984
39	0xbdf0cac6	-0.11757426
40	0x3d19f203	0.037584316
41	0x3c9ecebd	0.01938569
42	0xbd8f27d3	-0.06990018
43	0xbe07f46d	-0.13276835
44	0xbcdce8e2	-0.026966516
45	0x3da11943	0.078661464
46	0x3da5fae5	0.08104495
47	0x3d70bc97	0.058773603
48	0x3e036995	0.12833245
49	0x3e12bcea	0.14329877
50	0xbdfcde4b	-0.123470865
51	0xbd817475	-0.063210405
52	0xbe252294	-0.16126472
53	0x3dfe0fa7	0.12405329
54	0xbe414a5f	-0.18876027
55	0xbda71dd9	-0.0815999
56	0xbe2ad1c2	-0.16681579
57	0xbc028ba7	-0.007967866
58	0xbd4b2d03	-0.049603473
59	0x3df479c8	0.119372904
60	0xbe1e9044	-0.1548472
61	0x3e08268a	0.13295951
62	0xbd958198	-0.07300109
63	0x3d2ccb2a	0.04218594
64	0xbdf16a2a	-0.11787827
65	0x3d68d835	0.056846816
66	0x3e210b59	0.15726985
67	0x3d81d771	0.0633992
68	0x3d42d2f2	0.047564454
69	0xbd3cd848	-0.0461047
70	0xbe20db9f	-0.15708779
71	0x3da35eea	0.07977088
72	0x3e254b7b	0.16142075
73	0x3daecba5	0.08534936
74	0x3e06499e	0.1311402
75	0xbdc3f76c	-0.09568676
76	0x3dd94f97	0.10610884
77	0x3e02f20c	0.12787646
78	0x3e041034	0.12896806
79	0xbde8f5d2	-0.113750115
80	0x3e14f443	0.14546303
81	0xbe300a27	-0.17191373
82	0xbdcc5cc9	-0.09978635
83	0x3dd76080	0.10516453
84	0x3e094fe2	0.13409379
85	0x3debcfdd	0.11514256
86	0xbd83414b	-0.06408938
87	0xbe1535d8	-0.14571321
88	0x3ddb02b6	0.106938764
89	0xbdc87062	-0.0978706
90	0x3e02516b	0.12726371
91	0xbbf4223a	-0.007450369
92	0x3d6d91d6	0.058000408
93	0x3c76c67e	0.015061973
94	0xbc8694b9	-0.016428338
95	0xbdad5303	-0.08463099
96	0xbd0838c9	-0.03325728
97	0xbcf1445b	-0.02945154
98	0xbdfc7a78	-0.123280466
99	0x3d8baaf9	0.0681972
100	0x3d8a6f86	0.06759553
101	0xbe2ef136	-0.17084202
102	0xbdd37e26	-0.10326795
103	0xbe328731	-0.17434384
104	0xbcf3810a	-0.029724617
105	0xbe037c89	-0.12840475
106	0x3e1d73ef	0.15376256
107	0xbde7ca2d	-0.11317859
108	0xbd329bfb	-0.043605786
109	0x3e114300	0.14185715
110	0x3d029a64	0.03188552
111	0x3e036a71	0.12833573
112	0xbd94ee01	-0.07271958
113	0x3e141745	0.14462002
114	0xbe05d3b5	-0.13069041
115	0xbd7f2b93	-0.062297415
116	0xbe10c91f	-0.14139222
117	0x3e437a06	0.19089517
118	0x3d944ca7	0.07241183
119	0xbd9c6679	-0.076367326
120	0x3cc9dc99	0.024641322
121	0xbc27b7c6	-0.010236686
122	0xbe047471	-0.12935044
123	0xbdcb6147	-0.099306636
124	0x3db92b93	0.09041514
125	0x3e066650	0.13124967
126	0x3b8ef23c	0.0043623727
127	0x3e39f674	0.1816042
