result/PCA_GRU_prediction_model.pth (torch, 126675 bytes, 13 tensors)

gru.weight_ih_l0 f4 [96, 3]
000000 9c 9a 22 3e c9 4a 1b 3e 75 43 24 bd e6 4b 26 3e
       0.15879291 0.15165247 -0.040103395 0.1623989
000010 0b ee 15 bd b5 e0 13 3d 27 9f ac bd 13 eb d5 3d
       -0.03660397 0.03610297 -0.084287934 0.104452275
000020 c8 f2 1e 3e 40 85 df bd 5d b9 29 3e 19 2d 1f 3d
       0.15522301 -0.10914087 0.16574617 0.038861368
000030 7a 21 09 3e f3 0f ce 3c bb 6b ad 3d 38 50 a6 bc
       0.13391677 0.02515409 0.084678136 -0.020301923
000040 fd 54 01 3e bc 78 07 3d 2b b6 ab bd b3 f5 26 3d
       0.12630077 0.033074126 -0.08384355 0.04076166
000050 61 34 a4 bd d7 09 ac bc 0b f5 89 bd 18 b4 c1 3d
       -0.08017803 -0.021000786 -0.06736191 0.09458178
000060 51 d7 c4 bd 56 72 80 bd cb 99 45 bd 10 f3 bd bd
       -0.09611381 -0.06271808 -0.04824237 -0.09274876
000070 dd a8 9c 3c 52 79 30 be 87 e1 34 3e 05 72 12 be
       0.019123489 -0.1723378 0.17664157 -0.14301307
000080 e6 bf 0c 3e 00 d3 a3 3d c7 71 f3 bc 42 d0 fb 3d
       0.13745078 0.079992294 -0.02971734 0.122955814
000090 0d b0 13 3d b7 60 10 3e 0e ac b8 3c 08 24 3e bd
       0.036056567 0.14099394 0.02254298 -0.04642108
0000a0 5f a5 49 3d 78 e1 4b bd ae 60 a6 3d 97 65 21 3e
       0.049229976 -0.04977557 0.08123909 0.1576141
0000b0 e9 ba d3 3d 0c e9 58 bd d5 84 e4 3d e3 4c 2f 3d
       0.10338385 -0.052956626 0.11158148 0.042797934
0000c0 a6 e9 c0 3d 45 b6 e7 bd f0 50 37 be 02 40 8a bd
       0.09419565 -0.11314062 -0.17901969 -0.0675049
0000d0 74 3e 07 be 1a 1d 14 3e 4d 55 5a 3d b4 b1 96 3d
       -0.13207418 0.14464226 0.053304005 0.07358113
0000e0 70 1a 66 3d 60 b0 23 3c cf d1 10 3e 11 29 ef bd
       0.056177557 0.009990782 0.14142536 -0.11677755
0000f0 dc 52 ef 3c 30 2f ef bd fd 77 63 3d e2 26 39 3b
       0.029214315 -0.11678922 0.05553435 0.0028251936
000100 53 63 51 3d 2f fc 16 bd 00 ee 13 3e f3 ad d9 bd
       0.051120114 -0.036861595 0.14446259 -0.10628881
000110 ab 8e d8 bd 04 60 cf bd 18 a0 20 3e b3 8e 87 3d
       -0.10574087 -0.101257354 0.15686071 0.066190146
000120 ba 70 3e 3e 68 4f 1c be f4 46 33 be c2 ec 0c be
       0.1859769 -0.15264666 -0.17507535 -0.13762191
000130 0a 04 f2 bd 79 1e 90 3d 52 f3 86 3d 91 26 1e 3e
       -0.11817177 0.07037062 0.065893784 0.154444
000140 b5 99 c8 bd 8b ac f8 bd 5c c8 cb 3d 2f 35 93 bd
       -0.09794942 -0.12142285 0.09950325 -0.07187878
000150 bb a4 e9 3d 92 82 1e bd ea 89 ce 3d 50 e1 05 be
       0.11408373 -0.03869874 0.10084899 -0.13074231
000160 da ec b2 bd 52 a0 63 3d a1 c7 ed 3c 66 25 46 bd
       -0.08736582 0.055572815 0.029025855 -0.04837551
000170 e5 65 d6 3d 66 fe eb 3d 69 9e 07 be ef 05 c5 bd
       0.104686536 0.11523132 -0.13244022 -0.09620272
000180 4e 66 d3 3d 3b 87 9f bd a0 34 79 bd 5a 92 41 be
       0.103222474 -0.07789465 -0.060841203 -0.18903485
000190 9f 06 d6 bd e2 ad 34 3d e5 4a c3 bc 08 f5 05 be
       -0.104504816 0.04411114 -0.023839423 -0.13081753
0001a0 3a 13 f0 3b 60 9b 03 be a1 fa 1c be 26 33 c8 bd
       0.0073265107 -0.1285224 -0.15329982 -0.09775381
0001b0 0a 70 2c be c3 82 e6 bd 02 c2 33 3e 6c 4c c7 bd
       -0.16839615 -0.112554096 0.17554477 -0.09731373
0001c0 98 e1 32 3d 17 7e 26 be c5 0c 12 be 04 93 5d bd
       0.043672174 -0.16259037 -0.14262684 -0.054095283
0001d0 ba 53 c1 3c 2d cf 7e be f0 82 93 bd 86 a0 e1 bd
       0.023599494 -0.24883719 -0.07202709 -0.110169455
0001e0 e9 0a 00 be 08 16 89 bd f1 ed 9a bc fe bc 1a be
       -0.12504162 -0.06693655 -0.018912287 -0.15111157
0001f0 b3 ad ff bd 66 5e d0 bd 90 59 ae bd e4 42 16 be
       -0.12484302 -0.10174255 -0.085131764 -0.14673954
000200 d8 30 19 3e ac 50 51 be 3d 8a 08 3e 73 02 45 3d
       0.14960039 -0.2044093 0.13333984 0.04809804
000210 50 cf 20 be 1d 29 f9 3d cc 2c 42 bd 1a 8c fa bd
       -0.15704083 0.12166045 -0.047406003 -0.122337535
000220 af b3 1b be 39 e5 32 be 3a 08 c0 bd 7d 7e 5e bd
       -0.15205263 -0.17470254 -0.09376569 -0.054319847
000230 cb ab 6b 3d b6 3e 91 be 47 c0 ef 3d 7b 33 01 be
       0.05753688 -0.28368157 0.11706596 -0.12617294
000240 6d 37 20 be b4 20 d5 3c 85 17 a6 3d 5a 7b 60 3d
       -0.15646143 0.02601657 0.08109955 0.054805137
000250 04 fc 09 3e 1d a6 12 be 7d 6f 84 3b aa 72 b9 bd
       0.13475043 -0.1432118 0.0040416108 -0.090550736
000260 e0 a6 9e bc 85 a4 4b be 7f 8d 21 3e fd da 05 be
       -0.019366682 -0.19886978 0.15776633 -0.13071819
000270 d2 78 be 3b 77 30 2a 3d 8c 07 42 3d 97 19 50 be
       0.0058127427 0.041550126 0.04737048 -0.20322262
000280 39 59 0a 3e 35 20 c8 3c de a0 f3 bc b1 e5 28 be
       0.13510598 0.02442942 -0.029739793 -0.1649387
000290 bf 25 9d 3d 51 83 04 be c8 19 9d bd 4c 46 11 3e
       0.07673215 -0.12940718 -0.07670933 0.14186972
0002a0 b6 c6 10 bd 41 d4 02 be d9 10 b7 bd 5b a0 9e bd
       -0.035345756 -0.12776281 -0.0893876 -0.07745429
0002b0 5a 5b a5 3d 69 28 3e bd c5 b8 21 be 3c 60 82 bd
       0.080740646 -0.046425257 -0.1579314 -0.063660115
0002c0 cd da 03 be 8b 0c 03 bd c4 cc fa 3d cc 48 30 be
       -0.12876435 -0.031994384 0.12246087 -0.1721527
0002d0 d6 90 aa 3b 28 99 98 3d b9 52 de 3c ec ef ae bd
       0.005205254 0.07451087 0.027139055 -0.08541855
0002e0 c0 0b 83 3d a5 29 b7 3d 48 d9 73 bc ac 81 36 bd
       0.063987255 0.0894349 -0.014883347 -0.04455726
0002f0 20 e2 51 bd 17 6a 4c bc 14 a5 08 bd 73 f9 5f bd
       -0.05124104 -0.012476466 -0.033360556 -0.054681253
000300 29 eb e6 bc f3 91 e2 3d 8a 35 51 bc b9 d0 ca bd
       -0.028188305 0.11062994 -0.012769112 -0.09903092
000310 3d a4 a0 bc 98 60 3a bc a5 56 8d bd 5f 2a 93 3c
       -0.019609565 -0.011375569 -0.06901292 0.01796454
000320 af 96 1d be 81 be 2a be 3f 4e cd 3d 1d 61 23 3d
       -0.15389512 -0.16674234 0.1002469 0.039887536
000330 c4 d0 b6 3d a2 29 81 bd f8 9f a2 bd 33 f4 ff bd
       0.08926538 -0.06306769 -0.07940668 -0.12497749
000340 fd df b2 bc 7a 1c 8a 3d 64 da a4 3d 2f e3 03 3d
       -0.021835322 0.06743713 0.08049467 0.03219908
000350 27 a4 fa bd b1 f6 22 be 58 85 01 bc 4e 40 84 3d
       -0.12238341 -0.15914418 -0.007905327 0.06457578
000360 15 e3 e6 3d ef 15 9f bd a5 ed 7d 3c 36 13 33 bd
       0.11273781 -0.077678554 0.015498553 -0.043719493
000370 83 fb 99 bd b5 b4 b9 3d 03 fd 88 3c 2d a4 b3 3c
       -0.07518675 0.0906767 0.016722208 0.021928871
000380 af 4d 2d be e8 46 4d 3e 2b a7 47 3d 64 c2 68 3a
       -0.16924165 0.2004658 0.04874341 0.0008879064
000390 c5 cc 3c bd 95 1f 18 be ab c4 f1 bd a5 05 a2 3d
       -0.04609372 -0.14855798 -0.118050896 0.07911233
0003a0 a0 2f 48 3d 17 e8 fb 3d 9f 84 17 3e 85 7a f2 3c
       0.048873544 0.12300127 0.14796685 0.029599437
0003b0 0d ca 08 bd f3 c5 11 be 57 e2 9a bd 4c c4 43 bd
       -0.033395816 -0.14235668 -0.07562702 -0.047794625
0003c0 ee ee 27 3e 94 cd 9c bd 8b 92 5d bd 62 8f 8c bd
       0.16399738 -0.076563984 -0.054094832 -0.068632856
0003d0 e3 32 84 bd 14 a1 ee bd 77 13 20 be ce f1 27 3d
       -0.06455018 -0.11651817 -0.15632425 0.041002087
0003e0 e3 27 7e bd 90 b3 1e 3e 24 f9 78 bd 73 51 c8 bd
       -0.062049758 0.15498185 -0.060784474 -0.0978116
0003f0 a9 33 c5 bd ef da 90 bd e3 35 44 bd 5f 51 45 bd
       -0.09628994 -0.07073008 -0.047902953 -0.048173305

gru.weight_hh_l0 f4 [96, 32]
000000 a3 24 18 3e 9c 94 03 bd 84 22 ab bc 9d e8 9b bd
       0.14857726 -0.032124147 -0.020890482 -0.07612727
000010 de 05 21 be 2a 40 34 be 1c 37 8d 3d 72 54 cd bd
       -0.15724894 -0.17602602 0.06895277 -0.10025872
000020 2f c8 e2 bd fb 22 83 bc aa 5b 70 bd 43 6e 5f bd
       -0.11073338 -0.01600789 -0.058681168 -0.054548513
000030 e6 f8 6a 3b 87 e7 10 bd 4c de 6b bd cb e5 b3 bd
       0.0035853921 -0.03537705 -0.057585046 -0.08784064
000040 7d fc 10 be 8c 19 15 3e b5 b4 98 bd 5d 8e 4d 3d
       -0.14158817 0.14560527 -0.07456342 0.050184596
000050 ea ee 83 bd 0a 34 64 3c 55 14 2d 3e 85 29 a0 3d
       -0.064420536 0.013928423 0.16902287 0.07820419
000060 94 44 1c be 6a 6f 88 3d 25 35 2f 3e 06 9f 4c 3d
       -0.15260535 0.066618755 0.17110117 0.049956344
000070 af f5 ea 3d 25 8a 2d 3e 9f 5f f3 bc bd 54 09 3d
       0.11472642 0.16947229 -0.029708682 0.03352808
000080 e9 f2 fb bd b5 61 0f bd cd 30 06 3e f9 c2 bc 3d
       -0.12302191 -0.03500529 0.13104554 0.092168756
000090 c5 ab e6 bd 4e be 0f be 1c 5d f9 bd 5b 25 32 be
       -0.11263231 -0.14037439 -0.12175962 -0.17397062
0000a0 87 66 0c be c4 64 32 bd cf 04 f4 3d 41 5e f5 3c
       -0.13710986 -0.04355313 0.1191498 0.02995217
0000b0 5a 64 09 be 29 7d 11 be 36 11 b3 3d 6e 79 06 be
       -0.13417187 -0.14207901 0.08743517 -0.13132259
0000c0 1f f8 b3 bc 20 2a b1 3d 09 9d a4 bd 51 aa a3 bc
       -0.0219689 0.08650613 -0.080377646 -0.019978674
0000d0 ea 9d 6e bc 83 90 2b bd ac a6 ba bd 16 9d 20 be
       -0.014564017 -0.041885864 -0.091138214 -0.15684924
0000e0 ff c4 11 be 7d 0b bf bd 61 90 2d 3e 70 c0 af bd
       -0.14235304 -0.09328363 0.16949607 -0.085816264
0000f0 43 76 ef bd 9a fe 37 3d c2 6e 4a 3d 37 25 c7 3d
       -0.116924785 0.04492054 0.049422033 0.09723895
000100 97 b0 09 3e 73 7f c9 3d b5 60 33 be 77 6c 80 3c
       0.1344627 0.09838762 -0.1751736 0.01567672
000110 71 77 db 3d f1 4d 86 bc 1e 05 d5 bd 03 5d 2c 3e
       0.10716141 -0.016394587 -0.10401367 0.16832356
000120 fa 46 87 bd 3c 98 ce bd c8 2b 23 be 7b 72 04 3c
       -0.066053346 -0.1008763 -0.1593467 0.008083935
000130 2b 53 a0 3d bf 6b 20 3d da 9e 0f 3d db 69 09 be
       0.07828363 0.039165255 0.035063602 -0.13419287
000140 95 ea 28 be 44 78 51 3b dc 12 25 3e 76 0e d1 3d
       -0.16495736 0.0031962553 0.16120476 0.10207836
000150 76 de d2 bd 7b 36 bc bc 6a 66 05 be 11 c7 ae bd
       -0.10296337 -0.022975197 -0.13027349 -0.08534063
000160 73 d3 03 3d 93 30 c5 3d 7b ee 15 3e 17 06 26 be
       0.032184076 0.096284054 0.14641754 -0.1621326
000170 87 11 f2 3d a7 62 ff bd 44 84 87 3d 6e 01 19 3e
       0.11819749 -0.12469988 0.066170245 0.14941952
000180 2f d3 58 3b 88 5d 23 3e c4 d3 1a be e4 6c 8b bd
       0.003308486 0.15953648 -0.15119845 -0.068078786
000190 25 c7 d2 3d 12 25 22 bd c2 c8 10 bd 8f 82 99 bd
       0.1029189 -0.039586134 -0.035347708 -0.07495605
0001a0 82 58 fb 3d f9 f1 ae 3d 97 81 65 3d 6d f6 c6 bd
       0.12272741 0.08542246 0.05603179 -0.09714971
0001b0 92 d1 14 be 4c 99 aa 3c 17 bb 5c 3d e9 af ab bd
       -0.1453307 0.02082505 0.05388936 -0.083831616
0001c0 28 12 47 bd 1e ed f3 3d 08 7f 55 3c a7 2d 0d 3c
       -0.0486013 0.11910461 0.013030775 0.008616841
0001d0 03 37 37 bd ea 4c 24 be c5 b9 28 be ee d4 ae bd
       -0.044730198 -0.16044965 -0.16477115 -0.08536707
0001e0 4c 7c b3 bd b6 6a 5d 3d 18 67 51 bd 5e f9 89 bd
       -0.08763942 0.054056846 -0.05112371 -0.06737016
0001f0 a0 38 2c 3e 93 55 78 3d 4e 9a ff 3d 9e 42 b2 bd
       0.16818476 0.060628485 0.12480603 -0.087041125
000200 ec 98 93 bd 9a 3f 84 3d 4c cc f0 bd d9 40 ed bd
       -0.07206902 0.064574435 -0.117577165 -0.11584634
000210 f3 a2 08 bc ad 41 85 bd ec 3a 07 be de eb d5 3d
       -0.008339631 -0.06506667 -0.1320607 0.10445379
000220 e8 dc 11 3e 2d b1 e7 3c 6b b5 fb bc 10 2a 27 be
       0.14244425 0.028282726 -0.030726155 -0.1632464
000230 a3 5f 84 bd c5 90 39 3d c1 90 ab 3d 8d ca ba bc
       -0.06463554 0.04530408 0.08377219 -0.022801662
000240 3e a4 8e bd a4 ac c9 3d 94 78 10 be 44 b4 e5 3d
       -0.069649205 0.09847382 -0.14108497 0.112160236
000250 98 1d 8d bd b8 78 2a 3b 59 d4 0d bd d7 cb ac 3c
       -0.0689041 0.0026011895 -0.03462634 0.021093292
000260 86 11 5a bd d4 7a 03 3e 62 de 8c bb b5 cf 0d 3e
       -0.053239368 0.12839824 -0.004298971 0.13848765
000270 dc b4 2d 3e 22 07 b1 bd 12 42 04 be 30 d8 10 3e
       0.16963524 -0.086439386 -0.12915829 0.14144969
000280 70 81 0c 3e 1a 66 09 be ef 75 7b bc 04 18 32 be
       0.13721251 -0.13417855 -0.015347942 -0.17391974
000290 ff db 14 be 4f 4a 10 3d 7e 06 38 3d 8d c1 1e 3d
       -0.14537047 0.035227116 0.044928066 0.038758803
0002a0 08 4b 45 bd 42 f6 28 3e 37 30 c7 3c 9e ef d6 bd
       -0.04816726 0.1650019 0.024314983 -0.10494922
0002b0 e3 85 19 bc 8a aa 2d 3d 87 9a 7a 3d 20 70 fe bd
       -0.0093703 0.042398967 0.061182525 -0.1242373
0002c0 34 04 88 3d 5e 35 b8 bd 03 2c 16 be 76 23 c6 bd
       0.06641427 -0.08994554 -0.14665227 -0.096747324
0002d0 cb 72 2f 3e 4f 33 19 3e 7c f5 20 3e 3b 25 d3 3d
       0.17133634 0.14960979 0.15718645 0.103098355
0002e0 32 b2 07 3e c5 46 c0 bc df bc c6 bd c2 da b0 3d
       0.1325157 -0.023471246 -0.09703993 0.08635475
0002f0 ef cd b9 bd ab e1 f1 bd 7f ed 64 bd 60 fd 1f 3d
       -0.09072482 -0.11810621 -0.055890556 0.039059997
000300 d4 f1 b8 3d 5e 5e 8a bd b5 01 d6 bd 0e 8b ca 3c
       0.090305 -0.0675628 -0.10449544 0.02472451
000310 5e 7e d6 bd 7f 4d e9 bd fc 1b ba 3d cb 99 ea bc
       -0.104733214 -0.11391734 0.09087369 -0.028637787
000320 fe ab 24 3e 9d 47 31 3e 02 88 58 3d 9f bb 75 3d
       0.16081235 0.17312475 0.052864082 0.059993383
000330 2d 49 2a 3d 62 c7 07 3b 21 f4 60 bc 34 c2 68 3b
       0.041573692 0.0020718207 -0.01373008 0.0035516145
000340 5f 39 86 3d 51 0b 29 3e 1c 2a 38 bd 9b 8e 9a bd
       0.065539114 0.16508223 -0.044962034 -0.07546731
000350 2f 9f 2b bd f2 e6 ae bd 9c d6 ec 3c fe c6 07 3e
       -0.041899856 -0.08540143 0.028910927 0.13259503
000360 42 ca 0c 3e 02 aa a7 3d f6 ed 05 be 7d 21 c5 bd
       0.1374903 0.08186723 -0.13079056 -0.09625528
000370 59 f0 1a bd 17 b4 ff bc 0c 45 78 3c ab 11 25 be
       -0.03782687 -0.031213803 0.015153181 -0.16120021
000380 03 b5 59 3d 1d 18 1d be c7 32 ea bd 7b f9 26 be
       0.05315114 -0.1534123 -0.11435466 -0.16306107
000390 cf 62 2a 3e 28 eb 3a be 8f 0f 17 3e 6a 09 92 bc
       0.16639255 -0.18253767 0.14752029 -0.017826755
0003a0 f8 23 24 bc 6b da d0 3d 81 39 03 bc 17 06 f7 3d
       -0.010018341 0.1019791 -0.0080093155 0.120617084
0003b0 86 9e fa 3d c4 52 17 be 51 4c aa 3d d8 10 ae 3c
       0.12237267 -0.14777666 0.083153374 0.021248266
0003c0 0a e2 39 3d 28 4b 88 3c 23 9b 08 3d 58 f4 91 bd
       0.045381583 0.0166374 0.033351075 -0.07126683
0003d0 0a 2a 1a bd 66 12 32 3e d1 b4 0a 3e 22 d8 86 bc
       -0.037637748 0.17389831 0.13545538 -0.016460482
0003e0 1d fe 2a be a5 84 cd bb b6 3b e1 bd 82 e9 23 3e
       -0.16698499 -0.006271916 -0.10997717 0.16007045
0003f0 69 1f fc bd 4d a2 01 bd a3 8e 4f bd fa c5 79 3c
       -0.123106785 -0.031648923 -0.05067314 0.015244955

gru.bias_ih_l0 f4 [96]
000000 61 72 29 3d 42 4f 1d be c6 5c b9 3d 5a 90 90 3d
       0.041368846 -0.15362266 0.09050898 0.07058783
000010 eb 8e 14 be 3b 60 c5 3d 62 ca 90 3c 7f e5 93 bd
       -0.14507644 0.09637495 0.017674629 -0.07221507
000020 85 3b 26 3e a9 54 a0 3d fd 39 89 3d 25 96 14 bd
       0.16233642 0.07828648 0.067005135 -0.036276
000030 5c e1 c2 bd df 32 c3 bd 4c 95 8c 3d 02 ab 6d 3d
       -0.0951564 -0.09531187 0.068644136 0.058024414
000040 78 53 b2 bd 3d dc 23 3e 2e 06 d4 3d 16 d9 8c bd
       -0.08707327 0.16001983 0.10352741 -0.06877343
000050 00 a5 b8 3d 0b 2a 58 bd 12 29 61 3d b9 bc 1a 3e
       0.09015846 -0.05277447 0.05497081 0.15111054
000060 87 94 1a be 86 4d b6 bd 32 df 10 bc ee 15 e6 3c
       -0.15095721 -0.08901505 -0.008842276 0.028086629
000070 ca c4 13 be 96 3d ec bd 8a e6 6f bc 7d e5 ca bc
       -0.14430538 -0.11535184 -0.014642367 -0.024767632
000080 05 12 09 3d 58 aa af 3c 15 fa 15 3d 5d bc 3c 3c
       0.03346445 0.02144353 0.03661545 0.011519519
000090 f5 0e 95 3c b9 1d df bc 37 52 77 3d 7e 79 d3 3d
       0.018195609 -0.027235853 0.06038114 0.10325907
0000a0 2c 14 dc bd 50 56 c4 bd 5c 05 97 3d b6 68 1e be
       -0.10746035 -0.09586775 0.07374069 -0.15469632
0000b0 54 03 e9 3d 29 2f 97 3d 7c de 90 3b 1b 8a cb bd
       0.11377588 0.07382042 0.0044210535 -0.09938451
0000c0 fa 0d 80 bc 3a 11 16 be a7 56 25 be e9 3a 20 3e
       -0.015631665 -0.14655009 -0.16146336 0.15647472
0000d0 05 5e 2b be 88 94 24 be cc 3d 96 bd a5 db e1 bb
       -0.16735084 -0.16072285 -0.073360056 -0.0068926387
0000e0 c5 e5 05 3d f8 a9 c1 bd 32 de d5 bc 8e 0a 55 bd
       0.03268983 -0.09456247 -0.026106928 -0.05201202
0000f0 f0 22 16 3e 48 fa 1e 3e 23 05 7c 3d 67 6f c7 bb
       0.14661765 0.15525162 0.061528336 -0.0060862782
000100 7f 0c be 3d cb 53 ee bd b4 c4 88 3d 71 8b bb bd
       0.09279727 -0.11637076 0.06678143 -0.09157456
000110 42 d4 f9 3d 2d b0 9a bd d8 0c ea 3c 0c d5 e4 bc
       0.12198688 -0.07553134 0.028570578 -0.02793362
000120 71 28 d3 b9 64 c8 c1 3d 96 3f 42 3e 25 52 83 be
       -0.00040275187 0.094620496 0.18969569 -0.2564861
000130 ed 57 11 3e f5 69 44 be 5b 50 0e be e0 c3 5e 3e
       0.14193697 -0.19181044 -0.1389784 0.21754408
000140 a9 04 f2 bd bb e0 e9 bd ed d0 0c be 1c f2 dc bd
       -0.11817295 -0.11419817 -0.13751574 -0.10788366
000150 f4 ea a3 3d b9 ec 86 3e 6e f6 d9 3d a9 63 b5 3d
       0.08003798 0.2635248 0.10642706 0.08856899
000160 69 c0 25 be 9a 6c 0b be a5 08 d0 3d f3 f4 10 be
       -0.1618668 -0.13615647 0.10157899 -0.1415594
000170 b8 6e c3 bc 8c e8 00 be 68 2c db bd f6 5b 19 3d
       -0.023856506 -0.1258871 -0.10701829 0.037441216

gru.bias_hh_l0 f4 [96]
000000 1f 97 1c bd 3c 47 8b 3c d3 10 bb ba ec 9f 19 3c
       -0.038230058 0.01700174 -0.0014271982 0.009376507
000010 8e 4c 0e bd 43 89 15 bc d3 b8 99 3d 47 c3 17 3e
       -0.034740977 -0.009126964 0.075059555 0.14820586
000020 69 e4 24 3e 09 44 11 be 58 04 14 be da 36 42 3b
       0.16102757 -0.1418611 -0.14454782 0.0029634745
000030 3b e3 3f bc 89 6d c7 3d db af 2c 3e 82 8d 64 3d
       -0.011711891 0.09737689 0.16863959 0.055799015
000040 bb c9 da bd 8e c9 aa bc 12 3c eb 3d ed f4 82 3d
       -0.10683008 -0.020848062 0.11486067 0.06394372
000050 59 5a 01 be d2 08 05 3d df 4d 2f be 75 bf 89 bd
       -0.12632121 0.032479115 -0.17119549 -0.06725971
000060 9a 24 04 3e 55 57 9f bd 1a 66 df 3d 0e e3 11 be
       0.12904587 -0.07780329 0.10908146 -0.1424677
000070 09 23 21 3e c3 a3 ae 3d d6 4a ef 3d 7b b0 48 3d
       0.15736021 0.08527329 0.11684196 0.04899643
000080 98 c2 00 3c 97 62 b4 bd 0d 0d c7 bd fd 06 f9 bd
       0.007858895 -0.08807867 -0.09719286 -0.12159536
000090 af 6d 13 3e fa 89 a0 bd 57 b1 9d 3a 40 fc 3b be
       0.1439731 -0.07838817 0.0012031001 -0.18357944
0000a0 10 0e e7 3c 46 32 84 bd ef b9 14 be 97 54 a3 bb
       0.028204948 -0.064549014 -0.14524053 -0.004984449
0000b0 96 e3 27 be 7e f5 ce bc 2f 7b 29 be b5 84 b6 3d
       -0.16395411 -0.025263544 -0.16550897 0.089120306
0000c0 b2 31 25 be 13 fb b4 3c a0 4d ae 3d 93 df 1a be
       -0.16132239 0.022092378 0.085108995 -0.1512435
0000d0 5d 5b d8 3d c1 0b 05 3e 7c 89 e7 bd 45 33 04 bb
       0.10564301 0.12992765 -0.1130552 -0.002017216
0000e0 71 a1 3b 3d be 4a 0e 3e d3 41 04 3e 60 ad 24 be
       0.04580826 0.138957 0.12915735 -0.16081762
0000f0 b2 de 14 be 0c 33 1e be eb cd b7 bd 3c a0 26 bd
       -0.14538077 -0.1544916 -0.089748226 -0.040680155
000100 0b 26 ba bd 1e 85 03 3e 32 81 fb bd a2 39 0a be
       -0.09089287 0.12843749 -0.122805014 -0.13498548
000110 f9 86 12 be 71 d4 5b bd 31 7c 1c 3e 9f 80 c9 3d
       -0.143093 -0.053669397 0.1528175 0.09838986
000120 f9 9f 95 bd a8 67 bb bc f1 5e e3 bd 29 35 fb bd
       -0.07305903 -0.022876576 -0.11102093 -0.12265999
000130 60 27 de 3d 96 dc a8 3d 0f 19 db 3d 9f 53 aa 3d
       0.10847354 0.082451984 0.10698139 0.08316731
000140 c0 39 0d be 30 ca ba bd 6e d3 36 3e 07 0a 3f be
       -0.13791561 -0.091205955 0.17854092 -0.18656169
000150 60 a6 69 3d 19 06 fc 3c 19 5c 1c 3e ed ce 20 3e
       0.057043433 0.030764626 0.15269507 0.15703936
000160 e5 ac 92 bd 63 6c 0a be 3d 57 1b bc ad 84 14 be
       -0.07161883 -0.13517909 -0.009481248 -0.14503737
000170 3a e1 7c bc b6 c0 54 3d 5f a2 bc 3d 60 d3 42 bd
       -0.015434558 0.051941596 0.09210657 -0.047564864

gru.weight_ih_l1 f4 [96, 32]
000000 da fc f5 bd 98 4f 1a be cf af 2b be 6c 1d b3 3c
       -0.12011118 -0.15069425 -0.16766284 0.021864615
000010 02 4f db bd b8 eb d5 3b 8b 78 ab bd 8d 2c f4 bd
       -0.10708429 0.006528344 -0.08372601 -0.1192256
000020 1d 2c f3 3d 2f d2 cd 3d c8 2b 00 3e 9f a9 2c 3e
       0.11873648 0.10049855 0.12516701 0.1686158
000030 88 2f 02 be b7 c2 c2 bd 27 6f 08 be 57 c1 f4 3d
       -0.12713444 -0.09509795 -0.13323651 0.11950939
000040 e4 26 d4 3d 62 ae 12 3e fa 5a fd bd 2a 85 c2 bd
       0.1035898 0.14324334 -0.12370868 -0.09498055
000050 8e 6c 30 3e e7 1a 0e be eb c9 f0 bd 40 ca 86 3d
       0.1722891 -0.1387745 -0.11757263 0.06581545
000060 72 67 1f be 34 92 4d bd 2b 15 99 3d 69 13 14 3e
       -0.15566805 -0.05018826 0.074747406 0.1446053
000070 7d 3b a6 bc 4d 68 20 be 28 ac cc 3d 90 f2 33 3e
       -0.020292038 -0.15664788 0.09993774 0.17572999
000080 a5 54 01 be f2 32 f4 bb 64 e3 fe bd 80 64 b5 bd
       -0.12629946 -0.007452362 -0.12445715 -0.088570595
000090 ee c2 6d 3d 87 29 a7 3d 02 f9 99 3d 90 52 2f be
       0.058047228 0.081622176 0.075181976 -0.17121339
0000a0 20 b4 25 bd b1 c2 8e 3d af 8f a9 bc 43 43 3b bd
       -0.040454984 0.06970728 -0.020698396 -0.045718443
0000b0 95 64 c6 bd 97 3f 31 3e 5a a3 0d be 14 cf 14 be
       -0.09687153 0.17309414 -0.13831845 -0.14532119
0000c0 b6 95 08 3e 80 c6 d5 bd c7 72 db 3d 22 52 c2 bd
       0.1333836 -0.104382515 0.107152514 -0.09488322
0000d0 02 11 cc bc d4 8b bd bd 88 5e 15 3e 0f ab f3 3d
       -0.024910454 -0.09255186 0.14586842 0.11897861
0000e0 83 2b 8a 3c cd c3 c1 3b fd 58 86 bd ac fe b6 bd
       0.016866451 0.005913234 -0.06559942 -0.089352936
0000f0 b3 be 85 bd 49 8e 73 3d ad f9 04 bd 4f ba f1 3d
       -0.065305136 0.059461866 -0.032464672 0.11803114
000100 a2 36 d5 3c 05 7a 41 3a d8 01 e0 bd ef af 90 3d
       0.026027028 0.0007380548 -0.10937852 0.07064807
000110 b9 27 27 be f8 3f 25 3d af 02 84 3d a9 20 00 3d
       -0.16323747 0.04034421 0.06445824 0.031281147
000120 25 2f 00 3e 7f 09 29 3d d5 35 49 bd b9 a5 fa bd
       0.12517984 0.04126882 -0.049123604 -0.1223864
000130 08 38 29 be b4 43 b9 3d a6 b0 c7 3d bf 94 0b be
       -0.1652528 0.090461165 0.0975049 -0.13630961
000140 c5 e3 44 3d 76 9c 85 bd eb 78 17 3e c2 ed 74 bd
       0.04806878 -0.06523983 0.1479222 -0.059797056
000150 5a af 14 3e 6e 01 fe 3d 1b 14 ca 3d 1a 66 f5 3d
       0.14520016 0.124026164 0.09867116 0.11982365
000160 b7 2f 67 3d 77 30 73 3d 55 36 19 be d3 45 1f bd
       0.05644199 0.05937239 -0.14962132 -0.03888495
000170 a6 e4 aa bc 91 aa ad 3d de 7c 8d bd a4 1e a4 3d
       -0.020860981 0.084797986 -0.06908582 0.08013657
000180 56 d8 f5 3d 66 37 9a 3d a3 15 ba 3d 7f 2e c6 bc
       0.120041534 0.07530098 0.09086158 -0.024192093
000190 be da ad 3d 25 5f 7a bd 68 46 1d 3e ba 6d 83 bb
       0.084889874 -0.061125893 0.15358889 -0.004010883
0001a0 32 66 26 bc 0a 8b 1f be 43 b0 27 3e ca 5b d0 bc
       -0.010156201 -0.15580383 0.16375832 -0.025434393
0001b0 a0 7d 06 3e 34 74 ec bd c6 20 17 be c4 ae e9 bc
       0.1313386 -0.115456015 -0.14758596 -0.028525718
0001c0 a5 22 11 be e7 da 07 3d ef c0 dd 3a 03 a1 84 bd
       -0.14173372 0.033167746 0.0016918461 -0.06476023
0001d0 d0 02 e1 3d 1f aa eb 3d 06 1d 1f be 90 df 10 be
       0.109868646 0.115070574 -0.15538415 -0.14147782
0001e0 94 53 d4 3d 38 4f dd bd 11 29 0c 3d cc 16 3f bd
       0.10367504 -0.108061254 0.03421885 -0.0466526
0001f0 66 32 fc 3c f8 ac c9 bd 7d 41 26 39 02 ff 80 bd
       0.03078575 -0.09847444 0.0001585539 -0.06298639
000200 5b c6 a1 bd ed f9 b3 bd 51 b9 21 3d 36 64 e9 3d
       -0.078991614 -0.08787904 0.039483372 0.11396067
000210 9f 45 92 bb 08 b5 21 bb c8 05 16 3e a5 c3 11 3e
       -0.004463866 -0.0024674553 0.14650643 0.14234789
000220 f4 57 cb bc 21 2e 15 be 19 ab 26 3d af 8c 5d 3d
       -0.024822213 -0.14568378 0.040690515 0.054089244
000230 87 dc 10 be 6c db 20 be 68 52 a1 3c 5a 00 2f 3e
       -0.14146625 -0.15708703 0.019692615 0.17089978
000240 f5 42 21 be b8 9d b1 bd c4 1c 7d bd a7 14 1f be
       -0.15748198 -0.086726606 -0.06179501 -0.15535222
000250 ed 63 e1 bd 45 e7 0c 3e 07 4e 0b 3e f8 1d 06 be
       -0.110053875 0.13760097 0.13603984 -0.1309737
000260 4a a7 ab 3b 83 0c 14 be d7 bc 97 3d 01 57 f4 bd
       0.0052384483 -0.14457898 0.07409065 -0.11930657
000270 21 72 b9 bd 75 fb a8 bd f7 c4 cf 3c c6 84 f0 3d
       -0.090549715 -0.082510866 0.025362475 0.117440745
000280 bb f4 9a bd 7b eb ef 3c 2a ee 0d 3e 20 ab 59 bc
       -0.0756621 0.02928709 0.13860384 -0.013285428
000290 2f 8d a0 3c e8 48 38 3c 87 f9 b7 ba 67 d6 dd 3d
       0.019598572 0.011247851 -0.0014036157 0.108319096
0002a0 f1 2d c6 3d f8 e1 bf bd ba 4e 2e 3e cc 26 cb 3d
       0.096767314 -0.09369272 0.1702222 0.09919509
0002b0 6f c6 e2 bc 3e ef 1d 3e 4c 99 2e 3c 8c 56 e3 3d
       -0.027682511 0.15423295 0.010656666 0.11100492
0002c0 37 09 1b be 94 81 1f 3e ae d8 27 3e ba 6f 06 be
       -0.15140234 0.15576774 0.1639125 -0.13128558
0002d0 ec 07 25 be bd 09 4a bd 46 7d d9 bd f9 d7 3e 3d
       -0.16116303 -0.049325693 -0.10619597 0.046592686
0002e0 f8 1c 9d 3d 53 82 d0 bc bb 8c 00 3e 1f 0d f3 3b
       0.07671541 -0.025452768 0.12553684 0.0074173356
0002f0 0f 8e 60 bd a9 f2 1d be 2d dc 60 3d 3d 17 2b be
       -0.054822978 -0.15424599 0.054897476 -0.16708083
000300 87 1d 65 39 22 cc c4 3c 2b ed ca bd ea a3 52 3d
       0.00021850142 0.02402312 -0.099085175 0.051425852
000310 3d 9d 10 3d 71 3f ee 3d 8f ad e5 3d b6 0d 15 be
       0.035306204 0.11633194 0.11214744 -0.14556012
000320 9f 71 04 be 7e 5d 88 bd 35 01 03 be 62 74 6f 3d
       -0.12933968 -0.06658457 -0.12793429 0.0584606
000330 91 cb f0 bd 0c 5d 08 be 33 5b 5b 3d 15 a3 d5 3d
       -0.11757577 -0.13316745 0.05355377 0.10431496
000340 a1 95 49 bd 4f ff 34 be e6 93 be 3c bb b9 bd 3d
       -0.049214963 -0.17675517 0.023263883 0.09263941
000350 76 07 0c 3e 99 71 77 3c dc 3e ff 3d 7b 38 24 be
       0.13674721 0.015102767 0.12463161 -0.1603717
000360 4a 74 2e 3e 71 be ec bd 77 35 f3 bd 02 2b 04 3e
       0.17036548 -0.11559761 -0.11875432 0.12907031
000370 d9 85 26 bd b5 bb db 3d 1f 4a 00 be 6e 2d 07 3e
       -0.04065499 0.10729162 -0.12528275 0.13200924
000380 34 b8 2a 3e ba 77 4e 3d d9 37 11 3e 19 07 04 be
       0.1667183 0.05040715 0.1418146 -0.12893333
000390 fa 85 18 bd 04 42 53 3d cf 83 d0 3d 21 50 c1 bd
       -0.037237145 0.05157663 0.101813905 -0.094391115
0003a0 ce ba e7 3d 25 f0 6e bd 5e 30 bd bd bd ff 08 3d
       0.11314927 -0.05833449 -0.09237741 0.033447016
0003b0 f3 5d 10 be 5d 4f 26 be ee 76 76 3d 1c 74 74 3d
       -0.14098339 -0.16241212 0.060172014 0.059681043
0003c0 49 dd 89 3d 82 4b d2 bc 5b ee 06 be 52 33 10 be
       0.0673166 -0.02567077 -0.13176863 -0.14082077
0003d0 09 c0 2a 3e 19 1e 1a be 83 0b 66 3d 70 c3 12 3e
       0.16674818 -0.15050544 0.056163322 0.14332366
0003e0 cb ba 08 3e bf b9 e9 bd ca fb 64 bd 0d 2d 0f be
       0.13352506 -0.114123814 -0.055904187 -0.1398203
0003f0 74 00 dd 3d e7 94 2d be 4a 47 28 be 15 97 f5 bd
       0.10791102 -0.16951333 -0.16433445 -0.11991707

gru.weight_hh_l1 f4 [96, 32]
000000 48 2d a3 bc a2 46 10 3e 73 b5 01 be 53 30 17 be
       -0.019919053 0.14089444 -0.12666874 -0.14764528
000010 76 b7 a1 3d 7e 83 ee 3d a0 8b 1b bd 43 28 43 3d
       0.078963205 0.11646174 -0.037974954 0.04764582
000020 60 38 11 3e 05 be 90 3c 75 ce 49 bd d8 ce d0 3d
       0.14181662 0.017668733 -0.04926916 0.10195702
000030 99 3c 23 3e 66 15 f7 bc f4 05 f6 3d 83 8d 68 3c
       0.15941085 -0.03016157 0.12012854 0.014193895
000040 14 c1 16 bd 7d 29 81 bc d6 cb 2f be af e5 ad 3d
       -0.036805227 -0.015766853 -0.17167601 0.08491074
000050 ec c9 c5 bd 93 7e 1a be 9e 39 cb bc 38 9b 93 bd
       -0.09657654 -0.15087347 -0.024807747 -0.0720734
000060 20 4f e7 bd 6f b8 18 bd b4 1a 9a bc fa 03 5c 3d
       -0.11294389 -0.037285265 -0.018811561 0.05371473
000070 5f 08 c5 3c ae c1 c3 bc 8a 9d 20 3d 84 d1 ea bd
       0.024051843 -0.023896065 0.03921274 -0.11465743
000080 d8 eb 19 3e 25 2b b0 3d 2b 6e e3 3d 47 dd 20 be
       0.15031374 0.08601979 0.11104997 -0.1570941
000090 b4 8d f4 3d cb 61 ff 3c 4b ae 30 be b1 a7 2c 3e
       0.1194109 0.031174561 -0.17253987 0.16860844
0000a0 7b 3a f8 ba 4e a5 06 3d 43 5f 15 3e 90 31 eb 3d
       -0.0018938327 0.03287249 0.1458712 0.11484063
0000b0 38 93 20 3e 76 b8 27 be 55 e0 32 3e 61 d9 38 3d
       0.1568116 -0.1637896 0.17468388 0.045129184
0000c0 4c a2 c5 3a 35 c8 0c be 43 76 c3 bd 3c dd 2d 3e
       0.0015078275 -0.13748248 -0.09544041 0.16978925
0000d0 4f 3f 08 3e 32 be 0f 3e 5c 2e 73 bc 2a 62 ca bd
       0.133054 0.14037398 -0.014842596 -0.098820046
0000e0 be 82 30 3d ac 15 ab bd f5 d4 ec bd a4 a7 6a 3d
       0.043093435 -0.08353743 -0.11564056 0.05728878
0000f0 04 d0 0f 3e 0c c4 09 be 4e 44 21 be f7 21 d4 3c
       0.14044195 -0.13453692 -0.15748712 0.025895102
000100 45 ec 7f bd be 8d c3 bd 09 80 17 bd be fb 38 bc
       -0.062481184 -0.095485196 -0.03698734 -0.011290489
000110 0a 65 4d bd 44 8d 06 3e 24 1e ca 3d ba f0 66 3d
       -0.050145186 0.13139826 0.0986903 0.05638192
000120 30 7b 64 bd 8f a7 75 bc e3 b8 ec 3d 6f 36 5f 3c
       -0.055781543 -0.014993562 0.11558702 0.013623818
000130 f5 7d 2e be d8 2a 90 3c 1c 70 be 3d ee c1 38 bd
       -0.17040236 0.017598554 0.09298727 -0.04510682
000140 d1 3c 0b bd 42 b5 c5 bc c7 7d dc 3d 97 64 16 3e
       -0.033993546 -0.024134282 0.107661776 0.1468681
000150 9c 6e 0d be 9d b8 ed 3d ce 19 92 3d e2 65 7c 3d
       -0.13811725 0.11607478 0.07133828 0.0616206
000160 d3 86 cb bd 66 2c cd bd c8 ca 34 3e c9 f4 35 3d
       -0.09937825 -0.10018234 0.1765548 0.0444229
000170 61 da 23 bd 6f 18 0f bd 90 be f3 3d d2 3f 30 bd
       -0.040003184 -0.03493541 0.11901581 -0.043029614
000180 94 92 f3 3d bd 2b 51 bd e2 e7 27 3d 3d 0f 3a 3d
       0.11893192 -0.051067103 0.040992625 0.04542469
000190 35 5d bb bd e3 f8 a4 3b 63 e5 14 3d 1c 32 30 be
       -0.09148637 0.0050345524 0.036351573 -0.17206615
0001a0 5c ef 0b bd 40 df 90 3c f7 34 16 3e 9e 71 1b 3d
       -0.034163818 0.017684579 0.14668642 0.03795015
0001b0 54 8e 19 be ed fa 51 bd 81 9a 33 3e 6f 78 bc bc
       -0.149957 -0.051264692 0.17539407 -0.023006646
0001c0 f9 8e 07 3e 56 00 a2 3c ef c8 eb 3d ee ca 98 bd
       0.13238133 0.01977555 0.115129344 -0.07460581
0001d0 f6 53 32 3e a3 f7 14 3d 7b bf 18 bd df 14 0b 3e
       0.17414841 0.036368977 -0.037291985 0.1358218
0001e0 0f 56 b4 3d 9f fa f1 bd 5a 6f 3d bc 7f d8 00 3e
       0.08805477 -0.1181538 -0.011562193 0.12582587
0001f0 93 30 30 3d 82 85 61 bd 80 ea e9 bd 12 bd fb bd
       0.043015074 -0.055058964 -0.114216805 -0.12291922
000200 b2 f9 c8 3d a6 a2 a1 3d a5 5b 21 be 5a 1c 19 bd
       0.098132506 0.07892351 -0.15757616 -0.037380554
000210 ab d6 32 3d 05 a7 1f be e5 df 1c 3e 52 c7 93 bc
       0.043661755 -0.15591057 0.15319784 -0.01803938
000220 f1 17 91 bd b7 30 a7 3c 56 b9 84 3d 5e c6 1c 3d
       -0.070846446 0.020408971 0.064806625 0.038275115
000230 43 dd 2b 3e 3d a4 cd 3d d0 35 88 bc ec 03 f9 3c
       0.16783623 0.100410916 -0.016627222 0.030397378
000240 63 bd 2a 3d 46 c5 8f bd b3 3f 1c be 71 75 92 bc
       0.04168452 -0.07020049 -0.15258674 -0.017878266
000250 29 78 88 bd ef 77 2b be 9d 46 7e 3d 61 64 98 bd
       -0.06663544 -0.1674497 0.06207906 -0.07441021
000260 23 71 2e 3e df dc 82 3d 64 55 9c 3d 86 e3 4f 3d
       0.17035346 0.06389784 0.076334745 0.050754093
000270 02 01 8c 3d 27 a3 e9 3d 31 9b 05 3e e4 f7 0c bc
       0.0683613 0.11408072 0.13047482 -0.008604024
000280 17 4f 52 bd 73 90 35 3d 99 f0 a8 bd 1c e2 5c bc
       -0.051344957 0.04432721 -0.08249015 -0.013481643
000290 36 76 46 3d ca 28 a6 3d 20 1d 2b be c2 7e 91 3d
       0.04845258 0.08113249 -0.16710329 0.07104255
0002a0 86 d7 87 bd 3d ee f7 bd b3 de 92 bd 14 80 02 bc
       -0.06632905 -0.12105987 -0.07171383 -0.0079651065
0002b0 88 22 b4 3d 91 04 1f be 4b 93 4b 3d b7 9e 22 3e
       0.08795649 -0.15529086 0.049701016 0.15880857
0002c0 be c0 d3 bd 4b d0 26 3d 6f 82 98 bd d2 8d 45 3d
       -0.10339497 0.040725987 -0.07446753 0.048230954
0002d0 29 84 9f 3d e9 63 e6 bd 39 eb 1e 3d 3d 66 32 3e
       0.077888794 -0.11249525 0.038798545 0.17421813
0002e0 70 26 7a 3c f8 bb fc bd ff 9c d3 3b 4a 8d 13 3d
       0.015267953 -0.1234054 0.0064579244 0.036023416
0002f0 40 74 50 3d fa 39 27 bc 22 40 0f bd 78 26 af bd
       0.050892115 -0.010206694 -0.03497327 -0.08552259
000300 d2 60 e9 3d db c2 cd bd 21 14 79 bd 5e a4 ee 3d
       0.1139542 -0.10046931 -0.060810212 0.11652444
000310 1d af ab bd ba 86 b8 bc 57 62 90 bd 94 d7 1f be
       -0.083830096 -0.02252518 -0.07050007 -0.1560958
000320 95 41 af 3d a8 1f 9f bd 1f eb a5 bd e5 3c 21 bd
       0.08557431 -0.0776971 -0.081014864 -0.039364714
000330 50 5d 46 3d b3 b2 1f 3e 6e fa 1f 3e 42 bf 33 3b
       0.048428833 0.15595512 0.15622875 0.002742723
000340 32 d1 1b be 09 95 52 3c 2c a6 6d 3b 7f 7d 19 3e
       -0.1521652 0.012852916 0.0036262376 0.14989279
000350 9a 2f 14 bd ba 60 2a be 7c 70 82 3d 87 cf 1e bd
       -0.03617821 -0.16638461 0.06369111 -0.038772132
000360 80 70 7f 3d 8e 6a 5c 3d a2 4f 82 3d 98 8a c7 3d
       0.062363148 0.053812556 0.06362845 0.097432315
000370 7e 1a ff bd 2d c8 12 be 1c 1a 2a 3e 8b 12 26 3e
       -0.12456225 -0.14334174 0.16611522 0.16218011
000380 c5 08 91 bd e1 aa 2b 3e 06 fc 08 3d 28 6d 47 bd
       -0.07081751 0.16764404 0.033443473 -0.048688084
000390 f1 fb c7 bd 31 71 be bd f8 ad 13 3e 56 4d db bd
       -0.09764851 -0.09298933 0.14421833 -0.1070811
0003a0 34 a3 92 bd 15 30 36 3e a4 a5 ab bd 08 49 2f 3e
       -0.07160035 0.1779178 -0.08381203 0.17117703
0003b0 ac 05 a3 3d 8d ca b5 3d d9 51 28 3d c5 52 04 bd
       0.07960066 0.08876524 0.04109368 -0.032305498
0003c0 e5 3b 9e 3d 8e 40 52 3d 5d ff c8 bd ec fb 11 be
       0.07726268 0.051331095 -0.09814332 -0.14256257
0003d0 44 af 12 be ff 63 c2 bc 45 75 44 3d ab de e5 bd
       -0.14324671 -0.023729322 0.0479634 -0.11224111
0003e0 33 fb 09 3d 53 3b d3 3d e6 9d d9 3d 84 24 8b bd
       0.033686828 0.103140496 0.1062582 -0.06794074
0003f0 80 85 1b 3d 3c f5 1e be 75 af 04 3e eb 45 0f be
       0.037969112 -0.15523237 0.12957557 -0.13991515

gru.bias_ih_l1 f4 [96]
000000 58 75 5d bc b3 80 b7 bd 05 17 ea 3d d4 47 15 be
       -0.013516746 -0.08960094 0.11430172 -0.14578182
000010 05 13 d8 bd 2d 4f d4 3d bb 6c 8f 3d b5 89 85 bd
       -0.10550503 0.10366664 0.070031606 -0.06520406
000020 99 fc 62 bc a2 ca f9 bc 61 f2 91 3d d8 0a 0c 3d
       -0.013854169 -0.03049213 0.07126308 0.03419003
000030 c0 47 86 3d f3 27 18 3e 5f 89 fa bd 9b 3c 0c be
       0.06556654 0.1485899 -0.12233233 -0.13694994
000040 41 7c 2a bd 42 f0 a3 bd 0b 85 01 be f3 9f 25 3e
       -0.041622404 -0.0800481 -0.12648408 0.16174297
000050 e8 79 18 3e 9f 97 11 3e fe 79 e0 bd a1 dd a3 bc
       0.14890254 0.14217995 -0.10960768 -0.020003142
000060 af b7 0f be ed 4c 67 bd 67 49 15 3e a9 8b b5 3c
       -0.14034913 -0.056469847 0.14578782 0.022161322
000070 ac af 7c 3d be 27 30 be 5c 47 96 3d aa 64 f5 3d
       0.06169097 -0.1720266 0.073378295 0.11982091
000080 a1 3e 90 bd fb 3b da 3d 9b a7 7f 3d 0a 82 1b be
       -0.070431955 0.106559716 0.0624157 -0.15186325
000090 cc fb 18 be 26 e0 34 bc 51 92 39 be 61 f3 10 be
       -0.14939803 -0.011039769 -0.18122222 -0.14155342
0000a0 95 a9 45 3d aa 41 ac bd e9 89 b3 bc 05 b3 a9 bd
       0.04825743 -0.08410962 -0.021916347 -0.082860984
0000b0 97 5b e9 3d fa 73 09 3e 84 85 fe 3d 82 06 21 be
       0.113944225 0.13423148 0.1242781 -0.15725139
0000c0 54 29 9c bd 22 bd a6 3d bd bf ab 3d 12 1e 5e bd
       -0.0762507 0.08141543 0.083861805 -0.054227896
0000d0 e4 70 b3 3d dd 5a ff bb 2b 18 23 3c 97 26 f6 3d
       0.087617666 -0.007792814 0.009954493 0.12019079
0000e0 fc fe c1 3d 34 bc 13 be 3a e3 01 be e1 36 82 3d
       0.094724625 -0.14427263 -0.12684336 0.063581236
0000f0 7a 15 c2 3d cf 07 5f bd b5 9f 19 3e e5 ad 2d bd
       0.094767526 -0.054450806 0.1500233 -0.042402167
000100 eb 48 a4 bd a7 e2 eb 3c cc 3b 0b be d4 52 d9 3d
       -0.080217205 0.0287946 -0.1359703 0.10611501
000110 2d cc f1 bd 07 d7 09 3e 82 55 d4 bd 60 6f 94 3d
       -0.118065216 0.13460933 -0.10367872 0.072478056
000120 c5 65 13 be 39 34 61 bd 7f b1 fc bd 50 f2 d3 3d
       -0.14394291 -0.054981444 -0.12338542 0.10348952
000130 47 9d e6 3d 58 31 35 be cb b9 10 be 0b 80 6a ba
       0.11260467 -0.17694604 -0.14133374 -0.00089454715
000140 29 62 53 3d 48 0d ef bb c9 e4 3f 3d 0b fd 7d bd
       0.051607285 -0.0072952844 0.046849046 -0.0620089
000150 99 30 f0 3d 89 8d ed 3b b9 67 6f bd 7d 05 aa 3d
       0.11728019 0.0072495383 -0.058448527 0.08301828
000160 17 5a 48 be 65 78 c8 bd b3 33 16 3d 68 73 13 bd
       -0.19565617 -0.097885884 0.036670398 -0.03599873
000170 7d 05 23 be 95 aa 68 3d cb b7 39 3d f3 37 14 3c
       -0.15920062 0.056803305 0.045341294 0.009046542

gru.bias_hh_l1 f4 [96]
000000 75 28 7e 3d 99 6a 38 be 94 50 9d bd a8 69 ad bd
       0.0620503 -0.18009414 -0.07681385 -0.08467418
000010 84 15 2d 3e b1 40 90 bd 1d c3 ea bd a1 73 6a bd
       0.16902739 -0.07043589 -0.11462996 -0.05723918
000020 1f 62 8d 3c f3 91 95 3d 7d ac 04 3e 45 60 01 3e
       0.017258702 0.07303228 0.12956424 0.1263438
000030 61 25 9b 3c 5d 8b 27 3e 4b f4 be 3d 58 2f bf 3d
       0.018938722 0.16361757 0.09323939 0.09335202
000040 8e e6 1a be ef 00 74 3c 73 ee 1c bd f7 66 2e be
       -0.15127012 0.014892801 -0.03831334 -0.17031465
000050 63 4a b0 bd a7 29 09 3e 87 45 83 3d 76 37 28 3e
       -0.08607938 0.13394795 0.06409746 0.16427407
000060 a7 1c f1 3d 23 e0 c1 3b d9 21 21 3e 46 b8 18 3d
       0.11773043 0.0059166118 0.15735568 0.03728511
000070 a8 b9 d1 bc 72 3c 93 bd a6 79 ea 3d 22 97 a3 3d
       -0.025601223 -0.071892634 0.11448984 0.07987811
000080 11 26 f6 3d 01 8d 6f bd ac 26 39 be 10 e0 17 3c
       0.12018979 -0.05848408 -0.18081158 0.009269729
000090 8e 64 21 3b a0 ac 03 be b3 a7 03 3d 30 6b 21 bd
       0.0024626586 -0.1285882 0.032142352 -0.039408863
0000a0 d6 0c 05 3e 0e 67 90 bc be dc d2 bd a8 22 06 3e
       0.12993178 -0.017627265 -0.102960095 0.13099158
0000b0 03 af 9c 3b 5f 61 26 bd 21 33 a6 3d 54 90 2e 3e
       0.004781605 -0.040620204 0.08115221 0.17047244
0000c0 89 e8 67 3d e3 21 4d 3a 14 23 fe 3d de b0 bc bd
       0.056618247 0.0007825179 0.12409034 -0.09213422
0000d0 8b 94 16 3e 8a 87 d3 bd 30 18 d3 bb 8c da 25 3e
       0.14705102 -0.103285864 -0.0064420924 0.1619665
0000e0 cd 00 35 3d a5 82 67 bd 42 13 b7 3d b1 83 d7 3d
       0.044190217 -0.056521077 0.0893922 0.10523165
0000f0 5b ec 2e be 16 23 07 bd 41 5d 15 be 96 56 76 bd
       -0.1708235 -0.032992445 -0.14586355 -0.06014117
000100 31 bd 7d bc 38 7b 60 bd c0 dc 5c bd a8 2f ec 3d
       -0.015487001 -0.05480501 -0.05392146 0.11532527
000110 fe 88 e9 3c 30 fd 40 be d8 dc 49 3d d9 3e 42 be
       0.028507706 -0.18846583 0.04928288 -0.18969287
000120 8c 27 05 be 6d 46 c8 3d 9e 4e fb 3d 14 3c 59 bd
       -0.13003367 0.09779058 0.122708544 -0.05303581
000130 34 ea ca bd 94 66 93 3d 84 52 27 be e0 ed c6 3d
       -0.09907952 0.071972996 -0.16340071 0.0971334
000140 59 39 1a 3e c3 db 99 3d 14 96 5b 3d df f6 c6 3c
       0.15060939 0.07512619 0.053609923 0.02428764
000150 16 e7 1b be 40 4f a8 bd 80 ff fd 3d ab bd 21 3e
       -0.15224871 -0.08218241 0.124022484 0.15795009
000160 ac 05 f3 bc f7 b8 21 3d 7a 24 32 be 7c 9f 13 3e
       -0.02966579 0.039483037 -0.17396727 0.14416307
000170 a1 64 c4 bd 19 62 da bd 17 78 2f 3e ef fe 90 bd
       -0.09589506 -0.10663242 0.17135654 -0.07079875

gru_fc.weight f4 [128, 32]
000000 d9 51 b0 bd c7 b0 32 3d 9e 7f 1c 3e b4 2d 39 3e
       -0.08609361 0.04362562 0.15283057 0.1808384
000010 a4 ba 16 3d 98 53 de 3d 56 39 fb 3d 3e 78 35 bd
       0.036799088 0.10855788 0.12266795 -0.044304125
000020 d0 3d 21 be 18 d7 93 bc 75 05 92 bd e0 98 90 3d
       -0.15746236 -0.0180469 -0.07129947 0.070604086
000030 59 8f 02 be bc 86 14 be 93 bf 0b be cb 56 0f be
       -0.12749995 -0.14504522 -0.13647299 -0.13997953
000040 b3 63 1d 3e 53 3a 31 be f7 cb 33 3c af ec ee bd
       0.15370063 -0.17307405 0.010973922 -0.116662376
000050 33 96 ac bd b7 3d 4e bd bb 58 c0 3d 05 55 f9 3d
       -0.08427086 -0.050351825 0.09391924 0.12174419
000060 bc c5 7b bd 61 e2 37 bc 4f 51 8e bc a2 35 2d 3e
       -0.06146787 -0.0112234065 -0.017372755 0.1691499
000070 84 45 b0 3d aa 2d 54 bd f1 72 e1 3d 98 9d 20 be
       0.08607009 -0.05180136 0.110082515 -0.15685117
000080 66 6f 88 3d 38 06 12 3e d1 52 b4 bd 47 37 8d 3d
       0.066618726 0.14260185 -0.088048585 0.06895309
000090 40 a0 b3 3d e8 9d 19 be c3 f0 60 3d d9 83 05 3e
       0.087708 -0.15001643 0.05491711 0.13038577
0000a0 25 e5 28 3c 36 83 17 bd 4b 8d 8c bd 73 3d f4 bd
       0.010308539 -0.036990367 -0.06862887 -0.11925783
0000b0 f4 f9 37 3d d7 9d 32 be 18 8f 1b be 3e d0 8f bd
       0.04491611 -0.17443024 -0.15191305 -0.07022141
0000c0 d7 ed 25 be 66 01 25 3e eb 71 52 bd 66 ba b6 bd
       -0.1620401 0.16113815 -0.051378172 -0.089222714
0000d0 b7 67 23 3d 35 13 8e 3d 11 c4 08 3e 42 bc 8e bd
       0.039893832 0.06937257 0.13356043 -0.06969501
0000e0 e1 f0 1e bd 68 71 0c be 29 ab 1f be 54 68 9f bd
       -0.03880394 -0.13715136 -0.15592636 -0.07783571
0000f0 a4 e9 82 3c 7d f5 bb bd 5f d2 3a bd dd 3e 74 3d
       0.01598055 -0.091776825 -0.04561078 0.059630264
000100 9a 07 25 3d 74 6e 0a 3e d1 57 d0 3d 5b 1d f9 3d
       0.040290453 0.13518697 0.10173 0.12163802
000110 56 02 78 bd 23 c7 9f 3d 05 71 23 be ff 85 05 3d
       -0.060549103 0.07801654 -0.15961082 0.03259849
000120 e3 7f 05 be 84 12 a7 3c 8e 51 37 be ce 67 82 bc
       -0.13037066 0.020394571 -0.17902204 -0.015918639
000130 55 8c e3 3d 1f 4f f7 bd 70 f6 db 3d ff 85 28 bd
       0.111107506 -0.12075638 0.107403636 -0.041143414
000140 96 9e 43 3e ec a3 2b 3e 97 cd a9 bd 29 ca 5e bd
       0.19103464 0.1676175 -0.08291166 -0.054392014
000150 90 fc 4c bd 2f d7 86 bd f7 2c 96 3d 5f d4 21 be
       -0.05004555 -0.06584012 0.07332795 -0.1580367
000160 39 5e 0a be ca 6e 4d bd ff eb 38 be d2 ad 20 be
       -0.13512506 -0.050154485 -0.18058775 -0.15691307
000170 16 27 ae 3d 49 4f 2e be 9f 6d d5 3d ee 08 fe bd
       0.08503549 -0.17022432 0.10421299 -0.12404047
000180 ac 49 95 bc d7 58 c0 3d 7b 77 3c be 28 31 41 be
       -0.018223606 0.09391945 -0.18404953 -0.18866408
000190 df bf 03 bc 94 bd 82 bd f6 26 b5 3d ea 26 96 3d
       -0.008041351 -0.063838154 0.08845322 0.07331641
0001a0 ee 2a f8 3c a2 55 a9 3d 95 8a 27 3e 68 2b 8a 3c
       0.030293908 0.08268286 0.16361459 0.0168664
0001b0 4f 06 f0 3d fe aa aa bd 25 36 18 3e b1 6e e9 bc
       0.11719953 -0.083333954 0.14864404 -0.028495165
0001c0 b8 0c a9 3d 73 8b 19 be f7 18 f0 bd bb 0d bb bd
       0.08254379 -0.14994602 -0.11723512 -0.09133478
0001d0 aa fe c9 3d 56 a1 38 bc 52 15 31 be 1b e7 2f 3e
       0.098630264 -0.011268934 -0.1729329 0.17178003
0001e0 31 65 72 3d 49 2a 32 3e c6 ff 14 3d 0c b3 86 3c
       0.059178535 0.17398943 0.036376737 0.016442798
0001f0 e6 cb ef 3d d5 dc de bd 4f d2 35 3e ab 2b d4 bd
       0.117088124 -0.10881964 0.17756008 -0.103598915
000200 09 55 9d 3c bc df d4 bd 74 83 dd bd 68 4a 19 3e
       0.019205587 -0.103942364 -0.10816088 0.1496979
000210 a4 ab 06 bd 4b 75 25 bd 48 7f 0c 3e 19 e5 26 3e
       -0.032878533 -0.040395062 0.13720429 0.16298331
000220 aa f1 29 be 44 15 88 bc 72 72 28 3d 93 b5 35 3e
       -0.16596094 -0.016611703 0.04112477 0.17745046
000230 e7 a5 8e bd 39 47 92 bd 72 b6 d4 bd 9d 6c 25 3d
       -0.06965237 -0.07142491 -0.10386361 0.040386785
000240 ec 0b 5e 3d f7 c3 a8 ba 55 84 15 bc d4 09 06 be
       0.05421059 -0.0012875785 -0.009125789 -0.13089687
000250 d9 02 9e bd 5d 01 85 bd 63 0d 61 3d a2 86 a1 3d
       -0.07715387 -0.06494401 0.054944407 0.07887007
000260 b5 63 91 3d fa d0 14 be 0b 68 c9 bc 14 ab e1 bc
       0.07099096 -0.14532843 -0.024585744 -0.027547397
000270 ce d9 3c 3e 85 ca f0 3d 9e 30 0f be 92 95 da bd
       0.18442461 0.117573775 -0.1398339 -0.106730595
000280 6e 51 05 be 05 ea 32 bd 0b ce 1d be 90 3c b1 3d
       -0.13019344 -0.04368021 -0.1541063 0.086541295
000290 1c 44 9e bd f9 90 b7 bd c6 18 8b 3b 33 9f 6c bd
       -0.077278346 -0.08963198 0.0042448966 -0.05776901
0002a0 5b 81 09 3e 0c 57 20 3e 09 96 25 be f6 93 ab 3d
       0.13428251 0.15658206 -0.16170515 0.08377831
0002b0 0e 98 33 3b e7 71 bc 3d 1e 1b 89 bd ee 62 26 bc
       0.0027403864 0.09201413 -0.06694625 -0.010155423
0002c0 87 f9 25 bb 18 e4 82 3d 55 1c b5 3d 61 6c 81 3d
       -0.0025325732 0.06391162 0.088432945 0.063195
0002d0 4d 30 bf 3c 92 12 0b be df 4f c9 bd 51 dd ce bd
       0.023338461 -0.13581303 -0.09829687 -0.101008065
0002e0 a2 35 33 be 09 d9 2b 3e 20 92 a9 bd 3f ab ea bd
       -0.17500928 0.16782011 -0.08279824 -0.11458444
0002f0 18 4c 99 bd 45 a5 c3 3d f4 17 ed bd 12 09 17 be
       -0.07485217 0.09553007 -0.11576834 -0.14749554
000300 fc 51 08 be 7c 2e 08 3d c2 34 41 bc 2e 71 28 be
       -0.13312525 0.033247456 -0.011792364 -0.16449425
000310 c2 37 02 be 7c 33 18 be 04 c2 6f 3d 62 23 ad 3d
       -0.12716582 -0.1486339 0.058534637 0.08454014
000320 29 3c 0a 3d aa e0 53 bd 54 13 bd bd 34 64 8c 3d
       0.03374878 -0.05172793 -0.09232202 0.0685505
000330 4d e5 29 bd 11 22 ba bc 22 ac 72 bd e0 60 0f 3d
       -0.041478444 -0.022721322 -0.05924619 0.035004497
000340 e1 4c 17 3d 5d 8b 14 3e 0c 4d 1d 3e 58 b7 34 bd
       0.03693855 0.14506288 0.15361422 -0.044120163
000350 f0 ed f3 3c 35 e5 f0 bd b4 03 0a be 9f 2c 16 3e
       0.029776543 -0.11762468 -0.13477975 0.14665459
000360 7d 66 de 3c 60 6a aa bd 62 2b be 3d 69 ec 8d 3d
       0.02714848 -0.08321071 0.09285618 0.06929857
000370 a8 08 7a 3d 37 f6 a2 3d 10 1f 39 3c 40 96 fd bd
       0.06104341 0.07957118 0.01129891 -0.123821735
000380 39 40 1c be c0 38 3e 3e 4a c9 08 3e 0b 9d fb bd
       -0.15258874 0.18576336 0.13358036 -0.12285813
000390 45 36 1d 3e ac 5e 33 be a6 0e ea 3d 45 21 e5 3d
       0.15352733 -0.17516583 0.11428575 0.11187986
0003a0 ec 04 d0 3d 0f b4 73 3d 4c e5 ef bd 78 83 89 bd
       0.10157189 0.05949789 -0.11713657 -0.06714529
0003b0 fb 74 1c 3d 0b 3a 5f 3d 14 af 1d 3e 99 01 50 3b
       0.0381975 0.054498713 0.15398818 0.0031739234
0003c0 f3 9b ae 3d 7d 01 05 be d5 b6 d4 bc 2e 0d c3 3d
       0.08525839 -0.12988849 -0.025966087 0.09523998
0003d0 e3 3f 00 3c 34 8f 13 3e c6 6f 08 be e4 ed ef bd
       0.007827732 0.14410096 -0.13323888 -0.11715296
0003e0 0d 71 2b 3d 7f ac 9a bc e9 b4 27 be 3c 12 ab 3d
       0.04185586 -0.01888108 -0.16377605 0.08353087
0003f0 8e 28 86 3c a9 27 01 3d 6e eb f1 3c 66 1a 07 be
       0.01637676 0.031531963 0.029531207 -0.13193664

gru_fc.bias f4 [128]
000000 58 9d af bc f4 88 7c 3d 1a f6 77 bd a0 6c 0f 3e
       -0.021437332 0.061654046 -0.060537435 0.14006281
000010 2b 28 73 3d 1c 04 f4 bc a5 a4 e8 bc 3f 51 02 3c
       0.05936448 -0.029787116 -0.028398821 0.007953941
000020 a1 b7 dd 3d c2 5c 85 3d ec 7d 40 bd d4 17 ab 3d
       0.1082604 0.06511833 -0.04699509 0.08354154
000030 ca d7 d7 bc 87 08 11 be 59 54 ec bd 40 64 3e bc
       -0.026348013 -0.14163409 -0.115395255 -0.011620581
000040 57 9d 25 3e cf b8 7e bd 41 17 0e 3e 10 fc 8b bd
       0.16173302 -0.062187966 0.13876058 -0.068351865
000050 ab 4b f9 3d 8b ba 43 bd 94 ff a0 bd 19 4d 85 3d
       0.12172636 -0.047785323 -0.07861248 0.06508846
000060 9c 07 cf 3d 44 54 14 be c8 b8 aa bc c4 8b ed 3c
       0.10108873 -0.1448527 -0.020840064 0.02899731
000070 50 8a 1f 3d 69 dc 18 3e 71 bc 16 be 8c 84 3e 3e
       0.038950264 0.1492783 -0.14720322 0.1860525
000080 3b 10 da 3d 72 71 24 be b5 bf 6d bd 13 90 32 3d
       0.10647627 -0.16058901 -0.058044154 0.04359443
000090 b9 62 11 be 81 c7 26 3e 5a 44 91 bd 86 0f 9d 3d
       -0.14197816 0.16287042 -0.07093115 0.076689765
0000a0 9d b4 08 3d b6 e5 86 bd a5 3d 26 be 4e 70 2f 3d
       0.03337537 -0.06586783 -0.16234453 0.04283171
0000b0 08 8a 19 be 3e de 07 bd 03 6e 3f 3d 83 45 7c bd
       -0.14994061 -0.03317093 0.046735775 -0.06158973
0000c0 49 c8 08 3e 76 f5 1a be 6e 4c 1a be 53 c2 d1 3d
       0.13357653 -0.15132698 -0.15068218 0.102421425
0000d0 2e 88 ab bd c7 18 0b 3e 98 29 4c bd ac 6f 4d bd
       -0.083755836 0.1358367 -0.049844354 -0.050155327
0000e0 82 b6 22 3e cb c7 f2 bc a0 24 0d be 3f ab be bd
       0.15889934 -0.029636284 -0.13783503 -0.09310006
0000f0 c2 5b 7a 3d 9b c8 09 3e f8 b0 01 3e 83 0d 85 bd
       0.061122663 0.13455431 0.12665164 -0.06496718
000100 9d b3 bd 3c 54 32 10 3e ba b9 73 bd e5 06 2a 3c
       0.023156935 0.14081699 -0.059503295 0.01037762
000110 1f 1f a8 bd 6f f1 20 3c de 21 2c 3e ae dc 11 3e
       -0.08209061 0.009823187 0.16809794 0.14244339
000120 9f 02 00 be ca b9 95 3d 5e 15 2d 3e aa ad 22 bd
       -0.12501 0.07310827 0.16902682 -0.0397164
000130 a4 2e 5c 3d 5d 22 33 be d4 93 d5 3d 51 66 1f bd
       0.053755417 -0.17493577 0.104285866 -0.038915936
000140 94 81 2f 3e 3e c0 07 3e a5 4f eb bd 2d 08 ad bd
       0.17139274 0.13256928 -0.114898 -0.08448825
000150 2f f4 17 be e3 ee 2a be f9 53 33 be 7b 42 cb 3d
       -0.14839242 -0.1669269 -0.17512502 0.099247895
000160 f7 1e f8 3d 2d 8b 05 be 83 99 f7 3d 92 5a 8e bd
       0.12115281 -0.13041373 0.12089827 -0.06950869
000170 81 e4 57 3d 6c 35 19 3e d2 0a 09 3e f7 da 12 be
       0.052708153 0.14961785 0.13383034 -0.14341341
000180 72 bd 83 3d 1b 06 87 bd 5b 85 25 be e1 e1 a9 bc
       0.06432618 -0.065929614 -0.16164152 -0.02073759
000190 44 38 2d bd 33 2b 14 3d ff 74 0b 3d 48 e4 d6 3d
       -0.042289987 0.03617401 0.034047123 0.1049276
0001a0 a3 4f c5 3d aa 97 44 be f5 0c 1f be 2c 30 e1 bd
       0.0963433 -0.1919848 -0.15532286 -0.10995516
0001b0 32 b8 b6 3d f1 52 24 3e 0c 8c f6 bd c6 6f 0f 3d
       0.08921851 0.16047265 -0.120384306 0.035018705
0001c0 77 9f 6e 3c 31 47 86 3d 89 94 8b 3d c6 99 dc 3c
       0.014564387 0.065565474 0.0681544 0.026928794
0001d0 d5 99 0c 3e fb 43 3c bd 45 41 3b 3e f0 5b 9f 3c
       0.13730557 -0.04596327 0.18286617 0.019453019
0001e0 55 df 20 be 77 6c 9f 3d 20 d9 01 3e f0 b7 00 3e
       -0.15710194 0.0778436 0.12680483 0.12570167
0001f0 2a dc 70 3c b6 7e 0b 3d 53 96 a2 3d 0d a0 aa bd
       0.014700929 0.034056388 0.07938828 -0.083313085
