result/PCA_CNN_GRU_ATT_prediction_model.pth (torch, 234864 bytes, 23 tensors)

Wa f4 [128, 128]
000000 00 00 00 00 00 00 00 00 00 00 00 00 00 00 00 00
       0.0 0.0 0.0 0.0
000010 00 00 00 00 00 00 00 00 00 00 00 00 00 00 00 00
       0.0 0.0 0.0 0.0
000020 00 00 00 00 00 00 00 00 00 00 00 00 00 00 00 00
       0.0 0.0 0.0 0.0
000030 00 00 00 00 00 00 00 00 00 00 00 00 00 00 00 00
       0.0 0.0 0.0 0.0
000040 00 00 00 00 00 00 00 00 00 00 00 00 00 00 00 00
       0.0 0.0 0.0 0.0
000050 00 00 00 00 00 00 00 00 00 00 00 00 00 00 00 00
       0.0 0.0 0.0 0.0
000060 00 00 00 00 00 00 00 00 00 00 00 00 00 00 00 00
       0.0 0.0 0.0 0.0
000070 00 00 00 00 00 00 00 00 00 00 00 00 00 00 00 00
       0.0 0.0 0.0 0.0
000080 00 00 00 00 00 00 00 00 00 00 00 00 00 00 00 00
       0.0 0.0 0.0 0.0
000090 00 00 00 00 00 00 00 00 00 00 00 00 00 00 00 00
       0.0 0.0 0.0 0.0
0000a0 00 00 00 00 00 00 00 00 00 00 00 00 00 00 00 00
       0.0 0.0 0.0 0.0
0000b0 00 00 00 00 00 00 00 00 00 00 00 00 00 00 00 00
       0.0 0.0 0.0 0.0
0000c0 00 00 00 00 00 00 00 00 00 00 00 00 00 00 00 00
       0.0 0.0 0.0 0.0
0000d0 00 00 00 00 00 00 00 00 00 00 00 00 00 00 00 00
       0.0 0.0 0.0 0.0
0000e0 00 00 00 00 00 00 00 00 00 00 00 00 00 00 00 00
       0.0 0.0 0.0 0.0
0000f0 00 00 00 00 00 00 00 00 00 00 00 00 00 00 00 00
       0.0 0.0 0.0 0.0
000100 00 00 00 00 00 00 00 00 00 00 00 00 00 00 00 00
       0.0 0.0 0.0 0.0
000110 00 00 00 00 00 00 00 00 00 00 00 00 00 00 00 00
       0.0 0.0 0.0 0.0
000120 00 00 00 00 00 00 00 00 00 00 00 00 00 00 00 00
       0.0 0.0 0.0 0.0
000130 00 00 00 00 00 00 00 00 00 00 00 00 00 00 00 00
       0.0 0.0 0.0 0.0
000140 00 00 00 00 00 00 00 00 00 00 00 00 00 00 00 00
       0.0 0.0 0.0 0.0
000150 00 00 00 00 00 00 00 00 00 00 00 00 00 00 00 00
       0.0 0.0 0.0 0.0
000160 00 00 00 00 00 00 00 00 00 00 00 00 00 00 00 00
       0.0 0.0 0.0 0.0
000170 00 00 00 00 00 00 00 00 00 00 00 00 00 00 00 00
       0.0 0.0 0.0 0.0
000180 00 00 00 00 00 00 00 00 00 00 00 00 00 00 00 00
       0.0 0.0 0.0 0.0
000190 00 00 00 00 00 00 00 00 00 00 00 00 00 00 00 00
       0.0 0.0 0.0 0.0
0001a0 00 00 00 00 00 00 00 00 00 00 00 00 00 00 00 00
       0.0 0.0 0.0 0.0
0001b0 00 00 00 00 00 00 00 00 00 00 00 00 00 00 00 00
       0.0 0.0 0.0 0.0
0001c0 00 00 00 00 00 00 00 00 00 00 00 00 00 00 00 00
       0.0 0.0 0.0 0.0
0001d0 00 00 00 00 00 00 00 00 00 00 00 00 00 00 00 00
       0.0 0.0 0.0 0.0
0001e0 00 00 00 00 00 00 00 00 00 00 00 00 00 00 00 00
       0.0 0.0 0.0 0.0
0001f0 00 00 00 00 00 00 00 00 00 00 00 00 00 00 00 00
       0.0 0.0 0.0 0.0
000200 00 00 00 00 00 00 00 00 00 00 00 00 00 00 00 00
       0.0 0.0 0.0 0.0
000210 00 00 00 00 00 00 00 00 00 00 00 00 00 00 00 00
       0.0 0.0 0.0 0.0
000220 00 00 00 00 00 00 00 00 00 00 00 00 00 00 00 00
       0.0 0.0 0.0 0.0
000230 00 00 00 00 00 00 00 00 00 00 00 00 00 00 00 00
       0.0 0.0 0.0 0.0
000240 00 00 00 00 00 00 00 00 00 00 00 00 00 00 00 00
       0.0 0.0 0.0 0.0
000250 00 00 00 00 00 00 00 00 00 00 00 00 00 00 00 00
       0.0 0.0 0.0 0.0
000260 00 00 00 00 00 00 00 00 00 00 00 00 00 00 00 00
       0.0 0.0 0.0 0.0
000270 00 00 00 00 00 00 00 00 00 00 00 00 00 00 00 00
       0.0 0.0 0.0 0.0
000280 00 00 00 00 00 00 00 00 00 00 00 00 00 00 00 00
       0.0 0.0 0.0 0.0
000290 00 00 00 00 00 00 00 00 00 00 00 00 00 00 00 00
       0.0 0.0 0.0 0.0
0002a0 00 00 00 00 00 00 00 00 00 00 00 00 00 00 00 00
       0.0 0.0 0.0 0.0
0002b0 00 00 00 00 00 00 00 00 00 00 00 00 00 00 00 00
       0.0 0.0 0.0 0.0
0002c0 00 00 00 00 00 00 00 00 00 00 00 00 00 00 00 00
       0.0 0.0 0.0 0.0
0002d0 00 00 00 00 00 00 00 00 00 00 00 00 00 00 00 00
       0.0 0.0 0.0 0.0
0002e0 00 00 00 00 00 00 00 00 00 00 00 00 00 00 00 00
       0.0 0.0 0.0 0.0
0002f0 00 00 00 00 00 00 00 00 00 00 00 00 00 00 00 00
       0.0 0.0 0.0 0.0
000300 00 00 00 00 00 00 00 00 00 00 00 00 00 00 00 00
       0.0 0.0 0.0 0.0
000310 00 00 00 00 00 00 00 00 00 00 00 00 00 00 00 00
       0.0 0.0 0.0 0.0
000320 00 00 00 00 00 00 00 00 00 00 00 00 00 00 00 00
       0.0 0.0 0.0 0.0
000330 00 00 00 00 00 00 00 00 00 00 00 00 00 00 00 00
       0.0 0.0 0.0 0.0
000340 00 00 00 00 00 00 00 00 00 00 00 00 00 00 00 00
       0.0 0.0 0.0 0.0
000350 00 00 00 00 00 00 00 00 00 00 00 00 00 00 00 00
       0.0 0.0 0.0 0.0
000360 00 00 00 00 00 00 00 00 00 00 00 00 00 00 00 00
       0.0 0.0 0.0 0.0
000370 00 00 00 00 00 00 00 00 00 00 00 00 00 00 00 00
       0.0 0.0 0.0 0.0
000380 00 00 00 00 00 00 00 00 00 00 00 00 00 00 00 00
       0.0 0.0 0.0 0.0
000390 00 00 00 00 00 00 00 00 00 00 00 00 00 00 00 00
       0.0 0.0 0.0 0.0
0003a0 00 00 00 00 00 00 00 00 00 00 00 00 00 00 00 00
       0.0 0.0 0.0 0.0
0003b0 00 00 00 00 00 00 00 00 00 00 00 00 00 00 00 00
       0.0 0.0 0.0 0.0
0003c0 00 00 00 00 00 00 00 00 00 00 00 00 00 00 00 00
       0.0 0.0 0.0 0.0
0003d0 00 00 00 00 00 00 00 00 00 00 00 00 00 00 00 00
       0.0 0.0 0.0 0.0
0003e0 00 00 00 00 00 00 00 00 00 00 00 00 00 00 00 00
       0.0 0.0 0.0 0.0
0003f0 00 00 00 00 00 00 00 00 00 00 00 00 00 00 00 00
       0.0 0.0 0.0 0.0

ba f4 [128]
000000 00 06 48 af 73 05 00 00 00 00 00 00 00 00 00 00
       -1.8192026e-10 1.955e-42 0.0 0.0
000010 00 00 00 00 00 00 00 00 00 00 00 00 00 00 00 00
       0.0 0.0 0.0 0.0
000020 00 00 00 00 00 00 00 00 00 00 00 00 00 00 00 00
       0.0 0.0 0.0 0.0
000030 00 00 00 00 00 00 00 00 00 00 00 00 00 00 00 00
       0.0 0.0 0.0 0.0
000040 00 00 00 00 00 00 00 00 00 00 00 00 00 00 00 00
       0.0 0.0 0.0 0.0
000050 00 00 00 00 00 00 00 00 00 00 00 00 00 00 00 00
       0.0 0.0 0.0 0.0
000060 00 00 00 00 00 00 00 00 00 00 00 00 00 00 00 00
       0.0 0.0 0.0 0.0
000070 00 00 00 00 00 00 00 00 00 00 00 00 00 00 00 00
       0.0 0.0 0.0 0.0
000080 00 00 00 00 00 00 00 00 00 00 00 00 00 00 00 00
       0.0 0.0 0.0 0.0
000090 00 00 00 00 00 00 00 00 00 00 00 00 00 00 00 00
       0.0 0.0 0.0 0.0
0000a0 00 00 00 00 00 00 00 00 00 00 00 00 00 00 00 00
       0.0 0.0 0.0 0.0
0000b0 00 00 00 00 00 00 00 00 00 00 00 00 00 00 00 00
       0.0 0.0 0.0 0.0
0000c0 00 00 00 00 00 00 00 00 00 00 00 00 00 00 00 00
       0.0 0.0 0.0 0.0
0000d0 00 00 00 00 00 00 00 00 00 00 00 00 00 00 00 00
       0.0 0.0 0.0 0.0
0000e0 00 00 00 00 00 00 00 00 00 00 00 00 00 00 00 00
       0.0 0.0 0.0 0.0
0000f0 00 00 00 00 00 00 00 00 00 00 00 00 00 00 00 00
       0.0 0.0 0.0 0.0
000100 00 00 00 00 00 00 00 00 00 00 00 00 00 00 00 00
       0.0 0.0 0.0 0.0
000110 00 00 00 00 00 00 00 00 00 00 00 00 00 00 00 00
       0.0 0.0 0.0 0.0
000120 00 00 00 00 00 00 00 00 00 00 00 00 00 00 00 00
       0.0 0.0 0.0 0.0
000130 00 00 00 00 00 00 00 00 00 00 00 00 00 00 00 00
       0.0 0.0 0.0 0.0
000140 00 00 00 00 00 00 00 00 00 00 00 00 00 00 00 00
       0.0 0.0 0.0 0.0
000150 00 00 00 00 00 00 00 00 00 00 00 00 00 00 00 00
       0.0 0.0 0.0 0.0
000160 00 00 00 00 00 00 00 00 00 00 00 00 00 00 00 00
       0.0 0.0 0.0 0.0
000170 00 00 00 00 00 00 00 00 00 00 00 00 00 00 00 00
       0.0 0.0 0.0 0.0
000180 00 00 00 00 00 00 00 00 00 00 00 00 00 00 00 00
       0.0 0.0 0.0 0.0
000190 00 00 00 00 00 00 00 00 00 00 00 00 00 00 00 00
       0.0 0.0 0.0 0.0
0001a0 00 00 00 00 00 00 00 00 00 00 00 00 00 00 00 00
       0.0 0.0 0.0 0.0
0001b0 00 00 00 00 00 00 00 00 00 00 00 00 00 00 00 00
       0.0 0.0 0.0 0.0
0001c0 00 00 00 00 00 00 00 00 00 00 00 00 00 00 00 00
       0.0 0.0 0.0 0.0
0001d0 00 00 00 00 00 00 00 00 00 00 00 00 00 00 00 00
       0.0 0.0 0.0 0.0
0001e0 00 00 00 00 00 00 00 00 00 00 00 00 00 00 00 00
       0.0 0.0 0.0 0.0
0001f0 00 00 00 00 00 00 00 00 00 00 00 00 00 00 00 00
       0.0 0.0 0.0 0.0

cnn.0.weight f4 [8, 3, 2]
000000 de f5 61 3e 43 a7 27 3f d6 4a 04 be 64 b2 bc 3e
       0.22066447 0.65489596 -0.12919173 0.3685485
000010 40 9b 3b be 58 2f 9a 3d 28 d6 54 be 31 3e 88 3e
       -0.18320942 0.07528561 -0.20784819 0.26609948
000020 4b 33 bc 3e 02 96 8e be d5 0f a5 3e f1 48 4a 3d
       0.36757883 -0.27848822 0.3223864 0.04938597
000030 61 a5 8d 3e c8 a3 d6 3d f1 9d 2f 3e 7f e8 84 bd
       0.27665237 0.104804575 0.17150094 -0.064896576
000040 c8 50 98 3e f0 22 6a 3d e7 df 61 be b1 b0 91 3d
       0.2974913 0.057162225 -0.22058068 0.07113779
000050 9e c8 22 be 73 29 9d bc 45 b0 27 be 0b 42 8b 3e
       -0.15896842 -0.019184804 -0.16375835 0.27198824
000060 5b bc a6 be e9 87 43 be 54 7e e3 bd d4 66 76 be
       -0.3256558 -0.19094814 -0.111080796 -0.24062663
000070 f5 72 2c 3d 43 d9 cc be 84 e3 fc 3e 31 47 a6 be
       0.04210182 -0.40009508 0.4939233 -0.3247619
000080 40 88 71 3e 23 16 20 3b 19 4e a9 bd 9d 34 8e 3e
       0.23587132 0.0024427257 -0.08266849 0.27774516
000090 d8 f9 a1 3c a8 fd e4 3e b8 cb ad 3c d9 4c 09 be
       0.019772455 0.44724774 0.021215305 -0.13408221
0000a0 39 31 a6 3d bd 45 d4 bd cb b8 cc 3d b6 53 20 3f
       0.08114857 -0.10364864 0.09996184 0.6262773
0000b0 76 6e 32 3e 6f e3 4d be bd 6d 1d 3e 8c ad 7e 3d
       0.1742495 -0.2010629 0.15373893 0.062177226

cnn.0.bias f4 [8]
000000 47 a5 da 3d 00 b7 7e be 35 b6 d8 be 47 92 2c be
       0.106760554 -0.24874496 -0.42326513 -0.16852675
000010 9e 67 a1 be 52 f1 ca 3e 08 3f b6 3d 13 ad c3 3d
       -0.31524366 0.39637238 0.08898741 0.09554496

cnn.3.weight f4 [16, 8, 2]
000000 08 f2 99 3d 17 1b 30 bd bd 47 48 3e ed 9a 3a be
       0.07516867 -0.042994585 0.19558616 -0.18223162
000010 c5 a2 50 3c 48 d5 34 be 62 e0 9d 3d c2 52 b0 bd
       0.01273412 -0.17659485 0.07708813 -0.08609535
000020 98 e2 9c 3d 78 57 55 bd a2 0a 52 3e 22 e8 0e be
       0.07660407 -0.05208537 0.20511869 -0.13955739
000030 fe 77 18 be 57 4f 29 be 0f ac 67 3e c5 c0 75 3d
       -0.14889523 -0.16534172 0.22624229 0.059998292
000040 1c cd a8 3e 00 cc 80 be b6 5d 5b be c5 85 41 be
       0.32968986 -0.2515564 -0.21422467 -0.18898685
000050 a8 51 07 be a0 27 df 3d 35 49 b4 3d 3d 33 53 3e
       -0.13214743 0.1089623 0.08803026 0.20625015
000060 d5 d3 03 be e5 0d 2e be cc 48 15 3e 30 6f 0a bd
       -0.12873776 -0.16997488 0.14578551 -0.033797443
000070 b4 46 48 3e 45 e9 c9 bd ec 16 71 3e 94 fc 64 be
       0.19558221 -0.09858946 0.235439 -0.22361976
000080 32 2c 01 be 30 21 9c 3d 38 7b 58 3d f4 89 82 bd
       -0.12614515 0.076235175 0.052851886 -0.06373969
000090 02 98 18 3e fa 07 2e 3e 12 a4 39 be 2f aa 08 be
       0.14901736 0.1699523 -0.18128994 -0.1334617
0000a0 ea 69 6a 3e e6 c1 ac bd 2c 83 b5 bd 48 b4 77 be
       0.22891966 -0.08435421 -0.0886291 -0.24189866
0000b0 28 94 12 be 9e e5 7f 3d c6 1a 07 bd 05 d0 39 be
       -0.1431433 0.06247484 -0.032984518 -0.1814576
0000c0 40 28 c0 3b 6e de 2e be 86 30 59 be 3a f8 0c be
       0.005864173 -0.17077038 -0.21209916 -0.13766566
0000d0 e6 0d 60 be 44 01 23 be 5e e6 7f 3e 70 68 41 3d
       -0.21880302 -0.15918452 0.24990222 0.04721874
0000e0 1c c7 9d 3d 66 c4 6e be 54 22 28 be 14 6c aa bd
       0.07703993 -0.23317108 -0.16419345 -0.083213955
0000f0 c0 1f 20 3d 86 42 61 be 64 9b dc bd 58 42 19 be
       0.03909278 -0.21998033 -0.10771826 -0.14966714
000100 6e 7d 35 3a 88 84 be bd f0 ea 8d bc 24 79 2d be
       0.00069232925 -0.09302622 -0.017323941 -0.16940743
000110 9c b7 2f be d7 59 15 be 6e 41 af bd 35 0e 4a be
       -0.17159885 -0.14585052 -0.085574016 -0.19731982
000120 0e a6 56 3e e1 39 4b bd cc 42 5c 3e 52 87 9f 3d
       0.20961782 -0.049615745 0.21509856 0.07789482
000130 66 c7 58 be 85 29 31 3e b0 df 8c bd 30 43 c4 bd
       -0.21169814 0.17300995 -0.068786025 -0.095831275
000140 b4 85 54 be ad 87 7e be 18 7d 92 3d c0 af 5f bd
       -0.20754129 -0.24856444 0.07152766 -0.054610968
000150 5c 55 c7 3d 00 17 52 be 58 0d 3e 3e 30 ed 3b be
       0.09733078 -0.20516586 0.18559778 -0.18352199
000160 9c d3 30 bd ee df 55 3d 14 29 04 3e e4 ab 4e 3e
       -0.043170556 0.05221551 0.12906295 0.20182759
000170 95 2a 69 3e 1b 07 4b be f5 cc 80 3d 8c 47 dc bd
       0.2277015 -0.1982693 0.062890925 -0.10755834
000180 e1 d0 d4 bc ef 7c 3e be a6 56 69 3e 9f 83 3b be
       -0.025978507 -0.18602346 0.2278696 -0.18311928
000190 29 ac 09 3e f6 13 b5 3d 8f 57 a6 3d 4a 6a 0a be
       0.1344458 0.08841698 0.08122169 -0.13517109
0001a0 0c b1 68 3e 40 06 61 3d 82 03 08 3d 9b ed 60 be
       0.22723788 0.0549376 0.03320647 -0.2196564
0001b0 74 2b d9 3d 1f 19 15 bd 9e 5d e6 bd cf e0 5d 3e
       0.10603991 -0.03640091 -0.11248325 0.21667789
0001c0 6b 34 93 3d 18 10 09 be 88 89 04 be 04 b2 9c bc
       0.07187732 -0.13385046 -0.12943089 -0.019127853
0001d0 bc a0 13 3e 7c cb 8c bd e8 83 12 be 06 34 b0 bd
       0.14416784 -0.06874749 -0.1430813 -0.08603673
0001e0 5d 21 3f be 9e e9 b6 3d 0d 9a 4a 3e 60 5c 6d be
       -0.18665071 0.08931278 0.19785328 -0.2317977
0001f0 2b c5 83 3d cc 30 fe 3d 77 6c 68 3d 8d b2 c3 bd
       0.06434091 0.12411651 0.056744065 -0.0955554
000200 6c bb 63 3d 5e 6f 0c 3f b9 5a 74 3d 3a 50 45 39
       0.05559866 0.5485743 0.059656832 0.00018817271
000210 05 c6 8b bd 8a 3b ed 3d 1f 09 21 bd b4 b2 8e bd
       -0.068248786 0.11583622 -0.03931534 -0.06967679
000220 98 d3 22 3e dc f5 5a 3e 81 13 ac bd 4c f1 90 be
       0.15901029 0.2138285 -0.084021576 -0.28309095
000230 25 58 cc 39 33 81 81 3e d2 a2 82 bc 15 c7 c7 3e
       0.00038975585 0.25293884 -0.01594678 0.39019075
000240 84 83 68 be 84 f2 bc bd cc 95 57 3e c0 73 c7 3d
       -0.22706419 -0.09225944 0.21053237 0.097388744
000250 a0 b9 4b bc 08 58 1a be 42 9f 1c be fa 50 65 be
       -0.012434393 -0.15072644 -0.15295127 -0.22394171
000260 8c e4 a6 bd 90 e7 ac 3d 2c 3b 23 3e 98 63 ec 3d
       -0.081490606 0.084426045 0.15940541 0.115424335
000270 28 4a 62 be e4 f2 19 be b0 9a 21 bd 38 a4 77 3e
       -0.22098601 -0.15034062 -0.039454162 0.24183738
000280 c9 0d 15 3d db 25 87 bd ab 9d d1 3d 67 49 c6 bd
       0.0363901 -0.06599017 0.10235151 -0.09681969
000290 ab db 27 be bb d8 38 3e ac ce e8 bd 28 47 4d bd
       -0.1639239 0.18051426 -0.113675445 -0.050116688
0002a0 7e ab 7e be 52 55 2b 3e 13 4e 41 3e 68 a1 ba 3d
       -0.24870107 0.16731766 0.18877439 0.09112817
0002b0 af e1 32 be 7c df 7d be 33 90 51 be 97 2a 3c 3e
       -0.17468904 -0.24792284 -0.20465164 0.18375622
0002c0 d2 44 d3 3d 35 55 78 3e 30 57 02 3e f0 8d 89 3d
       0.10315861 0.24251254 0.12728572 0.067165256
0002d0 47 ed 1f 3b e7 85 42 be 30 6f 5b be ce 82 6f be
       0.0024402903 -0.18996392 -0.21429133 -0.23389742
0002e0 13 7c d1 3d 6b 77 fb bd 4c 5c 21 bd cf ab 2a be
       0.102287434 -0.122786365 -0.03939466 -0.16667102
0002f0 bc f7 51 bd 6d 0b 1f be 23 06 2d be f0 ef e5 3d
       -0.05126165 -0.15531702 -0.16896872 0.11227405
000300 27 69 4f bd 4c bf 07 3e 49 f4 9e bd 39 38 3f be
       -0.05063739 0.13256568 -0.077614374 -0.18673791
000310 a3 98 29 bd 3f 93 f6 bd cf df 9c bd 0e d6 73 be
       -0.04140533 -0.12039804 -0.076598756 -0.23812124
000320 cc 3a 0f 3e e7 38 32 be 45 25 03 3e b5 a9 0b 3e
       0.13987273 -0.17404519 0.12807186 0.13638957
000330 9e 31 42 3e 69 66 50 be 73 9b 4a 3e b6 aa 07 be
       0.1896424 -0.20351566 0.19785862 -0.13248715
000340 8b 35 b6 3d ab 60 59 3e 18 22 20 bd 57 8a b4 bb
       0.08896931 0.21228282 -0.039095014 -0.0055096555
000350 82 a7 7e bd 89 f5 57 be 8f c7 f5 3d fd 1c 7e be
       -0.062171467 -0.21089758 0.120009534 -0.24815746
000360 be ec 1e 3e ae 8b 3f 3e 0b 39 73 3e 3b a1 3e bd
       0.15519997 0.18705627 0.23752229 -0.04654048
000370 05 82 5f be 91 2a 18 3d d5 86 f0 3d 67 33 8d be
       -0.21826942 0.03714997 0.11744467 -0.2757828
000380 68 6e 68 bd ea 75 19 be 30 20 b3 bc 68 03 fc bd
       -0.056745917 -0.14986387 -0.021865934 -0.12305337
000390 fc 49 d1 bd f8 89 a2 bd 20 47 73 be c8 0c 52 3e
       -0.102191895 -0.07936472 -0.23757601 0.20512688
0003a0 e0 9c 56 3e 48 a2 20 bd 00 3b e9 bc 18 f5 d0 bd
       0.2095828 -0.039217263 -0.028470516 -0.10202998
0003b0 20 2f 67 be fe 1f 79 be 04 4a be 3d 4a 8e 0c be
       -0.2257657 -0.2432861 0.09291461 -0.13726154
0003c0 1c b3 2f be e6 a7 59 3d 72 88 c2 bd ee 53 a0 bd
       -0.17158169 0.053138636 -0.09498681 -0.07828508
0003d0 0f 4a 90 bb 42 25 3f bd d6 70 ae bd f4 53 f3 bd
       -0.0044033597 -0.04666639 -0.085176155 -0.11881247
0003e0 fe 56 50 be 94 a7 56 3e 2b 95 ee bd 56 d5 cd 3c
       -0.20345685 0.20962363 -0.11649545 0.02512614
0003f0 88 62 af bd a7 50 8c 3d 75 e6 5a 3e ba 80 2a 3e
       -0.08563715 0.06851321 0.21376975 0.16650668

cnn.3.bias f4 [16]
000000 dc 9c 5b be cb 3c 22 3e 65 09 73 3e dc b2 86 3d
       -0.21446556 0.15843503 0.23734052 0.065770835
000010 55 a1 2b 3e a3 56 7c 3e 8a d1 18 bd 82 cd 79 3d
       0.16760762 0.24642424 -0.037309207 0.060987003
000020 5c 78 a1 be e0 05 53 bd 20 00 3e 3e f4 58 00 3e
       -0.3153714 -0.051519275 0.18554735 0.12533933
000030 29 11 15 be 15 fe 58 be ec f0 2e be 52 0e 89 be
       -0.14557327 -0.21190675 -0.17084092 -0.26768738

cnn.6.weight f4 [32, 16, 2]
000000 7c ae 0b be 13 10 33 bd 27 2d f4 3d 55 cc f1 3c
       -0.1364078 -0.0437165 0.119226746 0.029516378
000010 35 af 09 be df 37 11 be f2 1a b4 3d 50 a6 06 be
       -0.13445742 -0.1418147 0.08794202 -0.1314938
000020 c9 4e b2 bc 0e ac ad 3d 80 8e a7 bd d9 e8 9d bc
       -0.021766083 0.084800825 -0.081814766 -0.01927607
000030 90 1b 7c bc fc 4d 2b bd e7 a4 b7 bd b8 67 21 be
       -0.015387431 -0.04182242 -0.089669995 -0.15762222
000040 91 72 12 be 06 19 c2 bd d7 d5 2e 3e b8 de ae bd
       -0.14301516 -0.09477429 0.17073761 -0.08538574
000050 9f 1e f3 bd 35 82 2f 3d ef 4e 47 3d 49 3c c6 3d
       -0.11871075 0.042848784 0.04865926 0.09679467
000060 c9 93 09 3e 39 91 c9 3d 4c 81 33 be 32 35 80 3c
       0.13435282 0.09842152 -0.17529792 0.015650366
000070 5a 4e db 3d a8 d8 85 bc 83 57 d5 bd ad 92 2c 3e
       0.10708304 -0.016338661 -0.10417082 0.16852827
000080 c2 3e 85 bd a7 df e7 bd 80 65 1a be 2c c4 d2 bd
       -0.06506111 -0.11321955 -0.15077782 -0.10291323
000090 51 6d a0 3d 04 46 20 3d a4 2f 0f 3d 65 48 09 be
       0.078333504 0.039129272 0.034957543 -0.13406523
0000a0 38 0d 29 be 8b 02 4c 3b ac 0e 25 3e 13 dd d0 3d
       -0.16508949 0.0031129445 0.16118878 0.101984166
0000b0 3e cd d2 bd 21 55 bb bc 90 77 0c be b2 c4 d7 bd
       -0.10293053 -0.022867741 -0.13717484 -0.105355635
0000c0 d9 e3 ae bc 23 db af 3e 6b f3 15 3e e8 31 26 be
       -0.02134888 0.34346876 0.14643638 -0.16229975
0000d0 7b 6a f1 3d 9b 9e 00 be a6 bd 5b 3d 10 52 4d 3e
       0.11787888 -0.12560503 0.05364766 0.20050836
0000e0 c7 23 8a 3b 02 c7 01 3e 7d af 04 be 54 22 24 bd
       0.004215691 0.12673572 -0.12957568 -0.0400718
0000f0 fe 28 d3 3d d0 c0 1d bd 4a 00 39 bd 48 c6 f2 bc
       0.10310553 -0.03851396 -0.04516629 -0.029635563
000100 0a bf fe 3d 9a 17 b2 3d f1 bf 86 3d 14 c1 de bd
       0.124387816 0.08695908 0.06579579 -0.108766705
000110 6f f1 12 be 94 a0 9c 3c 60 87 56 3d 55 28 a7 bd
       -0.14349912 0.019119538 0.052375197 -0.081619896
000120 60 98 4a bd 5f 82 f4 3d 29 b2 66 3c 38 a8 02 3c
       -0.049461722 0.11938929 0.014080563 0.007974677
000130 47 43 32 bd 38 eb 23 be ef 4d 29 be 6f da af bd
       -0.043521192 -0.16007698 -0.16533636 -0.08586585
000140 64 6c a9 bd c7 76 bd 3d 64 c9 52 bd 35 a3 8d bd
       -0.08272627 0.092511706 -0.051461592 -0.06915895
000150 4c 8f 2c 3e a8 c2 7b 3d 0f d3 f8 3d 54 b0 a5 bd
       0.16851538 0.061464936 0.12149631 -0.080902725
000160 d5 dc 8e bd ad 45 7f 3d f6 51 f0 bd f1 e0 e9 bd
       -0.06975714 0.062322307 -0.11734383 -0.11419857
000170 10 e4 0b bc 65 6b 84 bd bf c1 06 be e2 96 e5 3d
       -0.008538261 -0.064657964 -0.13159846 0.11210419
000180 52 99 13 3e 35 a3 c5 3c 90 4d 1b bc 74 a3 5a be
       0.14413956 0.024125675 -0.009478942 -0.21351415
000190 59 de 83 bd e6 56 38 3d 62 b6 aa 3d 78 12 b7 bc
       -0.06438894 0.045004748 0.08335568 -0.022347674
0001a0 0d 22 8f bd c6 bc c9 3d ec 29 10 be 9b d0 e4 3d
       -0.069889165 0.09850459 -0.14078492 0.11172601
0001b0 d2 8a 8c bd 9c 46 33 3b 66 58 1a bd 5d 5d 47 3c
       -0.068624154 0.002735532 -0.03768196 0.012168256
0001c0 ef ba a6 bd e2 24 84 3e 80 97 96 bb b9 4d 0d 3e
       -0.081411235 0.2580939 -0.004595697 0.1379918
0001d0 33 06 2e 3e e7 44 b1 bd c0 eb 0c be 46 21 2d 3e
       0.16994552 -0.0865572 -0.13761806 0.16907224
0001e0 30 ec 12 3e 7d 99 1a be ac bc 13 bb 1c 2b 24 be
       0.14347911 -0.15097614 -0.0022542877 -0.1603207
0001f0 a9 2e 14 be a4 d9 0b 3d 7c 25 2e 3d 0a b9 7e 3d
       -0.14470924 0.034143105 0.042516217 0.062188186
000200 fa e2 46 bd f0 9d 21 3e ee 3a bd 3c 51 97 1c be
       -0.048556305 0.15782905 0.023099389 -0.15292098
000210 85 fa 23 bc 88 e0 2d 3d 0c 91 7d 3d 98 fd ff bd
       -0.010008459 0.042450458 0.061905906 -0.12499541
000220 36 b0 87 3d 7c f5 b8 bd a6 6a 16 be c2 bf c5 bd
       0.066254064 -0.090311974 -0.1468912 -0.096557155
000230 a7 a1 2e 3e b0 d0 1a 3e 8d 2e 1d 3e 9a 93 c0 3d
       0.17053853 0.1511867 0.15349789 0.09403153
000240 24 d1 00 3e 5e 53 d1 3d 2a 34 c7 bd 1e e5 b4 3d
       0.12579781 0.10220979 -0.097267464 0.08832763
000250 07 ef bb bd 0c 47 f5 bd a3 32 72 bd 87 d8 74 3d
       -0.0917645 -0.11976442 -0.059130322 0.05977681
000260 dc 72 bc 3d dd 94 a7 bd be ad b9 bd 86 3f 25 3d
       0.09201595 -0.0818269 -0.09066342 0.040343784
000270 ca 65 d5 bd 9c b5 eb bd ca e8 b5 3d 0a a5 2c bc
       -0.10419805 -0.115092486 0.088822916 -0.010537395
000280 bb 2b 26 3e 37 f6 28 3e 71 a7 5f 3d 71 1e 7c 3c
       0.1622762 0.16500174 0.054603044 0.015388117
000290 34 bd 26 3d a2 5c 35 3b e0 a7 52 bc 80 3a 1f 3b
       0.040707782 0.0027673622 -0.012857407 0.0024296343
0002a0 b7 31 87 3d 76 4e 28 3e aa a8 3b bd 0a 0b 99 bd
       0.06601279 0.1643618 -0.045815147 -0.07472809
0002b0 53 00 30 bd 18 2c af bd b7 ba ef 3c 11 de fd 3d
       -0.04296906 -0.08553332 0.029263837 0.123958714
0002c0 53 e0 f7 3d 6d b8 39 3e c4 37 05 be d1 4e c2 bd
       0.12103333 0.18136759 -0.13009554 -0.09487689
0002d0 4b f5 1f bd 8f ec 06 bd 68 8d 1a 3c a6 bf 10 be
       -0.03905229 -0.032940444 0.009433128 -0.14135608
0002e0 7c 90 56 3d db 8d 1a be 22 4c e4 bd 5f f7 11 be
       0.052383885 -0.15093176 -0.11147334 -0.14254521
0002f0 c7 b9 1d 3e 17 6a 2b be 97 fa 06 3e 86 f3 5d 3c
       0.154029 -0.16739689 0.1318153 0.01354683
000300 15 3c a7 bc 66 b4 e2 3d 2e aa 84 bc 67 52 e3 3d
       -0.020414392 0.110695645 -0.01619443 0.110997014
000310 38 e1 02 3e ad 29 1d be 82 4e 8b 3d cc b0 08 3d
       0.12781227 -0.1534793 0.068020836 0.03337173
000320 64 af 1b 3d 14 6b d3 3c 1e 0f 46 3d f5 29 ae bd
       0.038009062 0.025807895 0.04835426 -0.085040964
000330 ab 44 b9 bc b5 fd 2b 3e d6 64 f3 3d 19 3d d7 bb
       -0.022615751 0.16796 0.11884467 -0.0065685627
000340 76 28 29 be bc 34 10 3c ec 89 f6 bd 11 34 13 3e
       -0.16519341 0.008801635 -0.12038025 0.1437533
000350 45 c9 db bd 39 19 51 bc 50 e3 1f bd 40 bf 01 3d
       -0.107317485 -0.012762361 -0.03903514 0.03167653
000360 15 ab 2a 3e 42 17 8c 3c 63 64 d2 3d 71 df 0c 3e
       0.16666825 0.017100934 0.102730535 0.13757111
000370 91 23 12 3e a8 0f 7a bd d8 f1 21 bd ea 7a ae 3d
       0.1427138 -0.061050087 -0.03953728 0.08519538
000380 cc 93 45 bd 9a 87 a9 3d 00 30 1e bd b7 8d f5 bd
       -0.048236653 0.08277817 -0.038619995 -0.119899206
000390 8c 5d 93 3d 38 07 de 3c 12 6a a1 3d 17 d7 33 3e
       0.07195577 0.027103052 0.078815594 0.17562519
0003a0 fe 2c f7 3d 59 9a 2b 3e c0 04 1b 3c 11 b7 1b be
       0.120691285 0.16758098 0.009461582 -0.15206553
0003b0 e0 fa fd bd 90 e3 e0 bd e3 85 1f be 92 78 b5 bd
       -0.12401366 -0.10980904 -0.15578417 -0.088608876
0003c0 fc a3 26 be de 02 27 be 7e 56 d8 bd 7a 74 32 be
       -0.16273493 -0.16309687 -0.10563372 -0.17427245
0003d0 4e 39 de bd 6a 0c 8a 3d cd fa 16 3e d6 62 57 bd
       -0.10850774 0.06740649 0.1474411 -0.05258449
0003e0 64 9e 52 bd ce 4f c1 3d 8d 9e b2 bd 05 2f ab bd
       -0.051420584 0.0943905 -0.087216474 -0.08358578
0003f0 0e 10 df 3d f2 b8 1d be a0 12 b1 3c c3 e8 1f 3e
       0.10891734 -0.15402582 0.021615326 0.15616135

cnn.6.bias f4 [32]
000000 e9 ee 82 3d 86 7a 19 bd 5f c7 f6 3d 3e 9e 0f bd
       0.06393225 -0.037470363 0.12049746 -0.03506302
000010 35 9d 0a be e0 3f cc 3d 9c 1c d1 3c dc 5f 4f bd
       -0.13536532 0.09973121 0.025526337 -0.050628528
000020 16 7a f4 bd bf 88 db ba e8 1a 34 be 8e 0c bd ba
       -0.119373485 -0.0016749128 -0.17588389 -0.0014423297
000030 45 81 b3 3d 4e ca 1e be 48 04 ed bd b4 23 02 be
       0.087648906 -0.1550686 -0.11573082 -0.12708932
000040 fa 17 ca 3d cf f1 13 3e 56 70 35 3c a6 dc 0a 3e
       0.098678544 0.14447711 0.011074146 0.13560733
000050 01 0b 72 bd d3 bc 2f be 01 2b 88 3d 94 9a 81 3d
       -0.059092525 -0.17161874 0.06648827 0.063283116
000060 ad 0a 0d 3e da c1 37 b8 8c cc e4 3d d1 59 7a 3d
       0.13773604 -4.381114e-05 0.11171827 0.06112081
000070 29 e4 04 3e 9d a1 33 be c1 92 1c 3e a5 05 28 be
       0.12977661 -0.1754212 0.15290357 -0.16408403

cnn_fc.weight f4 [128, 64]
000000 19 7f e5 3d 35 e7 a9 bb 0a ee e1 bd 24 32 12 3d
       0.112058826 -0.0051850327 -0.110317305 0.03569235
000010 d6 74 d6 bc a7 4c e5 bd b4 cb 3d bd ed 4e 66 3c
       -0.026178759 -0.11196261 -0.046336845 0.014056903
000020 d5 59 ca 3d a2 5f 16 bd 77 d6 9b 3d 71 24 8d 3c
       0.09880415 -0.036712296 0.07609265 0.01722929
000030 6b 6e 89 3b 0c c1 c3 3c 3a 01 a8 bd 68 c9 d4 bd
       0.004194071 0.023895763 -0.08203359 -0.10389978
000040 57 ec 1f bd 6b bf ec bd 39 42 69 bd 40 56 dc 3b
       -0.03904375 -0.115599476 -0.05694792 0.006724149
000050 bd dc a8 bd b8 57 54 bd a5 6c ac bc 24 9e 56 bc
       -0.082452275 -0.051841468 -0.0210479 -0.013099227
000060 1c 62 8d bd 12 c2 c3 3b a8 ba 8f bc 04 6e 12 3d
       -0.069034785 0.0059740627 -0.01754506 0.03574945
000070 80 01 b9 3b 64 ad 7f bd fc 45 30 bd 80 d6 bc ba
       0.0056459308 -0.062421218 -0.043035492 -0.0014407188
000080 9c a2 9e bd 70 c9 28 3c 94 b7 12 bc 78 28 46 3d
       -0.07745859 0.010301933 -0.008954901 0.048378438
000090 7b 58 f2 3c 10 96 bf 3d 4d 29 4f bb 60 0f bc bd
       0.029583206 0.09354794 -0.003161031 -0.0918262
0000a0 59 de 64 3d b7 03 ad bd 50 c0 8c bc 78 c9 25 bd
       0.05587611 -0.08447974 -0.017181545 -0.04047534
0000b0 d1 de 3f bd 96 69 40 bd 8e 38 eb 3d da 86 92 3d
       -0.046843354 -0.046975695 0.11485396 0.07154627
0000c0 92 d8 0c 3d ec 6b f1 3d 24 fe e7 bd 96 3d a5 3c
       0.034386225 0.117881626 -0.1132777 0.020170968
0000d0 de a3 a7 3d 64 e6 ad 3d cd db cb bd 49 73 38 3d
       0.08185552 0.08491209 -0.09954033 0.04503182
0000e0 26 2f 92 bd bd ab a0 bb a8 ad d5 bc 3c c0 d5 bd
       -0.07137899 -0.0049032853 -0.026083782 -0.104370564
0000f0 3f 63 f6 bd 29 e1 a9 bd ba 1a 6d 3d 1d bb 6d 3d
       -0.120306484 -0.08294899 0.057886817 0.058039773
000100 c9 ab de bd a8 4c 40 bd 75 46 16 3c dc 69 fa bd
       -0.10872609 -0.046948105 0.009172072 -0.12227222
000110 b0 1c 96 3d 08 e8 e0 3d 0c e8 e5 3c 56 62 e4 bd
       0.073296905 0.109817564 0.02806475 -0.111515686
000120 6b 29 0b 3d 2b a2 1e 3d b3 49 d3 3d 2f e1 8f bd
       0.033975046 0.038728874 0.103167914 -0.07025372
000130 12 8f e5 bd 39 8a 60 3d 80 00 ff 3b b8 d2 26 bd
       -0.11208929 0.05481932 0.007782042 -0.0407283
000140 b0 3f 51 bd 08 7f 93 bd e4 0d d2 3d 3a c7 12 bd
       -0.051086128 -0.07201964 0.10256556 -0.03583453
000150 9a f2 b6 3d 8b b4 e1 3d e5 82 9e 3c fd 6b 3a 3c
       0.08932991 0.11020764 0.019349525 0.0113782855
000160 14 51 0c bc 82 b8 af 3d b2 ad e6 bd 1c 9d 4b 3d
       -0.008564252 0.08580114 -0.112635985 0.049710378
000170 d0 d6 a6 bc 9c c9 69 3d 00 f3 11 ba 84 93 3d bd
       -0.020366102 0.057077035 -0.0005567521 -0.04628326
000180 8b 48 f3 bb a7 42 4c 3d 3f 1c b2 bd 17 36 a2 bd
       -0.0074244193 0.049868252 -0.08696794 -0.07920473
000190 51 5f e5 bc 0b b7 39 bd 6c 83 5c 3d 81 35 97 3d
       -0.027999552 -0.04534058 0.05383627 0.07383252
0001a0 8f 56 5b bc 1d 11 f2 3d 80 ec 55 bd 24 a8 8f bd
       -0.013387336 0.1181967 -0.052227497 -0.07014492
0001b0 8b 12 67 bd 44 3e a0 bd c0 7e b3 bd f3 27 e4 bd
       -0.05641417 -0.07824376 -0.0876441 -0.11140432
0001c0 40 a0 db bd d2 2b a6 3c 47 1f 9c 3d 2f 58 f0 3d
       -0.10723925 0.020284567 0.07623153 0.1173557
0001d0 6e 89 e1 3d d1 5c 56 bc 27 16 fa 3c b7 19 be bd
       0.11012541 -0.013083653 0.030528141 -0.092822485
0001e0 2c 65 44 3d 1a a8 f6 bd 1c 7f 71 3d 48 d1 bb 3c
       0.047948048 -0.120437816 0.05895911 0.022926942
0001f0 fc 10 21 3d a8 d8 3a 3d b8 6b 69 bd 28 16 d5 3d
       0.03932284 0.045616776 -0.056987494 0.104046166
000200 3d 5a 74 3d 42 2a a8 3d 0b 94 6b 3c 66 08 ab 3d
       0.05965637 0.08211185 0.014378558 0.08351211
000210 6d 82 aa 3d 54 86 6c 3d f8 12 bf 3d e2 e6 87 bc
       0.08325658 0.057745293 0.0932979 -0.016589586
000220 df a2 a5 3d c6 01 ff 3c 25 bd 96 3d 97 66 fb 3d
       0.08087706 0.031128775 0.07360295 0.12275427
000230 83 7a e7 3c f3 3b 3e bd a0 c4 4b bc 80 24 10 3d
       0.02825666 -0.04644389 -0.012437016 0.03519106
000240 c7 54 a8 3c 8b d2 01 bd c9 f8 c5 3d 67 8e a1 3d
       0.020548237 -0.03169493 0.09666593 0.07888489
000250 cc 87 9f bd c6 06 29 bc 41 9e 6d bc ac 1f 99 bd
       -0.07789573 -0.010316556 -0.014503063 -0.07476744
000260 ea 43 95 3c b1 39 1d bd b6 29 84 bd d0 a1 24 bd
       0.01822086 -0.038385097 -0.06453268 -0.04019338
000270 88 8d 36 bd 5c e6 f4 3d 8c 63 44 3d d8 ee fb 3d
       -0.04456857 0.11958 0.047946498 0.12301415
000280 4c 89 ff 3c 0f 9d 07 3d 05 6d 52 3d 84 c6 af 3c
       0.031193398 0.033108767 0.0513735 0.021456964
000290 c9 e6 c8 bd f2 62 97 bd da 56 03 bd 7f 07 a3 3b
       -0.09809644 -0.07391919 -0.03206525 0.004975259
0002a0 bc e0 40 3d 10 25 45 3d 96 16 cb 3d 60 75 d0 3c
       0.047089323 0.04813105 0.09916417 0.025446594
0002b0 7b ab 2c bd 33 99 c4 bd d1 84 bb bd 45 f0 98 bd
       -0.042155724 -0.09599533 -0.09156192 -0.07467703
0002c0 43 ad 19 3d e0 6a 94 3d 39 fa df 3d ac f3 21 bd
       0.03751875 0.07246947 0.10936398 -0.039539024
0002d0 c7 29 2d bc 95 10 0f bd 74 3c 87 bb d3 26 36 3d
       -0.0105690425 -0.034927923 -0.0041270796 0.04447062
0002e0 06 9a 22 bb 31 19 c7 3b 48 ba 81 3c 9c ad 3e 3d
       -0.0024811043 0.006076001 0.015835896 0.046552286
0002f0 8e cf 1e bd e3 d4 99 bd 41 c9 ef 3c b3 26 63 bc
       -0.03877216 -0.07511308 0.02927077 -0.013864207
000300 75 e9 67 bd 6c 0f 57 3d 9e 90 bc bb 27 c3 5e 3b
       -0.056619126 0.05250494 -0.0057545444 0.0033990832
000310 af c9 81 bd 7c 50 4f bc b8 29 e3 bd dd 8b 5a 3d
       -0.06337296 -0.012653466 -0.110919416 0.05335604
000320 fd a7 74 bb 13 60 af 3d 5b 64 af 39 86 4b 61 3c
       -0.0037331574 0.085632466 0.00033453372 0.013750916
000330 14 ce 0b 3d 78 f7 c2 3d 14 f3 71 bd 54 d5 98 3d
       0.03413208 0.09519857 -0.059069708 0.07462564
000340 c5 a2 ee 3c d3 98 97 bd 6f 7d 30 3d 46 77 58 bd
       0.029130349 -0.07402196 0.043088373 -0.052848123
000350 74 28 1c bd e9 e5 6c bd 3e e3 b5 bd 55 de f7 3d
       -0.038124517 -0.057836447 -0.08881234 0.12102953
000360 84 a4 e4 bd 68 2e 80 3d 2e 67 e6 bd 00 41 79 bc
       -0.11164191 0.06258851 -0.11250149 -0.015213251
000370 60 4b f4 3b 3c fe b5 3d 1c 4a 39 bd 20 5e 13 3d
       0.0074552745 0.08886382 -0.04523669 0.035978436
000380 79 50 59 3c 49 4b cd 3d d1 3a fc 3b a4 f7 40 3d
       0.013263815 0.10024125 0.007697441 0.04711117
000390 af a5 9a bd ae e5 b1 bd 8d 7e d8 3d 82 bd 99 bd
       -0.07551133 -0.08686386 0.10571013 -0.07506849
0003a0 3e 53 ae bc e1 8f 77 bc 5a 56 fa 3d e0 4c dd bc
       -0.021279927 -0.015109987 0.122235015 -0.027014196
0003b0 63 90 c4 bd 6c bc 29 bd d1 23 84 3d 03 14 4b 3d
       -0.09597852 -0.04143946 0.06452144 0.04957963
0003c0 13 d0 cc 3d c4 da 0a bc ec 2c 71 3d e8 e7 f0 bd
       0.100006245 -0.008475009 0.05888073 -0.117629826
0003d0 4d 43 2b 3d d2 86 83 3d 94 39 99 3d 90 e4 38 bd
       0.04181223 0.06422199 0.07481685 -0.04513985
0003e0 3f 16 06 bd e0 6b fd 3c d8 ea b5 bd a4 a4 cb bd
       -0.03273606 0.030935228 -0.088826835 -0.09943512
0003f0 95 0d f9 bd 8f f5 d4 3b d5 2a 9e 3d ec f0 18 3d
       -0.12160794 0.0064989994 0.07723013 0.037339136

cnn_fc.bias f4 [128]
000000 82 9f a1 bd 2a e3 96 3d dd 39 3d 3b d8 3b 61 bc
       -0.07891752 0.07367547 0.00288736 -0.013747178
000010 61 7c 10 bd 22 fb f6 bd 22 4c c4 bd cd 59 b1 3d
       -0.035274867 -0.120596185 -0.09584834 0.08659706
000020 c2 01 ad bc 94 ca 02 bc a2 0a 9c bd af b4 d1 bc
       -0.021119002 -0.007982869 -0.076192155 -0.025598852
000030 27 a4 59 bd 7c b4 ff 3b 29 49 e1 bd e2 c7 a7 3c
       -0.053135063 0.007803498 -0.11000282 0.020481054
000040 a9 fa eb bd de 21 a1 bd 9f 28 40 ba 02 e9 9a bc
       -0.11522419 -0.07867788 -0.0007330272 -0.018909935
000050 6d ff 22 bd c0 ed 98 3d 9a ba c9 3b e4 71 9f 3c
       -0.039794374 0.07467222 0.006156278 0.019463487
000060 ab e8 43 3d 84 71 de 3b b1 ba e8 bd 08 c6 5d bd
       0.04782931 0.0067884345 -0.113637336 -0.054143935
000070 ec 51 a4 3d 45 8b 8e 3d 1c 2b 51 3d d3 b7 e4 3d
       0.08023438 0.06960157 0.051066503 0.11167874
000080 85 a2 79 bd fe e8 0b bd 1c 88 10 bd 84 f4 be bc
       -0.060946006 -0.034157746 -0.035286054 -0.023309954
000090 34 4d de 3d 83 b9 f5 bd 2e 79 af 3c ad b4 05 3e
       0.10854569 -0.11998274 0.021420088 0.13057204
0000a0 7e ff a1 bd 30 ea a9 3d 6a 80 d1 bd fa 0e 86 3c
       -0.079100594 0.08296621 -0.10229571 0.016364563
0000b0 dd 79 90 bd ec ab 29 3d 27 96 17 3d 0d 7a a7 3c
       -0.070544936 0.041423723 0.03700843 0.02044394
0000c0 9f ec b7 bc 90 5e 16 bd 05 ab ef bd 5c 79 26 3c
       -0.022451697 -0.036711276 -0.11702541 0.01016077
0000d0 c0 92 02 3e 13 68 be bd 30 7d 43 bd d6 0e 3f 3c
       0.12751293 -0.09297194 -0.04772681 0.011661252
0000e0 82 a2 68 3d 67 d8 3f 3d e4 ce 9f 3d c7 b1 36 3c
       0.056795605 0.046837237 0.07803133 0.011150784
0000f0 60 13 eb bc 90 1f c2 bd 71 31 09 be fe 81 b6 bd
       -0.028695762 -0.09478676 -0.13397767 -0.08911513
000100 d3 82 57 3d 1f 63 d9 3d 63 48 f5 3d 30 00 b1 3d
       0.052614998 0.10614609 0.11976697 0.08642614
000110 d8 2b 32 3c ee c9 af 3d cd 1a 34 3d c2 94 a5 bd
       0.010874711 0.08583437 0.04397087 -0.08085014
000120 e5 29 0a bc 82 d8 03 be 1a 58 ce 3d 09 25 17 3d
       -0.00843284 -0.1287556 0.10075398 0.036900554
000130 56 5f f0 3d 3a aa 43 bc d9 a3 c5 3d 76 a1 55 3d
       0.11736934 -0.011942441 0.09650392 0.052155934
000140 e2 86 a1 bc cf 02 90 bb 8c 13 b1 3d 11 ed 6c bc
       -0.019717637 -0.004394866 0.086463064 -0.014460818
000150 6a 18 c6 3d 15 2a ce 3c 44 e9 43 bd 54 20 4a bd
       0.09672625 0.02516655 -0.04782988 -0.049347237
000160 52 cb 52 bd 90 36 a0 3d 7e 02 b0 3d ea 1c 55 bd
       -0.051463433 0.07822907 0.08594225 -0.052029528
000170 5a 33 e0 bd 21 06 a3 3d c3 f9 b9 bc 24 8d e3 bd
       -0.109472945 0.07960153 -0.022702103 -0.11110905
000180 83 15 fb 3c ec ba cc bb 93 e2 9c 3d 88 e7 02 3d
       0.030649906 -0.0062478688 0.07660403 0.031959087
000190 0c 35 95 bd 50 86 d1 bc 19 9c bd bd bb b7 7a 3d
       -0.072855085 -0.02557674 -0.09258289 0.061210375
0001a0 fb b2 47 3d 83 a9 89 3d 7f c1 ac bd 4c 60 92 bd
       0.048754673 0.06721785 -0.08435344 -0.071472734
0001b0 b6 53 a8 bd 3f 2e c8 bd 21 37 e8 bd 0c 0a c8 bd
       -0.082190916 -0.09774446 -0.1133864 -0.09767541
0001c0 60 f6 a7 3d a7 7d 22 bd 4b 88 b2 bc 76 9a dd 3c
       0.08201289 -0.039670613 -0.021793505 0.027051192
0001d0 e6 b4 17 3d 96 93 78 3d 02 96 ad bd 00 45 da 3d
       0.037037753 0.060687624 -0.08475877 0.10657692
0001e0 4f 2c c8 bb 27 7c 67 bd a7 6b 80 3d 5d 68 cb bd
       -0.0061087976 -0.056514885 0.06270533 -0.09932015
0001f0 90 ed 88 bd 23 25 67 3d f9 c9 48 3d 2c d3 69 bd
       -0.066859365 0.0564319 0.04902074 -0.057086155

gru.weight_ih_l0 f4 [96, 3]
000000 df 6e 91 bc 77 d3 04 bd 5c af 92 3d ef 52 f9 3c
       -0.017753063 -0.03242823 0.071623534 0.030435054
000010 e6 07 7a 3d 33 e2 15 3e 32 7e f7 bd 23 b8 0b be
       0.06104269 0.1463707 -0.12084617 -0.13644461
000020 3d 65 2b bd bd 03 a7 bd df 83 01 be 44 b9 27 3e
       -0.041844595 -0.0815501 -0.12647961 0.16379267
000030 86 95 15 3e 20 cf 13 3e 0c df e0 bd 3a 96 ac bc
       0.1460782 0.1443448 -0.10980043 -0.021067727
000040 3d 13 0d be 8b 72 82 bd 3b 41 17 3e 7a b5 b6 3c
       -0.1377687 -0.063695036 0.14770977 0.022303332
000050 7a 7f 7b 3d f2 90 35 be 2b 5b 95 3d 0a 2c f4 3d
       0.061400868 -0.17731073 0.072927795 0.11922462
000060 08 ec 8c bd b9 cb 08 3e 2c e3 a2 3d e5 ae 00 be
       -0.06880957 0.13358964 0.07953486 -0.12566717
000070 52 93 0a be 83 0e 05 3b d6 0c 2e be 2e b0 fb bd
       -0.1353276 0.002030284 -0.16997084 -0.12289463
000080 c7 1a 8d 3d 49 7b 65 bd 66 f8 c6 bb fb 6c 93 bd
       0.06889873 -0.056025777 -0.006072092 -0.07198521
000090 d8 ff e7 3d 47 66 13 3e 41 46 02 3e b9 55 20 be
       0.11328095 0.14394484 0.12722112 -0.156577
0000a0 32 ef 56 bd 8a cf ae 3d 22 71 d6 3d bf 49 22 bd
       -0.05247421 0.08535679 0.10470797 -0.03962111
0000b0 27 1f c6 3d 58 f2 91 bb c0 36 a0 3c 92 98 f3 3d
       0.096739106 -0.0044539385 0.019557357 0.11894335
0000c0 15 4b f7 3d 10 b8 ff bd 25 75 db bd 7e a7 7c 3d
       0.12074868 -0.12486279 -0.10715703 0.06168317
0000d0 59 3b d7 3d 4d e6 27 bd 86 80 1a 3e 01 6b d6 bc
       0.105093665 -0.040991116 0.1508809 -0.02617407
0000e0 22 db b5 bd 3c 77 99 bc 92 44 1b be c3 a7 61 3d
       -0.08879687 -0.018733613 -0.15162876 0.05509163
0000f0 cc 46 23 be e8 90 28 3e 90 17 09 be d9 3c ee 3d
       -0.15944976 0.16461527 -0.13387895 0.116326995
000100 90 06 07 be 6a 18 d5 bc 81 99 c7 bd b9 3c b9 3d
       -0.13186097 -0.026012618 -0.097460754 0.09044785
000110 f9 a6 d1 3d 06 d3 29 be 37 f6 1b be e8 fc ba 3c
       0.10236926 -0.16584405 -0.15230642 0.022825673
000120 be d7 d5 bb b6 1b d9 3b 13 3d 5a 3d ae 9d 0c bd
       -0.0065259626 0.006625618 0.0532809 -0.034330063
000130 80 d3 18 3e bf eb 4b 3c 60 c1 9f bd 47 56 81 3d
       0.14924431 0.012446343 -0.07800555 0.06315284
000140 5d dc 0b be 43 73 aa bd 87 1d 55 3d 9e e5 97 bd
       -0.1365828 -0.08322766 0.052030113 -0.07416843
000150 6c be 2c be 27 24 b6 3d 3e 4e 3b 3d e5 a9 52 3d
       -0.16869515 0.08893614 0.045728914 0.051431555
000160 3d 8c 7b 3d f0 29 32 be 64 2a 9f bd ee 62 b2 bd
       0.06141304 -0.1739881 -0.07771757 -0.087102756
000170 aa 79 2d 3e 69 3d 98 bd 73 b2 ed bd c2 6f 7e bd
       0.16940942 -0.07433588 -0.11606302 -0.0621183
000180 e2 94 b2 3b 71 3a 92 3d dc 2a 0b 3e 9b 3d 13 3e
       0.005449877 0.07140053 0.13590568 0.1437897
000190 51 4e a7 3c 34 01 25 3e 61 a2 cb 3d f4 e4 c6 3d
       0.020423086 0.1611374 0.09943081 0.09711638
0001a0 e7 68 1d be 69 69 65 bc be 41 27 bd 13 e6 29 be
       -0.15372048 -0.0140021825 -0.04083418 -0.16591673
0001b0 3a 62 9b bd e4 42 0d 3e 2d 70 82 3d 46 5e 22 3e
       -0.075870946 0.13795048 0.06369052 0.15856275
0001c0 07 f3 f5 3d 9d 54 85 bb 90 a6 1f 3e 81 af 19 3d
       0.120092444 -0.0040689246 0.15590882 0.03752089
0001d0 a9 b7 d4 bc 54 51 99 bd ea 24 ed 3d 4a 74 a5 3d
       -0.025966482 -0.07486215 0.115793064 0.08078821
0001e0 56 10 11 3e 4c 7a b7 bc 2d e3 29 be 31 ed ae 3a
       0.14166388 -0.022397183 -0.16590567 0.0013345835
0001f0 c7 d2 69 3c b7 20 ea bd 71 9f e6 3c 7a ec bb bc
       0.014271445 -0.11432021 0.0281522 -0.02293991
000200 27 be 1b 3e f1 1c ab 39 d7 2f b5 bd 02 78 10 3e
       0.15209256 0.00032637225 -0.08847015 0.1410828
000210 22 bc 8d 3b 28 14 d3 bc a6 01 ad 3d 4b 52 49 3e
       0.0043254057 -0.025766447 0.0844758 0.19660299
000220 f7 5a b9 3d 7b 35 8e 3a e9 e1 0e 3e 56 e8 a0 bd
       0.09050553 0.0010849679 0.13953365 -0.078568146
000230 9f f0 1f 3e 8e 0a dc bd 1c 9c 39 3b 28 f3 24 3e
       0.15619133 -0.10744201 0.0028321808 0.16108382
000240 ef bc 90 3d 93 18 14 bd ab 5b de 3d 2c f5 af 3d
       0.07067286 -0.03615625 0.10857328 0.08591685
000250 a3 e4 20 be dc 0a 86 bc 0b a9 14 be ab 5f 0c bd
       -0.15712218 -0.0163626 -0.1451761 -0.034270924
000260 44 5e b1 bc 1e e9 9a bd d9 9a 83 bd 1b 1d c5 3d
       -0.021651395 -0.07563995 -0.06426019 0.09624692
000270 e0 3e 5f bb 8a 37 35 be 82 c9 f8 3c 48 da 31 be
       -0.0034064576 -0.17696968 0.030369524 -0.17368424
000280 0e 2d fa bd 0c 15 dd 3d 29 34 f9 3d 6f 30 82 bd
       -0.12215625 0.1079503 0.12168152 -0.06356894
000290 21 df d5 bd b7 1c aa 3d 68 b9 32 be 57 89 db 3d
       -0.10442949 0.08306258 -0.1745354 0.10719555
0002a0 82 58 a7 3d 5e 75 79 3d 28 49 78 3d 72 70 12 3d
       0.081711784 0.060902946 0.060616642 0.035751767
0002b0 4e e7 09 be af b9 94 bd cc 64 cd 3d 73 46 14 3e
       -0.13467142 -0.07261979 0.10028991 0.14479999
0002c0 5c df 9b 3b 5d 8f 28 3d b7 ca 2a be 6e dc fc 3d
       0.004756851 0.041152347 -0.16678892 0.12346731
0002d0 ec f4 d5 bd a0 a9 c1 bd 6b db 32 3e 2e f1 70 bd
       -0.10447106 -0.094561815 0.17466514 -0.058823757
0002e0 6f 2c b5 bd bc 9c bf 3c f0 d7 dd 3d 60 7e 1d 3e
       -0.08846366 0.023390166 0.108322024 0.1538024
0002f0 3d b4 90 3c 6e dd f3 3d 73 b0 ff 3d a8 4f e8 bc
       0.01766407 0.11907469 0.12484827 -0.028358296
000300 da db 15 be ed 03 66 3c 64 6b 8c bd e7 76 aa 3c
       -0.14634648 0.014039022 -0.06856421 0.02080865
000310 06 2b 10 be f9 14 f7 bd 18 5b 19 be a5 f1 12 be
       -0.14078912 -0.12064547 -0.14976156 -0.14349993
000320 82 eb 0b 3e 34 a2 0b be 2f 49 31 3b 6d 9e f6 bd
       0.13664058 -0.13636094 0.0027051677 -0.12041936
000330 93 7c 54 bd 2f 15 8f bd 78 55 ab 3d 91 e5 f3 3d
       -0.051876616 -0.06986462 0.08365911 0.11909021
000340 3e cd 14 bd 49 81 b6 3b b5 6b 3c bc 5e ac 25 3e
       -0.036328547 0.005569611 -0.011500289 0.16179034
000350 83 f8 98 3d 67 b2 2d bd 21 b4 00 3e 8d 01 11 be
       0.07469275 -0.042406466 0.12568714 -0.14160748
000360 e4 f1 88 3d 0f 30 09 3e e5 76 c2 bd 71 44 77 3d
       0.06686762 0.13397239 -0.094953336 0.060368005
000370 25 7e 8c 3d a8 64 0e be 34 4a 9f 3d 19 02 00 3e
       0.06859998 -0.13905585 0.07777825 0.125008
000380 fb 78 ce 3c 50 8f 3e bd b1 22 82 bd 6e ad f8 bd
       0.025204172 -0.046523392 -0.06354273 -0.12142454
000390 54 95 b3 3d a4 13 0e be fa 9a 17 be 77 e5 a4 bd
       0.087687165 -0.1387468 -0.14805213 -0.080515794
0003a0 65 d1 35 be c5 b1 33 3e c5 7c 33 bd 32 18 bd bd
       -0.17755659 0.17548282 -0.04382016 -0.092331305
0003b0 24 75 31 3d 88 f8 99 3d 52 99 dd 3d 07 13 71 bd
       0.043324605 0.07518107 0.10820259 -0.058856037
0003c0 25 a1 af bc ed d1 04 be 3b 93 1d be 8c d6 ba bd
       -0.021439144 -0.12970705 -0.15388195 -0.09122953
0003d0 7d 3d 74 3c af 24 c1 bd a8 8d b5 bd fb 65 28 3d
       0.014907238 -0.09430825 -0.088649094 0.04111288
0003e0 60 22 22 3d de 8e c2 3d 05 96 96 3d 11 6b cf 3d
       0.039583564 0.09499906 0.07352833 0.10127843
0003f0 cd 05 39 bd 7d 82 d9 3d c1 6d 1e be 13 34 1d 3d
       -0.045171548 0.10620592 -0.15471555 0.03837974

gru.weight_hh_l0 f4 [96, 32]
000000 4a 8c b2 3c 7a 5a 88 3d f5 09 1a 3e 9c a1 e4 3c
       0.02179541 0.06657882 0.15042861 0.027909093
000010 33 4d ef 3d 67 4d cb bd 8d 12 15 3e 84 6e 00 bd
       0.116846465 -0.09926873 0.14557858 -0.031355396
000020 72 f7 c4 3d b0 63 16 be af 74 d9 bd 75 91 d4 bd
       0.09617509 -0.14686465 -0.10617959 -0.10379306
000030 5c d0 bf 3d f0 d9 ce bb 6b 25 26 be 37 dd 31 3e
       0.09365913 -0.0063126013 -0.16225211 0.17369543
000040 87 3a 3c 3d 69 48 26 3e 6c a5 b4 3c d5 62 cf 3c
       0.045954254 0.1623856 0.022051536 0.025315681
000050 dd 90 02 3e 17 d6 f5 bd 70 d4 2a 3e b5 9a e9 bd
       0.12750573 -0.12003725 0.16682601 -0.11406461
000060 68 a2 87 3c 84 e7 eb bd 6e 80 ef bd af 1b 0b 3e
       0.016556934 -0.115187675 -0.11694418 0.13584779
000070 00 3b 3d bd 99 f6 07 bd 1e d3 0c 3e 68 65 31 3e
       -0.046198845 -0.03319416 0.1375241 0.1732384
000080 e0 08 23 be d6 df 36 bb f6 e8 4d 3d f7 e8 2d 3e
       -0.15921354 -0.0027904413 0.050270997 0.169834
000090 76 e5 8f bd 0d 92 6a bd 2d ce d4 bd 1b b7 37 3d
       -0.07026188 -0.05726819 -0.103908874 0.044852357
0000a0 f2 95 32 3d 52 86 48 bb 75 97 96 bc c9 cd fb bd
       0.04360003 -0.003059764 -0.018382767 -0.1229511
0000b0 f2 10 94 bd b5 7e 89 bd b0 76 3f 3d 0f 41 9f 3d
       -0.072297946 -0.067136206 0.04674405 0.07776081
0000c0 84 9d a9 3d 1c 37 0a be 52 f7 5f bc f0 c0 0b bd
       0.08281997 -0.13497585 -0.013669806 -0.034119546
0000d0 18 53 34 3e 34 22 03 3e 99 f4 06 be df 93 c7 bd
       0.17609823 0.12806016 -0.13179244 -0.09745001
0000e0 d6 de 08 be 20 15 35 bd 12 13 1e be cc cb aa 3d
       -0.13366255 -0.0442096 -0.15436962 0.083396524
0000f0 b6 9a 9e bd 56 24 b5 bd a6 42 08 3c e9 90 67 bd
       -0.077443525 -0.08844821 0.0083166715 -0.05653468
000100 21 ae 08 3e dd 2c 24 3e 2d ae 21 be 44 25 a2 3d
       0.13347675 0.16032739 -0.15789099 0.07917264
000110 51 e0 6f 3b 1c 35 be 3d af db 87 bd 1a 31 5c bc
       0.003660221 0.092874736 -0.06633698 -0.013439441
000120 05 33 58 bb 90 51 78 3d 40 7c b4 3d b8 18 8d 3d
       -0.0032989394 0.06062466 0.08812761 0.0688948
000130 75 90 b2 3c 53 5e 10 be 7f f6 cf bd f9 30 ce bd
       0.021797398 -0.14098482 -0.10154437 -0.100679345
000140 22 62 34 be d0 54 2d 3e a0 0e a4 bd 04 93 f0 bd
       -0.1761556 0.16926885 -0.08010602 -0.11746791
000150 a9 0c a4 bd 71 c5 c4 3d 67 0a e3 bd 13 58 17 be
       -0.08010227 0.096079715 -0.110859685 -0.14779691
000160 9c 4b 07 be 87 f5 1e 3d c4 d7 e9 bb d2 54 23 be
       -0.13212436 0.038808372 -0.007136317 -0.15950325
000170 9f 60 f7 bd a9 eb 1c be ca 44 78 3d 73 bc a3 3d
       -0.12078976 -0.15324272 0.060612477 0.07994928
000180 79 37 f6 3c 07 17 67 bd de e6 c2 bd 39 d4 8e 3d
       0.030055748 -0.056418445 -0.09516691 0.06974072
000190 58 b7 26 bd e8 18 e6 bc 82 dd 6d bd 86 98 fb 3c
       -0.040702194 -0.028088048 -0.058072574 0.030712377
0001a0 ca cd 2a 3d a3 ca 14 3e cc c9 20 3e f7 65 3b bd
       0.041700162 0.14530425 0.1570198 -0.045751538
0001b0 ee a7 d9 3c 06 59 f2 bd a0 e5 07 be 57 50 16 3e
       0.026569333 -0.11833386 -0.13271189 0.14679085
0001c0 e0 59 aa 3c 1e 55 b4 bd f5 c5 b5 3d 03 18 92 3d
       0.020794809 -0.08805297 0.08875648 0.07133486
0001d0 6a a3 81 3d ad a3 99 3d 08 a0 18 3c 4b f6 03 be
       0.06329997 0.07501922 0.009315498 -0.12886922
0001e0 d4 a3 20 be 22 95 30 3e 85 35 fd 3d 33 52 0d be
       -0.15687495 0.1724439 0.12363724 -0.13800888
0001f0 ae 3b 0e 3e dd 66 29 be 32 2e f0 3d fc fe fb 3d
       0.13889953 -0.16543145 0.11727561 0.12304494
000200 31 92 e3 3d 20 56 99 3d 69 75 dc bd 48 35 9b bd
       0.11111868 0.0748713 -0.10764582 -0.07578522
000210 d1 54 1a 3d d7 15 8f 3d f5 c1 1e 3e 0e 2d 06 3c
       0.037678543 0.069865875 0.15503676 0.008189453
000220 8b e4 95 3d 35 90 08 be d8 14 12 bd 3f ef d6 3d
       0.07318982 -0.1333626 -0.03566441 0.10494851
000230 e3 b2 6e 3c 21 98 0e 3e 25 62 11 be c5 d9 f0 bd
       0.014569017 0.1392522 -0.14197595 -0.11760286
000240 ea 06 63 3d 6e d2 f3 bb 27 a4 1a be 1d 76 9a 3d
       0.055426516 -0.0074408567 -0.15101682 0.075420596
000250 2f 1d f8 3b b6 be 2e 3d 82 8e 1e 3d 44 d8 f9 bd
       0.0075718383 0.042662345 0.038710125 -0.121994525
000260 60 d1 f1 bd de f6 10 be 45 79 03 3e 75 19 c7 bd
       -0.11807513 -0.14156672 0.1283923 -0.097216524
000270 ae 04 23 3e 5d b4 67 bd db 7e 1e 3d 79 f7 2c 3e
       0.15919754 -0.056568492 0.038695198 0.16891278
000280 6f 3c c2 bd fd b3 2b be 20 5f d1 3c 40 90 02 be
       -0.09484183 -0.16767879 0.025558054 -0.1275034
000290 e1 91 c7 3d 45 e4 8f 3d ac 23 03 3e f6 91 96 bc
       0.09744621 0.07025961 0.12806576 -0.018380146
0002a0 95 a0 ec bd c5 d7 26 be 60 eb e9 bd ba 46 21 3e
       -0.11554066 -0.16293247 -0.11421847 0.15749636
0002b0 57 04 1b bd 67 dd 50 bb 05 89 19 bd c5 f6 b8 bd
       -0.037845936 -0.0031870247 -0.037484188 -0.090314426
0002c0 d2 38 14 3e 2a 87 3b bd a7 b3 af bd 1d 37 27 3e
       0.144748 -0.0457832 -0.08579188 0.16329618
0002d0 2a af d8 3d 22 f3 c0 3d ac c0 01 3e d4 de e5 bd
       0.10580285 0.09421374 0.12671155 -0.11224142
0002e0 03 91 6b 3d 5e 67 49 bd 20 0e cf 3b 74 9f aa 3d
       0.05751134 -0.049170844 0.0063188225 0.083311945
0002f0 47 71 70 bd 4c a6 31 3e a1 0f 71 3a 1f 9b d0 3d
       -0.05870178 0.17348593 0.00091957493 0.10185837
000300 6a 50 85 3c 94 86 2e be 61 52 d8 bd bf cd 16 be
       0.016273696 -0.17043525 -0.105625875 -0.14726923
000310 42 5a aa 3c ca 0a f3 bd 24 ed 0f be 67 27 1b 3d
       0.020794991 -0.11867292 -0.14055306 0.037879374
000320 ef 81 1e be c7 03 c5 bd 22 36 ea bd 2f d3 b0 3d
       -0.15479253 -0.09619861 -0.11436106 0.0863403
000330 ea e4 25 3e 0c 76 7d 3d a7 9a ca bd 97 f9 08 3e
       0.16200605 0.061880156 -0.09892779 0.13376461
000340 d2 07 28 3e 10 04 44 bd 74 96 05 3e d6 15 37 3d
       0.16409233 -0.047855437 0.13045675 0.04469856
000350 3b ea fb bd b6 41 3d bd a2 58 10 be cb b4 5a 3d
       -0.12300535 -0.046205245 -0.1409631 0.053395074
000360 6f 0e c8 3d 8a 01 32 be cd 14 94 bd e3 08 7d 3b
       0.09768378 -0.173834 -0.0723053 0.0038610033
000370 c4 df 10 3e 97 40 c5 bd e1 aa 28 bc 44 8b a3 bb
       0.1414786 -0.0963146 -0.010294647 -0.004990967
000380 1b d4 b5 bd 07 6d a2 bd f2 5f 41 bd fe da 57 bd
       -0.088783465 -0.079309516 -0.04721064 -0.05269908
000390 91 b4 68 bd 7e b8 89 3c 35 65 71 bc 89 2a b0 bd
       -0.056812827 0.016811606 -0.014733602 -0.08601863
0003a0 1a 28 db 3d a3 6d 01 3e b3 80 e3 bc 68 54 08 bd
       0.10701008 0.1263948 -0.02777133 -0.03328362
0003b0 df 89 30 be 6e 56 04 be 97 46 03 bc 40 78 0a bd
       -0.17240094 -0.12923595 -0.008012435 -0.033806086
0003c0 b5 f0 53 3d a1 ee b3 bd 79 90 15 bd 93 ca d7 3c
       0.051743228 -0.08785749 -0.036514733 0.026341712
0003d0 f9 b3 31 3e 76 5a 0e 3e 1a f5 ed bd 1e fe 6f bc
       0.1735381 0.13901696 -0.11619015 -0.014647989
0003e0 5d 90 ed bc 74 e4 b6 bb 4d a1 96 3d bb 87 91 bd
       -0.028999502 -0.005581433 0.073549844 -0.07105967
0003f0 3d d4 1a bd 00 33 33 be 78 81 80 bd 23 7a 31 be
       -0.037800062 -0.17499924 -0.06274694 -0.17331748
