result/PCA_CNN.pth (torch, 110082 bytes, 11 tensors)

cnn.0.weight f4 [8, 3, 2]
0	0x3e70a6da	0.23501149
1	0x3f433a16	0.7626051
2	0xbe0dc7aa	-0.13845697
3	0x3ea88d00	0.32920074
4	0xbe2229b0	-0.15836215
5	0x3dd053a3	0.101722024
6	0xbe587322	-0.2113767
7	0x3e89702b	0.2684339
8	0x3eac3f95	0.3364226
9	0xbea16ed1	-0.3152986
10	0x3ea11035	0.31457677
11	0x3d02bb45	0.031916875
12	0x3e867130	0.2625823
13	0x3c97fac0	0.018552184
14	0x3e4ad7f8	0.19808948
15	0xbd4ebf58	-0.05047545
16	0x3e9ee514	0.31034148
17	0x3d67f153	0.05662663
18	0xbe5d24dc	-0.21596092
19	0x3d9b1708	0.07572752
20	0xbe2611b1	-0.16217686
21	0xbcad3698	-0.021144196
22	0xbe26b270	-0.16279006
23	0x3e8c6f03	0.27428445
24	0xbea87d15	-0.3290793
25	0xbe4704c3	-0.1943541
26	0xbdd89001	-0.105743416
27	0xbe70e216	-0.23523745
28	0x3d35347c	0.044239506
29	0xbecbd1e0	-0.3980856
30	0x3ef8d97d	0.4860343
31	0xbead685f	-0.3386869
32	0x3e6f5162	0.23370889
33	0x3c27f273	0.0102506755
34	0xbdb30720	-0.08741593
35	0x3e8e3e46	0.27781886
36	0x3c50cac6	0.012743657
37	0x3ec4029c	0.3828324
38	0x3d11bf88	0.03558305
39	0xbe08d86d	-0.1336381
40	0x3d9a6303	0.07538416
41	0xbe012c6b	-0.126146
42	0x3dc18fde	0.094512686
43	0x3f0f4343	0.5596201
44	0x3e4eaa07	0.20182048
45	0xbe58850c	-0.21144503
46	0x3e542b92	0.20719746
47	0x3dc6d656	0.0970885

cnn.0.bias f4 [8]
0	0x3d02743b	0.031849127
1	0xbe7bb947	-0.24582396
2	0xbed24375	-0.4106709
3	0xbe2a7929	-0.16647781
4	0xbea2bf5e	-0.31786627
5	0x3ed606cc	0.4180206
6	0x3dc520a9	0.0962537
7	0x3d984c65	0.07436446

cnn.3.weight f4 [16, 8, 2]
0	0x3d83f811	0.06443799
1	0xbdafe5f7	-0.08588784
2	0x3e528c8a	0.20561424
3	0xbe3813b8	-0.17976272
4	0x3cbf16cc	0.0233263
5	0xbe2f6b29	-0.17130722
6	0x3d9de190	0.07709038
7	0xbdb052ba	-0.08609529
8	0x3d9ce298	0.07660407
9	0xbd555778	-0.05208537
10	0x3e53362b	0.20626132
11	0xbe09e0f7	-0.13464724
12	0xbe1ec29b	-0.15503924
13	0xbe3a4872	-0.18191698
14	0x3e6a5673	0.2288454
15	0x3d329b93	0.0436054
16	0x3ead2085	0.33813873
17	0xbe7de49e	-0.24794242
18	0xbe511d3c	-0.20421308
19	0xbe38316a	-0.179876
20	0xbe29439f	-0.16529702
21	0x3dc8ea5c	0.098103255
22	0x3db5dbe9	0.08879835
23	0x3e53f282	0.20697978
24	0xbe03ccf8	-0.12871158
25	0xbe2e1cf9	-0.1700324
26	0x3e160821	0.14651538
27	0xbce454e4	-0.02787251
28	0x3e41a012	0.18908718
29	0xbdbc2860	-0.091873884
30	0x3e5dc61a	0.21657601
31	0xbe678cc0	-0.22612286
32	0xbe010593	-0.12599783
33	0x3d9c70b4	0.07638684
34	0x3d587b38	0.052851886
35	0xbd8289f4	-0.06373969
36	0x3e189802	0.14901736
37	0x3e2e07fa	0.1699523
38	0xbe39a340	-0.18128681
39	0xbe08a933	-0.13345794
40	0x3e6a6f5a	0.2289404
41	0xbdacb9d5	-0.08433882
42	0xbdb5832c	-0.0886291
43	0xbe77b448	-0.24189866
44	0xbe1275f6	-0.14302811
45	0x3d80306e	0.06259237
46	0xbd06bf63	-0.032897364
47	0xbe39b701	-0.18136217
48	0x3bc02840	0.005864173
49	0xbe2ede6e	-0.17077038
50	0xbe593086	-0.21209916
51	0xbe0cf83a	-0.13766566
52	0xbe600de6	-0.21880302
53	0xbe230144	-0.15918452
54	0x3e7fe65e	0.24990222
55	0x3d416870	0.04721874
56	0x3d9dc71c	0.07703993
57	0xbe6ec466	-0.23317108
58	0xbe282254	-0.16419345
59	0xbdaa6c14	-0.083213955
60	0x3d201fc0	0.03909278
61	0xbe614286	-0.21998033
62	0xbddc9b64	-0.10771826
63	0xbe194258	-0.14966714
64	0x3a35847f	0.00069243455
65	0xbdbe8483	-0.09302618
66	0xbc8deaf0	-0.017323941
67	0xbe2d7924	-0.16940743
68	0xbe2fb798	-0.17159879
69	0xbe1559d2	-0.14585045
70	0xbdaf41ae	-0.08557449
71	0xbe4a0e5a	-0.19732037
72	0x3e56a5ed	0.20961733
73	0xbd4b3a44	-0.049616113
74	0x3e5c42f6	0.21509919
75	0x3d9f87b0	0.07789552
76	0xbe58c7db	-0.21169989
77	0x3e31290d	0.17300816
78	0xbd8cdff2	-0.06878652
79	0xbdc4437f	-0.09583186
80	0xbe548028	-0.20752013
81	0xbe7e81f8	-0.24854267
82	0x3d927d18	0.07152766
83	0xbd5fafc0	-0.054610968
84	0x3dc7555c	0.09733078
85	0xbe521700	-0.20516586
86	0x3e3e0f9a	0.18560639
87	0xbe3beb2d	-0.18351431
88	0xbd30d181	-0.04316855
89	0x3d55e1c6	0.052217267
90	0x3e042914	0.12906295
91	0x3e4eabe4	0.20182759
92	0x3e69338e	0.22773573
93	0xbe4afe02	-0.19823459
94	0x3d80d927	0.062914185
95	0xbddc3ae1	-0.10753418
96	0xbcf7a3ed	-0.030229533
97	0xbe428267	-0.18995057
98	0x3e68b2af	0.22724412
99	0xbe3c5826	-0.18393001
100	0x3e074f7c	0.13213915
101	0x3db0f75f	0.08640932
102	0x3da655c8	0.0812183
103	0xbe0a6ae0	-0.13517332
104	0x3e68b10c	0.22723788
105	0x3d610640	0.0549376
106	0x3d02a180	0.0318923
107	0xbe61d3ca	-0.22053447
108	0x3dd34646	0.10316138
109	0xbd20f72a	-0.039298214
110	0xbdf00b4e	-0.11720906
111	0x3e592b76	0.21207985
112	0x3db30080	0.0874033
113	0xbe0af042	-0.13568214
114	0xbe07e9d7	-0.13272797
115	0xbcccbece	-0.024993327
116	0x3dfa89ff	0.12233352
117	0xbdb940f0	-0.09045589
118	0xbe126c03	-0.14299016
119	0xbdafe556	-0.08588664
120	0xbe3f0913	-0.18655805
121	0x3db70200	0.08935928
122	0x3e4f4e23	0.2024465
123	0xbe622b99	-0.22086944
124	0x3d90069e	0.07032512
125	0x3dfe8394	0.1242744
126	0x3d5c8a74	0.053842977
127	0xbddedcf9	-0.10881991
128	0x3d41b321	0.04728997
129	0x3f082682	0.5318376
130	0x3d2cc1ae	0.042176895
131	0xbc56c3a7	-0.013108171
132	0xbc9108f9	-0.017704474
133	0x3de4ad01	0.111658104
134	0xbd29879c	-0.041389093
135	0xbd92e700	-0.07172966
136	0x3e22e68a	0.15908256
137	0x3e5b3579	0.21407117
138	0xbdb44a76	-0.08803265
139	0xbe9002fb	-0.28127274
140	0x3c097507	0.008389718
141	0x3e551806	0.20809945
142	0x3c9276d0	0.01787892
143	0x3eb8237c	0.35964572
144	0xbe688384	-0.22706419
145	0xbdbcf284	-0.09225944
146	0x3e5795cc	0.21053237
147	0x3dc773c0	0.097388744
148	0xbc4bb9a0	-0.012434393
149	0xbe1a5808	-0.15072644
150	0xbe1c9f42	-0.15295127
151	0xbe6550fa	-0.22394171
152	0xbda6e48c	-0.081490606
153	0x3dace790	0.084426045
154	0x3e233b2c	0.15940541
155	0x3dec6398	0.115424335
156	0xbe624a28	-0.22098601
157	0xbe19f2e4	-0.15034062
158	0xbd219ab0	-0.039454162
159	0x3e77a438	0.24183738
160	0x3d43a861	0.047768
161	0xbd52ae8c	-0.051435992
162	0x3dde5b9b	0.10857316
163	0xbdbef49a	-0.09323998
164	0xbe212a64	-0.15738827
165	0x3e41f63f	0.18941592
166	0xbde8ceac	-0.113675445
167	0xbd4d4728	-0.050116688
168	0xbe7eab7e	-0.24870107
169	0x3e2b5552	0.16731766
170	0x3e46ae19	0.1940235
171	0x3dcc64c0	0.09980154
172	0xbe30320d	-0.17206593
173	0xbe7b6442	-0.24549964
174	0xbe4748f0	-0.19461417
175	0x3e47a218	0.19495428
176	0x3db5cf9c	0.08877489
177	0x3ec27b67	0.37984774
178	0x3de223c8	0.11041981
179	0x3da19092	0.07888903
180	0x3c939bc7	0.018018616
181	0xbe29a67e	-0.16567418
182	0xbe5a7d64	-0.21336895
183	0xbe6e957e	-0.23299214
184	0x3dd11bff	0.10210418
185	0xbdfbe0cb	-0.12298735
186	0xbd76234f	-0.060092267
187	0xbe710c36	-0.23539814
188	0xbd2c3fbd	-0.042052973
189	0xbda7d263	-0.08194425
190	0xbe32e2cb	-0.17469327
191	0x3e52e4ca	0.20595089
192	0xbda31144	-0.079622775
193	0x3e2ee471	0.17079331
194	0xbdb3d1b4	-0.08780232
195	0xbe3f6385	-0.18690307
196	0xbd16830f	-0.03674608
197	0xbdde909c	-0.10867426
198	0xbd9bfdb9	-0.07616753
199	0xbe736879	-0.23770322
200	0x3e0f3ad3	0.13987283
201	0xbe323e07	-0.17406474
202	0x3df4349a	0.119240955
203	0x3dd07c4d	0.101799585
204	0x3e36ab9f	0.17838906
205	0xbe38047b	-0.17970459
206	0x3e339834	0.1753853
207	0xbdd3538c	-0.1031867
208	0x3d9decbc	0.07711169
209	0x3e916feb	0.284057
210	0xbd3307a3	-0.043708455
211	0x3a292fc9	0.0006453959
212	0xbd52a21a	-0.051424123
213	0xbe47b5e0	-0.19502974
214	0x3df6a73c	0.12043616
215	0xbe7da835	-0.24771197
216	0x3e1edb21	0.15513279
217	0x3e3f6c5b	0.18693678
218	0x3e65e6e2	0.22451356
219	0xbdb753c7	-0.08951526
220	0xbe518f6d	-0.20464869
221	0x3db19b31	0.086721785
222	0x3e055d6d	0.1302392
223	0xbe57bb90	-0.21067643
224	0xbd686e68	-0.056745917
225	0xbe1975ea	-0.14986387
226	0xbcb32030	-0.021865934
227	0xbdfc0368	-0.12305337
228	0xbdd149fc	-0.102191895
229	0xbda289f8	-0.07936472
230	0xbe734720	-0.23757601
231	0x3e520cc8	0.20512688
232	0x3e569ce0	0.2095828
233	0xbd20a248	-0.039217263
234	0xbce93b00	-0.028470516
235	0xbdd0f518	-0.10202998
236	0xbe672f20	-0.2257657
237	0xbe791ffe	-0.2432861
238	0x3dbe4a04	0.09291461
239	0xbe0c8e4a	-0.13726154
240	0xbe2597c3	-0.16171174
241	0xbca8c660	-0.020602405
242	0xbdaaca50	-0.08339369
243	0xbda5baca	-0.08092268
244	0x3c00e8d9	0.007868015
245	0xbd5a22d8	-0.053255886
246	0xbdb049b1	-0.086078055
247	0xbdf525e0	-0.11970115
248	0xbe5056fe	-0.20345685
249	0x3e56a868	0.2096268
250	0xbdcce6e8	-0.10004979
251	0x3d875b12	0.06609167
252	0xbdb2b514	-0.08725944
253	0x3ca228b3	0.019794798
254	0x3e6dd7fa	0.2322692
255	0x3dea2f3a	0.11434789

cnn.3.bias f4 [16]
0	0xbe6117a2	-0.21981671
1	0x3e44e648	0.1922847
2	0x3e732f2e	0.23748466
3	0x3d86b2dc	0.065770835
4	0x3e2ba0bf	0.16760539
5	0x3e7c61c9	0.24646677
6	0xbd1ffd55	-0.039059956
7	0x3dcbf426	0.09958677
8	0xbebbcb5a	-0.36678582
9	0xbd5305e0	-0.051519275
10	0x3e418fdd	0.18902536
11	0x3d906268	0.070500195
12	0xbe3ca6fd	-0.18423076
13	0xbe6b0aa3	-0.22953276
14	0xbe2ef0ec	-0.17084092
15	0xbe7cd894	-0.24691993

cnn.6.weight f4 [32, 16, 2]
0	0xbe0bae7c	-0.1364078
1	0xbd330fb4	-0.043716148
2	0x3df461d3	0.11932721
3	0x3cf297bc	0.029613368
4	0xbe09af32	-0.13445738
5	0xbe1137d2	-0.1418145
6	0x3db41af2	0.08794202
7	0xbe06a650	-0.1314938
8	0xbcb24ec3	-0.021766072
9	0x3dadac12	0.084800854
10	0xbda78e5f	-0.08181452
11	0xbc9de832	-0.019275758
12	0xbc7c1b90	-0.015387431
13	0xbd2b4dfc	-0.04182242
14	0xbdb78ef8	-0.08962816
15	0xbe215cbd	-0.15758033
16	0xbe123f4a	-0.14281955
17	0xbdc1b24a	-0.09457834
18	0x3e2ed5d7	0.17073761
19	0xbdaedeb8	-0.08538574
20	0xbdf31e8b	-0.1187106
21	0x3d2f82ed	0.04284947
22	0x3d47cead	0.048781086
23	0x3dc67c5d	0.09691689
24	0x3e099d58	0.13438928
25	0x3dc9a567	0.09846001
26	0xbe3374db	-0.17525046
27	0x3c80a4fe	0.015703674
28	0x3ddb4e5a	0.10708304
29	0xbc85d8a8	-0.016338661
30	0xbdd55783	-0.10417082
31	0x3e2c92ad	0.16852827
32	0xbd948960	-0.07252765
33	0xbdf5daa2	-0.120045915
34	0xbe1d293c	-0.15347761
35	0xbdac4b98	-0.08412856
36	0x3da06daf	0.078334205
37	0x3d204702	0.03913022
38	0x3d0f2fa4	0.034957543
39	0xbe094865	-0.13406523
40	0xbe290d39	-0.1650895
41	0x3b4c0240	0.003112927
42	0x3e250f43	0.16119103
43	0x3dd0de2a	0.101986244
44	0xbdd2ad05	-0.10286907
45	0xbcbb820a	-0.022889156
46	0xbe0df5fd	-0.13863368
47	0xbdcef035	-0.101044096
48	0xbb7a2cfb	-0.0038173783
49	0x3e9f1462	0.31070238
50	0x3e15f36b	0.14643638
51	0xbe2631e8	-0.16229975
52	0x3de9d67b	0.11417862
53	0xbe07401e	-0.13208053
54	0x3cf9689e	0.030445393
55	0x3e7e8261	0.24854423
56	0x3b8080c6	0.003921601
57	0x3e20e766	0.15713271
58	0xbe1d4f54	-0.15362293
59	0xbc681beb	-0.014166812
60	0x3dd328fe	0.10310553
61	0xbd1dc0d0	-0.03851396
62	0xbd1431dd	-0.036180366
63	0xbd96e450	-0.07367766
64	0x3df91136	0.12161486
65	0x3db10830	0.0864414
66	0x3d649d80	0.055814266
67	0xbdcd7dc5	-0.10033754
68	0xbe12f143	-0.14349847
69	0x3c9ca1b8	0.019120082
70	0x3d568760	0.052375197
71	0xbda72855	-0.081619896
72	0xbd4a985c	-0.049461707
73	0x3df4825e	0.11938928
74	0x3c66b78a	0.014081845
75	0x3c02acba	0.0079757515
76	0xbd324245	-0.04352023
77	0xbe23f194	-0.16010123
78	0xbe2a7f12	-0.16650036
79	0xbdadb617	-0.084819965
80	0xbdc1b8ff	-0.09459113
81	0x3d50660d	0.050878573
82	0xbd52c964	-0.051461592
83	0xbd8da335	-0.06915895
84	0x3e2ca724	0.16860634
85	0x3d7c9a29	0.061670456
86	0x3dfe08dc	0.124040335
87	0xbdb2bae0	-0.0872705
88	0xbd94b8aa	-0.072617844
89	0x3d841ffc	0.06451413
90	0xbdf2378c	-0.11827001
91	0xbded6a67	-0.1159256
92	0xbc0be410	-0.008538261
93	0xbd846b65	-0.064657964
94	0xbe07b3e5	-0.13252218
95	0x3dd6bef7	0.104856424
96	0x3e0efa52	0.13962677
97	0x3cc2f3ed	0.023797954
98	0xbc23abb3	-0.009989667
99	0xbe2d4975	-0.16922553
100	0xbd83de5e	-0.064388976
101	0x3d3856e9	0.04500476
102	0x3daab662	0.08335568
103	0xbcb71278	-0.022347674
104	0xbd8f220d	-0.069889165
105	0x3dc9bcc6	0.09850459
106	0xbe1029eb	-0.1407849
107	0x3de4d0a2	0.11172606
108	0xbd8c79c0	-0.068591595
109	0x3b30f44a	0.0027001076
110	0xbd1a4460	-0.037662864
111	0x3c95c7b1	0.018283697
112	0xbd24fa54	-0.040277794
113	0x3e447503	0.19185261
114	0xbb969780	-0.004595697
115	0x3e0d4db9	0.1379918
116	0x3e2cce44	0.16875559
117	0xbdb4ac52	-0.0882193
118	0xbe0469c1	-0.12930967
119	0x3e2e988f	0.17050384
120	0x3e1569a7	0.14591084
121	0xbe04e698	-0.1297859
122	0xbbc3847c	-0.005966721
123	0xbe1cf6f1	-0.15328576
124	0xbe142ea9	-0.14470924
125	0x3d0bd9a4	0.034143105
126	0x3d40a3c9	0.047031198
127	0x3d197e97	0.03747424
128	0xbd4408aa	-0.047859825
129	0x3e23f50e	0.1601145
130	0x3ce2f185	0.027703056
131	0xbdfc55e4	-0.1232107
132	0xbc23f8ab	-0.0100080175
133	0x3d2de239	0.04245207
134	0x3d7d910c	0.061905906
135	0xbdfffd98	-0.12499541
136	0x3d87b036	0.066254064
137	0xbdb8f57b	-0.09031197
138	0xbe166a91	-0.1468909
139	0xbdc5bf8b	-0.096556745
140	0x3e2e9482	0.17048839
141	0x3e1ac031	0.15112378
142	0x3e2218ec	0.1582982
143	0x3dcf8839	0.10133404
144	0x3e06b227	0.13153897
145	0x3caef97c	0.021359198
146	0xbdc7342a	-0.097267464
147	0x3db4e51e	0.08832763
148	0xbdbbe5ed	-0.09174714
149	0xbdf5a6cd	-0.11994705
150	0xbd76f6eb	-0.060294073
151	0x3d7454e7	0.05965128
152	0x3dbc03d5	0.091804184
153	0xbd8e19b8	-0.06938499
154	0xbdd10a43	-0.102070354
155	0x3d0e4faf	0.03474396
156	0xbdd565ca	-0.10419805
157	0xbdebb59c	-0.115092486
158	0x3dbcb6d6	0.09214561
159	0xbcf3451c	-0.02969604
160	0x3e260e83	0.16216473
161	0x3e2f7455	0.17134221
162	0x3d3c1726	0.045920514
163	0x3d4fbf07	0.050719287
164	0x3d26be23	0.040708672
165	0x3b356d1e	0.0027683447
166	0xbc52a7e0	-0.012857407
167	0x3b1f3a80	0.0024296343
168	0x3d8731b8	0.0660128
169	0x3e284e77	0.16436182
170	0xbd3ba6e4	-0.045813456
171	0xbd990a2d	-0.07472644
172	0xbd2f69d7	-0.042825546
173	0xbdaef2d1	-0.08542407
174	0x3d05e508	0.032689124
175	0x3e077bf6	0.13230881
176	0x3e101813	0.14071684
177	0x3dc5a37f	0.09650325
178	0xbe0537c4	-0.13009554
179	0xbdc24ed1	-0.09487689
180	0xbd1c1732	-0.03810806
181	0xbd01bd61	-0.031674746
182	0x3c9e2da7	0.019308878
183	0xbe1a680e	-0.15078756
184	0x3d56367d	0.052298058
185	0xbe0c6469	-0.13710178
186	0xbde2dc4b	-0.11077174
187	0xbe1547de	-0.14578196
188	0x3e1db9c7	0.154029
189	0xbe2b6a17	-0.16739689
190	0x3e088dd1	0.13335349
191	0xbbc2c4f8	-0.0059438907
192	0xbca919c6	-0.020642173
193	0x3de24d34	0.110498816
194	0xbc81c028	-0.015838698
195	0x3de423f1	0.11139668
196	0x3e02e12e	0.12781212
197	0xbe1d29b3	-0.15347938
198	0x3d8b4e82	0.068020836
199	0x3d08b0cc	0.03337173
200	0x3d1baf63	0.03800906
201	0x3cd36b10	0.025807887
202	0x3d460e6b	0.048353594
203	0xbdae2a52	-0.08504166
204	0xbcb94750	-0.022617012
205	0x3e2bfd77	0.16795908
206	0x3df353ea	0.1188124
207	0xbbd9815e	-0.006637736
208	0xbe29640c	-0.16542071
209	0x3c11522a	0.008869687
210	0xbdf689ec	-0.12038025
211	0x3e133411	0.1437533
212	0xbddbe94f	-0.107378595
213	0xbc4cbec2	-0.012496652
214	0xbd1ce431	-0.038303558
215	0x3d0540fb	0.032532673
216	0x3e2a5bb0	0.16636539
217	0x3c8a30c5	0.016868958
218	0x3dd23b07	0.10265165
219	0x3e0ce363	0.13758616
220	0x3e122391	0.1427138
221	0xbd7a0fa8	-0.061050087
222	0xbd21f1d8	-0.03953728
223	0x3dae7aea	0.08519538
224	0xbd4593cc	-0.048236653
225	0x3da9879a	0.08277817
226	0xbd1e3000	-0.038619995
227	0xbdf58db7	-0.119899206
228	0x3d935d8c	0.07195577
229	0x3cde0738	0.027103052
230	0x3da16a12	0.078815594
231	0x3e33d717	0.17562519
232	0x3df72cfe	0.120691285
233	0x3e2b9a59	0.16758098
234	0x3c1b04c0	0.009461582
235	0xbe1bb711	-0.15206553
236	0xbdfdfae0	-0.12401366
237	0xbde0e390	-0.10980904
238	0xbe1f85e3	-0.15578417
239	0xbdb57892	-0.088608876
240	0xbe26a3fc	-0.16273493
241	0xbe2702de	-0.16309687
242	0xbdd8567e	-0.10563372
243	0xbe32747a	-0.17427245
244	0xbdde394e	-0.10850774
245	0x3d8a0c6a	0.06740649
246	0x3e16facd	0.1474411
247	0xbd5762d6	-0.05258449
248	0xbd529e64	-0.051420584
249	0x3dc14fce	0.0943905
250	0xbdb29e8d	-0.087216474
251	0xbdab2f05	-0.08358578
252	0x3ddf100e	0.10891734
253	0xbe1db8f2	-0.15402582
254	0x3cb112a0	0.021615326
255	0x3e1fe8c3	0.15616135

cnn.6.bias f4 [32]
0	0x3d8400cc	0.064454645
1	0xbd850dde	-0.064967856
2	0x3df57d5e	0.119868025
3	0xbd075cd3	-0.03304751
4	0xbdf4967d	-0.11942766
5	0x3e05386f	0.13009809
6	0x3ccd4ff0	0.025062531
7	0xbd4f5fdc	-0.050628528
8	0xbdee9f67	-0.11651497
9	0xbcc9de4c	-0.024642132
10	0xbe54f842	-0.20797828
11	0x3bde5cb7	0.006785955
12	0x3dbe695b	0.09297439
13	0xbe1eca4e	-0.1550686
14	0xbded0448	-0.11573082
15	0xbe0223b4	-0.12708932
16	0x3d87db6b	0.066336475
17	0x3e1ac993	0.15115957
18	0x3c363cbd	0.01112288
19	0x3de9d339	0.11417241
20	0xbd7211eb	-0.05909912
21	0xbe2fbcd3	-0.17161874
22	0x3daafbc5	0.083488025
23	0x3dcb0d33	0.09914627
24	0x3e0d263e	0.1378412
25	0xb856a000	-5.1170588e-05
26	0x3e110e4c	0.1416561
27	0x3cd3f3b7	0.025873048
28	0x3e024ef6	0.12725434
29	0xbe32d9b5	-0.17465861
30	0x3df11e02	0.11773302
31	0xbe16bc92	-0.14720371

cnn_fc.weight f4 [128, 64]
0	0x3de57992	0.11204828
1	0xbbaa3edc	-0.0051954817
2	0xbddfcc30	-0.109276175
3	0x3c11fcd2	0.008910375
4	0xbcd2620e	-0.025681522
5	0xbde6738c	-0.112525076
6	0xbd3c0e18	-0.04591188
7	0xbb6ee12b	-0.0036450129
8	0x3dc76dac	0.09737715
9	0xbd34e528	-0.044163853
10	0x3d9d00b1	0.076661475
11	0x3ca2e753	0.019885695
12	0x3b8aaf30	0.0042323098
13	0x3cc3dd08	0.023909107
14	0xbda8013a	-0.08203359
15	0xbdd4c968	-0.10389978
16	0xbd20e088	-0.03927663
17	0xbdee8e19	-0.11648197
18	0xbd635a1b	-0.055505853
19	0xbc82d269	-0.015969472
20	0xbdaae0b6	-0.083436415
21	0xbd8b6134	-0.068056494
22	0xbcaf5d59	-0.021406816
23	0xbcdcdbc6	-0.026960265
24	0xbd899bda	-0.067191795
25	0x3bfc0d8b	0.007692044
26	0xbc8fbaa8	-0.01754506
27	0x3d126e04	0.03574945
28	0x3bb90180	0.0056459308
29	0xbd7fad64	-0.062421218
30	0xbd3045fc	-0.043035492
31	0xbabcd680	-0.0014407188
32	0xbd917ff7	-0.071044855
33	0xbc881f32	-0.016616438
34	0xbc13cc64	-0.0090208985
35	0x3d45558b	0.048177283
36	0x3cf25d0b	0.029585382
37	0x3dbf96e2	0.093549505
38	0xb9d4826d	-0.00040532966
39	0xbde67b38	-0.11253971
40	0x3d64de5c	0.05587612
41	0xbdad03b6	-0.084479734
42	0xbc8cc050	-0.017181545
43	0xbd25c978	-0.04047534
44	0xbd3bbeec	-0.045836374
45	0xbd127b86	-0.035762332
46	0x3dee119a	0.11624451
47	0x3d999e5b	0.07500907
48	0x3d169676	0.036764584
49	0x3dd8805b	0.10571357
50	0xbde7fe2a	-0.11327775
51	0x3ca53d88	0.020170942
52	0x3da9f43d	0.08298538
53	0x3db2256c	0.08698544
54	0xbdc8629d	-0.09784434
55	0x3c860918	0.016361758
56	0xbd91ff3a	-0.07128759
57	0xbba15450	-0.004923381
58	0xbcd575c2	-0.026057128
59	0xbdd62045	-0.10455374
60	0xbdec7921	-0.11546541
61	0xbdc65820	-0.09684777
62	0x3d614887	0.055000808
63	0x3d52cfe8	0.051467806
64	0xbddea07f	-0.10870456
65	0xbd403671	-0.04692692
66	0x3b1c4b27	0.0023848505
67	0xbda41221	-0.0801127
68	0x3d908f47	0.07058578
69	0x3de8348a	0.11338146
70	0x3cb2ad31	0.0218111
71	0xbd9c4235	-0.076298155
72	0x3cf31e13	0.029677426
73	0x3d54ef14	0.051985815
74	0x3dc65deb	0.09685882
75	0xbd911865	-0.07084731
76	0xbde56a74	-0.11201945
77	0x3d60f576	0.05492159
78	0x3bff0080	0.007782042
79	0xbd26d2b8	-0.0407283
80	0xbd568a06	-0.052377723
81	0xbd83ff5d	-0.06445191
82	0x3dcfe019	0.10150165
83	0x3b59fdb3	0.0033262789
84	0x3dbe3223	0.092869066
85	0x3e053199	0.13007201
86	0x3c8ab362	0.01693124
87	0x3d285900	0.041100502
88	0xbc315c63	-0.010825249
89	0x3dab6c90	0.08370316
90	0xbde6adb2	-0.112635985
91	0x3d4b9d1c	0.049710378
92	0xbca6d6d0	-0.020366102
93	0x3d69c99c	0.057077035
94	0xba11f300	-0.0005567521
95	0xbd3d9384	-0.04628326
96	0xbc8a077e	-0.016849276
97	0x3dc7b4cc	0.09751281
98	0xbdb1c33c	-0.08679816
99	0xbda17c22	-0.078850046
100	0xbce56567	-0.028002454
101	0xbd39b8fd	-0.045342434
102	0x3d418033	0.0472414
103	0x3dd96fa5	0.10616998
104	0xbc5b567f	-0.0133873215
105	0x3df21120	0.118196726
106	0xbd55ec80	-0.052227497
107	0xbd8fa824	-0.07014492
108	0xbd6c9d88	-0.05776742
109	0xbdc82e99	-0.09774513
110	0xbdb6c942	-0.08925106
111	0xbdec8722	-0.11549212
112	0xbde677a1	-0.11253286
113	0x3d377be5	0.04479589
114	0x3d9c1f64	0.07623175
115	0x3df0584c	0.11735591
116	0x3dd58b1a	0.10426922
117	0xbc2d7a90	-0.010588303
118	0x3ccc9603	0.024973875
119	0xbd3414ae	-0.043965034
120	0x3d461f65	0.048369784
121	0xbdf56da1	-0.11983801
122	0x3d715dcb	0.05892734
123	0x3cbd38bf	0.023098348
124	0x3d11904c	0.035538003
125	0x3d7d2427	0.061802056
126	0xbd61f465	-0.055164713
127	0x3de85aec	0.11345467
128	0x3d7451d3	0.059648346
129	0x3da825f3	0.08210363
130	0x3c77acb8	0.015116863
131	0x3dc19992	0.09453119
132	0x3dabe698	0.08393592
133	0x3d6753fe	0.056476586
134	0x3dbf5a47	0.09343391
135	0xbc517cc9	-0.012786099
136	0x3da849cb	0.082172
137	0x3d06356d	0.032765795
138	0x3d94f770	0.072737575
139	0x3df05793	0.117354535
140	0x3ce766b1	0.02824721
141	0xbd3e2cff	-0.04642963
142	0xbc4bc4a0	-0.012437016
143	0x3d102480	0.03519106
144	0x3caca7c2	0.021076087
145	0xbd0bdcf6	-0.03414627
146	0x3dc7fbbc	0.097648114
147	0x3db8b1d2	0.090182915
148	0xbd9b9726	-0.07597189
149	0x3af5c8a1	0.0018751809
150	0xbc5004ee	-0.012696488
151	0xbd918980	-0.07106304
152	0x3c869eb2	0.016433094
153	0xbd241016	-0.040054403
154	0xbd8429b6	-0.06453268
155	0xbd24a1d0	-0.04019338
156	0xbd368d88	-0.04456857
157	0x3df4e65c	0.11958
158	0x3d44638c	0.047946498
159	0x3dfbeed8	0.12301415
160	0x3cf71e27	0.030165745
161	0x3d384b91	0.04499394
162	0x3d510d12	0.051037855
163	0x3cadc39d	0.02121144
164	0xbdc8e7c5	-0.098098315
165	0xbd9763e2	-0.07392098
166	0xbd0a82fb	-0.03381632
167	0x3c5603a5	0.013062392
168	0x3d40e0b8	0.04708931
169	0x3d45250c	0.048131034
170	0x3dcb1696	0.09916417
171	0x3cd07560	0.025446594
172	0xbd329e69	-0.043608103
173	0xbdd115ec	-0.102092594
174	0xbdbdb46d	-0.09262929
175	0xbd9f000b	-0.0776368
176	0x3d100268	0.035158545
177	0x3d96f510	0.07370961
178	0x3ddffa46	0.10936408
179	0xbd21f39c	-0.039538965
180	0xbc3c5eb2	-0.0114971865
181	0xbd234002	-0.039855964
182	0xbb593238	-0.0033141505
183	0x3d66d94b	0.05635957
184	0xbb3b9add	-0.0028626241
185	0x3bb90b37	0.005647089
186	0x3c817947	0.0158049
187	0x3d3f2345	0.046664495
188	0xbd282d4b	-0.04105882
189	0xbd85edbe	-0.06539486
190	0x3cfd8892	0.03094891
191	0xbc34b53b	-0.011029537
192	0xbd67edcf	-0.056623276
193	0x3d570aaf	0.052500423
194	0x3b1a3b0b	0.0023533728
195	0xbcbd4f39	-0.023109065
196	0xbd777a3c	-0.060419306
197	0xbc860bd6	-0.016363066
198	0xbdd580fe	-0.10424994
199	0x3ccbfe4d	0.024901533
200	0x3aedf95c	0.001815598
201	0x3d98079b	0.07423326
202	0x3bf83636	0.007574822
203	0x3c35fd87	0.011107809
204	0x3d0ba117	0.034089174
205	0x3dc2d7a6	0.09513788
206	0xbd71f314	-0.059069708
207	0x3d98d554	0.07462564
208	0x3cfa6e99	0.030570315
209	0xbdaac820	-0.08338952
210	0x3d305996	0.043054186
211	0xbda4d29b	-0.08047982
212	0xbd228701	-0.03967953
213	0xbd839ffe	-0.064270005
214	0xbdae88f4	-0.085222155
215	0x3dc53035	0.096283354
216	0xbde299fd	-0.11064527
217	0x3d821289	0.063511916
218	0xbde6672e	-0.11250149
219	0xbc794100	-0.015213251
220	0x3bf44b60	0.0074552745
221	0x3db5fe3c	0.08886382
222	0xbd394a1c	-0.04523669
223	0x3d135e20	0.035978436
224	0x3caaac6d	0.020834172
225	0x3d8bcee2	0.06826569
226	0x3bf9ee73	0.0076273023
227	0x3d403697	0.04692706
228	0xbd9aa502	-0.07551004
229	0xbdb1e545	-0.08686308
230	0x3de603ae	0.112311706
231	0xbdc2050a	-0.094736174
232	0xbcae5350	-0.02127996
233	0xbc779000	-0.015110016
234	0x3dfa565a	0.122235015
235	0xbcdd4ce0	-0.027014196
236	0xbdc4acd1	-0.096032746
237	0xbceaedf5	-0.02867792
238	0x3d84fe4c	0.06493816
239	0x3d519ab9	0.051172946
240	0x3dd5a370	0.10431564
241	0xbce3221e	-0.02772623
242	0x3d712ce0	0.058880687
243	0xbdf0e800	-0.117630005
244	0x3d4233e4	0.047412768
245	0x3d6b7b87	0.05749085
246	0x3daa361a	0.083111
247	0xbd9bbb93	-0.07604136
248	0xbd088e96	-0.033339106
249	0x3cf8103e	0.030281182
250	0xbdb5e568	-0.088816464
251	0xbdcbc007	-0.09948736
252	0xbdf4175f	-0.1191852
253	0x3b525b20	0.0032097772
254	0x3d9d1e11	0.0767175
255	0x3cfb370e	0.0306659

cnn_fc.bias f4 [128]
0	0xbd87149f	-0.0659573
1	0x3d67f734	0.056632236
2	0xbc0918fa	-0.008367771
3	0x39a8ec19	0.00032219363
4	0xbcd544e3	-0.026033824
5	0xbdfa1481	-0.12210942
6	0xbdc1e118	-0.09466761
7	0x3d9f4328	0.07776481
8	0xbcc65526	-0.024210524
9	0xbbd1a2c5	-0.0063975775
10	0xbdafef24	-0.08590534
11	0xbd02078a	-0.03174547
12	0xbd67d059	-0.05659518
13	0x3c26f638	0.010190539
14	0xbdc36bf8	-0.09542078
15	0x3c906e7f	0.017630814
16	0xbdfc91f0	-0.12332523
17	0xbd989cc2	-0.07451774
18	0x3bef02d2	0.0072940374
19	0xbcd44956	-0.025913876
20	0xbd2399fe	-0.03994178
21	0x3d60232f	0.054721054
22	0x3c9a8b47	0.01886524
23	0x3c50906d	0.012729746
24	0x3d32e631	0.04367656
25	0x3c9176ef	0.017756907
26	0xbddc93af	-0.10770356
27	0xbd1ca95d	-0.038247455
28	0x3da0e447	0.078560404
29	0x3da3e645	0.08002905
30	0x3d779f00	0.06045437
31	0x3df6a088	0.12042338
32	0xbd817352	-0.06320824
33	0xbcb0eafa	-0.02159642
34	0xbcde34ff	-0.02712488
35	0xbc9116fa	-0.017711151
36	0x3de7c8da	0.11317606
37	0xbdea1db4	-0.11431447
38	0x3d10c658	0.035345405
39	0x3df792fe	0.120885834
40	0xbd9b58af	-0.075852744
41	0x3d9b728d	0.07590208
42	0xbdd684b1	-0.104745276
43	0x3c73261d	0.01484063
44	0xbd832abb	-0.064046346
45	0x3d29f669	0.04149476
46	0x3cfe5cef	0.031050174
47	0x3ceba251	0.028763922
48	0xbd1878fd	-0.03722476
49	0xbd309362	-0.043109305
50	0xbdf74286	-0.12073235
51	0x3bb32e98	0.005468201
52	0x3e03f692	0.12887028
53	0xbdec5243	-0.11539128
54	0xbd425fc6	-0.047454618
55	0x3c80fa2a	0.015744288
56	0x3d847d91	0.064692624
57	0x3d41af6e	0.047286443
58	0x3d9a352b	0.07529672
59	0x3cb8f66a	0.022578437
60	0xbd01e000	-0.031707764
61	0xbdceb187	-0.100924544
62	0xbe0feb7c	-0.14054674
63	0xbdc619a9	-0.09672863
64	0x3d2be936	0.041970454
65	0x3dc18e0a	0.0945092
66	0x3ddbb2f8	0.10727495
67	0x3dc0b2d4	0.09409109
68	0x3c9eb714	0.019374408
69	0x3dac4d73	0.0841321
70	0x3d0f0337	0.034915175
71	0xbda6c845	-0.08143667
72	0xba2642e5	-0.00063423655
73	0xbe032d4e	-0.12810251
74	0x3db2083e	0.08692978
75	0x3ca114df	0.019663272
76	0x3ddcaf8a	0.10775669
77	0xbcbcf1c1	-0.023064496
78	0x3dd42925	0.1035941
79	0x3d4157b4	0.04720278
80	0xbce535ea	-0.02797981
81	0xbc592f3c	-0.01325589
82	0x3db498ff	0.08818244
83	0xbc32d2b5	-0.010914494
84	0x3dc51c35	0.09624521
85	0x3cb8e920	0.0225721
86	0xbd14c7da	-0.036323406
87	0xbd731468	-0.059345633
88	0xbd654eec	-0.05598347
89	0x3d8d24ca	0.068917826
90	0x3db7c820	0.08973718
91	0xbd5d8fe7	-0.054092314
92	0xbdee65ec	-0.11640534
93	0x3dc31d37	0.09527057
94	0xbcf5cfcb	-0.03000631
95	0xbded4ba5	-0.11586694
96	0x3d0dc627	0.0346128
97	0xbb88469b	-0.0041588075
98	0x3d9bbaf4	0.07604018
99	0x3cd95cc0	0.026533484
100	0xbda3f047	-0.08004814
101	0xbc905613	-0.017619168
102	0xbda4a12c	-0.080385536
103	0x3d7c396e	0.061578207
104	0x3d049465	0.032368083
105	0x3d5fa8b8	0.054604262
106	0xbd9af8b6	-0.07566969
107	0xbd9e9af1	-0.077443965
108	0xbdb5bdab	-0.08874067
109	0xbdd48734	-0.103773504
110	0xbdc4ea05	-0.09614948
111	0xbdc0ec89	-0.094201155
112	0x3da2d922	0.07951571
113	0xbd1c534c	-0.038165376
114	0xbc55f2a7	-0.013058341
115	0x3d0e8b63	0.0348009
116	0x3cc84401	0.02444649
117	0x3d82c7c5	0.06385759
118	0xbd8ca48c	-0.06867322
119	0x3dbb0774	0.09132281
120	0x3b9fb881	0.0048742895
121	0xbd801361	-0.06253696
122	0x3d55458c	0.05206828
123	0xbdbebf87	-0.09313875
124	0xbd65bc58	-0.05608782
125	0x3d56d90b	0.052453082
126	0x3d17f2cf	0.037096795
127	0xbd219ab3	-0.039454173

fc1.weight f4 [128, 128]
0	0xbbe77660	-0.007063672
1	0xbc843cd4	-0.016142286
2	0x3d1337a8	0.03594175
3	0x3c9144e8	0.017733052
4	0x3d04ac9e	0.032391183
5	0x3d958577	0.07300847
6	0xbd78ff50	-0.06079036
7	0xbd8b3f38	-0.067991674
8	0xbcabc7a8	-0.020969227
9	0xbd24dcba	-0.040249564
10	0xbd80bbe8	-0.0628584
11	0x3da7ff29	0.08202965
12	0x3d973983	0.07384016
13	0x3d9229a7	0.07136851
14	0xbd5efb4b	-0.05443887
15	0xbc2b3e18	-0.010451816
16	0xbd8cd89e	-0.06877254
17	0xbd028989	-0.031869445
18	0x3d96d8f7	0.073656015
19	0x3c358e90	0.011081353
20	0x3cfb306c	0.030662738
21	0xbdb3f204	-0.08786395
22	0x3d1527c4	0.036414877
23	0x3d741bee	0.05959695
24	0xbd0b05f4	-0.033941224
25	0x3d898ee7	0.067167096
26	0x3d231062	0.039810546
27	0xbd842c72	-0.0645379
28	0xbd87b22e	-0.06625782
29	0x3aa2a5c0	0.0012409016
30	0xbdae993f	-0.08525323
31	0xbd7d01ff	-0.06176948
32	0x3d0d9b9c	0.03457223
33	0xbcee3cbc	-0.029081695
34	0xbb4d4200	-0.0031319857
35	0xbd13ec2d	-0.036113907
36	0x3d6a52aa	0.05720774
37	0x3d94a547	0.07258087
38	0x3d829ed1	0.06377948
39	0xbda0f9a7	-0.078601174
40	0xbcd611fe	-0.026131626
41	0x3d2f5866	0.042808913
42	0x3d562106	0.052277587
43	0xbca24854	-0.01980988
44	0x3d463d82	0.048398502
45	0xbb2b4320	-0.002613254
46	0x3c20db08	0.009817846
47	0x3d73f042	0.0595553
48	0x3d77aaa2	0.060465463
49	0xbd7f968c	-0.062399432
50	0xbd5bcc49	-0.05366162
51	0x3d0040ba	0.031311728
52	0x3d599732	0.053122707
53	0xbca89874	-0.020580508
54	0x3da08711	0.07838262
55	0xbc26d410	-0.010182396
56	0xbd379881	-0.044823173
57	0xbc13d190	-0.009022132
58	0xbd9a1285	-0.075230636
59	0x3ce05880	0.02738595
60	0xbda66cae	-0.08126198
61	0x3da7f82f	0.08201634
62	0xbd895a4b	-0.06706675
63	0x3d6babbe	0.057536833
64	0xbd87c7c3	-0.066298984
65	0xbc530d48	-0.012881584
66	0xbd48801b	-0.048950296
67	0x3d38ff52	0.045165367
68	0x3d51fa6a	0.051264204
69	0xbda945d8	-0.08265275
70	0xbd9b6779	-0.07588095
71	0x3c3ea448	0.011635847
72	0xbaf93a00	-0.0019014478
73	0x3a065900	0.00051249564
74	0x3cdc2020	0.026870787
75	0xbc8f1aa8	-0.017468765
76	0x3d98c1a7	0.07458811
77	0x3bce03c0	0.006287068
78	0xbd26c921	-0.040719155
79	0x3cfb3ef8	0.030669674
80	0xbd8c726a	-0.0685776
81	0xbd2d252d	-0.04227178
82	0x3cd31bb0	0.025770038
83	0xbd17e3ef	-0.03708261
84	0xbdacd158	-0.08438367
85	0x3d3532a6	0.044237755
86	0x3cba5c0c	0.02274897
87	0x3cd2bf58	0.025726005
88	0x3cfbad9c	0.030722432
89	0xbdb29ffe	-0.08721922
90	0xbd1db94f	-0.038506802
91	0xbd2fddd7	-0.042936172
92	0x3dad360b	0.084575735
93	0xbd1886e4	-0.037238017
94	0xbd6dd7dc	-0.058067188
95	0xbcfe223e	-0.031022187
96	0x3c0b2540	0.008492768
97	0x3d11e66e	0.035620145
98	0x3d854f0d	0.06509218
99	0x3d82ae9b	0.063809596
100	0x3c14b950	0.009077385
101	0x3da4e8e1	0.080522306
102	0x3d407e5a	0.0469955
103	0x3d412a22	0.04715932
104	0xbd9b398b	-0.07579335
105	0x3bec9f00	0.0072211027
106	0xbc99c924	-0.01877267
107	0xbdac07c1	-0.083999164
108	0xbd32cb36	-0.04365083
109	0x3d89bbaf	0.06725251
110	0x3d04c43a	0.0324137
111	0x3da74ba7	0.081687264
112	0x3d76daf2	0.060267396
113	0xba314080	-0.00067616254
114	0x3da2b169	0.079439946
115	0x3c98b9b8	0.018643245
116	0xbc54b828	-0.012983359
117	0xbd1ad106	-0.037796997
118	0x3d695a0e	0.05697065
119	0x3d224e66	0.039625548
120	0x3d7b5ebe	0.06136965
121	0xbc7b9290	-0.015354767
122	0xbda788c3	-0.08180382
123	0x3c834df0	0.016028374
124	0x3c1e7a38	0.009672694
125	0xbd6ba804	-0.05753328
126	0x3caf8c44	0.021429189
127	0xbc2f4438	-0.010697417
128	0x3d9ee70c	0.077589124
129	0x3b1285a9	0.00223575
130	0xbd3806f9	-0.044928525
131	0x3d902309	0.070379324
132	0x3b4e2106	0.003145279
133	0xbc719186	-0.014744168
134	0x3d3529ef	0.044229444
135	0x3dac52c6	0.08414225
136	0x3d24d507	0.04024222
137	0x3b16d1ea	0.0023013302
138	0x3d92f8a5	0.071763314
139	0xbd2571fb	-0.040391903
140	0x3d9e02e5	0.07715396
141	0xbd4f4b55	-0.05060895
142	0x3b84e84a	0.0040560113
143	0x3da727ff	0.081619255
144	0x3d0c61a5	0.03427281
145	0xbc841f72	-0.016128276
146	0x3d60b68f	0.0548616
147	0x3d54a331	0.051913444
148	0xbda29da2	-0.07940222
149	0xbc3cb19e	-0.011516957
150	0xbd8db701	-0.06919671
151	0xbc9d5c6a	-0.019209106
152	0xbc33cf08	-0.010974653
153	0xbd106041	-0.035248045
154	0xbd034bfd	-0.03205489
155	0x3d46088e	0.048348002
156	0xbb8dc34d	-0.00432626
157	0xbdb29d25	-0.08721379
158	0x3c877763	0.01653642
159	0xbdb0e0d9	-0.08636636
160	0xbd7bcde3	-0.061475646
161	0x3d651460	0.055927634
162	0x3d88fc74	0.066887766
163	0xbcef9d8f	-0.029249934
164	0xbd5b94fa	-0.053608872
165	0x3d275a08	0.040857345
166	0xbda95544	-0.08268216
167	0x3d5f70d6	0.054550968
168	0x3d748622	0.05969823
169	0x3d0d0a64	0.034433737
170	0x3cdf451b	0.027254632
171	0x3c940afd	0.018071646
172	0xbd89984a	-0.067185
173	0xbd117a40	-0.035516977
174	0x3d6ddd26	0.05807223
175	0x3d99e979	0.075152345
176	0x3b38ac6b	0.002817894
177	0x3cbcdcfd	0.023054594
178	0xbda95eb0	-0.08270013
179	0x3d78e26d	0.06076281
180	0xbd49d53e	-0.04927563
181	0xbd47c532	-0.048772044
182	0x3db31916	0.08745019
183	0xbce701be	-0.028199073
184	0xbd3b81da	-0.045778133
185	0x3c557b4c	0.013029885
186	0x3d8b209e	0.067933306
187	0x3da29d2c	0.079401344
188	0x3c12230b	0.008919488
189	0x3d7ae8b5	0.061257083
190	0x3d7acfd7	0.061233368
191	0xbc706bcf	-0.014674141
192	0xbd9538e1	-0.072862394
193	0x3a642258	0.00087026274
194	0xbd001f71	-0.031279985
195	0x3d00ed76	0.03147646
196	0xbd831e20	-0.0640223
197	0xbd793f2e	-0.06085127
198	0xbd8dd181	-0.06924725
199	0xbd8628f2	-0.065507784
200	0x3d8f7e7b	0.07006546
201	0xbdb9e59f	-0.09077
202	0xbb929856	-0.0044737263
203	0xbd62bb93	-0.055354666
204	0xbd1898ec	-0.037255213
205	0xbcd9c276	-0.026581984
206	0x3d29541a	0.04133997
207	0x3d6f43cc	0.058414266
208	0xbcacda54	-0.0211002
209	0x3b39842d	0.0028307543
210	0xbb0251a1	-0.001988508
211	0x3da3e5eb	0.08002838
212	0x3d213cf4	0.03936477
213	0xbc9bcc18	-0.019018218
214	0x3d77bd72	0.060483404
215	0xbd8e823c	-0.06958434
216	0x3d125b20	0.035731435
217	0x3d8bd04d	0.068268396
218	0xbd3dee6a	-0.046369947
219	0x3d0915c5	0.033468027
220	0x3d23d881	0.040001396
221	0xbd9476c9	-0.07249219
222	0x3cd01869	0.025402265
223	0x3d8b34a4	0.0679715
224	0x3c0db996	0.008650204
225	0xbc88fd63	-0.016722387
226	0xbd154f78	-0.03645274
227	0xbd6e2832	-0.058143802
228	0x3cbca34f	0.02302709
229	0xbdab1e12	-0.08355345
230	0xbd98ec1a	-0.07466908
231	0xbd014ea9	-0.031569157
232	0xbda9a60f	-0.08283626
233	0x3da3bdc7	0.079951815
234	0xbce13a71	-0.027493687
235	0xbd41dea8	-0.047331482
236	0x3caa8b9b	0.020818522
237	0x3d1e164a	0.038595475
238	0x3d8bd0ac	0.068269104
239	0xbd0daea3	-0.034590375
240	0xbc87386f	-0.016506402
241	0xbd872731	-0.06599272
242	0xbd9b8146	-0.07593016
243	0xbd2308cb	-0.039803308
244	0x3c2476e9	0.010038116
245	0xbd2e3cf2	-0.04253859
246	0xbcbe6061	-0.023239316
247	0x3cf3a6e1	0.02974266
248	0x3ca5d2c0	0.020242095
249	0x3d624614	0.055242613
250	0x3d1a59f5	0.037683446
251	0x3d42ca11	0.047555987
252	0xbd32a073	-0.043610048
253	0x3d3b2515	0.04568966
254	0xbda553d9	-0.08072633
255	0x3ce4aeea	0.027915437

fc1.bias f4 [128]
0	0xbda0abac	-0.07845244
1	0xbc86f7ca	-0.016475577
2	0xbda3d174	-0.079989344
3	0x3d4ba3ed	0.04971688
4	0xbd149def	-0.03628343
5	0x3c4fcbd3	0.012682873
6	0xba867a42	-0.0010259824
7	0xbc024cd8	-0.007952891
8	0xbd4ab61d	-0.049490083
9	0x3ac0b512	0.0014702401
10	0x3cc83f0d	0.024444127
11	0x3bdeb660	0.006796643
12	0xbc7aafef	-0.015300735
13	0xbd0a3dcb	-0.033750337
14	0xbd4aaec5	-0.04948308
15	0x3cc1b535	0.023645977
16	0x3d13e980	0.036111355
17	0xbd151611	-0.036397997
18	0xbd438e02	-0.04774285
19	0x3d703091	0.058640067
20	0x3d16742f	0.036731895
21	0xbdb0a64f	-0.08625471
22	0xbd528abd	-0.051401842
23	0xbc6de322	-0.014519485
24	0xbd179d4a	-0.037015237
25	0xbc29d8bb	-0.010366614
26	0xbd05cbd5	-0.032665092
27	0xbdb4fbca	-0.088370875
28	0xbd82e599	-0.063914485
29	0x3d526a82	0.051371105
30	0x3ca61804	0.020275123
31	0x3da443b1	0.080207236
32	0x3d7ea95a	0.062173225
33	0xbbf2bc0e	-0.007407672
34	0x3d309520	0.043110967
35	0xbd01c695	-0.031683523
36	0x3d0d8e11	0.034559313
37	0xbd99d4e9	-0.075113125
38	0xbcf9cbee	-0.030492749
39	0x3b396c20	0.0028293207
40	0x3c3d9874	0.011571992
41	0x3ca09adc	0.019605093
42	0x3d997289	0.07492549
43	0x3d95b38a	0.07309635
44	0xbd799dca	-0.060941495
45	0xbcccca22	-0.024998728
46	0xbb59abe0	-0.0033214018
47	0x3d04d244	0.032427087
48	0xbd74a864	-0.059730902
49	0x3cdaf1b9	0.02672659
50	0x3c213604	0.0098395385
51	0x3d4757d2	0.048667736
52	0xbcdf4f54	-0.027259506
53	0xbb03fc56	-0.0020139418
54	0x3d226143	0.039643537
55	0x3d911efa	0.070859864
56	0xbd17dc8b	-0.03707556
57	0x3d45472b	0.048163574
58	0xbd61aef6	-0.055098496
59	0x3d2eb956	0.04265722
60	0xbd1d4f9e	-0.038406007
61	0xba2285d4	-0.00061997515
62	0xbd902a91	-0.07039369
63	0x3ce53790	0.027980596
64	0xbd80e9e8	-0.06294614
65	0xbd89bc24	-0.06725338
66	0xbd155e13	-0.03646667
67	0xbd1f4d8f	-0.038892325
68	0x3d6b5065	0.057449717
69	0x3d894957	0.067034416
70	0x3d0a0647	0.033697393
71	0xbd43f978	-0.047845334
72	0x3d85e26c	0.06537327
73	0x3d932027	0.07183867
74	0xbc99ef79	-0.018790947
75	0xbd89afb1	-0.067229636
76	0x3d8db36e	0.06918989
77	0x3d950b55	0.07277552
78	0x3ce0b3d5	0.0274295
79	0xbdd7d4e2	-0.10538651
80	0xbd757db8	-0.059934348
81	0x3d121895	0.035667975
82	0xbda500a8	-0.08056766
83	0x3d1783af	0.036990818
84	0x3d3e3ce0	0.046444774
85	0xbccbf4c6	-0.02489699
86	0xbdbe99e1	-0.09306694
87	0xbd9c8f8c	-0.07644567
88	0x3d94bf4f	0.07263052
89	0x3cad7a62	0.02117652
90	0x3cf0aec5	0.029380212
91	0xbd6e85d2	-0.05823309
92	0xbd1130c5	-0.0354469
93	0x3d2125bd	0.03934263
94	0xbd76f152	-0.060288735
95	0x3d0125ce	0.031530194
96	0xbbc03603	-0.0058658137
97	0x3d37b877	0.044853654
98	0xbd4ee03b	-0.05050681
99	0xbd0ae7ec	-0.033912584
100	0xbd96af7a	-0.07357688
101	0x3d47c980	0.04877615
102	0xbc9301d4	-0.017945208
103	0xbd40d8b9	-0.047081683
104	0xbdb03498	-0.086037815
105	0x3d745aa6	0.05965676
106	0x3d989eaa	0.07452138
107	0xbd78bd22	-0.060727246
108	0xbc80a5b4	-0.015704013
109	0xbcef3000	-0.029197693
110	0xbd815f1f	-0.06316971
111	0xbd7f459e	-0.06232225
112	0xbcc0c057	-0.023529215
113	0x3d0c4dc4	0.03425385
114	0xbd7c1252	-0.06154091
115	0x3db2a142	0.08722164
116	0xbc5f4828	-0.013628043
117	0xbda8e39e	-0.082465395
118	0xbd592350	-0.053012192
119	0x3da7733a	0.081762746
120	0xbc67d658	-0.014150225
121	0x3d4e63a7	0.050388005
122	0x3c09d3a0	0.008412272
123	0x3d8068e6	0.06270008
124	0xbd86c2b0	-0.065801024
125	0x3c78fc98	0.015196942
126	0x3d17f590	0.03709942
127	0xbcce3a50	-0.02517429

fc2.weight f4 [1, 128]
0	0xbd58fc1f	-0.052974816
1	0xbc2f4bf0	-0.010699257
2	0xbc0bfe78	-0.008544557
3	0xbd95c8b9	-0.073136754
4	0xbd946284	-0.07245353
5	0x3dd1b5bf	0.102397434
6	0x3c32ab14	0.010905046
7	0xbd5c6b33	-0.05381317
8	0xbcca87dc	-0.024722986
9	0x3e02e77a	0.12783614
10	0x3dd72d79	0.1050672
11	0x3d0cf5c8	0.034414083
12	0x3e3a8733	0.18215637
13	0x3c05e826	0.008173024
14	0x3de99e93	0.11407199
15	0xbd86bdc9	-0.065791674
16	0x3d19efda	0.037582256
17	0xbd1a8a7b	-0.03772972
18	0x3e1ce45b	0.15321486
19	0x3dfd1fa5	0.12359551
20	0x3e0330a7	0.12811528
21	0xbcfa726d	-0.03057214
22	0x3d2e1b6e	0.042506628
23	0x3e0c3383	0.13691525
24	0x3cc62660	0.02418822
25	0x3e050bee	0.12992832
26	0xbd8d5b60	-0.06902194
27	0xbd3daa86	-0.046305202
28	0xbdb4142d	-0.08792911
29	0xbcd63435	-0.026147941
30	0xbd51afd7	-0.051193085
31	0xbc8677bd	-0.016414518
32	0x3e0e6cf8	0.13908756
33	0x3cbad04a	0.022804398
34	0x3dee5c45	0.11638693
35	0x3e1e3cd6	0.15452895
36	0x3e14ec08	0.14543164
37	0x3e12aa9b	0.14322893
38	0x3c92d358	0.017923042
39	0x3d9a9dd7	0.07549637
40	0xbda0596c	-0.07829556
41	0x3e074b82	0.13212398
42	0x3db8b293	0.09018435
43	0xbdab4d17	-0.08364313
44	0xbd9a13d9	-0.07523317
45	0x3de425f1	0.11140049
46	0x3d1ae8f2	0.03781981
47	0x3d98cd89	0.07461078
48	0xbda4b0ba	-0.080415204
49	0x3e0b7c03	0.13621525
50	0x3df8d477	0.121498995
51	0xbc7ef3e4	-0.015561078
52	0xbcb1cfe4	-0.021705575
53	0x3e18abed	0.14909334
54	0x3db3c46f	0.08777701
55	0x3dcb83d4	0.099372536
56	0xbdb63e56	-0.088986084
57	0xbb987118	-0.0046521537
58	0x3e06c9d2	0.13162926
59	0xbdb3ac39	-0.08773083
60	0x3e086e74	0.13323385
61	0x3dfba1bc	0.12286708
62	0xbdad2eff	-0.084562294
63	0xbd962759	-0.07331724
64	0x3dadc069	0.08483965
65	0x3e09b272	0.13446978
66	0xbd84022c	-0.06445727
67	0xbd069c30	-0.032863796
68	0x3dfa5fa2	0.12225272
69	0x3ddfadf5	0.109218515
70	0x3e17bfd8	0.14819276
71	0xbcd78a20	-0.02631098
72	0x3d2f69d3	0.04282553
73	0xbda29f3c	-0.07940528
74	0xbda129e9	-0.07869322
75	0x3e13bab7	0.14426695
76	0x3dd922e6	0.106023595
77	0x3de53bd6	0.111930534
78	0xbcb5307b	-0.022117844
79	0x3e0417c8	0.12899697
80	0xbd2f8371	-0.04284996
81	0x3dfe9c18	0.12432116
82	0xbd9d2dd6	-0.07674758
83	0x3d095161	0.033524875
84	0xbc9e4015	-0.019317666
85	0xbdc6025a	-0.09668417
86	0x3df7e008	0.121032774
87	0x3d90bd57	0.07067364
88	0x3b0ad930	0.0021186583
89	0xbd868e99	-0.06570167
90	0x3e10f22d	0.14154883
91	0xbd3f6475	-0.046726663
92	0x3d63f872	0.055656858
93	0xbd65bdf2	-0.05608935
94	0x3da42033	0.08013954
95	0x3df9d2af	0.12198388
96	0x3decf47b	0.115700684
97	0x3de528bb	0.11189409
98	0x3d86939b	0.06571122
99	0x3c82ccf7	0.015966875
100	0xbd475f35	-0.04867478
101	0x3c22bc0f	0.009932532
102	0x3d93dbcb	0.072196566
103	0xbd9dc1c4	-0.077029735
104	0x3cc7db0c	0.024396442
105	0x3e01e9fd	0.12686916
106	0x3de6e37a	0.112738565
107	0xbd692f33	-0.05692978
108	0xbd84c259	-0.064823814
109	0x3cc34c60	0.02384013
110	0x3dfd6f75	0.12374774
111	0xbcf8924e	-0.030343201
112	0x3dee3c70	0.11632621
113	0x3e0227be	0.12710473
114	0xbd861d04	-0.06548503
115	0xbac624ba	-0.0015117147
116	0xbd16f8c4	-0.036858335
117	0x3e0ef98a	0.13962379
118	0xbd1c8d47	-0.03822067
119	0x3e06ad94	0.13152152
120	0x3d493dfa	0.04913137
121	0x3c9dceeb	0.019263705
122	0xbccc43b0	-0.02493462
123	0x3dd0ff7c	0.1020498
124	0xbd48cc38	-0.049022883
125	0xbd97dd8d	-0.07415304
126	0xbd72b658	-0.059255928
127	0xbcd61bd2	-0.026136313
