best/att_prediction_model.pth (torch, 234548 bytes, 23 tensors)

Wa f4 [128, 128]
00000000: 0000 0000 0000 0000 0000 0000 0000 0000
00000010: 0000 0000 0000 0000 0000 0000 0000 0000
00000020: 0000 0000 0000 0000 0000 0000 0000 0000
00000030: 0000 0000 0000 0000 0000 0000 0000 0000
00000040: 0000 0000 0000 0000 0000 0000 0000 0000
00000050: 0000 0000 0000 0000 0000 0000 0000 0000
00000060: 0000 0000 0000 0000 0000 0000 0000 0000
00000070: 0000 0000 0000 0000 0000 0000 0000 0000
00000080: 0000 0000 0000 0000 0000 0000 0000 0000
00000090: 0000 0000 0000 0000 0000 0000 0000 0000
000000a0: 0000 0000 0000 0000 0000 0000 0000 0000
000000b0: 0000 0000 0000 0000 0000 0000 0000 0000
000000c0: 0000 0000 0000 0000 0000 0000 0000 0000
000000d0: 0000 0000 0000 0000 0000 0000 0000 0000
000000e0: 0000 0000 0000 0000 0000 0000 0000 0000
000000f0: 0000 0000 0000 0000 0000 0000 0000 0000
00000100: 0000 0000 0000 0000 0000 0000 0000 0000
00000110: 0000 0000 0000 0000 0000 0000 0000 0000
00000120: 0000 0000 0000 0000 0000 0000 0000 0000
00000130: 0000 0000 0000 0000 0000 0000 0000 0000
00000140: 0000 0000 0000 0000 0000 0000 0000 0000
00000150: 0000 0000 0000 0000 0000 0000 0000 0000
00000160: 0000 0000 0000 0000 0000 0000 0000 0000
00000170: 0000 0000 0000 0000 0000 0000 0000 0000
00000180: 0000 0000 0000 0000 0000 0000 0000 0000
00000190: 0000 0000 0000 0000 0000 0000 0000 0000
000001a0: 0000 0000 0000 0000 0000 0000 0000 0000
000001b0: 0000 0000 0000 0000 0000 0000 0000 0000
000001c0: 0000 0000 0000 0000 0000 0000 0000 0000
000001d0: 0000 0000 0000 0000 0000 0000 0000 0000
000001e0: 0000 0000 0000 0000 0000 0000 0000 0000
000001f0: 0000 0000 0000 0000 0000 0000 0000 0000
00000200: 43b5 d02c f9c1 a72d a1cb 902e 239f ca2e
00000210: cda8 35ae 6dc6 3d2e 0236 cfae 232f 342e
00000220: d873 7aae d85e 982d 1962 0bae 1539 72ad
00000230: e100 132e 2c3e 162e 6799 9bae da81 ebae
00000240: a8cc 832e 1b5b b4ae d6d8 aead 223d 182e
00000250: 5623 d52d 4f81 4e2e baca d42e 4057 062e
00000260: 4d65 462e 49c7 97ad 0fbf e02c e7e9 992d
00000270: c945 732e 9a26 a52e f2b7 84ae f06d 7a2d
00000280: 9ca6 f5ad fcbe 81ad 8d4a 3d2f 8f5c 11af
00000290: 650f 6aae 3aea 8fae 7b54 a1ae 9b4f 53ae
000002a0: a31d a62e 0733 cc2e b658 a2ae e0be 602e
000002b0: 1330 582e ba2c 6bae b015 ccae 5603 082e
000002c0: 9d65 13ae 4e78 3fae 71cb 4eae 7b39 042f
000002d0: 38ab 21ae e345 53ad af4c 482e 4ec6 7f2f
000002e0: e304 022f 0102 ea2c 955e c02e fd52 632e
000002f0: 89f5 d8ad cd54 7bae 98bc 592e 96ea 79ae
00000300: aab7 d82e 9c45 ba2e 856f 16ae b534 b9ad
00000310: d5f0 27ae 57bc c42e db36 c22e fb59 98ad
00000320: 5688 47af 03cb be2e 4bd2 7c2e 2a36 7bae
00000330: 9c6c ce2d 0897 2e2e 6282 78ad af0a 2f2d
00000340: ef75 ca2e 2394 a6ac 1edd 792d 31cd 332e
00000350: 7640 d42c e9b1 862e 1aee 06ae e5a7 f9ae
00000360: 896f a8ae f652 c3ad 51a0 682e d069 2aae
00000370: ea5c 87ae 69f1 87ae c054 30ae e35f 602d
00000380: 9bf5 eead d95f f02b fa06 c62e e234 4bae
00000390: 2e8d 76ae 40f2 53ab eb85 07ae e1ab a9ad
000003a0: b583 f9ae 9c97 da2e 4a4a 00af f931 38ae
000003b0: 694c 2f2e e5fa faad e839 83ae 33b0 b52d
000003c0: 4dce 9f2e 2aa8 bead 498a c0ab 4c86 e32e
000003d0: d5ac 97ae 340e 1eae d664 67ae 1947 982e
000003e0: 00de 902d 8638 85ae e2f0 0b2f 0182 71ae
000003f0: 6011 b1ae 2f76 732e 5011 1b2e 82a7 342e
0.0 0.0 0.0 0.0 0.0 0.0 0.0 0.0
0.0 0.0 0.0 0.0 0.0 0.0 0.0 0.0
0.0 0.0 0.0 0.0 0.0 0.0 0.0 0.0
0.0 0.0 0.0 0.0 0.0 0.0 0.0 0.0
0.0 0.0 0.0 0.0 0.0 0.0 0.0 0.0
0.0 0.0 0.0 0.0 0.0 0.0 0.0 0.0
0.0 0.0 0.0 0.0 0.0 0.0 0.0 0.0
0.0 0.0 0.0 0.0 0.0 0.0 0.0 0.0
0.0 0.0 0.0 0.0 0.0 0.0 0.0 0.0
0.0 0.0 0.0 0.0 0.0 0.0 0.0 0.0
0.0 0.0 0.0 0.0 0.0 0.0 0.0 0.0
0.0 0.0 0.0 0.0 0.0 0.0 0.0 0.0
0.0 0.0 0.0 0.0 0.0 0.0 0.0 0.0
0.0 0.0 0.0 0.0 0.0 0.0 0.0 0.0
0.0 0.0 0.0 0.0 0.0 0.0 0.0 0.0
0.0 0.0 0.0 0.0 0.0 0.0 0.0 0.0
5.9318397e-12 1.9071843e-11 6.5845336e-11 9.214165e-11 -4.130456e-11 4.3149862e-11 -9.422864e-11 4.0969127e-11
-5.694631e-11 1.7322518e-11 -3.169207e-11 -1.3768782e-11 3.342471e-11 3.416127e-11 -7.075834e-11 -1.0709629e-10
5.9935445e-11 -8.201636e-11 -1.9877804e-11 3.4615096e-11 2.4230989e-11 4.6953826e-11 9.676655e-11 3.0545566e-11
4.510996e-11 -1.7255213e-11 6.3876747e-12 1.749796e-11 5.5313785e-11 7.510188e-11 -6.03534e-11 1.4235266e-11
-2.7927265e-11 -1.4750416e-11 1.7215936e-10 -1.3220557e-10 -5.3219113e-11 -6.544494e-11 -7.336439e-11 -4.804655e-11
7.5540706e-11 9.28591e-11 -7.382665e-11 5.1101234e-11 4.9155412e-11 -5.347254e-11 -9.2806984e-11 3.0925783e-11
-3.351418e-11 -4.3535224e-11 -4.701967e-11 1.2025751e-10 -3.6759235e-11 -1.2009479e-11 4.5542844e-11 2.3262567e-10
1.1825167e-10 6.6509025e-12 8.74795e-11 5.1687533e-11 -2.4665396e-11 -5.714611e-11 4.9507592e-11 -5.68244e-11
9.855168e-11 8.470666e-11 -3.42051e-11 -2.1055472e-11 -3.8185306e-11 8.946504e-11 8.831843e-11 -1.7320359e-11
-1.8147381e-10 8.676262e-11 5.7484944e-11 -5.71189e-11 2.346772e-11 3.9697162e-11 -1.4126119e-11 9.9499705e-12
9.206846e-11 -4.7344502e-12 1.4203109e-11 4.0882134e-11 6.032559e-12 6.125218e-11 -3.067955e-11 -1.1353033e-10
-7.659568e-11 -2.2205775e-11 5.2893082e-11 -3.8747505e-11 -6.155594e-11 -6.181972e-11 -4.009304e-11 1.2754217e-11
-2.7166538e-11 1.7079629e-12 9.005237e-11 -4.6203825e-11 -5.6059317e-11 -7.529845e-13 -3.081439e-11 -1.9289405e-11
-1.1346605e-10 9.9404235e-11 -1.1667925e-10 -4.188114e-11 3.985826e-11 -2.8533129e-11 -5.9674765e-11 2.0655566e-11
7.267129e-11 -2.1675179e-11 -1.3680802e-12 1.0346621e-10 -6.897386e-11 -3.5937656e-11 -5.261288e-11 6.924789e-11
1.6469492e-11 -6.05818e-11 1.2727555e-10 -5.4912522e-11 -8.0521145e-11 5.535677e-11 3.5258296e-11 4.107604e-11

ba f4 [128]
00000000: 0006 c8e3 4f99 252f 4f99 252f 4f99 252f
00000010: 4f99 252f 4f99 252f 4f99 252f 4f99 252f
00000020: 4f99 252f 4f99 252f 4f99 252f 4f99 252f
00000030: 4f99 252f 4f99 252f 4f99 252f 4f99 252f
00000040: 4f99 252f 4f99 252f 4f99 252f 4f99 252f
00000050: 4f99 252f 4f99 252f 4f99 252f 4f99 252f
00000060: 4f99 252f 4f99 252f 4f99 252f 4f99 252f
00000070: 4f99 252f 4f99 252f 4f99 252f 4f99 252f
00000080: 4f99 252f 4f99 252f 4f99 252f 4f99 252f
00000090: 4f99 252f 4f99 252f 4f99 252f 4f99 252f
000000a0: 4f99 252f 4f99 252f 4f99 252f 4f99 252f
000000b0: 4f99 252f 4f99 252f 4f99 252f 4f99 252f
000000c0: 4f99 252f 4f99 252f 4f99 252f 4f99 252f
000000d0: 4f99 252f 4f99 252f 4f99 252f 4f99 252f
000000e0: 4f99 252f 4f99 252f 4f99 252f 4f99 252f
000000f0: 4f99 252f 4f99 252f 4f99 252f 4f99 252f
00000100: 4f99 252f 4f99 252f 4f99 252f 4f99 252f
00000110: 4f99 252f 4f99 252f 4f99 252f 4f99 252f
00000120: 4f99 252f 4f99 252f 4f99 252f 4f99 252f
00000130: 4f99 252f 4f99 252f 4f99 252f 4f99 252f
00000140: 4f99 252f 4f99 252f 4f99 252f 4f99 252f
00000150: 4f99 252f 4f99 252f 4f99 252f 4f99 252f
00000160: 4f99 252f 4f99 252f 4f99 252f 4f99 252f
00000170: 4f99 252f 4f99 252f 4f99 252f 4f99 252f
00000180: 4f99 252f 4f99 252f 4f99 252f 4f99 252f
00000190: 4f99 252f 4f99 252f 4f99 252f 4f99 252f
000001a0: 4f99 252f 4f99 252f 4f99 252f 4f99 252f
000001b0: 4f99 252f 4f99 252f 4f99 252f 4f99 252f
000001c0: 4f99 252f 4f99 252f 4f99 252f 4f99 252f
000001d0: 4f99 252f 4f99 252f 4f99 252f 4f99 252f
000001e0: 4f99 252f 4f99 252f 4f99 252f 4f99 252f
000001f0: 4f99 252f 4f99 252f 4f99 252f 4f99 252f
-7.3795623e+21 1.5061129e-10 1.5061129e-10 1.5061129e-10 1.5061129e-10 1.5061129e-10 1.5061129e-10 1.5061129e-10
1.5061129e-10 1.5061129e-10 1.5061129e-10 1.5061129e-10 1.5061129e-10 1.5061129e-10 1.5061129e-10 1.5061129e-10
1.5061129e-10 1.5061129e-10 1.5061129e-10 1.5061129e-10 1.5061129e-10 1.5061129e-10 1.5061129e-10 1.5061129e-10
1.5061129e-10 1.5061129e-10 1.5061129e-10 1.5061129e-10 1.5061129e-10 1.5061129e-10 1.5061129e-10 1.5061129e-10
1.5061129e-10 1.5061129e-10 1.5061129e-10 1.5061129e-10 1.5061129e-10 1.5061129e-10 1.5061129e-10 1.5061129e-10
1.5061129e-10 1.5061129e-10 1.5061129e-10 1.5061129e-10 1.5061129e-10 1.5061129e-10 1.5061129e-10 1.5061129e-10
1.5061129e-10 1.5061129e-10 1.5061129e-10 1.5061129e-10 1.5061129e-10 1.5061129e-10 1.5061129e-10 1.5061129e-10
1.5061129e-10 1.5061129e-10 1.5061129e-10 1.5061129e-10 1.5061129e-10 1.5061129e-10 1.5061129e-10 1.5061129e-10
1.5061129e-10 1.5061129e-10 1.5061129e-10 1.5061129e-10 1.5061129e-10 1.5061129e-10 1.5061129e-10 1.5061129e-10
1.5061129e-10 1.5061129e-10 1.5061129e-10 1.5061129e-10 1.5061129e-10 1.5061129e-10 1.5061129e-10 1.5061129e-10
1.5061129e-10 1.5061129e-10 1.5061129e-10 1.5061129e-10 1.5061129e-10 1.5061129e-10 1.5061129e-10 1.5061129e-10
1.5061129e-10 1.5061129e-10 1.5061129e-10 1.5061129e-10 1.5061129e-10 1.5061129e-10 1.5061129e-10 1.5061129e-10
1.5061129e-10 1.5061129e-10 1.5061129e-10 1.5061129e-10 1.5061129e-10 1.5061129e-10 1.5061129e-10 1.5061129e-10
1.5061129e-10 1.5061129e-10 1.5061129e-10 1.5061129e-10 1.5061129e-10 1.5061129e-10 1.5061129e-10 1.5061129e-10
1.5061129e-10 1.5061129e-10 1.5061129e-10 1.5061129e-10 1.5061129e-10 1.5061129e-10 1.5061129e-10 1.5061129e-10
1.5061129e-10 1.5061129e-10 1.5061129e-10 1.5061129e-10 1.5061129e-10 1.5061129e-10 1.5061129e-10 1.5061129e-10

cnn.0.weight f4 [8, 3, 2]
00000000: 95e9 613e 90aa 273f c35b 04be 7aa8 bc3e
00000010: 58a1 3bbe 4629 9a3d 2cd6 54be 783c 883e
00000020: 8743 bc3e 9c6c 8ebe 8133 a53e 8585 4b3d
00000030: 78a3 8d3e 848c d63d 768a 2f3e 0ffe 84bd
00000040: 3a51 983e 7206 6a3d 07de 61be 78b4 913d
00000050: 71c9 22be 602e 9dbc 90af 27be 8e42 8b3e
00000060: e8bb a6be 1687 43be dd80 e3bd 3a68 76be
00000070: f26f 2c3d 9ad9 ccbe 7de7 fc3e 2c44 a6be
00000080: 208e 713e 6202 243b 7c54 a9bd eb32 8e3e
00000090: 1e47 a23c a101 e53e cd1d ac3c ad80 09be
000000a0: 4614 a63d 8470 d4bd e99d cc3d f352 203f
000000b0: a38d 323e 46c8 4dbe 0557 1d3e 0f75 7e3d
0.2206176 0.6549463 -0.1292563 0.36847287 -0.18323267 0.075274035 -0.20784825 0.26608634
0.3677027 -0.27817237 0.32265857 0.04968788 0.2766378 0.1047602 0.17142662 -0.0649377
0.2974947 0.057135053 -0.22057353 0.071145 -0.15897156 -0.019187152 -0.16375566 0.27199215
-0.32565236 -0.190945 -0.11108563 -0.24063197 0.042098947 -0.40009767 0.49395362 -0.32473886
0.23589373 0.0025025834 -0.08268067 0.27773222 0.019809302 0.44727805 0.021010304 -0.13427992
0.081093356 -0.10373023 0.099910565 0.6262657 0.17436843 -0.2009593 0.15365227 0.062123355

cnn.0.bias f4 [8]
00000000: 4895 da3d 888f 7ebe c5b2 d8be 2792 2cbe
00000010: 4767 a1be 9df1 ca3e 3d5c b63d bca8 c33d
0.106730044 -0.2485944 -0.4232389 -0.16852628 -0.31524107 0.3963746 0.08904312 0.09553668

cnn.3.weight f4 [16, 8, 2]
00000000: a048 9a3d 376c 2fbd 494e 483e ec92 3abe
00000010: 890a 513c d3b9 34be 61e0 9d3d c252 b0bd
00000020: 98e2 9c3d 7857 55bd e817 523e 1fc7 0ebe
00000030: 7c85 18be 7f59 29be ada5 673e 14d5 753d
00000040: 77c4 a83e 45d5 80be 1e5a 5bbe 2b85 41be
00000050: 7b5f 07be b209 df3d 2449 b43d 4933 533e
00000060: e4d3 03be 010e 2ebe 473d 153e 499f 0abd
00000070: 2348 483e 0cef c9bd 6a0c 713e 9b0a 65be
00000080: 322c 01be 3021 9c3d 387b 583d f489 82bd
00000090: 0298 183e fa07 2e3e 12a4 39be 2faa 08be
000000a0: ea69 6a3e e6c1 acbd 2c83 b5bd 48b4 77be
000000b0: 2894 12be 9ee5 7f3d c61a 07bd 05d0 39be
000000c0: 4028 c03b 6ede 2ebe 8630 59be 3af8 0cbe
000000d0: e60d 60be 4401 23be 5ee6 7f3e 7068 413d
000000e0: 1cc7 9d3d 66c4 6ebe 5422 28be 146c aabd
000000f0: c01f 203d 8642 61be 649b dcbd 5842 19be
00000100: 6f7d 353a 8884 bebd f0ea 8dbc 2479 2dbe
00000110: 9cb7 2fbe d759 15be 6e41 afbd 350e 4abe
00000120: 0ea6 563e e139 4bbd cc42 5c3e 5287 9f3d
00000130: 66c7 58be 8529 313e b0df 8cbd 3043 c4bd
00000140: b485 54be ad87 7ebe 187d 923d c0af 5fbd
00000150: 5c55 c73d 0017 52be 580d 3e3e 30ed 3bbe
00000160: 9cd3 30bd eedf 553d 1429 043e e4ab 4e3e
00000170: 952a 693e 1b07 4bbe f5cc 803d 8c47 dcbd
00000180: 52d7 d4bc 407e 3ebe 0956 693e 8784 3bbe
00000190: b8ab 093e c812 b53d a757 a63d 4c6a 0abe
000001a0: 0cb1 683e 4006 613d 4302 083d d3ed 60be
000001b0: 7a2a d93d bc1b 15bd d95f e6bd 9bdf 5d3e
000001c0: 8dab 933d cbd5 08be e6b9 04be bfcd 9dbc
000001d0: 4275 133e 2805 8dbd e683 12be 1b34 b0bd
000001e0: 6621 3fbe a1e9 b63d ce7a 4a3e c667 6dbe
000001f0: 5803 843d 967b fe3d 6083 683d 9b82 c3bd
00000200: b186 633d f96e 0c3f ca17 743d 76e4 7d38
00000210: 74c8 8bbd 8a35 ed3d 0a09 21bd 7cb2 8ebd
00000220: afd3 223e f9f5 5a3e 3823 acbd 42f8 90be
00000230: 3b39 c839 8f85 813e be8e 82bc 3dc8 c73e
00000240: 8483 68be 84f2 bcbd cc95 573e c073 c73d
00000250: a0b9 4bbc 0858 1abe 429f 1cbe fa50 65be
00000260: 8ce4 a6bd 90e7 ac3d 2c3b 233e 9863 ec3d
00000270: 284a 62be e4f2 19be b09a 21bd 38a4 773e
00000280: dafb 143d fd2c 87bd f29f d13d 8c46 c6bd
00000290: a2da 27be b3d9 383e acce e8bd 2847 4dbd
000002a0: 7eab 7ebe 5255 2b3e ab4c 413e 3a9f ba3d
000002b0: a6e2 32be 61e0 7dbe 5991 51be c529 3c3e
000002c0: c600 d33d bb4d 783e 5451 023e a17c 893d
000002d0: 1638 1d3b 338f 42be 516f 5bbe c682 6fbe
000002e0: 017c d13d 7377 fbbd 6ba2 21bd c1bf 2abe
000002f0: 1c23 52bd 610e 1fbe b21b 2dbe 98dc e53d
00000300: 5356 4fbd 89ba 073e e9fb 9ebd 6836 3fbe
00000310: bb9c 29bd ac97 f6bd a9df 9cbd 14d6 73be
00000320: cc3a 0f3e e938 32be f229 033e 73ae 0b3e
00000330: 4832 423e a869 50be 0a9c 4a3e 15af 07be
00000340: 7e4b b63d 0781 593e 2d24 20bd 17ba b4bb
00000350: 1393 7ebd 8cf0 57be 97c7 f53d fd1c 7ebe
00000360: beec 1e3e ae8b 3f3e 1134 733e d4e6 3ebd
00000370: f875 5fbe 5e88 183d 16a2 f03d d124 8dbe
00000380: 686e 68bd ea75 19be 3020 b3bc 6803 fcbd
00000390: fc49 d1bd f889 a2bd 2047 73be c80c 523e
000003a0: e09c 563e 48a2 20bd 003b e9bc 18f5 d0bd
000003b0: 202f 67be fe1f 79be 044a be3d 4a8e 0cbe
000003c0: f1b7 2fbe fd77 593d 029f c2bd c26b a0bd
000003d0: e552 92bb 8b5b 3fbd ba70 aebd 0754 f3bd
000003e0: fe56 50be 97a7 563e 2da7 eebd b28a cd3c
000003f0: 515c afbd c658 8c3d f8df 5a3e fc78 2a3e
0.07533383 -0.04282781 0.19561113 -0.18220109 0.012758859 -0.17649011 0.077088125 -0.08609535
0.07660407 -0.05208537 0.20516932 -0.13943146 -0.1489467 -0.16538046 0.22621794 0.06001766
0.3296239 -0.25162712 -0.21421096 -0.18898456 -0.13220017 0.10890521 0.08803013 0.20625032
-0.12873799 -0.1699753 0.14574157 -0.033843312 0.19558768 -0.09860048 0.23539892 -0.22367327
-0.12614515 0.076235175 0.052851886 -0.06373969 0.14901736 0.1699523 -0.18128994 -0.1334617
0.22891966 -0.08435421 -0.0886291 -0.24189866 -0.1431433 0.06247484 -0.032984518 -0.1814576
0.005864173 -0.17077038 -0.21209916 -0.13766566 -0.21880302 -0.15918452 0.24990222 0.04721874
0.07703993 -0.23317108 -0.16419345 -0.083213955 0.03909278 -0.21998033 -0.10771826 -0.14966714
0.0006923293 -0.09302622 -0.017323941 -0.16940743 -0.17159885 -0.14585052 -0.085574016 -0.19731982
0.20961782 -0.049615745 0.21509856 0.07789482 -0.21169814 0.17300995 -0.068786025 -0.095831275
-0.20754129 -0.24856444 0.07152766 -0.054610968 0.09733078 -0.20516586 0.18559778 -0.18352199
-0.043170556 0.05221551 0.12906295 0.20182759 0.2277015 -0.1982693 0.062890925 -0.10755834
-0.025981579 -0.18602848 0.22786726 -0.18312274 0.13444412 0.08841473 0.08122187 -0.13517112
0.22723788 0.0549376 0.033205282 -0.21965723 0.10603805 -0.036403403 -0.1124875 0.2166733
0.07210455 -0.13362806 -0.1296154 -0.019263146 0.14400199 -0.06885749 -0.14308128 -0.08603688
-0.18665084 0.0893128 0.19773409 -0.23184118 0.0644595 0.12425916 0.056765914 -0.095463954
0.055548374 0.5485683 0.059593 6.053267e-05 -0.06825343 0.115824774 -0.03931526 -0.06967637
0.15901063 0.21382894 -0.08405155 -0.28314406 0.00038189613 0.2529721 -0.015937205 0.39019957
-0.22706419 -0.09225944 0.21053237 0.097388744 -0.012434393 -0.15072644 -0.15295127 -0.22394171
-0.081490606 0.084426045 0.15940541 0.115424335 -0.22098601 -0.15034062 -0.039454162 0.24183738
0.036372997 -0.06600378 0.10235585 -0.096814245 -0.16391996 0.18051796 -0.113675445 -0.050116688
-0.24870107 0.16731766 0.18876903 0.09112401 -0.17469272 -0.24792625 -0.20465602 0.18375309
0.10302882 0.24248402 0.12726337 0.06713224 0.0023989729 -0.18999939 -0.21429183 -0.2338973
0.1022873 -0.122786425 -0.039461534 -0.16674711 -0.051303014 -0.15532829 -0.16905096 0.112237155
-0.050619435 0.13254751 -0.07762892 -0.18673098 -0.041409235 -0.12040648 -0.07659847 -0.23812133
0.13987273 -0.17404522 0.1280897 0.13640766 0.18964493 -0.20352805 0.19786087 -0.13250382
0.08901118 0.21240626 -0.039097 -0.0055153477 -0.06215198 -0.21087855 0.12000959 -0.24815746
0.15519997 0.18705627 0.2375033 -0.046606854 -0.21822345 0.037239425 0.117496654 -0.2756715
-0.056745917 -0.14986387 -0.021865934 -0.12305337 -0.102191895 -0.07936472 -0.23757601 0.20512688
0.2095828 -0.039217263 -0.028470516 -0.10202998 -0.2257657 -0.2432861 0.09291461 -0.13726154
-0.17160012 0.053092945 -0.095029846 -0.07833053 -0.004465448 -0.04671816 -0.08517595 -0.11881261
-0.20345685 0.20962368 -0.1165298 0.02509055 -0.0856253 0.0685287 0.213745 0.16647714

cnn.3.bias f4 [16]
00000000: 55b4 5bbe aa3d 223e 6509 733e dcb2 863d
00000010: 55a1 2b3e a356 7c3e b6d2 18bd 3515 7a3d
00000020: 5977 a1be e005 53bd 0dff 3d3e 8351 003e
00000030: 410c 15be 3009 59be ecf0 2ebe fa09 89be
-0.2145551 0.15843835 0.23734052 0.065770835 0.16760762 0.24642424 -0.037310325 0.06105538
-0.31536368 -0.051519275 0.18554325 0.12531094 -0.14555456 -0.21194911 -0.17084092 -0.26765424

cnn.6.weight f4 [32, 16, 2]
00000000: 7cae 0bbe 1310 33bd 272d f43d 55cc f13c
00000010: 35af 09be df37 11be f21a b43d 50a6 06be
00000020: c94e b2bc 0eac ad3d 808e a7bd d9e8 9dbc
00000030: 901b 7cbc fc4d 2bbd e7a4 b7bd b867 21be
00000040: 9172 12be 0619 c2bd d7d5 2e3e b8de aebd
00000050: 9f1e f3bd 3582 2f3d ef4e 473d 493c c63d
00000060: c993 093e 3991 c93d 4c81 33be 3235 803c
00000070: 5a4e db3d a8d8 85bc 8357 d5bd ad92 2c3e
00000080: be1d 85bd 0bc2 e7bd 6169 1abe 8cbf d2bd
00000090: 516d a03d 0446 203d a42f 0f3d 6548 09be
000000a0: 380d 29be 8b02 4c3b ac0e 253e 13dd d03d
000000b0: 22cd d2bd 3252 bbbc 0e7f 0cbe abdb d7bd
000000c0: 2bd4 aebc d2df af3e 6bf3 153e e831 26be
000000d0: 8c6a f13d 999e 00be 3bab 5b3d d951 4d3e
000000e0: 21f5 893b bbc8 013e cdb0 04be 2a2d 24bd
000000f0: fe28 d33d d0c0 1dbd 87f4 38bd adaa f2bc
00000100: 1ec8 fe3d dd22 b23d 81d9 863d 8781 debd
00000110: 6ff1 12be 94a0 9c3c 6087 563d 5528 a7bd
00000120: 6098 4abd 5f82 f43d 29b2 663c 38a8 023c
00000130: 0043 32bd 33eb 23be 144b 29be cfcd afbd
00000140: 092e a9bd a63a bd3d 64c9 52bd 35a3 8dbd
00000150: 4b8f 2c3e 3bc3 7b3d 76d4 f83d dbc1 a5bd
00000160: e8c8 8ebd df6e 7f3d f55a f0bd 14e7 e9bd
00000170: 10e4 0bbc 656b 84bd d6be 06be 6084 e53d
00000180: 67a3 133e 24e2 c53c 43f3 1bbc e2b5 5abe
00000190: 59de 83bd e656 383d 62b6 aa3d 7812 b7bc
000001a0: 0d22 8fbd c6bc c93d ec29 10be 9bd0 e43d
000001b0: c48a 8cbd e257 333b 0c71 1abd 0bd3 463c
000001c0: 7114 a7bd 031e 843e 8097 96bb b94d 0d3e
000001d0: 2506 2e3e fd43 b1bd 14f4 0cbe 2922 2d3e
000001e0: 53e8 123e 4ea1 1abe 01cd 13bb 312b 24be
000001f0: a92e 14be a4d9 0b3d 6c1a 2e3d 0dc2 7e3d
00000200: 7fc8 46bd 3aa4 213e ff39 bd3c 3095 1cbe
00000210: 85fa 23bc 88e0 2d3d 0c91 7d3d 98fd ffbd
00000220: 36b0 873d 7cf5 b8bd a66a 16be c2bf c5bd
00000230: b2a1 2e3e e0d0 1a3e 102a 1d3e 3a8a c03d
00000240: ddcf 003e 9e54 d13d 2a34 c7bd 1ee5 b43d
00000250: f1ee bbbd 0e47 f5bd 4636 72bd e1da 743d
00000260: 9973 bc3d 9f92 a7bd 04b0 b9bd 043c 253d
00000270: ca65 d5bd 9cb5 ebbd afeb b53d f493 2cbc
00000280: 782a 263e 64f6 283e d59a 5f3d ae45 7c3c
00000290: 34bd 263d a25c 353b e0a7 52bc 803a 1f3b
000002a0: b731 873d 764e 283e aaa8 3bbd 0a0b 99bd
000002b0: 3300 30bd f52b afbd 48b7 ef3c d7da fd3d
000002c0: 2cde f73d cab4 393e c437 05be d14e c2bd
000002d0: c3f5 1fbd 91ec 06bd 2088 1a3c febf 10be
000002e0: 0585 563d e78d 1abe c84a e4bd d5f7 11be
000002f0: c7b9 1d3e 176a 2bbe 55fc 063e cd00 5e3c
00000300: 153c a7bc 66b4 e23d 2eaa 84bc 6752 e33d
00000310: 38e1 023e ad29 1dbe 824e 8b3d ccb0 083d
00000320: 64af 1b3d 146b d33c 1e0f 463d f529 aebd
00000330: ab44 b9bc b5fd 2b3e d664 f33d 193d d7bb
00000340: 7628 29be bc34 103c ec89 f6bd 1134 133e
00000350: 45c9 dbbd 3919 51bc 50e3 1fbd 40bf 013d
00000360: 15ab 2a3e 4217 8c3c 6364 d23d 71df 0c3e
00000370: 9123 123e a80f 7abd d8f1 21bd ea7a ae3d
00000380: cc93 45bd 9a87 a93d 0030 1ebd b78d f5bd
00000390: 8c5d 933d 3807 de3c 126a a13d 17d7 333e
000003a0: fe2c f73d 599a 2b3e c004 1b3c 11b7 1bbe
000003b0: e0fa fdbd 90e3 e0bd e385 1fbe 9278 b5bd
000003c0: fca3 26be de02 27be 7e56 d8bd 7a74 32be
000003d0: 4e39 debd 6a0c 8a3d cdfa 163e d662 57bd
000003e0: 649e 52bd ce4f c13d 8d9e b2bd 052f abbd
000003f0: 0e10 df3d f2b8 1dbe a012 b13c c3e8 1f3e
-0.1364078 -0.0437165 0.119226746 0.029516378 -0.13445742 -0.1418147 0.08794202 -0.1314938
-0.021766083 0.084800825 -0.081814766 -0.01927607 -0.015387431 -0.04182242 -0.089669995 -0.15762222
-0.14301516 -0.09477429 0.17073761 -0.08538574 -0.11871075 0.042848784 0.04865926 0.09679467
0.13435282 0.09842152 -0.17529792 0.015650366 0.10708304 -0.016338661 -0.10417082 0.16852827
-0.064998135 -0.11316308 -0.15079261 -0.10290441 0.078333504 0.039129272 0.034957543 -0.13406523
-0.16508949 0.0031129445 0.16118878 0.101984166 -0.10293032 -0.022866342 -0.13720343 -0.10539945
-0.021341404 0.3435045 0.14643638 -0.16229975 0.117879 -0.125605 0.053630095 0.20050754
0.00421013 0.12674229 -0.12958069 -0.040082134 0.10310553 -0.03851396 -0.045155074 -0.0296224
0.12440513 0.08698056 0.06584454 -0.10864549 -0.14349912 0.019119538 0.052375197 -0.081619896
-0.049461722 0.11938929 0.014080563 0.007974677 -0.043520927 -0.1600769 -0.16532546 -0.08584177
-0.08260734 0.09239702 -0.051461592 -0.06915895 0.16851537 0.061465483 0.12149899 -0.080936156
-0.069719136 0.062361594 -0.11736099 -0.11421028 -0.008538261 -0.064657964 -0.13158736 0.11206889
0.14417802 0.024155684 -0.009518447 -0.21358445 -0.06438894 0.045004748 0.08335568 -0.022347674
-0.069889165 0.09850459 -0.14078492 0.11172601 -0.06862405 0.0027365615 -0.037705466 0.0121352775
-0.08158196 0.25804147 -0.004595697 0.1379918 0.16994531 -0.08655546 -0.13764983 0.16907562
0.14346437 -0.15100595 -0.0022552612 -0.16032101 -0.14470924 0.034143105 0.042505667 0.06219678
-0.04853105 0.15785304 0.023098944 -0.15291286 -0.010008459 0.042450458 0.061905906 -0.12499541
0.066254064 -0.090311974 -0.1468912 -0.096557155 0.1705387 0.15118742 0.15348077 0.094013646
0.12579294 0.102212176 -0.097267464 0.08832763 -0.09176434 -0.11976443 -0.05913379 0.05977905
0.09201736 -0.08182263 -0.090667754 0.04034044 -0.10419805 -0.115092486 0.08882844 -0.010533322
0.16227138 0.1650024 0.05459102 0.015397472 0.040707782 0.0027673622 -0.012857407 0.0024296343
0.06601279 0.1643618 -0.045815147 -0.07472809 -0.04296894 -0.08553306 0.0292622 0.12395256
0.12102923 0.18135372 -0.13009554 -0.09487689 -0.039052736 -0.03294045 0.009431869 -0.14135739
0.05237295 -0.15093194 -0.11147076 -0.14254697 0.154029 -0.16739689 0.13182195 0.013549996
-0.020414392 0.110695645 -0.01619443 0.110997014 0.12781227 -0.1534793 0.068020836 0.03337173
0.038009062 0.025807895 0.04835426 -0.085040964 -0.022615751 0.16796 0.11884467 -0.0065685627
-0.16519341 0.008801635 -0.12038025 0.1437533 -0.107317485 -0.012762361 -0.03903514 0.03167653
0.16666825 0.017100934 0.102730535 0.13757111 0.1427138 -0.061050087 -0.03953728 0.08519538
-0.048236653 0.08277817 -0.038619995 -0.119899206 0.07195577 0.027103052 0.078815594 0.17562519
0.120691285 0.16758098 0.009461582 -0.15206553 -0.12401366 -0.10980904 -0.15578417 -0.088608876
-0.16273493 -0.16309687 -0.10563372 -0.17427245 -0.10850774 0.06740649 0.1474411 -0.05258449
-0.051420584 0.0943905 -0.087216474 -0.08358578 0.10891734 -0.15402582 0.021615326 0.15616135

cnn.6.bias f4 [32]
00000000: e9ee 823d 7a78 19bd 66d8 f63d 6ed1 0fbd
00000010: ba9b 0abe 9a37 cc3d 9c1c d13c dc5f 4fbd
00000020: dd79 f4bd 4544 dcba 4613 34be 6159 bdba
00000030: 2280 b33d 4eca 1ebe 4804 edbd b423 02be
00000040: d219 ca3d 73ef 133e 5670 353c ebdd 0a3e
00000050: 010b 72bd d3bc 2fbe 520f 883d 949a 813d
00000060: 2209 0d3e dac1 37b8 48d0 e43d 795a 7a3d
00000070: 73dc 043e 9da1 33be 1c83 1c3e dc06 28be
0.06393225 -0.03746841 0.120529935 -0.035111837 -0.13535967 0.09971543 0.025526337 -0.050628528
-0.11937306 -0.0016805014 -0.17585477 -0.0014446193 0.08764674 -0.1550686 -0.11573082 -0.12708932
0.09868206 0.14446811 0.011074146 0.13561217 -0.059092525 -0.17161874 0.06643547 0.063283116
0.13773015 -4.381114e-05 0.11172539 0.061121438 0.1297472 -0.1754212 0.1528439 -0.16408867

cnn_fc.weight f4 [128, 64]
00000000: 197f e53d 35e7 a9bb 91f2 e1bd 8e38 123d
00000010: bc7a d6bc e74c e5bd 09d6 3dbd 2b78 663c
00000020: 3357 ca3d 1d5e 16bd 20d5 9b3d 4d23 8d3c
00000030: 6b6e 893b 0cc1 c33c 3a01 a8bd 68c9 d4bd
00000040: 5cee 1fbd 23bd ecbd 6748 69bd bd84 dc3b
00000050: 1bdc a8bd ad57 54bd d080 acbc a690 56bc
00000060: 1d62 8dbd 1ac2 c33b a8ba 8fbc 046e 123d
00000070: 8001 b93b 64ad 7fbd fc45 30bd 80d6 bcba
00000080: 87a8 9ebd c9e5 283c 4cb7 12bc 9128 463d
00000090: 7b58 f23c 1096 bf3d 7297 4fbb ff0d bcbd
000000a0: 59de 643d b703 adbd 50c0 8cbc 78c9 25bd
000000b0: 71dd 3fbd 166e 40bd 8e38 eb3d da86 923d
000000c0: ced4 0c3d 4070 f13d 24fe e7bd 963d a53c
000000d0: c2a4 a73d a2e8 ad3d f4e1 cbbd 417b 383d
000000e0: 9b2e 92bd e9ac a0bb a8ad d5bc 3cc0 d5bd
000000f0: 4e62 f6bd a1df a9bd 9419 6d3d f5ba 6d3d
00000100: c9ab debd a84c 40bd c870 163c 776b fabd
00000110: 711a 963d 8cf1 e03d 73e8 e53c 3866 e4bd
00000120: 472f 0b3d 1ba4 1e3d d548 d33d 40e2 8fbd
00000130: 128f e5bd 398a 603d 8000 ff3b b8d2 26bd
00000140: 333f 51bd f280 93bd c010 d23d 3cc8 12bd
00000150: 00f3 b63d ecb5 e13d 8e8a 9e3c ae64 3a3c
00000160: 3451 0cbc 80b8 af3d b2ad e6bd 1c9d 4b3d
00000170: d0d6 a6bc 9cc9 693d 00f3 11ba 8493 3dbd
00000180: c0f7 f2bb 5e42 4c3d 531c b2bd 3636 a2bd
00000190: 515f e5bc 0bb7 39bd d98d 5c3d 1837 973d
000001a0: 8f56 5bbc 1d11 f23d 80ec 55bd 24a8 8fbd
000001b0: 660c 67bd f039 a0bd c07e b3bd f327 e4bd
000001c0: a09f dbbd b81d a63c 471f 9c3d 2f58 f03d
000001d0: be8a e13d 6753 56bc 7626 fa3c 1d1a bebd
000001e0: a764 443d 80a6 f6bd 1c7f 713d 48d1 bb3c
000001f0: a405 213d 81c9 3a3d d664 69bd 2718 d53d
00000200: 3d5a 743d 422a a83d 77c0 6b3c 3007 ab3d
00000210: cf83 aa3d 947a 6c3d 1c18 bf3d 18f9 87bc
00000220: 3fa4 a53d 47fc fe3c f9be 963d 1468 fb3d
00000230: 837a e73c f33b 3ebd a0c4 4bbc 8024 103d
00000240: c458 a83c 67d7 01bd e7fb c53d b38c a13d
00000250: 5188 9fbd 070c 29bc 8179 6dbc 7620 99bd
00000260: e443 953c b039 1dbd b629 84bd d0a1 24bd
00000270: 888d 36bd 5ce6 f43d 8c63 443d d8ee fb3d
00000280: 92a3 ff3c 7798 073d 1a6d 523d b1c6 af3c
00000290: c9e6 c8bd f262 97bd 0d50 03bd 8706 a33b
000002a0: bce0 403d 1025 453d 9616 cb3d 6075 d03c
000002b0: a9af 2cbd c497 c4bd d184 bbbd 45f0 98bd
000002c0: a7b2 193d 5569 943d 39fa df3d acf3 21bd
000002d0: ca2e 2dbc 2714 0fbd 85d1 86bb fb20 363d
000002e0: f9a7 22bb 900b c73b 48ba 813c 9cad 3e3d
000002f0: bccd 1ebd aad3 99bd 07c8 ef3c 8a28 63bc
00000300: 75e9 67bd 6c0f 573d 5f7e bcbb 4e28 5f3b
00000310: dcc5 81bd abb1 4fbc ac25 e3bd fe8b 5a3d
00000320: c5db 74bb 4a5d af3d e2c6 b039 aa58 613c
00000330: 14ce 0b3d 78f7 c23d 14f3 71bd 54d5 983d
00000340: 80a1 ee3c 0799 97bd 767d 303d 6e75 58bd
00000350: 7028 1cbd 9dea 6cbd 66e2 b5bd 4adf f73d
00000360: 86a4 e4bd 6d2e 803d 2e67 e6bd 0041 79bc
00000370: 604b f43b 3cfe b53d 1c4a 39bd 205e 133d
00000380: 9d55 593c 6e4c cd3d af3c fc3b d9f7 403d
00000390: afa5 9abd aee5 b1bd 347e d83d d2bc 99bd
000003a0: 3e53 aebc e18f 77bc 5a56 fa3d e04c ddbc
000003b0: d094 c4bd 77c0 29bd d123 843d 0314 4b3d
000003c0: f3d2 cc3d 55c2 0abc ec2c 713d e8e7 f0bd
000003d0: 9d3f 2b3d f983 833d 3b3b 993d 45e4 38bd
000003e0: 2916 06bd 9b64 fd3c d8ea b5bd a4a4 cbbd
000003f0: c207 f9bd 0267 d53b 5229 9e3d adec 183d
0.112058826 -0.0051850327 -0.11032594 0.035698466 -0.026181571 -0.111963086 -0.046346698 0.014066736
0.09879913 -0.036710847 0.0760901 0.017228747 0.004194071 0.023895763 -0.08203359 -0.10389978
-0.039045677 -0.115595125 -0.056953814 0.006729691 -0.08245107 -0.051841427 -0.021057516 -0.01309601
-0.06903479 0.0059740664 -0.01754506 0.03574945 0.0056459308 -0.062421218 -0.043035492 -0.0014407188
-0.07746988 0.010308691 -0.008954834 0.04837853 0.029583206 0.09354794 -0.0031675962 -0.09182357
0.05587611 -0.08447974 -0.017181545 -0.04047534 -0.046842042 -0.046979986 0.11485396 0.07154627
0.034382634 0.11788988 -0.1132777 0.020170968 0.08185722 0.08491637 -0.099552065 0.04503942
-0.071377955 -0.004903425 -0.026083782 -0.104370564 -0.12030469 -0.08294607 0.05788572 0.058039624
-0.10872609 -0.046948105 0.009182163 -0.122275285 0.07329262 0.109835714 0.028064942 -0.11152309
0.033980634 0.038730722 0.10316626 -0.07025576 -0.11208929 0.05481932 0.007782042 -0.0407283
-0.051085662 -0.07202329 0.10257101 -0.03583549 0.08933067 0.11021027 0.019353177 0.011376543
-0.008564282 0.085801125 -0.112635985 0.049710378 -0.020366102 0.057077035 -0.0005567521 -0.04628326
-0.007414788 0.04986798 -0.08696809 -0.07920496 -0.027999552 -0.04534058 0.053846214 0.07383555
-0.013387336 0.1181967 -0.052227497 -0.07014492 -0.05640831 -0.07823551 -0.0876441 -0.11140432
-0.107238054 0.020277843 0.07623153 0.1173557 0.11012791 -0.013081408 0.030535918 -0.092823245
0.047947552 -0.12043476 0.05895911 0.022926942 0.03931202 0.045602325 -0.05698093 0.10404997
0.05965637 0.08211185 0.014389149 0.0835098 0.08325922 0.057734087 0.093307704 -0.01659827
0.08087968 0.031126155 0.07360644 0.12275711 0.02825666 -0.04644389 -0.012437016 0.03519106
0.02055014 -0.031699564 0.09667187 0.07888164 -0.07789672 -0.010317809 -0.014494301 -0.074768946
0.01822085 -0.038385093 -0.06453268 -0.04019338 -0.04456857 0.11958 0.047946498 0.12301415
0.031205926 0.033104386 0.05137358 0.021457048 -0.09809644 -0.07391919 -0.032058764 0.0049751434
0.047089323 0.04813105 0.09916417 0.025446594 -0.04215971 -0.095992595 -0.09156192 -0.07467703
0.03752389 0.07246653 0.10936398 -0.039539024 -0.010570237 -0.03493133 -0.004114332 0.044465046
-0.0024819358 0.0060743764 0.015835896 0.046552286 -0.038770422 -0.07511075 0.029270185 -0.013864646
-0.056619126 0.05250494 -0.0057523693 0.0034051123 -0.06336567 -0.012676637 -0.1109117 0.053356163
-0.0037362438 0.08562715 0.00033717515 0.013754049 0.03413208 0.09519857 -0.059069708 0.07462564
0.029129744 -0.074022345 0.0430884 -0.052846365 -0.0381245 -0.057840932 -0.08881073 0.12103136
-0.11164193 0.06258855 -0.11250149 -0.015213251 0.0074552745 0.08886382 -0.04523669 0.035978436
0.013265041 0.100243434 0.0076976637 0.047111366 -0.07551133 -0.08686386 0.10570946 -0.07506718
-0.021279927 -0.015109987 0.122235015 -0.027014196 -0.09598696 -0.041443314 0.06452144 0.04957963
0.10001173 -0.008469184 0.05888073 -0.117629826 0.041808713 0.06421656 0.074820004 -0.04513957
-0.032735977 0.030931761 -0.088826835 -0.09943512 -0.12159683 0.0065125236 0.07722725 0.037335087

cnn_fc.bias f4 [128]
00000000: 099e a1bd 92e4 963d 1f50 3d3b 9222 61bc
00000010: da7a 10bd abfd f6bd 2d4b c4bd 9a57 b13d
00000020: a504 adbc eaee 02bc 2f07 9cbd 9cad d1bc
00000030: 31a1 59bd d16e ff3b c949 e1bd b0c1 a73c
00000040: e2fe ebbd a620 a1bd ab62 40ba 54de 9abc
00000050: efff 22bd b1ef 983d 38b3 c93b b36b 9f3c
00000060: 49e6 433d 9dac de3b 6abf e8bd bccf 5dbd
00000070: e754 a43d be8e 8e3d 032b 513d d8b4 e43d
00000080: 81a3 79bd a5eb 0bbd eb8a 10bd 45f3 bebc
00000090: 394f de3d 4cba f5bd 5874 af3c 61b4 053e
000000a0: 66fe a1bd 90e7 a93d e77d d1bd 1105 863c
000000b0: 6f74 90bd 96ae 293d e095 173d f880 a73c
000000c0: 74ec b7bc 7e5c 16bd 3aaa efbd 1c7c 263c
000000d0: a193 023e 3869 bebd 3686 43bd 8522 3f3c
000000e0: 56a8 683d 88d7 3f3d 58d5 9f3d 30b5 363c
000000f0: 0315 ebbc 131b c2bd cf31 09be 167e b6bd
00000100: 4985 573d 8663 d93d df47 f53d 42fe b03d
00000110: c11d 323c e1c7 af3d a714 343d c791 a5bd
00000120: e43a 0abc 93d9 03be 355b ce3d ee1b 173d
00000130: 4d5c f03d eca2 43bc 81a2 c53d 6ca4 553d
00000140: 4d8e a1bc c2e5 8fbb 9013 b13d e3d7 6cbc
00000150: 8e16 c63d 1b2d ce3c 71f5 43bd 4323 4abd
00000160: 80bf 52bd d533 a03d 8703 b03d 901c 55bd
00000170: 1732 e0bd 7e08 a33d defa b9bc f48a e3bd
00000180: c005 fb3c 4be7 ccbb 37e4 9c3d 04e3 023d
00000190: d031 95bd ce82 d1bc a39e bdbd 7eb2 7a3d
000001a0: fab6 473d c6a9 893d a7c5 acbd a263 92bd
000001b0: 8655 a8bd 462e c8bd dc36 e8bd 9807 c8bd
000001c0: 1bf2 a73d 9480 22bd 8883 b2bc d089 dd3c
000001d0: 08ac 173d 4591 783d 769a adbd 8342 da3d
000001e0: 3504 c8bb f675 67bd d566 803d 3969 cbbd
000001f0: 60e7 88bd 2322 673d a8ca 483d a5cd 69bd
-0.07891471 0.07367815 0.0028886867 -0.013741152 -0.03527341 -0.12060102 -0.09584651 0.08659287
-0.021120379 -0.007991532 -0.07618558 -0.025595479 -0.05313224 0.0077951928 -0.110004015 0.0204781
-0.115232244 -0.07867555 -0.00073389214 -0.018904842 -0.03979486 0.074675925 0.0061553977 0.019460535
0.04782704 0.0067954795 -0.11364634 -0.05415319 0.08024006 0.0696082 0.05106641 0.11167306
-0.060946945 -0.034160275 -0.035288732 -0.02330936 0.10854954 -0.11998424 0.021417782 0.1305709
-0.07909851 0.0829612 -0.10229092 0.016359838 -0.07053458 0.041426264 0.037008166 0.02044724
-0.022451617 -0.0367093 -0.1170239 0.010161426 0.12751628 -0.09297413 -0.047735415 0.011665945
0.056801163 0.046836406 0.07804364 0.011151597 -0.028696543 -0.0947782 -0.13397907 -0.08910768
0.052617345 0.10614686 0.11976599 0.08642246 0.010871352 0.08583046 0.043965008 -0.080844454
-0.008436892 -0.12875967 0.1007599 0.03689187 0.11736355 -0.011940699 0.09650136 0.052158758
-0.019721175 -0.004391403 0.086463094 -0.014455768 0.09672271 0.025167992 -0.047841493 -0.049350034
-0.05145216 0.07822386 0.08594423 -0.052029192 -0.10947054 0.07960604 -0.02270263 -0.111104876
0.03064239 -0.006253158 0.07660716 0.03195478 -0.072848916 -0.025575068 -0.09258773 0.06120538
0.048758484 0.06721835 -0.08436137 -0.0714791 -0.08219437 -0.09774451 -0.113385886 -0.097670734
0.08200475 -0.039673403 -0.021791235 0.027043253 0.037029296 0.060685415 -0.08476727 0.10657217
-0.006104017 -0.05650898 0.06269614 -0.09932179 -0.06684756 0.05642904 0.049021393 -0.057080884

gru.weight_ih_l0 f4 [96, 3]
00000000: 1166 91bc dcd7 04bd dfac 923d 2144 f93c
00000010: 0005 7a3d d9e1 153e 0d7e f7bd f9b7 0bbe
00000020: d964 2bbd 6404 a7bd 9784 01be 86b8 273e
00000030: 7795 153e bdce 133e 2ce0 e0bd c596 acbc
00000040: 5f13 0dbe b872 82bd eb40 173e 67b5 b63c
00000050: e07f 7b3d 1991 35be 395b 953d 022c f43d
00000060: b5eb 8cbd bccb 083e c2e3 a23d 2eaf 00be
00000070: a293 0abe 1f35 053b 290d 2ebe 0fb0 fbbd
00000080: d61a 8d3d 2881 65bd 58f4 c6bb 936b 93bd
00000090: 0bff e73d 3f66 133e 0a46 023e f055 20be
000000a0: 58ef 56bd 63cf ae3d 5371 d63d 4449 22bd
000000b0: 6a1f c63d 70f5 91bb 7337 a03c f598 f33d
000000c0: 3a4b f73d 1eb8 ffbd 3875 dbbd 9fa5 7c3d
000000d0: aa3a d73d c4e6 27bd c57f 1a3e af66 d6bc
000000e0: 3dd9 b5bd 0f77 99bc 9244 1bbe 89a8 613d
000000f0: ab46 23be 1991 283e 3117 09be 803c ee3d
00000100: 7e06 07be 0416 d5bc 9a99 c7bd ec3c b93d
00000110: 18a7 d13d 01d3 29be 78f6 1bbe a4fd ba3c
00000120: 64ca d5bb dc2b d93b b73b 5a3d 959d 0cbd
00000130: dfd3 183e 04ed 4b3c 65c0 9fbd 0a56 813d
00000140: 8bdc 0bbe be73 aabd 221d 553d 76e5 97bd
00000150: cebe 2cbe 0d24 b63d 864d 3b3d 96a8 523d
00000160: 268c 7b3d 4b2a 32be e32a 9fbd f262 b2bd
00000170: ba79 2d3e b93d 98bd 66b2 edbd 846f 7ebd
00000180: 0536 b23b f039 923d 802a 0b3e fa3e 133e
00000190: f76a a73c 9e06 253e 77ab cb3d 1ae6 c63d
000001a0: 316b 1dbe 4e66 65bc 0044 27bd dbe6 29be
000001b0: 7d5f 9bbd 6d43 0d3e 6770 823d f55c 223e
000001c0: 97f2 f53d 1f61 85bb cda6 1f3e 66b3 193d
000001d0: e8b6 d4bc f551 99bd c425 ed3d db74 a53d
000001e0: 7813 113e e875 b7bc d5e3 29be f60a af3a
000001f0: 5dc2 693c 9a22 eabd 0ca0 e63c 36e7 bbbc
00000200: ebbe 1b3e 287c a939 a731 b5bd 8176 103e
00000210: e3ae 8d3b d71c d3bc d6fe ac3d 5051 493e
00000220: 005c b93d 15ae 8e3a 72e1 0e3e 27ea a0bd
00000230: 7eef 1f3e a409 dcbd 2ab9 393b 0cf4 243e
00000240: b7c0 903d f714 14bd 8c5d de3d 39f6 af3d
00000250: 7be4 20be 3d1b 86bc 64a9 14be 1160 0cbd
00000260: 4d62 b1bc 03e9 9abd 069a 83bd f91d c53d
00000270: 4d20 5fbb f137 35be 97ca f83c 4fda 31be
00000280: 722d fabd 2815 dd3d bf31 f93d 8831 82bd
00000290: 01e0 d5bd 381f aa3d 28b9 32be 8f8d db3d
000002a0: aa55 a73d 1d6f 793d ca45 783d 0876 123d
000002b0: e5e6 09be c1b9 94bd 725c cd3d 0844 143e
000002c0: 10b0 9b3b 2895 283d 26cb 2abe abdb fc3d
000002d0: 9df3 d5bd 1da9 c1bd 8ddb 323e d3ee 70bd
000002e0: 662c b5bd 279b bf3c 29d4 dd3d 187f 1d3e
000002f0: adca 903c f9da f33d 64ae ff3d c45e e8bc
00000300: fbd2 15be f990 653c 2f76 8cbd 9021 aa3c
00000310: 0930 10be ef1d f7bd ea5e 19be a0f6 12be
00000320: bfe8 0b3e 75a1 0bbe 6cce 303b 31a1 f6bd
00000330: 0369 54bd 2915 8fbd a257 ab3d 26e4 f33d
00000340: 8dcb 14bd 76b2 b63b b83d 3cbc 0aae 253e
00000350: bff5 983d 43bc 2dbd ecb2 003e 2d00 11be
00000360: c8f6 883d 9f34 093e 6572 c2bd 9542 773d
00000370: 157a 8c3d 666c 0ebe ed46 9f3d 4d02 003e
00000380: 268b ce3c 2958 3ebd a022 82bd 5cb8 f8bd
00000390: 78b3 b33d f211 0ebe 4798 17be 5ef1 a4bd
000003a0: a0d3 35be f1b1 333e ba78 33bd 431d bdbd
000003b0: 7270 313d b8f8 993d d295 dd3d 470b 71bd
000003c0: 09ce afbc bdcf 04be be92 1dbe 76ce babd
000003d0: d7fb 733c eb2d c1bd 83af b5bd 936f 283d
000003e0: f636 223d 658a c23d c399 963d 576d cf3d
000003f0: 8905 39bd 0c89 d93d cc69 1ebe 6c3d 1d3d
-0.017748864 -0.032432422 0.07161879 0.030427994 0.061039925 0.14636935 -0.12084589 -0.13644399
-0.041844223 -0.08155134 -0.12648235 0.16378984 0.14607798 0.14434333 -0.109802574 -0.021067986
-0.1377692 -0.06369537 0.14770858 0.022303296 0.061401248 -0.17731132 0.0729279 0.11922456
-0.06880895 0.13358968 0.079535976 -0.12566826 -0.1353288 0.0020325852 -0.16997208 -0.1228944
0.06889884 -0.056031376 -0.0060716085 -0.071982525 0.113279425 0.14394473 0.1272203 -0.15657783
-0.05247435 0.085356496 0.10470834 -0.039620653 0.096739605 -0.0044543073 0.01955769 0.118944086
0.12074895 -0.124862894 -0.10715717 0.061681386 0.10509236 -0.04099156 0.15087803 -0.02617201
-0.088793255 -0.01873353 -0.15162876 0.05509237 -0.15944926 0.164616 -0.13387753 0.11632633
-0.1318607 -0.026011474 -0.09746094 0.09044823 0.10236949 -0.16584398 -0.15230739 0.022826023
-0.006524371 0.006627543 0.053279605 -0.03432997 0.14924572 0.012446646 -0.07800368 0.06315239
-0.13658349 -0.08322857 0.052029736 -0.07416813 -0.16869661 0.08893595 0.04572823 0.051430307
0.061412953 -0.17398946 -0.07771852 -0.087102786 0.16940966 -0.07433648 -0.116062924 -0.06211807
0.0054385685 0.07139957 0.13590431 0.14379492 0.020436747 0.16115806 0.09944814 0.09711857
-0.15372922 -0.014001442 -0.040836334 -0.1659197 -0.07586572 0.13795252 0.06369095 0.15855773
0.12009161 -0.0040704156 0.15590973 0.037524603 -0.025966123 -0.07486335 0.11579469 0.08078929
0.14167583 -0.02239509 -0.16590817 0.0013354707 0.014267531 -0.11432381 0.028152488 -0.022937398
0.15209548 0.00032326696 -0.08847361 0.14107706 0.0043238266 -0.025770588 0.084470436 0.19659925
0.09050751 0.0010885621 0.13953188 -0.07857161 0.15618703 -0.10744026 0.0028339126 0.16108721
0.070680074 -0.036152806 0.108576864 0.08591885 -0.15712158 -0.01637041 -0.14517742 -0.034271304
-0.021653319 -0.07563975 -0.06425862 0.096248575 -0.0034046352 -0.17697121 0.03037004 -0.17368434
-0.12215699 0.10795051 0.121676914 -0.063571036 -0.10443116 0.08306736 -0.17453444 0.107203595
0.08170636 0.06089698 0.06061343 0.035757095 -0.13466986 -0.07261992 0.10027398 0.14479077
0.004751213 0.04115787 -0.16679057 0.12346586 -0.10446856 -0.09456084 0.17466564 -0.05882151
-0.08846359 0.023389412 0.10831482 0.15380514 0.017674768 0.11907 0.12484434 -0.0283655
-0.14631264 0.014011615 -0.06858479 0.020767957 -0.14080824 -0.12066256 -0.14977613 -0.14351892
0.13663004 -0.1363581 0.0026978506 -0.120424636 -0.05185796 -0.06986458 0.08366324 0.1190875
-0.036326934 0.0055754734 -0.011489324 0.16179672 0.07468747 -0.04241587 0.12568253 -0.14160223
0.06687695 0.1339898 -0.09494475 0.060366232 0.06859223 -0.13908538 0.077772 0.12500878
0.025212836 -0.046470795 -0.063542604 -0.12144539 0.08774465 -0.13874033 -0.14804183 -0.0805385
-0.1775651 0.17548348 -0.043816306 -0.09234097 0.043320127 0.075181425 0.108195916 -0.058848646
-0.02146055 -0.12969871 -0.15388009 -0.091214105 0.014891586 -0.09432586 -0.08871367 0.04112203
0.039603196 0.09499053 0.073535465 0.10128277 -0.045171294 0.10621843 -0.15470046 0.038388655

gru.weight_hh_l0 f4 [96, 32]
00000000: a08b b23c db5a 883d f309 1a3e 64a1 e43c
00000010: 264d ef3d fa4c cbbd 8112 153e 676e 00bd
00000020: 6ef7 c43d 9563 16be a874 d9bd 6d91 d4bd
00000030: f1d0 bf3d d0db cebb 4825 26be 5ddd 313e
00000040: 083b 3c3d 2c48 263e c0a3 b43c 6862 cf3c
00000050: fc90 023e e4d5 f5bd 7dd4 2a3e e39a e9bd
00000060: f3a2 873c 85e7 ebbd 1a80 efbd d81b 0b3e
00000070: 5c3a 3dbd 42f7 07bd d4d2 0c3e 4165 313e
00000080: b508 23be c9d9 36bb 47e9 4d3d 59e9 2d3e
00000090: 96e5 8fbd 5292 6abd 53ce d4bd c0b6 373d
000000a0: 6a95 323d 1d8e 48bb f498 96bc 53cd fbbd
000000b0: f610 94bd 787e 89bd 0077 3f3d b540 9f3d
000000c0: 839d a93d 1737 0abe 24f6 5fbc 0fc2 0bbd
000000d0: 0053 343e 3e22 033e 68f4 06be 0e94 c7bd
000000e0: edde 08be aa14 35bd 0b13 1ebe 46cc aa3d
000000f0: 8f9a 9ebd 5624 b5bd a543 083c ec90 67bd
00000100: 20ae 083e e42c 243e 31ae 21be 2f25 a23d
00000110: 8ce0 6f3b 1135 be3d a5db 87bd 1a31 5cbc
00000120: 3632 58bb 8f51 783d 397c b43d a418 8d3d
00000130: 4690 b23c 595e 10be 87f6 cfbd ef30 cebd
00000140: 2962 34be c854 2d3e 9f0e a4bd ef92 f0bd
00000150: a50c a4bd 84c5 c43d 700a e3bd ff57 17be
00000160: 9c4b 07be 6bf5 1e3d 63d8 e9bb d754 23be
00000170: 9060 f7bd b2eb 1cbe ba44 783d 78bc a33d
00000180: d137 f63c b716 67bd fde6 c2bd 39d4 8e3d
00000190: 79b7 26bd a018 e6bc 98dd 6dbd 7798 fb3c
000001a0: b0cd 2a3d c0ca 143e c5c9 203e 8465 3bbd
000001b0: c7a8 d93c 2059 f2bd 83e5 07be 3b50 163e
000001c0: f85a aa3c 2255 b4bd cec5 b53d c617 923d
000001d0: 8aa3 813d d8a3 993d 60a0 183c 5ff6 03be
000001e0: c8a3 20be 3a95 303e db35 fd3d 2052 0dbe
000001f0: 8c3b 0e3e df66 29be 2c2e f03d e0fe fb3d
00000200: 2292 e33d 2356 993d 7b75 dcbd 5a35 9bbd
00000210: 1655 1a3d ce15 8f3d fdc1 1e3e 2c2d 063c
00000220: 6ce4 953d 3c90 08be d014 12bd 6bef d63d
00000230: a0b3 6e3c fa97 0e3e 2f62 11be a2d9 f0bd
00000240: 0407 633d a8d1 f3bb 2ca4 1abe ff75 9a3d
00000250: c41d f83b 03bf 2e3d 1f8e 1e3d 19d8 f9bd
00000260: 3bd1 f1bd cdf6 10be 4c79 033e 4619 c7bd
00000270: d604 233e 96b4 67bd d77e 1e3d 66f7 2c3e
00000280: 7d3c c2bd f2b3 2bbe 355f d13c 4990 02be
00000290: e391 c73d 3ee4 8f3d a523 033e 2e92 96bc
000002a0: 8ea0 ecbd c8d7 26be 6feb e9bd cd46 213e
000002b0: 4004 1bbd c9dc 50bb f688 19bd bcf6 b8bd
000002c0: c838 143e 1987 3bbd 97b3 afbd 3437 273e
000002d0: 38af d83d 20f3 c03d c0c0 013e bede e5bd
000002e0: 0091 6b3d 5467 49bd ed0d cf3b 8b9f aa3d
000002f0: 6e71 70bd 5fa6 313e ab11 713a 3e9b d03d
00000300: 5650 853c 9c86 2ebe 5e52 d8bd cfcd 16be
00000310: 2b5a aa3c da0a f3bd 1eed 0fbe 6c27 1b3d
00000320: ef81 1ebe c903 c5bd 2c36 eabd 25d3 b03d
00000330: e3e4 253e 0b76 7d3d 9d9a cabd 82f9 083e
00000340: c607 283e 1504 44bd 5f96 053e db15 373d
00000350: 3fea fbbd be41 3dbd 9858 10be ccb4 5a3d
00000360: 740e c83d 8c01 32be e814 94bd 6208 7d3b
00000370: c2df 103e 8b40 c5bd c8aa 28bc 228b a3bb
00000380: 2bd4 b5bd 0d6d a2bd f65f 41bd fdda 57bd
00000390: 86b4 68bd 75b8 893c 0365 71bc 882a b0bd
000003a0: 1928 db3d a26d 013e aa80 e3bc 6354 08bd
000003b0: e389 30be 7156 04be cc46 03bc 3778 0abd
000003c0: ccf0 533d 92ee b3bd 7f90 15bd 95ca d73c
000003d0: 03b4 313e 795a 0e3e 1df5 edbd 01fe 6fbc
000003e0: 4c90 edbc 1ee4 b6bb 36a1 963d a887 91bd
000003f0: 4fd4 1abd 0133 33be 8981 80bd 207a 31be
0.021795094 0.06657954 0.15042858 0.027908988 0.11684637 -0.099267915 0.1455784 -0.031355288
0.09617506 -0.14686425 -0.106179535 -0.103793 0.09366024 -0.006312825 -0.16225159 0.173696
0.045954734 0.16238469 0.022050738 0.025315478 0.1275062 -0.12003687 0.1668262 -0.114064954
0.016557192 -0.11518768 -0.11694355 0.1358484 -0.046198234 -0.033194788 0.137523 0.17323782
-0.1592129 -0.0027900806 0.0502713 0.16983546 -0.07026212 -0.05726845 -0.10390916 0.04485202
0.043599524 -0.0030602284 -0.01838348 -0.12295022 -0.072297975 -0.06713575 0.046744347 0.07776014
0.08281996 -0.13497578 -0.013669524 -0.034120616 0.17609787 0.12806031 -0.13179171 -0.09745036
-0.1336629 -0.04420916 -0.15436952 0.08339743 -0.077443235 -0.08844821 0.008316909 -0.056534693
0.13347673 0.1603275 -0.15789105 0.079172485 0.0036602346 0.09287465 -0.06633691 -0.013439441
-0.0032988912 0.060624655 0.08812756 0.068894655 0.02179731 -0.14098491 -0.10154443 -0.10067927
-0.1761557 0.16926873 -0.08010601 -0.11746775 -0.08010224 0.096079856 -0.11085975 -0.14779662
-0.13212436 0.038808268 -0.007136391 -0.15950333 -0.12078965 -0.15324286 0.060612418 0.07994932
0.030055912 -0.056418147 -0.09516714 0.06974072 -0.040702317 -0.028087914 -0.058072656 0.03071235
0.041700065 0.14530468 0.15701969 -0.04575111 0.026569737 -0.118334055 -0.13271146 0.14679043
0.02079533 -0.088053 0.08875619 0.07133441 0.06330021 0.07501954 0.00931558 -0.12886952
-0.15687478 0.17244425 0.12363788 -0.1380086 0.13889903 -0.16543148 0.117275566 0.12304473
0.11111857 0.074871324 -0.10764595 -0.075785354 0.0376788 0.06986581 0.15503688 0.008189481
0.07318959 -0.13336271 -0.03566438 0.10494884 0.014569193 0.13925162 -0.1419761 -0.1176026
0.055426612 -0.0074407645 -0.15101689 0.07542037 0.0075719077 0.04266263 0.038709756 -0.121994205
-0.11807486 -0.14156647 0.1283924 -0.097216174 0.15919814 -0.056568705 0.038695183 0.1689125
-0.094841935 -0.16767862 0.025558094 -0.12750353 0.097446226 0.070259556 0.12806566 -0.01838025
-0.11554061 -0.16293252 -0.114218585 0.15749665 -0.03784585 -0.003186988 -0.03748413 -0.09031436
0.14474785 -0.045783136 -0.08579176 0.16329652 0.10580295 0.094213724 0.12671185 -0.11224125
0.05751133 -0.049170807 0.0063187988 0.08331212 -0.058701925 0.17348622 0.0009196053 0.1018586
0.016273659 -0.17043537 -0.10562585 -0.14726947 0.020794949 -0.11867304 -0.14055297 0.037879393
-0.15479253 -0.096198626 -0.11436114 0.086340226 0.16200595 0.061880153 -0.098927714 0.1337643
0.16409215 -0.047855455 0.13045643 0.044698577 -0.12300538 -0.046205275 -0.14096296 0.053395078
0.09768382 -0.17383403 -0.0723055 0.0038609733 0.14147857 -0.09631451 -0.010294624 -0.004990951
-0.088783585 -0.07930956 -0.047210656 -0.052699078 -0.056812786 0.016811589 -0.014733556 -0.08601862
0.107010074 0.12639478 -0.027771313 -0.033283602 -0.172401 -0.129236 -0.008012485 -0.033806052
0.051743314 -0.08785738 -0.036514755 0.026341716 0.17353825 0.139017 -0.11619017 -0.014647962
-0.02899947 -0.005581393 0.07354967 -0.071059525 -0.03780013 -0.17499925 -0.06274707 -0.17331743

gru.bias_ih_l0 f4 [96]
00000000: e96b 0dbe 5cbd aabb 6286 76bd 72c9 bdbc
00000010: b529 8bbd f33d 073e 8c03 14be 760e dabd
00000020: 83ac 60bd 7304 193e a45f 10bd ea02 933d
00000030: 3ff0 b13d 6194 1b3e 3f58 26bd 3669 083d
00000040: d2c2 b0bd c5ee 58bc 38fe 1abe 70dc 14be
00000050: 0fb0 453d af8c 0abe de15 be3d e15a 063e
00000060: f0c8 7c3d f872 8b3d a3df 24be e6fd a6bd
00000070: 311b 03be 487f 2cbe 63d9 983d 8710 263d
00000080: e99a 293e 1ee9 40bd c66e eebd 7dff 1fbe
00000090: 386a 3f3c 54b5 c6bd e16a ff3c 3107 ee3d
000000a0: eba7 1c3e 5b5d 03bd 2ea9 efbd bc2e c5bd
000000b0: 8040 e53d f75d 453d e166 323c f733 30be
000000c0: df75 c33d c0b2 de3d 38dc 873c e210 05bd
000000d0: 4b43 aabd 0dfe cb3a 2f0b d43b 67cb 503d
000000e0: f95e 37bc 164e 2b3e 0aa9 e63d b873 203d
000000f0: a512 21be fd3c afbd 1dfd 873d 64f1 eabd
00000100: 8583 993d 9829 693d c319 f4bd c0f3 8a3d
00000110: c01c 18bd 0082 073e f5ef 04bd 6b25 2d3e
00000120: 8b90 223e 7af4 b4bd f65d 703c 0476 2dbd
00000130: c6b5 0b3e 13b3 8b3d 3ca5 003c 9a5f ab3d
00000140: 39eb 0ebe cc84 b1bc e47e 863d d577 3fbe
00000150: 9561 1a3e 4b0f 923c 2939 2a3e 9431 67bd
00000160: 71fe 88bc d6e6 6fbd 0aa4 acbd 2fad 8fbd
00000170: 8f5e ef3d 7bd5 343e 1dc2 933d 5d30 ce3d
-0.13810696 -0.0052105617 -0.06018675 -0.023167346 -0.06795064 0.13207226 -0.14454478 -0.106472895
-0.05485202 0.14943103 -0.03524746 0.0717829 0.086884014 0.15193321 -0.0406115 0.033303462
-0.08630909 -0.013240521 -0.1513604 -0.14537215 0.048263606 -0.13530229 0.092815146 0.13120605
0.061715066 0.06809038 -0.16100936 -0.08153896 -0.12803341 -0.16845429 0.07463338 0.040543105
0.16563 -0.047097318 -0.11642222 -0.15624805 0.011683039 -0.09702554 0.031178894 0.116224654
0.1529843 -0.032071453 -0.1170219 -0.096280545 0.11193943 0.048185315 0.010888786 -0.17207323
0.095439665 0.108739376 0.0165845 -0.032486804 -0.08313616 0.0015563384 0.0064710598 0.05097523
-0.011192077 0.16729006 0.112627104 0.039172858 -0.15729769 -0.085565545 0.066400744 -0.11471823
0.074957885 0.056924433 -0.11918976 0.06784773 -0.037136793 0.13233185 -0.032455403 0.16908805
0.15875451 -0.08835693 0.0146708395 -0.042348877 0.1364356 0.06821265 0.007851895 0.08367844
-0.13956918 -0.021669768 0.06567171 -0.18698056 0.15076287 0.017829558 0.16623367 -0.056443766
-0.01672289 -0.05856975 -0.084297255 -0.07015454 0.116879575 0.17659561 0.072147585 0.10067818
