best/att_noPCA_prediction_model.pth (torch, 236082 bytes, 23 tensors)

Wa f4 [128, 128]
000000 00 00 00 00 00 00 00 00 00 00 00 00 00 00 00 00
       0.0 0.0 0.0 0.0
000010 00 00 00 00 00 00 00 00 00 00 00 00 00 00 00 00
       0.0 0.0 0.0 0.0
000020 00 00 00 00 00 00 00 00 00 00 00 00 00 00 00 00
       0.0 0.0 0.0 0.0
000030 00 00 00 00 00 00 00 00 00 00 00 00 00 00 00 00
       0.0 0.0 0.0 0.0
000040 00 00 00 00 00 00 00 00 00 00 00 00 00 00 00 00
       0.0 0.0 0.0 0.0
000050 00 00 00 00 00 00 00 00 00 00 00 00 00 00 00 00
       0.0 0.0 0.0 0.0
000060 00 00 00 00 00 00 00 00 00 00 00 00 00 00 00 00
       0.0 0.0 0.0 0.0
000070 00 00 00 00 00 00 00 00 00 00 00 00 00 00 00 00
       0.0 0.0 0.0 0.0
000080 00 00 00 00 00 00 00 00 00 00 00 00 00 00 00 00
       0.0 0.0 0.0 0.0
000090 00 00 00 00 00 00 00 00 00 00 00 00 00 00 00 00
       0.0 0.0 0.0 0.0
0000a0 00 00 00 00 00 00 00 00 00 00 00 00 00 00 00 00
       0.0 0.0 0.0 0.0
0000b0 00 00 00 00 00 00 00 00 00 00 00 00 00 00 00 00
       0.0 0.0 0.0 0.0
0000c0 00 00 00 00 00 00 00 00 00 00 00 00 00 00 00 00
       0.0 0.0 0.0 0.0
0000d0 00 00 00 00 00 00 00 00 00 00 00 00 00 00 00 00
       0.0 0.0 0.0 0.0
0000e0 00 00 00 00 00 00 00 00 00 00 00 00 00 00 00 00
       0.0 0.0 0.0 0.0
0000f0 00 00 00 00 00 00 00 00 00 00 00 00 00 00 00 00
       0.0 0.0 0.0 0.0
000100 00 00 00 00 00 00 00 00 00 00 00 00 00 00 00 00
       0.0 0.0 0.0 0.0
000110 00 00 00 00 00 00 00 00 00 00 00 00 00 00 00 00
       0.0 0.0 0.0 0.0
000120 00 00 00 00 00 00 00 00 00 00 00 00 00 00 00 00
       0.0 0.0 0.0 0.0
000130 00 00 00 00 00 00 00 00 00 00 00 00 00 00 00 00
       0.0 0.0 0.0 0.0
000140 00 00 00 00 00 00 00 00 00 00 00 00 00 00 00 00
       0.0 0.0 0.0 0.0
000150 00 00 00 00 00 00 00 00 00 00 00 00 00 00 00 00
       0.0 0.0 0.0 0.0
000160 00 00 00 00 00 00 00 00 00 00 00 00 00 00 00 00
       0.0 0.0 0.0 0.0
000170 00 00 00 00 00 00 00 00 00 00 00 00 00 00 00 00
       0.0 0.0 0.0 0.0
000180 00 00 00 00 00 00 00 00 00 00 00 00 00 00 00 00
       0.0 0.0 0.0 0.0
000190 00 00 00 00 00 00 00 00 00 00 00 00 00 00 00 00
       0.0 0.0 0.0 0.0
0001a0 00 00 00 00 00 00 00 00 00 00 00 00 00 00 00 00
       0.0 0.0 0.0 0.0
0001b0 00 00 00 00 00 00 00 00 00 00 00 00 00 00 00 00
       0.0 0.0 0.0 0.0
0001c0 00 00 00 00 00 00 00 00 00 00 00 00 00 00 00 00
       0.0 0.0 0.0 0.0
0001d0 00 00 00 00 00 00 00 00 00 00 00 00 00 00 00 00
       0.0 0.0 0.0 0.0
0001e0 00 00 00 00 00 00 00 00 00 00 00 00 00 00 00 00
       0.0 0.0 0.0 0.0
0001f0 00 00 00 00 00 00 00 00 00 00 00 00 00 00 00 00
       0.0 0.0 0.0 0.0
000200 21 19 70 2d 3b 08 d3 ac dc c8 ff 2d c0 6b 8a ad
       1.3648e-11 -5.9978945e-12 2.9079343e-11 -1.5736634e-11
000210 46 12 a5 ad 49 90 3c 2d 67 6a d7 ad 47 e3 b5 ad
       -1.8766443e-11 1.07186005e-11 -2.4489922e-11 -2.0678249e-11
000220 3b ab 38 2d fe f9 4f ad 59 8f f1 ab 59 db b9 2d
       1.049721e-11 -1.1822097e-11 -1.7163867e-12 2.1129475e-11
000230 53 fc 5d 2d ca a4 c3 2c ef 9f 3d 2d 36 88 21 2e
       1.2618423e-11 5.5605286e-12 1.07789186e-11 3.672814e-11
000240 9d 0b 8b ad f4 f4 7e ad cc 1c 0c ad a8 37 e9 ac
       -1.5807628e-11 -1.4492619e-11 -7.964473e-12 -6.6284374e-12
000250 c1 86 11 ad 73 8a 1e 2d 4c a8 2a 2d 7f 56 2d 2d
       -8.272217e-12 9.012002e-12 9.700751e-12 9.8531175e-12
000260 a9 bd 13 2d f1 2e 6b 2d 89 42 04 2d 95 1f 22 ad
       8.398096e-12 1.33686265e-11 7.518105e-12 -9.2156465e-12
000270 3e cc 67 2d df 3c 09 ad 26 fc 9f ad f3 3b 47 ad
       1.3176181e-11 -7.8010645e-12 -1.8188184e-11 -1.1325152e-11
000280 cb 74 2b 2d 72 78 51 2d 09 7d 17 ad db d9 4e ad
       9.746158e-12 1.1907019e-11 -8.61112e-12 -1.1758118e-11
000290 ef 17 42 2d e3 23 fc ad 1d a8 c2 ac a2 73 89 2c
       1.1032938e-11 -2.866502e-11 -5.532476e-12 3.906612e-12
0002a0 e4 fd d4 2a df 9c 1b ad 4e 29 ec ac d1 14 06 ad
       3.7834937e-13 -8.845562e-12 -6.712109e-12 -7.62164e-12
0002b0 5a b1 86 ad 1f bc bb ad 12 15 44 2d 2f e0 c8 2d
       -1.5312796e-11 -2.1342981e-11 1.1145989e-11 2.2836925e-11
0002c0 d7 53 c6 2c f0 9b 4c ad 62 3e 8f ad ab e7 c8 ac
       5.6368066e-12 -1.16306825e-11 -1.6284921e-11 -5.710062e-12
0002d0 f2 26 58 ac 2d c4 29 ad e0 9f 0a ae 69 07 10 2e
       -3.0717065e-12 -9.6500976e-12 -3.1519565e-11 3.274839e-11
0002e0 46 1d ae ac 58 41 9b ad ad a8 7b ad 84 8c c8 2d
       -4.9486274e-12 -1.7650478e-11 -1.4305152e-11 2.2799769e-11
0002f0 55 71 05 ad e6 32 d9 2c fc 90 61 ac b7 47 7a 2d
       -7.5853395e-12 6.173162e-12 -3.2054906e-12 1.4226779e-11
000300 a5 4e 17 ae 53 2f df a9 f7 a1 ff 2c 6f 00 16 2d
       -3.4403275e-11 -9.911399e-14 7.2655176e-12 8.526609e-12
000310 b0 49 04 ad 2a 65 1e ad 7c 57 bc 2d ea a9 a7 ac
       -7.519693e-12 -9.003723e-12 2.1411976e-11 -4.7652897e-12
000320 10 8b 94 2c 74 81 a6 2d d5 4b b2 ac c5 97 75 ad
       4.221852e-12 1.8929504e-11 -5.0674833e-12 -1.3960337e-11
000330 35 9f d0 ad 4b 35 00 2d 9f d9 03 ad 5a 42 da 2d
       -2.3717564e-11 7.287791e-12 -7.4948095e-12 2.4813197e-11
000340 d3 5d 47 ad 30 b0 b8 ac 50 3d c7 ac 43 d8 97 2c
       -1.13326735e-11 -5.2491553e-12 -5.6627272e-12 4.315688e-12
000350 af 7f a5 ad 9e 80 f3 2b b1 b2 a9 ad 35 2f 88 2d
       -1.8815031e-11 1.7301887e-12 -1.929243e-11 1.5482374e-11
000360 04 e1 f0 2b 55 78 08 2e db d0 07 ac ab a7 86 ac
       1.711548e-12 3.1029696e-11 -1.9300592e-12 -3.827124e-12
000370 16 bb 46 ad d7 37 54 ad 1a a4 6f ad 3e ac c7 2d
       -1.1296538e-11 -1.2063204e-11 -1.3622015e-11 2.2700172e-11
000380 3a 72 66 2d b1 7b 06 ad ee bc e6 2a 87 ae 38 2e
       1.309935e-11 -7.644483e-12 4.0987304e-13 4.1991768e-11
000390 30 4c 9d 2c 8e 97 c7 2d 7b 13 b0 2d 4c a9 0c ad
       4.470667e-12 2.2690985e-11 2.0017535e-11 -7.99567e-12
0003a0 20 cd 94 ac b2 a9 9c ac d4 53 4e 2d bb dd 81 2d
       -4.2291864e-12 -4.4526266e-12 1.1728358e-11 1.476407e-11
0003b0 63 cb 35 ad 1f 09 89 ad e1 6f eb 2c c0 00 39 ac
       -1.033382e-11 -1.5579147e-11 6.6915228e-12 -2.6290498e-12
0003c0 6d 5f f6 2c d7 3c 02 2c 07 87 b1 2c 67 e5 53 ad
       7.002335e-12 1.8507884e-12 5.0456336e-12 -1.2044899e-11
0003d0 65 f9 08 ae 1f 66 47 ac 58 49 97 2d 36 97 6a 2d
       -3.1144327e-11 -2.833629e-12 1.7199284e-11 1.3334936e-11
0003e0 14 0b 86 ac ef cf 7d ad c2 a0 d9 ad 8d 8d 06 ad
       -3.809739e-12 -1.44275555e-11 -2.4741435e-11 -7.648449e-12
0003f0 9a 40 4d 2d 2b f5 b8 2d e4 f7 9b aa e8 22 cc 2d
       1.1667245e-11 2.1027255e-11 -2.770554e-13 2.3207616e-11

ba f4 [128]
000000 00 06 07 e7 f6 be 01 ae f6 be 01 ae f6 be 01 ae
       -6.3763016e+23 -2.950081e-11 -2.950081e-11 -2.950081e-11
000010 f6 be 01 ae f6 be 01 ae f6 be 01 ae f6 be 01 ae
       -2.950081e-11 -2.950081e-11 -2.950081e-11 -2.950081e-11
000020 f6 be 01 ae f6 be 01 ae f6 be 01 ae f6 be 01 ae
       -2.950081e-11 -2.950081e-11 -2.950081e-11 -2.950081e-11
000030 f6 be 01 ae f6 be 01 ae f6 be 01 ae f6 be 01 ae
       -2.950081e-11 -2.950081e-11 -2.950081e-11 -2.950081e-11
000040 f6 be 01 ae f6 be 01 ae f6 be 01 ae f6 be 01 ae
       -2.950081e-11 -2.950081e-11 -2.950081e-11 -2.950081e-11
000050 f6 be 01 ae f6 be 01 ae f6 be 01 ae f6 be 01 ae
       -2.950081e-11 -2.950081e-11 -2.950081e-11 -2.950081e-11
000060 f6 be 01 ae f6 be 01 ae f6 be 01 ae f6 be 01 ae
       -2.950081e-11 -2.950081e-11 -2.950081e-11 -2.950081e-11
000070 f6 be 01 ae f6 be 01 ae f6 be 01 ae f6 be 01 ae
       -2.950081e-11 -2.950081e-11 -2.950081e-11 -2.950081e-11
000080 f6 be 01 ae f6 be 01 ae f6 be 01 ae f6 be 01 ae
       -2.950081e-11 -2.950081e-11 -2.950081e-11 -2.950081e-11
000090 f6 be 01 ae f6 be 01 ae f6 be 01 ae f6 be 01 ae
       -2.950081e-11 -2.950081e-11 -2.950081e-11 -2.950081e-11
0000a0 f6 be 01 ae f6 be 01 ae f6 be 01 ae f6 be 01 ae
       -2.950081e-11 -2.950081e-11 -2.950081e-11 -2.950081e-11
0000b0 f6 be 01 ae f6 be 01 ae f6 be 01 ae f6 be 01 ae
       -2.950081e-11 -2.950081e-11 -2.950081e-11 -2.950081e-11
0000c0 f6 be 01 ae f6 be 01 ae f6 be 01 ae f6 be 01 ae
       -2.950081e-11 -2.950081e-11 -2.950081e-11 -2.950081e-11
0000d0 f6 be 01 ae f6 be 01 ae f6 be 01 ae f6 be 01 ae
       -2.950081e-11 -2.950081e-11 -2.950081e-11 -2.950081e-11
0000e0 f6 be 01 ae f6 be 01 ae f6 be 01 ae f6 be 01 ae
       -2.950081e-11 -2.950081e-11 -2.950081e-11 -2.950081e-11
0000f0 f6 be 01 ae f6 be 01 ae f6 be 01 ae f6 be 01 ae
       -2.950081e-11 -2.950081e-11 -2.950081e-11 -2.950081e-11
000100 f6 be 01 ae f6 be 01 ae f6 be 01 ae f6 be 01 ae
       -2.950081e-11 -2.950081e-11 -2.950081e-11 -2.950081e-11
000110 f6 be 01 ae f6 be 01 ae f6 be 01 ae f6 be 01 ae
       -2.950081e-11 -2.950081e-11 -2.950081e-11 -2.950081e-11
000120 f6 be 01 ae f6 be 01 ae f6 be 01 ae f6 be 01 ae
       -2.950081e-11 -2.950081e-11 -2.950081e-11 -2.950081e-11
000130 f6 be 01 ae f6 be 01 ae f6 be 01 ae f6 be 01 ae
       -2.950081e-11 -2.950081e-11 -2.950081e-11 -2.950081e-11
000140 f6 be 01 ae f6 be 01 ae f6 be 01 ae f6 be 01 ae
       -2.950081e-11 -2.950081e-11 -2.950081e-11 -2.950081e-11
000150 f6 be 01 ae f6 be 01 ae f6 be 01 ae f6 be 01 ae
       -2.950081e-11 -2.950081e-11 -2.950081e-11 -2.950081e-11
000160 f6 be 01 ae f6 be 01 ae f6 be 01 ae f6 be 01 ae
       -2.950081e-11 -2.950081e-11 -2.950081e-11 -2.950081e-11
000170 f6 be 01 ae f6 be 01 ae f6 be 01 ae f6 be 01 ae
       -2.950081e-11 -2.950081e-11 -2.950081e-11 -2.950081e-11
000180 f6 be 01 ae f6 be 01 ae f6 be 01 ae f6 be 01 ae
       -2.950081e-11 -2.950081e-11 -2.950081e-11 -2.950081e-11
000190 f6 be 01 ae f6 be 01 ae f6 be 01 ae f6 be 01 ae
       -2.950081e-11 -2.950081e-11 -2.950081e-11 -2.950081e-11
0001a0 f6 be 01 ae f6 be 01 ae f6 be 01 ae f6 be 01 ae
       -2.950081e-11 -2.950081e-11 -2.950081e-11 -2.950081e-11
0001b0 f6 be 01 ae f6 be 01 ae f6 be 01 ae f6 be 01 ae
       -2.950081e-11 -2.950081e-11 -2.950081e-11 -2.950081e-11
0001c0 f6 be 01 ae f6 be 01 ae f6 be 01 ae f6 be 01 ae
       -2.950081e-11 -2.950081e-11 -2.950081e-11 -2.950081e-11
0001d0 f6 be 01 ae f6 be 01 ae f6 be 01 ae f6 be 01 ae
       -2.950081e-11 -2.950081e-11 -2.950081e-11 -2.950081e-11
0001e0 f6 be 01 ae f6 be 01 ae f6 be 01 ae f6 be 01 ae
       -2.950081e-11 -2.950081e-11 -2.950081e-11 -2.950081e-11
0001f0 f6 be 01 ae f6 be 01 ae f6 be 01 ae f6 be 01 ae
       -2.950081e-11 -2.950081e-11 -2.950081e-11 -2.950081e-11

cnn.0.weight f4 [8, 6, 2]
000000 c4 7a 01 3f 64 3f 89 3f 88 c0 c0 bd d5 48 62 3e
       0.5057795 1.072247 -0.094117224 0.22098096
000010 ee f5 ed bd 35 1b 42 3d 94 e5 2a be 77 1f b9 3d
       -0.11619173 0.047389228 -0.1668914 0.090392046
000020 1c 20 ca 3c b9 d4 8e bd 5d d8 70 3d a3 d1 44 3d
       0.024673514 -0.069741674 0.05880009 0.048051488
000030 3e 8b a5 3e dd 40 af 3e 43 bb 2c 3e 5e a7 a6 bc
       0.32332796 0.34229174 0.1686831 -0.020343479
000040 77 27 5a 3e 00 12 42 3d cf 95 13 be f9 fa 3c 3d
       0.21304117 0.047380447 -0.14412616 0.046137784
000050 02 b8 2e be a3 8a 81 3d 2a 21 f2 bd 7f b0 49 3e
       -0.17062381 0.06325271 -0.11822732 0.19696234
000060 d0 dc 50 be 82 24 40 be 96 f7 8b bc 6b 27 ea bd
       -0.20396733 -0.18763927 -0.017085832 -0.114333
000070 b3 98 e3 3d 84 7f 4d be ae 06 98 3e 3f ec 44 be
       0.111131094 -0.20068175 0.29692596 -0.19230746
000080 99 32 91 3e 21 24 82 3d f0 c0 7f bd ac 62 3b 3e
       0.28358915 0.06354547 -0.06243986 0.18299359
000090 11 b2 3c 3d ea 93 85 3e 5e a1 bf bb f5 a4 04 be
       0.046068255 0.26089412 -0.005848094 -0.12953551
0000a0 bd 9a 20 3d 5f 44 ef bd 20 25 c0 3d 2b af 6b 3e
       0.03921007 -0.116829626 0.09382081 0.2301604
0000b0 c3 f2 df 3c ae 6f 26 be 3e af fb 3d 86 44 21 3d
       0.027337437 -0.1625354 0.12289284 0.03937199
0000c0 7c d5 a5 3e 3c 34 36 3e 33 7e 82 be d3 51 98 bd
       0.32389438 0.17793363 -0.25486907 -0.07437482
0000d0 90 2d 50 be 72 06 8d 3e c6 00 e3 3d 37 ea 0b 3e
       -0.2032988 0.2754398 0.11084132 0.13663565
0000e0 25 28 d7 3c 69 64 93 3d c7 38 29 3e 70 e6 46 be
       0.02626426 0.07196886 0.16525565 -0.19423842
0000f0 f0 e5 94 3c db c2 49 be bc 4c b6 3d e2 99 cb bd
       0.018176049 -0.19703238 0.08901355 -0.0994146
000100 c4 27 b5 3d 84 58 76 bd c8 2b 75 3e 64 34 2f be
       0.08845475 -0.06014301 0.23942482 -0.17109829
000110 18 4c 30 be d1 4e 30 be 6c f0 84 3e 30 05 c5 3d
       -0.17216527 -0.17217566 0.25964677 0.0962013
000120 e6 38 8e 3e 54 f4 73 be d7 99 92 be f4 44 67 be
       0.27777785 -0.23823673 -0.28632995 -0.22584897
000130 61 d9 46 be 64 76 ef 3d 64 b2 d3 3d c0 9f 75 3e
       -0.19418861 0.11692503 0.1033676 0.23986721
000140 35 a8 18 be 2b 84 49 be 36 d7 1c 3e e8 f7 ee bd
       -0.14907916 -0.19679324 0.15316471 -0.11668378
000150 28 9d 54 3e 52 1b 1f 3d 6b 5f 39 3e 1e ca 4c be
       0.20763075 0.038844414 0.18102805 -0.19998977
000160 07 75 01 be 92 1a f1 3d b0 65 ca 3d f6 e9 23 bd
       -0.12642299 0.11772646 0.098826766 -0.040018044
000170 47 2e d6 3d 3f 1d 46 3e 53 0c 7f be f9 b7 53 be
       0.104580455 0.19347094 -0.24907045 -0.20675649

cnn.0.bias f4 [8]
000000 ff 0f 3b 3e 76 ef 01 be f7 e3 93 bd e0 7e 94 be
       0.18267821 -0.12689003 -0.07221215 -0.29003048
000010 25 bb 45 be 84 af 93 3d 08 12 1c bd fd 48 64 be
       -0.19309671 0.07211211 -0.038103133 -0.22293468

cnn.3.weight f4 [16, 8, 2]
000000 6c 94 bd 3b 26 e7 2e be 6e 30 59 be ac f9 0c be
       0.0057855155 -0.17080364 -0.2120988 -0.13767117
000010 c1 0f 60 be 44 01 23 be 9c db 7f 3e 4a 5c 41 3d
       -0.2188101 -0.15918452 0.24986118 0.047207154
000020 a5 b4 9d 3d a0 c5 6e be 54 22 28 be 14 6c aa bd
       0.07700471 -0.23317575 -0.16419345 -0.083213955
000030 c0 1f 20 3d 86 42 61 be 05 a1 dc bd 6e 45 19 be
       0.03909278 -0.21998033 -0.107728995 -0.14967892
000040 00 9e 35 3a 50 84 be bd f0 ea 8d bc 24 79 2d be
       0.0006928146 -0.0930258 -0.017323941 -0.16940743
000050 98 b7 2f be d2 59 15 be 9c 41 af bd 50 0e 4a be
       -0.17159879 -0.14585045 -0.08557436 -0.19732022
000060 f6 a5 56 3e 28 3a 4b bd f6 42 5c 3e b0 87 9f 3d
       0.20961747 -0.04961601 0.21509919 0.07789552
000070 b0 c7 58 be 38 29 31 3e c8 df 8c bd 50 43 c4 bd
       -0.21169925 0.1730088 -0.068786204 -0.09583151
000080 80 7f 54 be 50 81 7e be 18 7d 92 3d c0 af 5f bd
       -0.20751762 -0.24854016 0.07152766 -0.054610968
000090 5c 55 c7 3d 00 17 52 be d6 0f 3e 3e f2 ea 3b be
       0.09733078 -0.20516586 0.18560728 -0.18351343
0000a0 48 d1 30 bd f0 e1 55 3d 14 29 04 3e e4 ab 4e 3e
       -0.043168336 0.052217424 0.12906295 0.20182759
0000b0 a0 34 69 3e f2 fc 4a be 88 da 80 3d 78 39 dc bd
       0.22773981 -0.19823053 0.062916815 -0.10753149
0000c0 50 e0 4d ba 0d 64 58 be 8c 4d 87 3e d3 b3 47 be
       -0.00078535546 -0.21131916 0.2642635 -0.19502191
0000d0 e9 43 e7 3d f9 a6 a0 3d cb a7 a5 3d 26 9a 05 be
       0.1129225 0.078443475 0.080886446 -0.13047084
0000e0 2e 4b 66 3e 76 42 42 3d 38 ba 03 3d ea 99 61 be
       0.22489616 0.047426663 0.032160014 -0.2203137
0000f0 84 ee d6 3d 00 9f 19 bd 62 0e 03 be 3d 2e 3f 3e
       0.10494712 -0.03750515 -0.12798455 0.18669982
000100 1b df 9b 3d d6 00 02 be 7f 69 ec bd ea 26 9b bc
       0.07610913 -0.12695631 -0.11543559 -0.018939454
000110 06 56 38 3e 13 af 09 bd 60 02 0f be aa bc 95 bd
       0.18001565 -0.03361423 -0.1396575 -0.073113754
000120 f5 e9 3e be f0 96 bc 3d 80 27 46 3e 3c 02 71 be
       -0.18643935 0.092084765 0.19351006 -0.23536009
000130 20 d3 6d 3d 5c 3f 04 3e f1 da 19 3d e4 3a c9 bd
       0.058062673 0.12914795 0.037562314 -0.098256856
000140 dd f2 cf 3c 30 5a 2c 3f 44 14 3a 3d ff 59 4b 3e
       0.02538436 0.67325115 0.045429483 0.1985855
000150 d6 a5 b5 bd 61 6d 2f bc b3 43 89 3d d1 87 10 3e
       -0.08869521 -0.01070723 0.06702366 0.1411431
000160 ed 6d 60 3d fb e9 6b 3e 20 bf ca bc 38 45 65 bd
       0.054792333 0.23038475 -0.024749339 -0.055974215
000170 80 14 6f 3b a0 90 74 bc 5b 45 cb 3d 7a 09 62 3e
       0.0036480725 -0.014927059 0.09925338 0.22073928
000180 74 4a 5a be 6c ab a3 bd 3b 9f 5f 3e 0f 81 d7 3d
       -0.21317464 -0.079916805 0.21838085 0.10522663
000190 7b 15 55 bc be 9d 18 be df 90 1c be d6 a3 65 be
       -0.01300561 -0.14903924 -0.15289639 -0.2242578
0001a0 9a 92 9b bd 6d 23 b8 3d 2c 3b 23 3e 98 63 ec 3d
       -0.075963214 0.08991132 0.15940541 0.115424335
0001b0 28 4a 62 be e4 f2 19 be 8f f5 f9 bc e9 26 83 3e
       -0.22098601 -0.15034062 -0.0305126 0.25615624
0001c0 92 b5 0d 3d 4b f5 86 bd bd 2e d5 3d 1e 7b c1 bd
       0.034596987 -0.06589755 0.10409305 -0.09447311
0001d0 69 12 2e be 69 36 32 3e b5 83 e9 bd 05 a7 4f bd
       -0.1699921 0.17403568 -0.11402074 -0.05069639
0001e0 66 b8 7f be 87 4d 2a 3e 58 f4 41 3e f4 98 ba 3d
       -0.24972686 0.16631137 0.18940866 0.09111205
0001f0 90 80 32 be 18 a8 7c be da 48 4e be db 33 3f 3e
       -0.17431855 -0.24673498 -0.20144978 0.18672125
000200 47 c5 ae 3d a5 54 97 3e 07 6c c7 3d 5b 0b c3 3d
       0.085337214 0.29556766 0.097374015 0.0952365
000210 61 04 1b 3d fe 31 3c be 6a bd 56 be b1 36 5b be
       0.037845973 -0.18378446 -0.20970693 -0.21407582
000220 49 a4 cd 3d 8d c9 ec bd 28 15 4e bd 50 54 13 be
       0.100411005 -0.1156188 -0.050313145 -0.14387631
000230 d0 98 3a bd 86 2e 34 be 64 5d 2f be 08 0d bd 3d
       -0.04555589 -0.17595872 -0.1712547 0.09231001
000240 5a c5 a0 bd 55 72 19 3e 2f ef a6 bd d3 f0 3d be
       -0.07850142 0.1498502 -0.081510894 -0.18548898
000250 ea 5f 43 bd 19 d8 fa bd ae e9 9c bd 1e 37 74 be
       -0.047698893 -0.122482486 -0.07661758 -0.2384915
000260 ea 28 0d 3e 83 9b 33 be 8e ab 00 3e 68 56 e8 3d
       0.13785139 -0.17539792 0.12565443 0.11344606
000270 10 e5 36 3e 86 5d 44 be d2 a8 32 3e ec 26 f7 bd
       0.17860818 -0.19176301 0.17447212 -0.12067971
000280 37 00 9e 39 05 10 9e 3e 4a be 5d bd 78 26 db 3c
       0.00030136268 0.30871597 -0.054136552 0.026751742
000290 60 34 0b be 78 f7 9d be 3e ff cc 3d 54 9b 5f be
       -0.13594198 -0.30852866 0.10009621 -0.21836597
0002a0 7c 29 ad 3d f7 16 18 3e d0 19 72 3e 68 8a 71 bd
       0.08455178 0.1485251 0.23642659 -0.058969885
0002b0 20 57 52 be e8 39 66 3d d6 c9 e4 3d 33 61 76 be
       -0.20541048 0.056207567 0.1117131 -0.24060516
0002c0 68 6e 68 bd ea 75 19 be 30 20 b3 bc 68 03 fc bd
       -0.056745917 -0.14986387 -0.021865934 -0.12305337
0002d0 fc 49 d1 bd f8 89 a2 bd 20 47 73 be c8 0c 52 3e
       -0.102191895 -0.07936472 -0.23757601 0.20512688
0002e0 e0 9c 56 3e 48 a2 20 bd 00 3b e9 bc 18 f5 d0 bd
       0.2095828 -0.039217263 -0.028470516 -0.10202998
0002f0 20 2f 67 be fe 1f 79 be 04 4a be 3d 4a 8e 0c be
       -0.2257657 -0.2432861 0.09291461 -0.13726154
000300 72 da 2d be f0 95 f4 bc 4c 13 b7 bd 9e d3 ae bd
       -0.16977862 -0.029856652 -0.089392275 -0.085364565
000310 03 74 8f 3b 08 f5 72 bd bf 1f b0 bd 66 e5 f4 bd
       0.0043778433 -0.05931571 -0.08599805 -0.11957817
000320 56 86 54 be 25 86 52 3e 54 e5 cc bd 64 ab 87 3d
       -0.2075437 0.20558985 -0.10004678 0.06624487
000330 84 a5 b1 bd 50 6c a6 3c d6 90 61 3e 86 c6 d5 3d
       -0.08674148 0.02031532 0.22027907 0.10438256
000340 89 94 63 be 51 17 41 3e a6 c9 6a 3e 32 6d e1 3d
       -0.2222463 0.18856551 0.22928485 0.110071555
000350 a0 f5 02 3e cf b2 57 3e c3 b9 17 bd e5 ee 96 3d
       0.12789011 0.21064304 -0.03704239 0.07369784
000360 a6 3b 4f be 42 d5 95 bd e6 96 3d 3e c2 3c 03 3e
       -0.20237598 -0.07316066 0.18514594 0.12816146
000370 76 fe 21 be 56 48 4d be 51 91 22 be 09 41 65 be
       -0.15819725 -0.20047125 -0.15875746 -0.2238809
000380 22 8a 45 be 88 3b 7d bd c0 c4 2c 3e 40 66 2b 3d
       -0.19290975 -0.06182435 0.16871929 0.04184556
000390 0a b7 42 be 8c 5e 4d be 14 b5 fe 3d 62 6c 3e be
       -0.19015136 -0.20055598 0.12436882 -0.18596032
0003a0 40 2a fc bc 08 9c f5 3d b4 f5 ec bd 50 50 df bc
       -0.030781865 0.11992651 -0.11570302 -0.027259976
0003b0 60 44 b2 bc e8 42 72 bd dc cc 01 be 4e 35 64 be
       -0.02176112 -0.059145838 -0.12675804 -0.22285959
0003c0 95 3c 52 be 06 df 0e be 04 55 76 3e 44 a5 f6 bd
       -0.20530923 -0.13952264 0.24055868 -0.12043241
0003d0 7f c0 2c be 76 f3 79 3d c0 64 8a 3d 9e f4 09 3e
       -0.16870306 0.061023198 0.06757498 0.1347222
0003e0 fb 2a 41 3e 5f 47 0b 3e 02 d3 7d be 60 a2 b5 3c
       0.18864052 0.13601445 -0.24787524 0.022172153
0003f0 a2 12 1b 3e 90 49 bd bc 51 74 1b be 46 c9 6e 3e
       0.15143827 -0.023106366 -0.1518109 0.23318967

cnn.3.bias f4 [16]
000000 a0 84 bf bd 90 c0 11 be 50 cc 66 be 58 d1 66 3c
       -0.09351468 -0.14233613 -0.22538877 0.014087997
000010 f9 61 ec 3d c5 71 a3 bc b9 08 58 3d 25 e6 42 be
       0.11542124 -0.01995171 0.052742694 -0.19033106
000020 b0 ab 78 be a4 2e 63 3b 2f eb 3f 3e 1e b1 13 3e
       -0.24284244 0.003466525 0.18742059 0.14423034
000030 13 df 17 be 5b c4 47 bd 10 b8 3c be d0 08 f8 bd
       -0.1483119 -0.048771244 -0.1842959 -0.12111056

cnn.6.weight f4 [32, 16, 2]
000000 14 21 03 3d de 24 c5 3d 6b f3 15 3e e8 31 26 be
       0.032013968 0.096261725 0.14643638 -0.16229975
000010 86 10 f2 3d d0 57 ff bd 4c 02 90 3d b4 55 1d 3e
       0.11819558 -0.12467921 0.07031688 0.15364724
000020 0d e8 8c 3b f2 a4 26 3e f9 0c 17 be 78 83 83 bd
       0.0043001235 0.16273859 -0.14751042 -0.0642156
000030 fe 28 d3 3d d0 c0 1d bd a1 33 14 bd 58 e3 96 bd
       0.10310553 -0.03851396 -0.03618205 -0.07367581
000040 a0 93 f9 3d 5e 92 b1 3d d8 07 68 3d dc 73 cb bd
       0.1218636 0.086704955 0.056648105 -0.09934208
000050 3f f1 12 be 20 a2 9c 3c 60 87 56 3d 55 28 a7 bd
       -0.1434984 0.019120276 0.052375197 -0.081619896
000060 5c 98 4a bd 5e 82 f4 3d 44 12 b4 3c f2 2c 80 3c
       -0.049461707 0.11938928 0.021981366 0.015646432
000070 20 32 32 bd e3 ed 23 be 6c 34 2a be 5c 0f ad bd
       -0.043504834 -0.16008715 -0.1662156 -0.08450195
000080 31 08 b8 bd c0 96 61 3d 64 c9 52 bd 35 a3 8d bd
       -0.089859374 0.055075407 -0.051461592 -0.06915895
000090 d7 96 2c 3e 74 36 7c 3d 95 0b 01 3e 30 46 af bd
       0.16854416 0.061575368 0.12602074 -0.08558309
0000a0 7b e1 93 bd 5a 10 85 3d b3 37 f1 bd 88 aa ec bd
       -0.07220741 0.064972594 -0.11778202 -0.11555964
0000b0 10 e4 0b bc 65 6b 84 bd dd b3 07 be 1a bf d6 3d
       -0.008538261 -0.064657964 -0.13252206 0.104856685
0000c0 ab 91 11 3e a8 ec ea 3c 98 24 fc bc 5f ac 27 be
       0.14215724 0.0286773 -0.030779168 -0.16374348
0000d0 56 de 83 bd f4 56 38 3d 62 b6 aa 3d 78 12 b7 bc
       -0.064388916 0.0450048 0.08335568 -0.022347674
0000e0 0d 22 8f bd c6 bc c9 3d 67 2b 10 be 3d cc e4 3d
       -0.069889165 0.09850459 -0.14079057 0.11171768
0000f0 64 74 8c bd 00 51 31 3b d4 16 0f bd a0 92 af 3c
       -0.06858137 0.0027056336 -0.03493388 0.021432221
000100 a6 d0 5a bd c1 9f 03 3e 80 97 96 bb b9 4d 0d 3e
       -0.05342164 0.1285391 -0.004595697 0.1379918
000110 eb 0b 2e 3e c9 61 b0 bd 25 0e 04 be 6f 3b 11 3e
       0.16996734 -0.08612401 -0.1289602 0.14182828
000120 69 d9 0d 3e 82 37 0a be f0 e4 5f bc 07 82 32 be
       0.13852467 -0.13497737 -0.013665423 -0.17432414
000130 a9 2e 14 be a4 d9 0b 3d 30 a1 40 3d 9c 7d 19 3d
       -0.14470924 0.034143105 0.04702872 0.037473306
000140 7c 11 45 bd 21 01 27 3e e0 0d cf 3c 2e a2 d5 bd
       -0.048112378 0.16309024 0.02527517 -0.10431324
000150 a0 f8 23 bc 3c e2 2d 3d 0c 91 7d 3d 98 fd ff bd
       -0.010008007 0.042452082 0.061905906 -0.12499541
000160 36 b0 87 3d 7b f5 b8 bd 91 6a 16 be 8b bf c5 bd
       0.066254064 -0.09031197 -0.1468909 -0.096556745
000170 a5 93 2e 3e ed be 1a 3e 99 19 22 3e 52 85 d4 3d
       0.1704851 0.15111895 0.15830077 0.10376991
000180 5c c0 08 3e c8 d5 c1 bc 2a 34 c7 bd 1e e5 b4 3d
       0.1335463 -0.02366151 -0.097267464 0.08832763
000190 29 9a bb bd d9 53 f4 bd 21 78 67 bd 42 98 17 3d
       -0.09160263 -0.11930055 -0.05651105 0.03701044
0001a0 52 60 ba 3d 7c 9e 8c bd fe 9e 01 be cf 35 f9 b9
       0.09100403 -0.06866166 -0.12658307 -0.00047533071
0001b0 5c 66 d5 bd da c6 eb bd 9e b6 bc 3d 90 47 f3 bc
       -0.10419914 -0.11512537 0.09214519 -0.02969721
0001c0 c2 18 1e 3e 35 72 28 3e a5 86 58 3d b9 30 79 3d
       0.15439132 0.16449817 0.052862782 0.06083748
0001d0 74 ca 0a 3d c6 ef 91 bb e0 a7 52 bc 80 3a 1f 3b
       0.03388448 -0.004453632 -0.012857407 0.0024296343
0001e0 36 37 87 3d 33 50 28 3e ee 78 3b bd 80 a5 99 bd
       0.066023275 0.16436844 -0.045769624 -0.0750227
0001f0 98 58 2f bd e0 e8 ae bd e0 2b f6 3c b9 1d 07 3e
       -0.0428091 -0.08540511 0.030050218 0.13194932
000200 93 8d 0d 3e 9e 38 a6 3d c4 37 05 be d1 4e c2 bd
       0.13823538 0.081162676 -0.13009554 -0.09487689
000210 8c 16 1f bd 04 77 05 bd 00 37 6e 3c ac 2b 26 be
       -0.03883986 -0.032584205 0.01453948 -0.16227597
000220 80 5d 61 3d 38 18 0a be fa 13 e5 bd 0e 7f 16 be
       0.05502081 -0.13485801 -0.11185451 -0.14696905
000230 c7 b9 1d 3e 17 6a 2b be 13 8e 08 3e e0 ba c2 bb
       0.154029 -0.16739689 0.13335447 -0.0059426874
000240 30 6b a8 bc 8a 72 e2 3d 78 d9 85 bc d6 0d e3 3d
       -0.020558923 0.11057003 -0.016339049 0.11086623
000250 33 e1 02 3e ae 29 1d be 82 4e 8b 3d cc b0 08 3d
       0.12781219 -0.15347931 0.068020836 0.03337173
000260 64 af 1b 3d 10 6b d3 3c bc 0e 46 3d 30 2a ae bd
       0.038009062 0.025807887 0.048353896 -0.085041404
000270 50 47 b9 bc 77 fd 2b 3e 4a 3c f3 3d a0 9e d9 bb
       -0.022617012 0.16795908 0.118767336 -0.006641224
000280 f6 41 2a be 74 60 fd 3b ec 89 f6 bd 11 34 13 3e
       -0.16626725 0.0077324454 -0.12038025 0.1437533
000290 03 ca db bd 40 1e 51 bc 73 e8 e8 bc 7a 52 3c bd
       -0.1073189 -0.01276356 -0.028431153 -0.045977093
0002a0 f5 81 21 3e cb 55 05 3c 78 1b a1 bd d3 ed a9 3e
       0.15772231 0.00813813 -0.078665674 0.33189258
0002b0 0b 28 12 3e 3d 2a 84 bd 24 f4 20 bd ec d8 ad 3d
       0.14273088 -0.06453369 -0.03929533 0.0848864
0002c0 9f cd c2 bd e3 26 0b 3e 70 24 1e bd 71 77 f4 bd
       -0.09511875 0.13589053 -0.03860897 -0.11936844
0002d0 5c 53 bb 3c d3 36 a5 3d 12 6a a1 3d 17 d7 33 3e
       0.022866897 0.080670975 0.078815594 0.17562519
0002e0 8e 09 01 3e 48 d6 2a 3e 3b ba 01 3c 7d 60 fc bd
       0.12601301 0.16683304 0.007917936 -0.12323091
0002f0 e0 fa fd bd 90 e3 e0 bd 15 d3 1e be 00 72 b4 bd
       -0.12401366 -0.10980904 -0.15510209 -0.08810806
000300 fc a3 26 be de 02 27 be 7e 56 d8 bd 7a 74 32 be
       -0.16273493 -0.16309687 -0.10563372 -0.17427245
000310 4e 39 de bd 6a 0c 8a 3d cd fa 16 3e d6 62 57 bd
       -0.10850774 0.06740649 0.1474411 -0.05258449
000320 64 9e 52 bd ce 4f c1 3d 8d 9e b2 bd 05 2f ab bd
       -0.051420584 0.0943905 -0.087216474 -0.08358578
000330 0e 10 df 3d f2 b8 1d be a0 12 b1 3c c3 e8 1f 3e
       0.10891734 -0.15402582 0.021615326 0.15616135
000340 c8 56 f8 3c 88 e8 44 3d 1e d9 d2 bd 40 d6 1f bb
       0.030314818 0.04807332 -0.10295318 -0.0024389178
000350 80 40 1f 3c a0 b6 31 3d 2e ab 8c 3d f1 4a 1d 3e
       0.009719968 0.043387055 0.068685874 0.15360619
000360 06 2c 0a be a0 a2 ad 3b 3d e3 b4 bd a7 32 0f be
       -0.13493356 0.0052989274 -0.08832405 -0.13984166
000370 00 ee 67 bc 03 57 1f be 9e aa fc 3d c0 b7 a7 3c
       -0.014155865 -0.15560536 0.1233723 0.020473361
000380 a8 1f c3 bd 9e 31 bd 3d 5e 52 2b be 49 09 8c bd
       -0.09527522 0.09237979 -0.1673064 -0.068377085
000390 58 10 0d bd 3c d2 19 be 4d 31 f4 bd 95 9d eb bc
       -0.034439415 -0.15021604 -0.11923466 -0.028761664
0003a0 3e 66 07 3e ad fc 33 3e 8f eb 49 3e 33 1c b0 bd
       0.13222596 0.17576857 0.19718765 -0.085991286
0003b0 99 e9 f1 bd 57 b5 1e 3e 99 fb 80 3d ab bf 9c 3b
       -0.11812133 0.15498863 0.062979884 0.004783591
0003c0 68 db 1e 3d 43 54 08 be d8 4c 71 bd 7e 29 2e 3e
       0.03878346 -0.13313393 -0.058911175 0.17008016
0003d0 2b 60 e2 bc f9 a0 02 3c 55 4e 16 be ea 86 ca bd
       -0.027633747 0.007972949 -0.14678319 -0.09889014
0003e0 fc ca 97 bb e8 aa e2 bd 26 bb df bc 12 ae 94 3d
       -0.004632352 -0.11067754 -0.027310919 0.07259764
0003f0 aa 11 31 be 48 0f 57 3d 17 71 f0 bd 67 75 b0 bd
       -0.17291895 0.052504808 -0.1174032 -0.08616143

cnn.6.bias f4 [32]
000000 e6 0a 5d bd 76 af 28 be 41 d6 a8 bd c7 f3 cb 3b
       -0.05396547 -0.16473183 -0.08243991 0.006224129
000010 28 71 ee bd cb c4 f4 bd 5c 1b 02 bd f2 fc 65 ba
       -0.116426766 -0.11951598 -0.031764373 -0.00087733485
000020 52 a6 0a be 6d 8d b0 bc ac 27 1a bd 3d 0f b5 3c
       -0.13540009 -0.021551812 -0.03763549 0.022101993
000030 bd f9 67 bc ba 44 bc bd e2 15 7b bd 1d 94 d4 bc
       -0.014158663 -0.09192796 -0.061300166 -0.025949532
000040 af 13 e6 bd 35 29 4e 3c 62 7b 7b bc 83 80 84 3d
       -0.11234223 0.012583067 -0.015349241 0.06469824
000050 66 75 2d 3d 89 c0 07 3e 66 a5 14 bd 92 c1 05 be
       0.042348288 0.1325704 -0.03629055 -0.13062122
000060 9e 1f a5 3d 58 a0 f5 bd bf ef 4c bc 09 7e 6a bd
       0.08062671 -0.11993474 -0.012508332 -0.057249103
000070 0a e5 82 bd d1 41 8e bd c8 2c 27 3e 6f 96 9f 3d
       -0.06391342 -0.06946147 0.16325676 0.07792365

cnn_fc.weight f4 [128, 64]
000000 ba a7 0d 3d 27 40 f2 3d 39 fe e7 bd 4f 3d a5 3c
       0.034583785 0.11828642 -0.11327786 0.020170836
000010 9a e2 a3 3d e8 0e aa 3d b7 58 cd bd 88 62 2a 3d
       0.08002205 0.083036244 -0.10026687 0.041597873
000020 f0 d6 91 bd e0 0b a0 bb d2 0c 01 bc e9 68 f9 bd
       -0.07121074 -0.004884228 -0.007876592 -0.12178213
000030 bc 33 f4 bd 00 6c a8 bd e4 c8 72 3d 83 e8 83 3d
       -0.1192393 -0.08223724 0.059273615 0.064408325
000040 82 8c be bd ef 4c 86 bd b6 fc 85 3b 3d 47 04 be
       -0.093041435 -0.06557643 0.0040889634 -0.129178
000050 04 43 98 3d 57 0f e2 3d c6 38 1e 3d 41 18 de bd
       0.07434657 0.11038082 0.038628362 -0.1084447
000060 f4 14 2a 3d 4b 03 07 3d 22 3e ca 3d 84 4c 87 bd
       0.04152389 0.032962125 0.09875132 -0.06606391
000070 74 47 e5 bd db 3d 61 3d 8e 23 b6 3c 5c ad 58 bd
       -0.11195269 0.05499063 0.02223375 -0.052899703
000080 48 cb 53 bd 31 29 80 bd a3 12 d1 3d a1 04 ae bc
       -0.051707536 -0.06257857 0.10208633 -0.021242442
000090 5e 5f b9 3d 7e 64 ea 3d 77 26 93 3c d7 14 fd 3c
       0.09051393 0.114449486 0.017962677 0.030893726
0000a0 81 64 0b bc 40 e7 af 3d b8 89 e6 bd 14 2c 4e 3d
       -0.008507849 0.08589029 -0.112567365 0.050335005
0000b0 5f 04 22 bb f2 cb 23 3d 00 f3 11 ba 84 93 3d bd
       -0.0024721844 0.03998942 -0.0005567521 -0.04628326
0000c0 63 ed 55 bc 01 36 8a 3d 39 b3 b1 bd 05 c9 a1 bd
       -0.013057086 0.06748582 -0.08676762 -0.078996696
0000d0 42 9f d3 bc 29 ea f6 bc 2d 22 49 3d ba 47 ac 3d
       -0.025832776 -0.030140953 0.04910486 0.08412118
0000e0 36 a3 40 bc ac 70 f8 3d 42 27 43 bd a0 5f 7a bd
       -0.0117576625 0.121308655 -0.04764486 -0.06112635
0000f0 b2 de 61 bd 51 f7 b0 bd d9 42 97 bd 9e 63 e7 bd
       -0.05514402 -0.08640922 -0.07385797 -0.11298297
000100 c7 d6 e1 bd 0a 43 04 3d 6e 1f 9c 3d 53 58 f0 3d
       -0.11027294 0.032290496 0.07623182 0.117355965
000110 64 0f da 3d 60 e7 eb bb c1 cb c9 3c b7 5d 94 bd
       0.10647467 -0.007199213 0.02463329 -0.07244437
000120 18 e6 45 3d 9c 76 f5 bd a7 72 26 3d ee 43 12 3d
       0.048315138 -0.119855136 0.040636685 0.035709314
000130 fc 56 1d 3d cc 77 3b 3d 85 a9 73 bd 1a 3e ce 3d
       0.038413033 0.045768544 -0.05948784 0.10070439
000140 f6 55 34 3d 08 6b c5 3d 48 a6 87 3c 51 06 ca 3d
       0.04402729 0.09639555 0.016558781 0.09864486
000150 c0 66 a7 3d 93 39 75 3d eb 5a ae 3d e3 04 b4 bb
       0.08173895 0.05986936 0.08513435 -0.0054937466
000160 dc 73 96 3d 08 e6 2a 3d e1 e6 9a 3d 18 ed f8 3d
       0.07346317 0.04172328 0.07563568 0.12154597
000170 e8 d6 e7 3c 4e 29 3e bd f8 e5 cc bc f6 9c 3c 3d
       0.028300717 -0.04642611 -0.025012001 0.046048127
000180 75 8a ac 3c 87 f5 0f bd 8c 4e c7 3d b2 ac 99 3d
       0.021062115 -0.035146262 0.097317785 0.07503642
000190 5f 8f 9c bd 3c c3 36 bc 1e 3b 5b bc 02 fe a6 bd
       -0.07644533 -0.011154946 -0.013380794 -0.08153917
0001a0 c4 0c 95 3c 51 5b 1d bd f7 e5 84 bd f4 ce 27 bd
       0.018194564 -0.038417164 -0.06489175 -0.04096885
0001b0 44 db 67 bd 50 b6 0d 3e 8c 63 44 3d d8 ee fb 3d
       -0.056605592 0.13839078 0.047946498 0.12301415
0001c0 de c6 0a 3d 42 7e e7 3c 99 51 52 3d 1c ac af 3c
       0.03388106 0.028258447 0.05134735 0.021444373
0001d0 a2 b0 c9 bd e5 ad b0 bd dc 17 f8 bc 70 4d f6 3a
       -0.09848143 -0.08626918 -0.030284815 0.0018791389
0001e0 b3 83 3d 3d 51 e4 3c 3d bb 8c c5 3d 5b 6d 9b 3c
       0.046268176 0.046116177 0.09645983 0.018973043
0001f0 6e 53 34 bd 2b 54 c1 bd 27 e5 ca bd f3 a7 8d bd
       -0.044024877 -0.09439882 -0.099069886 -0.069167994
000200 da 39 20 3d c2 db 89 3d 4f fa df 3d 85 f3 21 bd
       0.03911767 0.067313686 0.109364145 -0.03953888
000210 60 8d 21 bc 98 0b 18 bd 18 eb 52 39 91 f5 34 3d
       -0.009860367 -0.03712043 0.0002011474 0.044179503
000220 80 fd 33 bb a0 9f bd 3b be 79 93 bc b5 e6 89 3d
       -0.002746433 0.005786851 -0.018002387 0.06733457
000230 6c 57 1b bd f6 a6 98 bd 1d 0e d2 3c 21 eb e1 bc
       -0.03792517 -0.0745372 0.025641495 -0.027577939
000240 a8 83 b4 bd 10 27 96 3d ef a6 e1 ba bb 34 6b 3c
       -0.08814174 0.07331669 -0.0017215888 0.014355834
000250 d7 ac 8a bd e0 95 6a bc 8e 35 03 be f5 16 62 3d
       -0.06771248 -0.01431796 -0.12813398 0.055197675
000260 ff e6 94 bc 57 36 c5 3d 63 68 13 3c b7 a2 1d 3c
       -0.018176554 0.09629505 0.008997056 0.009621314
000270 c1 66 0b 3d 74 b0 c2 3d da 1f aa bd a3 32 bf 3d
       0.03403354 0.09506312 -0.083068565 0.0933583
000280 a5 26 fb 3c 8d 12 ae bd 12 af 2c 3d 2c fd 98 bd
       0.030658076 -0.08499632 0.042159148 -0.07470164
000290 13 fe 1a bd ed de 7e bd c5 d3 b1 bd b2 22 c0 3d
       -0.03783996 -0.062224317 -0.0868297 0.093816176
0002a0 f5 d7 e4 bd f7 da 7f 3d 86 1a e7 bd 77 0a 86 bc
       -0.11174003 0.06246468 -0.11284356 -0.016362412
0002b0 20 b5 8b bc 74 32 fa 3d 1c 4a 39 bd 20 5e 13 3d
       -0.01705414 0.122166544 -0.04523669 0.035978436
0002c0 79 32 97 3c 44 81 96 3d 29 ab f1 3b c3 a4 3f 3d
       0.018456684 0.07348874 0.00737514 0.04678799
0002d0 31 3f 97 bd 27 69 df bd af 1d e4 3d e8 89 ba bd
       -0.073851 -0.10908728 0.11138474 -0.09108335
0002e0 16 dc ba bc 69 14 9b bc 57 d0 ee 3d a7 62 20 bd
       -0.022810023 -0.01893063 0.116608314 -0.039156582
0002f0 e7 a2 c8 bd 77 ab 04 bd 6f 90 46 3d 9a 51 65 3d
       -0.09796696 -0.032390084 0.048477586 0.055986024
000300 54 76 d3 3d 43 2c d1 bc e9 2c 71 3d 00 e8 f0 bd
       0.10325304 -0.025533801 0.05888072 -0.117630005
000310 f8 1c 46 3d d4 3e 6b 3d 90 57 a5 3d a0 68 93 bd
       0.04836747 0.057432964 0.08073342 -0.0719769
000320 64 b1 08 bd 70 bc f7 3c 9a 7a 99 bd fd 5e c0 bd
       -0.033372298 0.030241221 -0.074940875 -0.093931176
000330 70 48 f6 bd 80 a6 e4 3b 7b 9f a2 3d cb da 0f 3d
       -0.12025535 0.006977856 0.07940575 0.035120767
000340 cf f9 b4 3c 54 f8 49 3d e9 7a 97 bd 78 01 46 3c
       0.022091774 0.04930909 -0.0739649 0.012085311
000350 88 63 e2 bc 7c 62 77 bd 22 cc f1 3d b8 86 c0 bd
       -0.02763535 -0.060396656 0.11806513 -0.094006956
000360 8e c6 d3 3c c8 de df bd d5 cd 83 bb ee e3 61 bd
       0.025851514 -0.10931164 -0.00402234 -0.05514901
000370 78 94 28 3d 7f b9 8f bd 5d 0c be 3d ac 20 c4 bd
       0.041157216 -0.070178024 0.09279702 -0.09576544
000380 91 77 9a 3d 94 11 bf bd 6e 5f 89 3d d7 0f 58 bd
       0.07542337 -0.09329525 0.06707655 -0.05274948
000390 b5 c4 17 3a 60 27 af bc 73 9b a6 3d 6c 3d 2b 3d
       0.00057895045 -0.02138108 0.08135118 0.041806623
0003a0 ff 8d e1 bd ed ab 3c 3c be e2 af bd c6 35 c0 3d
       -0.11013412 0.0115156 -0.085881695 0.093852565
0003b0 91 97 01 3d 5b 3c f9 bc 76 9a 82 bd d0 37 31 3d
       0.031638686 -0.030424288 -0.06377117 0.043266118
0003c0 3f f2 98 bd 97 02 73 3d 2e b7 8b 3d cb 26 9d 3d
       -0.0746808 0.05932864 0.06822048 0.07673415
0003d0 c4 ea 06 3d 4e c5 d6 bd 2b 25 b8 3d 99 d5 1e bd
       0.032938734 -0.10486852 0.08991464 -0.03877792
0003e0 01 61 14 bd 03 fd 4a bc d7 33 bc 3d 3c f4 c7 3d
       -0.036225323 -0.012389424 0.09189575 0.09763381
0003f0 21 5a a4 3c 4c f2 75 3d 7d b0 de bd d0 dc 91 3b
       0.020062508 0.060045525 -0.10873506 0.0044513717

cnn_fc.bias f4 [128]
000000 0b 7e ae bc c4 7a 37 bd 4b d5 06 be f2 75 db 3c
       -0.021300336 -0.044794813 -0.13167302 0.02678964
000010 43 f7 e4 3d 88 79 c1 bd 52 e3 41 bd 02 a5 fe 3c
       0.11179974 -0.09447008 -0.04733593 0.031084541
000020 6d 1f 7d 3d b6 a2 3c 3d 32 fe ab 3d 81 0b 89 3c
       0.061797548 0.04605361 0.08398093 0.016729118
000030 97 fe f2 bc 9d 1a d3 bd 5f ed fb bd 7f 6e c9 bd
       -0.029662414 -0.103078105 -0.12301134 -0.098355286
000040 9a de 86 3d 22 79 d9 3d 15 8b fd 3d d6 b9 c6 3d
       0.06585427 0.106188074 0.123800434 0.09703414
000050 0f 0e 1d 3a 26 8f af 3d 16 c7 2d 3d c1 57 b1 bd
       0.00059911696 0.08572225 0.04242619 -0.08659316
000060 62 f8 e1 bc 73 d5 f9 bd ca ca de 3d e2 95 b1 3c
       -0.027584258 -0.12198915 0.10878523 0.021677915
000070 59 e0 dd 3d 16 44 1a bc 9d dc b0 3d 7a bc 81 3d
       0.108338065 -0.009415647 0.08635829 0.06334777
000080 ee 7a 31 bc f7 0f 50 bc fd 86 be 3d f5 22 62 bc
       -0.010832531 -0.012699119 0.09303091 -0.01380228
000090 6d 04 c6 3d d6 81 ab 3c af 7d 4a bd 75 39 87 bd
       0.09668813 0.020935934 -0.049436267 -0.06602756
0000a0 df df 6f bd 34 f7 a5 3d 34 dc bd 3d 4e 11 66 bd
       -0.05856311 0.08103791 0.09270516 -0.056168847
0000b0 3f 3f e8 bd e2 f6 88 3d 3c 03 d1 bc ce 82 f4 bd
       -0.11340188 0.06687714 -0.025514238 -0.119390115
0000c0 07 16 ee 3c 8c 05 f5 bb d8 34 af 3d 05 9e 9e 3c
       0.029063238 -0.007477468 0.08555001 0.019362459
0000d0 40 0a a8 bd 94 0e e2 bc a0 88 bc bd 5b d0 5e 3d
       -0.0820508 -0.027594842 -0.09205747 0.054397922
0000e0 e0 d7 f9 3c 9a 06 92 3d e6 5d b8 bd 8c 7d 8e bd
       0.030498445 0.071301654 -0.09002285 -0.0695754
0000f0 34 22 a0 bd a0 3a de bd ee 24 e0 bd 62 0f c9 bd
       -0.07819024 -0.108510256 -0.10944544 -0.09817387
000100 5e 1b b0 3d f5 cc 32 bd ef 6c e8 bc c9 e2 0b 3d
       0.0859897 -0.043652494 -0.028372256 0.034151826
000110 67 fc 0f 3d 04 e8 65 3d 07 0c b8 bd 98 32 00 3e
       0.03515282 0.05612947 -0.08986669 0.125193
000120 99 b4 9f bc 8e 93 52 bd a1 e7 9d 3d 37 2d cd bd
       -0.019495295 -0.05141025 0.07710195 -0.1001839
000130 32 db 93 bd c8 67 92 3d 2f 52 55 3d 44 44 5b bd
       -0.072195426 0.07148701 0.05208033 -0.0535319
000140 b4 72 87 bc dd a2 98 bc da 2e 4b 3d 0d 48 b6 3c
       -0.016534187 -0.018632347 0.049605228 0.022251153
000150 44 01 2e 3d 56 06 d2 3d 98 bb a6 bd 68 e7 b7 bd
       0.042481676 0.10255115 -0.081412494 -0.08979684
000160 56 e7 13 bd 7f b1 53 bd 23 c5 b7 bd 05 6e e4 3d
       -0.03610929 -0.051682945 -0.08973148 0.11153797
000170 23 5c cf 3d d3 51 d9 3d 49 03 aa bd ec 7a 1d bc
       0.101249956 0.1061131 -0.08301408 -0.009611826
000180 b2 17 b1 bd 39 34 44 bd 32 7c e2 3d 41 58 19 3c
       -0.08647098 -0.047901366 0.110588446 0.00935942
000190 0f 5f f9 3c b2 6e f2 bd cd 74 51 3d df 06 b3 3d
       0.030440835 -0.1183752 0.05113678 0.08741545
0001a0 b2 81 4c bd ea fd be 3d e1 82 52 3d 00 74 b8 bd
       -0.049928375 0.09325774 0.051394347 -0.090065
0001b0 84 58 bd bd 70 1e ac 3b 5b 44 04 be 7e ca aa bd
       -0.09245399 0.005252652 -0.129167 -0.083394036
0001c0 4a 2c 29 3d 25 f2 26 bd f0 11 e2 ba db 1a 5f bd
       0.041302003 -0.04075827 -0.0017247777 -0.05446897
0001d0 31 33 ac 3d 0e 9c d1 3d 1b 0c bd 3d a7 28 df bd
       0.084082015 0.10234843 0.092308246 -0.10896426
0001e0 55 df fe bc 5f 59 32 3d a8 23 90 3d 0b 08 ea bc
       -0.031112352 0.043542262 0.07038051 -0.028568288
0001f0 d4 3b 8e 3d f6 59 bc 3b 70 50 94 3c cf b5 ab 3d
       0.06945005 0.005748029 0.018104762 0.083842866

gru.weight_ih_l0 f4 [96, 6]
000000 4e 48 f8 3d 36 ad ff bd bc ca db bd ea ed 7f 3d
       0.12123166 -0.12484209 -0.10732028 0.062482752
000010 96 99 d8 3d 18 48 2a bd 6f 7b 1e 3e a4 69 b8 bc
       0.10576169 -0.04157266 0.15476774 -0.02251131
000020 8e c2 ba bd 68 82 9c bc 8d 5e 1f be 38 aa 58 3d
       -0.091191396 -0.019105151 -0.15563412 0.05289671
000030 ef 24 24 be ca a7 2a 3e df 7a 07 be 86 a3 ef 3d
       -0.16029714 0.16665569 -0.13230465 0.117011115
000040 a6 e3 03 be cd 6a cc bc fd 1b c7 bd 01 fa bb 3d
       -0.1287981 -0.02495327 -0.09722135 0.09178544
000050 ff c8 d3 3d 7d 90 28 be 50 42 1a be 66 ea b8 3c
       0.10341071 -0.16461368 -0.15064359 0.022572707
000060 fe 2d 91 bb c6 49 db 39 69 fd 5b 3d 94 13 17 bd
       -0.0044305315 0.000418259 0.053708468 -0.036883906
000070 c5 e3 18 3e 7d 04 1e 3c 66 42 a5 bd 0c 6f 80 3d
       0.14930637 0.009644625 -0.08069305 0.062711805
000080 55 dd 0a be a3 db a9 bd 14 38 69 3d 23 19 91 bd
       -0.13560994 -0.082938455 0.056938246 -0.070848726
000090 c7 55 2c be 4e 4e b6 3d b4 02 3c 3d 07 d3 54 3d
       -0.16829596 0.08901654 0.045901015 0.051959064
0000a0 04 21 80 3d 08 34 32 be 77 82 9c bd 9d 2d af bd
       0.06256297 -0.17402661 -0.07642072 -0.08553622
0000b0 cc 90 2d 3e 89 3d 98 bd 4c 21 ec bd af b5 7e bd
       0.16949767 -0.07433612 -0.115297884 -0.062184986
0000c0 34 19 84 3c 34 fd 90 3d a8 b5 04 3e cd 47 02 3e
       0.016125299 0.07079545 0.12959921 0.12722702
0000d0 8c b9 90 3c b5 62 25 3e 0d 71 bf 3d 11 33 bf 3d
       0.0176666 0.16150935 0.093477346 0.09335912
0000e0 53 cc 1b be 15 46 63 3c ba 6d 1f bd 22 61 2c be
       -0.15214662 0.013871689 -0.038923003 -0.16833928
0000f0 c6 af b2 bd 92 c9 09 3e 83 de 84 3d ab 55 27 3e
       -0.087249324 0.13455799 0.06487753 0.16341273
000100 c5 f6 f6 3d d8 7c b2 ba 38 f2 22 3e 1c db 19 3d
       0.12058786 -0.0013617529 0.15912712 0.037562475
000110 0a 90 d2 bc 5e 9c 9a bd 27 c6 e9 3d 08 ad a1 3d
       -0.025703449 -0.07549356 0.11414748 0.07894331
000120 5b 7f 05 3e 5a bf c1 bc 69 a3 22 be ce a4 1d 3d
       0.13036864 -0.023650814 -0.15882649 0.038487248
000130 b0 30 b2 3c a8 2e e3 bd 7c ea 30 3d 07 bf a6 bc
       0.021751732 -0.11092883 0.04319237 -0.02035476
000140 f1 0b 1b 3e aa 3f 10 3c 51 ae af bd b5 4b 11 3e
       0.15141274 0.008804241 -0.0857817 0.14189036
000150 dd f5 a1 3b f7 58 f4 bc ea 96 ac 3d 42 84 2e 3e
       0.0049426393 -0.029827578 0.08427222 0.1704264
000160 8a 65 a4 3d 5d 51 a7 3b ce 0b 17 3e af bb 94 bd
       0.080271795 0.005106135 0.14750597 -0.0726236
000170 5b 2f 23 3e b5 72 ca bd 72 f8 1b 3c cc 77 25 3e
       0.15936033 -0.0988516 0.009519683 0.1615898
000180 07 51 91 3d 3f a8 14 bd 7d 42 e0 3d 6e 6e d6 3d
       0.07095533 -0.036293264 0.10950182 0.104702815
000190 9a a0 22 be d3 e2 a4 bc 77 5a 13 be a3 b6 0a bd
       -0.15881577 -0.02012769 -0.14389978 -0.033865582
0001a0 ba 80 82 bc 5d c9 80 bd d6 34 4a bd 55 13 e3 3d
       -0.015930522 -0.06288407 -0.049366795 0.11087672
0001b0 9d f7 ae bb 01 25 34 be 72 70 f8 3c 87 0d 32 be
       -0.0053395764 -0.17592241 0.030327056 -0.17387973
0001c0 53 76 f8 bd ad 86 dd 3d f5 35 07 3e 62 31 85 bd
       -0.121319436 0.10816703 0.13204177 -0.0650356
0001d0 d9 a0 df bd 3d 7b a0 3d f2 c5 2c be f7 92 e0 3d
       -0.10919351 0.07836006 -0.16872385 0.10965531
0001e0 7d a6 f9 3d e4 c3 98 3d ea 18 5d 3d 2c 22 15 3d
       0.12189958 0.07459238 0.053978838 0.036409542
0001f0 1e 22 0b be ee 31 91 bd 49 60 e9 3d da 6d 18 3e
       -0.13587233 -0.070896015 0.11395318 0.14885655
000200 9c da 97 3b 50 e3 39 3d b0 d3 2b be ed 03 00 3e
       0.0046342146 0.045382798 -0.16779971 0.12501498
000210 4c 93 d1 bd 29 99 c4 bd bc 93 32 3e db 28 4e bd
       -0.10233173 -0.095995255 0.17439169 -0.05033193
000220 d5 ae b8 bd 88 b2 cf 3c 9c ac 0e 3e 2c 77 24 3e
       -0.090177216 0.025353685 0.13933033 0.16061085
000230 c4 7f 72 3c 46 77 f6 3d 46 11 01 3e b2 3e f2 bc
       0.0148009695 0.12034468 0.12604246 -0.029570911
000240 b6 1e 0f be 81 e8 a5 3b f8 be 76 bd 05 c8 7e 3d
       -0.13976559 0.005063117 -0.060240716 0.062202472
000250 dc 79 01 be bb 85 ed bd da 59 08 be da 75 07 be
       -0.12644142 -0.11597773 -0.13315526 -0.1322855
000260 90 aa 09 3e 5c 66 34 be 9d c9 d6 bb 10 74 df bd
       0.1344397 -0.17617172 -0.006554796 -0.10910809
000270 73 3b 93 bd 48 f4 4f bd 0d 4f ab 3d b8 a9 f4 3d
       -0.071890734 -0.050770074 0.08364687 0.11946434
000280 e3 05 1d bd 75 5c c0 3b be ad b8 ba 24 5c 25 3e
       -0.038335692 0.0058703967 -0.0014089865 0.1614843
000290 c4 d6 a2 3d 4b e7 14 bd 22 8e f6 3d 20 40 12 be
       0.079511195 -0.03635339 0.120388284 -0.14282274
0002a0 65 6c 8f 3d 05 74 0c 3e 09 e7 bb bd 93 77 87 3d
       0.070030965 0.13716133 -0.09174926 0.06614604
0002b0 ac 61 a6 3d 1f b1 17 be 6c a5 50 3d f1 de 08 3e
       0.08124098 -0.1481366 0.05093901 0.13366295
0002c0 fe 6e 86 3c 93 5e 0b bd bf 9e 8c bd fb e7 ee bd
       0.016410347 -0.03402574 -0.06866216 -0.116653405
0002d0 c8 fb 2e 3d e8 5e 2b be 3e 1d 1b be ff 6a 83 bd
       0.042720586 -0.16735423 -0.15147874 -0.06416892
0002e0 6b d1 2b be 97 cb 28 3e 7b a1 69 bd a1 b2 c0 bd
       -0.16779105 0.16483913 -0.057038765 -0.09409071
0002f0 ab 8e 35 3d 55 b5 9b 3d 85 16 08 3e c6 f8 91 bd
       0.044325512 0.07602946 0.1328984 -0.07127528
000300 b4 00 fe bc ae 77 09 be fc 5e 1e be 79 e6 9e bd
       -0.031006195 -0.1342456 -0.15465921 -0.07758803
000310 3f 1c 7b 3c 1a 24 bb bd d3 35 69 bd df ed 75 3d
       0.015326559 -0.09137745 -0.056936096 0.060041305
000320 1a 7b f3 3c 03 70 d1 3d 59 62 80 3d 8f d2 a1 3d
       0.029721785 0.10226443 0.06268758 0.07901489
000330 9b 4a ba bd 3d a8 c0 3d 25 70 22 be b6 1a 60 3d
       -0.09096261 0.09407089 -0.15863092 0.054712974
000340 e7 d3 db bd e8 c9 55 3d 13 30 20 be 1e ea a2 bc
       -0.107337765 0.052194506 -0.15643339 -0.019887026
000350 1e 5d e5 3d 6d ed ae bd fd 09 01 3e a5 ab a3 bc
       0.11199401 -0.08541379 0.12601466 -0.019979307
000360 7a 8d 1a 3e 36 8d 25 3e 6d fd ee bd 8d a2 5a bd
       0.15093032 0.16167149 -0.11669431 -0.053377677
000370 b8 66 8c bd 9f 8c aa bd a5 04 6e 3d 5b 0a 25 be
       -0.068555295 -0.083276026 0.058109898 -0.16117232
000380 d4 a5 d9 bd a0 d1 e3 bc b0 74 21 be fd 3f 2d be
       -0.10627332 -0.027809918 -0.15767169 -0.16918941
000390 53 6d 84 3d f6 db 18 be a4 ad e2 3d 24 0b e5 bd
       0.064661644 -0.14927658 0.110682756 -0.111837655
0003a0 f9 6d 38 bd 4d b4 ca 3d c9 6a 3a be 03 e6 2c be
       -0.045026753 0.09897671 -0.18204798 -0.16884618
0003b0 69 34 e2 3b 2b e3 82 bd 01 c8 b1 3d 72 71 68 3d
       0.0069032204 -0.06390985 0.08680726 0.056748815
0003c0 0f 92 d2 3c 05 5b 86 3d b0 e2 18 3e e7 a6 f5 3c
       0.025704412 0.06560329 0.14930224 0.029986812
0003d0 83 9d ff 3d 76 a9 a7 bd 87 8c 12 3e 42 5b 04 bd
       0.12481215 -0.08186619 0.1431142 -0.032313593
0003e0 fc 4d c1 3d 12 f3 16 be 18 30 dc bd c9 75 d0 bd
       0.094387025 -0.14741161 -0.10751361 -0.10178716
0003f0 9c d9 d8 3d 55 b1 30 3c b7 95 1c be 74 aa 40 3e
       0.10588381 0.010784467 -0.15291487 0.18815023
