best/cnn_price_prediction_model.pth (torch, 468290 bytes, 9 tensors)

conv1.weight f4 [16, 3, 2]
0.23244691 0.3414753 -0.29580376 0.013413221 0.011021763 -0.25882313 -0.32267642 0.06527772
0.023968227 -0.3438056 0.39244556 -0.19882065 0.09934995 0.19798017 0.24501784 -0.20466512
-0.0374992 -0.2357852 0.29457176 0.4204861 -0.16793777 0.20371673 -0.08296962 -0.037230797
0.34923536 0.09386601 0.18747438 0.1801656 -0.37498283 0.027875563 0.2690186 0.29146916
0.10184788 -0.24047667 -0.06286293 -0.09433409 -0.30282667 -0.40851834 -0.017852854 -0.07834104
-0.1727263 -0.0742989 0.2216431 -0.086882405 -0.13910836 -0.34980512 0.29486853 -0.049832292
0.30066228 0.106735796 0.39762968 -0.2311551 0.030225284 0.22128613 -0.3274092 -0.38936096
0.029124893 0.05040486 -0.24341051 -0.06241061 -0.027631292 0.32021162 0.12520868 -0.013867867
-0.33923993 -0.23365787 0.012345138 -0.25190267 0.4030612 0.3374699 0.25766656 0.064455025
0.12523693 -0.34708378 0.11051732 -0.22601408 0.31722897 -0.35838524 0.18313158 -0.22765951
-0.2838364 0.38312072 -0.2679565 0.04748133 0.016667366 -0.19108227 -0.33001733 0.2966525
-0.15874735 -0.1468881 0.13578169 0.4805254 -0.1604595 0.20956331 0.1367717 0.04253922
00000000: 9006 6e3e dad5 ae3e 9773 97be 20c3 5b3c
00000010: a094 343c 7784 84be d835 a5be 53b0 853d
00000020: 0459 c43c 4a07 b0be a0ee c83e a497 4bbe
00000030: fd77 cb3d 50bb 4a3e f5e5 7a3e bc93 51be
00000040: c398 19bd ad71 71be 1cd2 963e f449 d73e
00000050: e1f7 2bbe 1e9b 503e faeb a9bd 527f 18bd
00000060: face b23e d33c c03d 49f9 3f3e 557d 383e
00000070: c0fd bfbe 4b5b e43c cebc 893e 723b 953e
00000080: 9f95 d03d 843f 76be 48be 80bd 3b32 c1bd
00000090: 190c 9bbe 5129 d1be 2640 92bc 4471 a0bd
000000a0: 2adf 30be 062a 98bd 69f6 623e 67ef b1bd
000000b0: 6c72 0ebe a819 b3be 02f9 963e f21c 4cbd
000000c0: 68f0 993e 4c98 da3d 1e96 cb3e ecb3 6cbe
000000d0: 049b f73c d598 623e 2ea2 a7be 525a c7be
000000e0: 5497 ee3c 5475 4e3d 9b40 79be 45a2 7fbd
000000f0: 055b e2bc c7f2 a33e b436 003e 0d36 63bc
00000100: dbb0 adbe 0244 6fbe 4343 4a3c 63f9 80be
00000110: 0a5e ce3e dbc8 ac3e dfec 833e ff00 843d
00000120: 1c3e 003e f7b4 b1be e856 e23d 3c70 67be
00000130: d66b a23e 457e b7be d886 3b3e 931f 69be
00000140: 0153 91be 6628 c43e 9831 89be c87b 423d
00000150: 008a 883c 12ab 43be 08f8 a8be d6e2 973e
00000160: aa8e 22be d669 16be 5b0a 0b3e 6d07 f63e
00000170: 7f4f 24be c497 563e e10d 0c3e 9b3d 2e3d

conv1.bias f4 [16]
-0.36367226 0.22280388 0.40933225 -0.01841432 -0.27533144 0.08457169 0.22403364 0.15215303
0.114182234 0.035123557 -0.024212776 -0.15628466 -0.20503987 -0.35642618 -0.22411416 -0.1641184
00000000: 4033 babe b326 643e ff93 d13e a1d9 96bc
00000010: 3ef8 8cbe ec33 ad3d 1369 653e 01ce 1b3e
00000020: 60d8 e93d b8dd 0f3d df59 c6bc 1609 20be
00000030: f9f5 51be 7e7d b6be 2f7e 65be a70e 28be

conv2.weight f4 [32, 16, 2]
0.15583389 -0.0023843497 -0.042586386 0.14098962 -0.009041898 0.029459227 -0.051105805 -0.2422722
-0.14778988 -0.13359372 0.19187696 -0.14347711 -0.0062869964 0.25851443 0.15196441 0.16991009
0.09415868 -0.14614317 0.079138294 -0.018777587 -0.15939179 -0.22050568 0.16284968 0.064472795
-0.1343623 0.10500021 -0.13896526 -0.10436122 -0.1269404 0.029992491 0.046844233 -0.01973712
0.15243597 0.17159279 0.025399273 0.043765318 0.023990711 0.0934737 -0.12810224 0.079653844
-0.10040014 0.05058633 -0.16154915 0.12491176 0.3393308 0.32021335 0.1239327 0.1590559
0.054338053 -0.049900856 -0.023099342 -0.11995579 -0.15608673 0.042737074 -0.05816386 0.15477796
0.17504974 0.07222332 0.07741062 -0.12986487 0.029586479 0.14153771 -0.1414829 0.121169426
-0.1723186 0.030870348 0.15284812 -0.11185433 0.056815363 0.031996205 0.11661555 0.050785534
0.04270145 -0.069245435 -0.018705286 -0.1557977 0.0028201565 0.10354547 -0.06919089 0.15665682
-0.06638787 0.03945785 -0.14225559 -0.012194244 0.11357151 -0.07371954 -0.053206105 0.108772285
0.031012163 0.047400072 0.16376047 -0.1484335 -0.16506447 -0.1344536 -0.07844162 -0.10173527
-0.09223246 0.12549259 0.0009974166 0.021655392 -0.12925598 0.06241789 -0.12662596 -0.1559382
-0.17019023 -0.0064588236 0.012590141 0.19345246 -0.15881918 0.028764067 -0.011958324 0.16857934
0.03191627 0.1674553 -0.12925991 -0.18050405 -0.031710885 -0.0120426575 -0.09404558 0.15392484
-0.05428105 -0.1564479 -0.008761227 -0.07144586 0.113488 0.035143733 0.07282915 0.0040975283
-0.055694826 -0.063720934 0.066701025 0.04377077 -0.15028088 -0.04119552 -0.12796094 -0.102868035
-0.035941392 0.16279583 0.15824912 0.089835875 -0.009308851 0.1643702 0.17523141 0.09418804
-0.14664929 0.14992718 -0.1648321 -0.11449455 -0.045325354 -0.14640024 0.057935745 0.00094341685
-0.10424907 -0.10083155 -0.13600762 0.081042334 -0.06270324 0.1647604 -0.080674365 0.06989854
0.01480937 0.03480892 -0.037472226 0.17584209 -0.049442567 -0.09361818 0.106140874 -0.040072806
0.14914483 0.12983826 -0.12650478 -0.017428512 -0.059021745 -0.06768408 0.11594016 0.13753231
0.1306442 0.04343373 -0.10538333 0.013013257 0.061650764 -0.13297985 0.02198532 0.08714829
0.12843372 0.14910622 0.017822012 -0.13583036 0.15922879 0.014619291 0.022861632 0.2136014
0.13118885 -0.09997102 -0.18761776 -0.015024741 0.00768294 0.02494638 -0.0791926 0.1543815
-0.0907929 0.060408648 0.14755741 -0.13505459 0.12175843 0.21828492 -0.10080746 -0.13679506
-0.046322446 0.10493949 0.04867496 -0.060042057 0.011160546 -0.018054651 0.18226261 0.14364073
-0.009943262 0.11819856 -0.11439957 0.07559608 -0.10951913 -0.059708133 0.13060677 -0.008009754
0.1281235 -0.10392774 -0.05329965 -0.012686494 0.12160658 -0.09619834 0.16765724 0.017138382
0.05008899 -0.08014688 -0.13604026 0.09840894 0.014145408 -0.21364541 -0.11604873 0.15619585
-0.09490432 0.08348898 0.04390443 0.1285802 0.08583472 0.13440987 -0.04194502 0.0014751384
-0.10884055 0.10684727 -0.106639534 0.13566516 -0.14183345 -0.09194982 -0.04558465 0.21179686
00000000: eb92 1f3e c042 1cbb 106f 2ebd 955f 103e
00000010: 7824 14bc 7a54 f13c 5254 51bd 3416 78be
00000020: 3b56 17be cbcc 08be 657b 443e aaeb 12be
00000030: 2603 cebb 015c 843e 8f9c 1b3e e9fc 2d3e
00000040: 44d6 c03d 8ea6 15be 4213 a23d 74d3 99bc
00000050: 9a37 23be 3ecc 61be 11c2 263e 500a 843d
00000060: 4596 09be 5a0a d73d e94c 0ebe 56bb d5bd
00000070: aafc 01be d0b2 f53c bddf 3f3d beaf a1bc
00000080: 2d18 1c3e 05b6 2f3e 2312 d03c 4343 333d
00000090: 2b88 c43c 246f bf3d 3c2d 03be 8e21 a33d
000000a0: 979e cdbd 9d33 4f3d 246d 25be bdd1 ff3d
000000b0: c4bc ad3e 01f3 a33e 6dd0 fd3d 8ddf 223e
000000c0: 9491 5e3d d764 4cbd d53a bdbc 62ab f5bd
000000d0: 33d5 1fbe 120d 2f3d 3a3d 6ebd 1d7e 1e3e
000000e0: 3d40 333e d2e9 933d 7689 9e3d 4cfb 04be
000000f0: 585f f23c 43ef 103e e5e0 10be ad27 f83d
00000100: 4974 30be d0e3 fc3c 3884 1c3e e213 e5bd
00000110: 3ab7 683d 740e 033d 22d4 ee3d 7e04 503d
00000120: b7e7 2e3d 8dd0 8dbd d43b 99bc 6f89 1fbe
00000130: 60d2 383b a60f d43d f4b3 8dbd a56a 203e
00000140: 5df6 87bd 8e9e 213d 73ab 11be 5eca 47bc
00000150: 2e98 e83d 45fa 96bd a5ee 59bd 01c4 de3d
00000160: 380d fe3c 9426 423d d3b0 273e f4fe 17be
00000170: a906 29be 34ae 09be 00a6 a0bd 955a d0bd
00000180: 5fe4 bcbd 2181 003e bfbb 823a a666 b13c
00000190: ae5b 04be e7a9 7f3d 3caa 01be 43ae 1fbe
000001a0: 5946 2ebe 8aa4 d3bb e146 4e3c 6718 463e
000001b0: 7fa1 22be 9fa2 eb3c d9ec 43bc 10a0 2c3e
000001c0: a2ba 023d 6779 2b3e b65c 04be 0ed6 38be
000001d0: 46e3 01bd 914e 45bc f89a c0bd 799e 1d3e
000001e0: ce55 5ebd e133 20be 408b 0fbc 3552 92bd
000001f0: 666c e83d e0f2 0f3d 7327 953d 8f44 863b
00000200: 4220 64bd 1f80 82bd 8c9a 883d fb48 333d
00000210: 3be3 19be a2bc 28bd 3108 03be 7aac d2bd
00000220: 4837 13bd f3b3 263e 0f0c 223e dffb b73d
00000230: 2784 18bc a950 283e dd6f 333e a9e5 c03d
00000240: 3b2b 16be 8386 193e bfc9 28be 1e7c eabd
00000250: 14a7 39bd f2e9 15be 084e 6d3d a24f 773a
00000260: 8980 d5bd c680 cebd 9545 0bbe 86f9 a53d
00000270: 8e6a 80bd f3b6 283e 9a38 a5bd f726 8f3d
00000280: 00a3 723c cc93 0e3d 7a7c 19bd f30f 343e
00000290: 4a84 4abd e3ba bfbd 6360 d93d 6223 24bd
000002a0: 6cb9 183e 52f4 043e 788a 01be 3dc6 8ebc
000002b0: c9c0 71bd f39d 8abd 0972 ed3d 45d5 0c3e
000002c0: 98c7 053e 91e7 313d 37d3 d7bd 8e35 553c
000002d0: 8385 7c3d df2b 08be 8f1a b43c cd7a b23d
000002e0: 2184 033e 4daf 183e 78ff 913c 1d17 0bbe
000002f0: df0c 233e c085 6f3c 5148 bb3c 53ba 5a3e
00000300: 5f56 063e 9bbd ccbd df1e 40be 552a 76bc
00000310: 2cc1 fb3b 5a5c cc3c bb2f a2bd 2f16 1e3e
00000320: a1f1 b9bd 0f6f 773d 4a19 173e c04b 0abe
00000330: 7c5c f93d 1586 5f3e 2474 cebd 0114 0cbe
00000340: 9bbc 3dbd 84ea d63d 655f 473d a9ee 75bd
00000350: b9da 363c 59e7 93bc 0da3 3a3e 8e16 133e
00000360: 10e9 22bc 1612 f23d 524a eabd 1ed2 9a3d
00000370: 914b e0bd 8490 74bd c8bd 053e 583b 03bc
00000380: cf32 033e 11d8 d4bd bc50 5abd 03db 4fbc
00000390: df0c f93d a303 c5bd 57ae 2b3e cb65 8c3c
000003a0: 1d2a 4d3d 0c24 a4bd 234e 0bbe a08a c93d
000003b0: 24c2 673c ddc5 5abe f5aa edbd cef1 1f3e
000003c0: 325d c2bd 45fc aa3d 22d5 333d 87aa 033e
000003d0: 1dca af3d bea2 093e 8bce 2bbd 6e59 c13a
000003e0: cbe7 debd bed2 da3d d465 dabd cfeb 0a3e
000003f0: ca3c 11be 3050 bcbd f8b6 3abd 47e1 583e

conv2.bias f4 [32]
0.06139507 0.012935135 0.034949213 0.042761613 -0.057236537 -0.08517384 0.11742715 0.03743094
-0.044543788 -0.14619228 -0.167361 -0.105923705 0.17166165 0.037638526 0.0028136827 0.107695565
-0.060225762 0.09585362 0.015153742 -0.06567833 0.06106825 0.021503167 -0.031197676 -0.10118708
0.09374618 -0.1257998 -0.12238433 -0.012314272 -0.049287982 -0.06905406 0.14281416 0.045792766
00000000: 6679 7b3d e3ed 533c e826 0f3d cd26 2f3d
00000010: dc70 6abd 9f6f aebd a57d f03d 2f51 193d
00000020: 8c73 36bd 6eb3 15be af60 2bbe 87ee d8bd
00000030: 12c8 2f3e db2a 1a3d c365 383b 7e8f dc3d
00000040: 4aaf 76bd e74e c43d 6747 783c 5c82 86bd
00000050: b422 7a3d 6927 b03c 4592 ffbc 2c3b cfbd
00000060: fffd bf3d aad1 00be a3a4 fabd cdc1 49bc
00000070: 32e2 49bd 376c 8dbd e03d 123e 3291 3b3d

conv3.weight f4 [64, 32, 2]
0.10883107 0.15576907 0.0061582723 0.035943702 -0.04161623 0.08989487 0.1277719 -0.038069222
-0.12526678 0.027905382 0.019974602 -0.047449887 -0.053314134 0.040205896 0.10448674 -0.06575908
-0.040898427 0.04627952 0.09196092 -0.09665695 -0.007328704 0.10998124 -0.055787914 0.07577604
0.10920462 0.13495873 -0.091928974 -0.0317591 -0.07964397 -0.0015271119 -0.102892734 -0.069828995
0.045869485 -0.07782192 -0.078936055 -0.04571926 0.09049529 0.05320049 -0.09282969 0.008661764
0.075124994 -0.024994161 0.010044839 0.036369048 -0.07510048 -0.101469114 0.008885511 -0.05843589
0.021989748 -0.010899073 -0.12131819 -0.123839825 0.013026595 0.070722684 -0.05230425 0.124989025
-0.07105707 0.10010531 -0.00013796458 -0.09655715 0.062195677 -0.089928605 -0.024850316 0.08452694
-0.083236195 0.05918046 0.058152527 -0.13559796 -0.13601531 -0.009705835 0.10367663 0.1295847
0.05905893 -0.007917076 0.1657195 -0.071590506 0.07650611 0.012609782 0.12408183 0.038056616
-0.05976154 0.016961873 -0.11691289 0.075194806 0.01549615 0.09136103 0.06324543 -0.008118187
-0.12040032 0.06146547 -0.03747363 -0.12518115 -0.10319445 -0.1533654 0.09525419 -0.042387612
0.09603326 0.017871052 0.028975964 0.113521606 -0.069589004 0.09650966 -0.0025074414 0.04583019
0.09712821 0.06468201 -0.06016571 -0.13063659 -0.08212026 -0.012441329 0.096432835 0.18170278
-0.08973928 -0.035129104 0.033815324 0.088375 -0.04974182 -0.012476355 0.087460116 0.08087165
0.03243137 -0.094109334 -0.013204998 -0.13040511 -0.00095347216 0.13751756 -0.00699499 0.094138145
0.08650985 -0.107177675 0.02071485 -0.11416158 0.10694361 0.0064798445 -0.101160616 -0.03723158
-0.11225253 0.072135 0.06431013 -0.11754042 -0.025392696 -0.056486472 0.013847664 -0.1061828
-0.11285408 -0.1249264 -0.059186935 -0.09983952 -0.0127373785 0.045871943 -0.047931507 0.022705048
0.10384095 -0.108960286 0.12382765 -0.016037136 0.08575384 0.10061124 0.046980888 -0.040920913
0.07795283 0.05510375 -0.086796135 -0.11051394 -0.053597957 -0.061501473 -0.014871731 0.081299916
-0.11636159 0.09378956 0.10222468 0.0045446604 0.009167209 -0.071940094 0.094891 0.013510317
-0.111261606 0.03407432 -0.03549315 -0.059789464 -0.07510641 -0.0813591 -0.106942296 -0.003912911
-0.04584676 -0.051735118 -0.0252949 0.016862959 -0.05378893 -0.11333424 0.0061218143 -0.07658592
0.039420597 0.08512769 -0.07694407 -0.03993659 0.069792986 -0.051432632 -0.054694023 0.016764957
0.024908528 0.109645694 0.0031295484 -0.00512333 -0.114867195 0.110604025 -0.044699308 -0.042787705
0.09975129 -0.050802916 0.09703049 -0.11684725 -0.004431948 -0.08293103 0.09647453 -0.10079228
0.09385494 -0.050250888 -0.055754345 0.005637523 0.09781421 0.012216505 0.057331316 0.049200725
0.09673258 -0.08937704 0.111096896 -0.118806444 0.102508165 -0.0004976065 0.014596984 0.074477956
0.049679287 -0.006038201 0.0031287142 0.052787356 0.06611103 0.04952944 0.03004296 0.029926509
-0.1128142 -0.005099469 0.11668141 -0.0062850863 -0.027904674 -0.04760416 -0.029353762 0.07074008
0.082779 -0.020587984 0.09797537 0.07747775 -0.09301987 0.08781555 0.0221753 -0.086083084
00000000: d3e2 de3d ed81 1f3e 55cb c93b b439 133d
00000010: c875 2abd cd1a b83d a3d6 023e 79ee 1bbd
00000020: ef45 00be d499 e43c c7a1 a33c d05a 42bd
00000030: ec5f 5abd f0ae 243d 25fd d53d b2ac 86bd
00000040: 1c85 27bd 988f 3d3d 0256 bc3d 14f4 c5bd
00000050: a025 f0bb d83d e13d de81 64bd 7830 9b3d
00000060: aca6 df3d 9f32 0a3e 4245 bcbd d415 02bd
00000070: 611c a3bd 5f29 c8ba 6db9 d2bd 8102 8fbd
00000080: a4e1 3b3d 1961 9fbd 3aa9 a1bd 1e44 3bbd
00000090: 9855 b93d c2e8 593d 7e1d bebd 12ea 0d3c
000000a0: 22db 993d 8ec0 ccbc 1c93 243c b6f7 143d
000000b0: 48ce 99bd 0acf cfbd 8994 113c 795a 6fbd
000000c0: d823 b43c 0792 32bc ac75 f8bd bc9f fdbd
000000d0: 806d 553c 0ed7 903d fb3c 56bd 3ffa ff3d
000000e0: 5e86 91bd 0304 cd3d 96aa 10b9 c1bf c5bd
000000f0: e5c0 7e3d 7d2c b8bd e492 cbbc 761c ad3d
00000100: bd77 aabd 3667 723d 5831 6e3d 31da 0abe
00000110: 9947 0bbe 3905 1fbc 6a54 d43d dab1 043e
00000120: c7e7 713d a0b6 01bc 5fb2 293e 0b9e 92bd
00000130: 3caf 9c3d 4299 4e3c 9d1e fe3d 41e1 1b3d
00000140: 84c8 74bd a0f3 8a3c 0670 efbd bcff 993d
00000150: 90e3 7d3c 7e1b bb3d d286 813d 2502 05bc
00000160: 7194 f6bd 37c3 7b3d f37d 19bd 7d2f 00be
00000170: 9d57 d3bd d20b 1dbe a114 c33d a29e 2dbd
00000180: 16ad c43d 5066 923c 005f ed3c 047e e83d
00000190: ae84 8ebd dba6 c53d e353 24bb 70b8 3b3d
000001a0: 28eb c63d 0078 843d 5270 76bd 99c5 05be
000001b0: ab2e a8bd b7d6 4bbc 947e c53d 4b10 3a3e
000001c0: 3ac9 b7bd 89e3 0fbd f081 0a3d f4fd b43d
000001d0: 14be 4bbd a069 4cbc 4a1e b33d 09a0 a53d
000001e0: c2d6 043d 65bc c0bd c759 58bc eb88 05be
000001f0: 6ff2 79ba 67d1 0c3e 3b36 e5bb 80cb c03d
00000200: 142c b13d f87f dbbd 30b2 a93c 8ccd e9bd
00000210: 4005 db3d e054 d43b 4c2d cfbd 2480 18bd
00000220: a8e4 e5bd 84bb 933d 08b5 833d 08b9 f0bd
00000230: 5804 d0bc 5c5e 67bd 50e1 623c 5e76 d9bd
00000240: 0a20 e7bd 6ad9 ffbd 006e 72bd aa78 ccbd
00000250: 70b0 50bc 38e4 3b3d d453 44bd f0ff b93c
00000260: 90aa d43d 9226 dfbd 5a99 fd3d 5060 83bc
00000270: b69f af3d 440d ce3d 086f 403d b09c 27bd
00000280: bca5 9f3d 78b4 613d 2cc2 b1bd 2255 e2bd
00000290: 8889 5bbd f8e8 7bbd 90a8 73bc 9280 a63d
000002a0: fc4e eebd be14 c03d 2c5b d13d 60eb 943b
000002b0: 1032 163c 5455 93bd 3656 c23d 605a 5d3c
000002c0: 20dd e3bd 8491 0b3d 4461 11bd cce5 74bd
000002d0: 64d1 99bd 9a9f a6bd 9004 dbbd e037 80bb
000002e0: d0c9 3bbd 34e8 53bd 4037 cfbc 3024 8a3c
000002f0: c851 5cbd c81b e8bd 8099 c83b 14d9 9cbd
00000300: 7e77 213d 6d57 ae3d da94 9dbd 8d94 23bd
00000310: a0ef 8e3d 06ab 52bd d706 60bd aa56 893c
00000320: f80c cc3c ec8d e03d 1c19 4d3b 9be1 a7bb
00000330: 7e3f ebbd 5d84 e23d 9f16 37bd 2942 2fbd
00000340: 684a cc3d b816 50bd ecb7 c63d 9c4d efbd
00000350: e039 91bb bed7 a9bd 7094 c53d 2f6c cebd
00000360: 0537 c03d e0d3 4dbd ab5e 64bd f8ba b83b
00000370: d152 c83d bc27 483c 3ed4 6a3d b386 493d
00000380: bb1b c63d 4f0b b7bd c586 e33d cb50 f3bd
00000390: cdef d13d cf71 02ba 3028 6f3c e687 983d
000003a0: 827c 4b3d 1adc c5bb 1d0b 4d3b 8e37 583d
000003b0: 3865 873d 62df 4a3d a71c f63c 7028 f53c
000003c0: 220b e7bd 7219 a7bb aaf6 ee3d 20f3 cdbb
000003d0: 5898 e4bc 94fc 42bd 4d77 f0bc 2de0 903d
000003e0: 0988 a93d 22a8 a8bc 50a7 c83d a8ac 9e3d
000003f0: 3481 bebd a4d8 b33d faa8 b53c 544c b0bd

conv3.bias f4 [64]
0.06789072 0.059658296 -0.10151921 -0.12440713 0.09340575 0.116168864 0.08069265 -0.10877189
-0.06588513 0.020567866 0.08750918 0.08804092 0.029540736 0.014535096 -0.0042079836 0.02997525
0.07046132 -0.026436582 -0.07499688 -0.0680948 0.11229712 -0.016871452 0.115089275 -0.0016796056
-0.12253778 -0.075072534 0.09292529 0.10402642 0.09306737 0.047806185 0.016368937 -0.12392013
0.05743611 0.0035714963 0.015129605 -0.047077663 0.056765746 0.022079132 0.10005214 -0.07130049
0.026815994 -0.07114199 0.045832302 0.11908188 -0.09793779 0.03820774 0.020811569 -0.09384301
0.09496188 0.0020093769 0.11582195 -0.1038298 -0.078838915 0.07657422 0.0033658436 0.11176552
-0.0451337 -0.047099456 0.088807665 0.12031843 -0.12529205 -0.0841944 0.07725013 -0.02877085
00000000: 4a0a 8b3d 425c 743d 4ee9 cfbd 2ac9 febd
00000010: 844b bf3d f1e9 ed3d 3042 a53d ccc3 debd
00000020: c8ee 86bd f17d a83c 0338 b33d cc4e b43d
00000030: 6aff f13c 9c24 6e3c 20e3 89bb a88e f53c
00000040: 064e 903d 8891 d8bc f797 99bd 4975 8bbd
00000050: 08fc e53d 0036 8abc edb3 eb3d 3626 dcba
00000060: 16f5 fabd a1bf 99bd 9d4f be3d ce0b d53d
00000070: 1b9a be3d 6bd0 433d 2618 863c d6c9 fdbd
00000080: 2042 6b3d c40f 6a3b 2ae2 773c 82d4 40bd
00000090: 3383 683d 4cdf b43c 23e8 cc3d fe05 92bd
000000a0: 37ad db3c e4b2 91bd a7ba 3b3d 33e1 f33d
000000b0: 9c93 c8bd b87f 1c3d 067d aa3c c430 c0bd
000000c0: 607b c23d c0af 033b 0f34 ed3d b8a4 d4bd
000000d0: 4c76 a1bd f2d2 9c3d 7c95 5c3b 52e5 e43d
000000e0: 1dde 38bd 5ceb 40bd cbe0 b53d 8269 f63d
000000f0: 8f4c 00be 1d6e acbd 5135 9e3d d8b0 ebbc

fc1.weight f4 [64, 1728]
-0.0064437534 0.008626446 -0.03086717 0.0032801954 -0.020683937 -0.00075984484 0.005181634 -0.022265874
-0.016628489 0.0055383286 -0.004315508 0.023210974 0.00051276636 -0.008097907 -0.029564373 -0.025983773
0.015576675 -0.02486526 0.020821141 -4.861171e-05 0.019236444 -0.0058599426 0.014088731 -0.026093775
-0.0148216495 -0.0034456742 -0.073688544 0.019623213 0.0051288796 -0.01204933 0.012211198 -0.027963748
0.016360212 0.012442179 -0.009410794 0.030474074 0.0038321377 0.01810491 -0.024416668 -0.012114937
0.008002353 -0.009924456 -0.008082405 -0.033009507 -0.0129302535 0.010589368 0.0024672353 -0.003908378
-0.0056761126 0.0061323936 -0.0006609368 0.025860941 0.0041940208 -0.07140993 -0.00659517 0.01613451
-0.013422834 0.0138159 0.012852626 0.0008615982 -0.016597861 -0.009696167 -0.019213535 0.011711398
-0.010593337 0.014830062 0.00915301 -0.018474119 0.014075873 0.016539289 -0.022206467 -0.021697678
0.009516956 0.022954406 -0.004103815 0.015022377 0.0011966284 -0.021482747 -0.010207289 -0.0072800126
0.0014266726 -0.012335093 0.0061194114 -0.008457334 -0.02253144 -0.0035081804 -0.0008609351 0.020636963
-0.022839151 0.018629609 0.02094029 -0.014809187 0.020213874 -1.417473e-05 0.022272842 -0.00055944733
-0.0013995301 -0.014506707 0.020876678 -0.023535691 -0.015799135 0.023321258 -0.0096664345 0.003621254
-0.019882353 -0.02128604 -0.008484012 -0.011362104 0.006579119 0.012651142 -0.00016079542 -0.007799118
0.013714429 0.01771132 0.034290683 -0.008223538 -0.0031520003 0.011297447 0.0017402635 0.01559289
0.0050220303 -0.007216902 -0.0043851756 0.006047699 -0.0077178893 -0.009658258 0.031781048 0.033934653
0.021283032 -0.017771581 -0.00599033 0.028589299 0.010821446 -0.0020912017 -0.0018694557 0.02393719
0.01674617 0.017896056 -0.019756395 -0.021511178 0.016660087 -0.003002935 0.0067672883 0.018772965
-0.014463492 -0.001260692 0.017038349 0.00022507927 0.0011458047 0.000693549 0.030779583 -0.0038482056
-0.004547439 -0.00891745 -0.009167009 -0.015219592 0.0027137988 0.019450778 -0.014018576 -0.020166423
0.0032430056 0.030524762 0.012800903 -0.00072495005 0.0048852 0.01374516 0.008049919 -0.0026105074
-0.010805171 -0.01149378 0.0243018 0.01638516 0.013888971 0.0054104803 0.010626804 0.011201749
-0.004668564 0.00010784926 0.009899496 0.006595786 -0.019868966 -0.0088670505 -0.008079149 0.013886964
-0.0069794618 0.011045257 0.017856998 -0.0043389555 0.015457696 -0.00078896433 -0.004268309 0.004828302
-0.021776376 0.0039215554 0.005079914 -0.01490644 -0.0032817442 -0.019478014 0.007246008 0.009973062
-0.016452814 0.005736774 0.018137569 -0.0020587798 0.023621397 -0.011468889 0.012318244 0.019902566
0.010989564 0.0065902155 -0.01826558 0.013552299 -0.0017207488 0.015761638 0.00949282 -0.0059124473
-0.0074933227 0.022229658 0.010142798 0.013027189 -0.016352432 -0.021117803 0.01567077 -0.020193312
0.0051546376 0.0075300913 -0.019728057 -0.009283501 -0.01018661 0.018523345 0.021127308 -0.018135551
0.011807391 -0.012404222 0.0001682993 0.0015274417 0.021073049 -0.005780792 0.011232311 -0.016052306
0.022769501 -3.1938776e-05 0.006773835 0.0212259 0.026003193 -0.01520565 -1.7315571e-05 0.010094295
-0.017689714 0.008569601 -0.0071402392 -0.01674605 -0.017371885 -0.010380364 0.01844189 -0.0036436904
00000000: 1f26 d3bb f055 0d3c 26dd fcbc 8cf8 563b
00000010: 5c71 a9bc 5330 47ba b2ca a93b ec66 b6bc
00000020: 7838 88bc de7a b53b 1b69 8dbb f124 be3c
00000030: 2b6b 063a 15ad 04bc fc30 f2bc ecdb d4bc
00000040: 4f35 7f3c 3bb2 cbbc 1991 aa3c 6de4 4bb8
00000050: bf95 9d3c c304 c0bb 6cd4 663c 9dc2 d5bc
00000060: 81d6 72bc d2d0 61bb 05ea 96bd dcc0 a03c
00000070: 2910 a83b 8e6a 45bc 7a11 483c 3b14 e5bc
00000080: da05 863c 48da 4b3c bb2f 1abc c4a4 f93c
00000090: 9a24 7b3b c050 943c 7705 c8bc bb7d 46bc
000000a0: 4d1c 033c 2f9a 22bc 106c 04bc fa34 07bd
000000b0: 6ad9 53bc 077f 2d3c 57b1 213b da11 80bb
000000c0: affe b9bb 3ff2 c83b b842 2dba 53da d33c
000000d0: ff6d 893b 5f3f 92bd 4c1c d8bb 852c 843c
000000e0: 72eb 5bbc 165c 623c d293 523c e0dc 613a
000000f0: 3df8 87bc acdc 1ebc b465 9dbc 2ae1 3f3c
00000100: ad8f 2dbc caf9 723c 82f6 153c 0957 97bc
00000110: 7e9e 663c 677d 873c 56ea b5bc 54bf b1bc
00000120: 02ed 1b3c e10a bc3c 4c79 86bb 6a20 763c
00000130: 30d8 9c3a 96fc afbc 793c 27bc 2c8d eebb
00000140: 30ff ba3a 2119 4abc 5885 c83b a190 0abc
00000150: db93 b8bc 80e9 65bb 60b0 61ba d90e a93c
00000160: 2c19 bbbc 1f9d 983c f98a ab3c 3ba2 72bc
00000170: 9197 a53c 00d0 6db7 8975 b63c e0a7 12ba
00000180: 7070 b7ba 8aad 6dbc 9105 ab3c eccd c0bc
00000190: 306d 81bc 390c bf3c f75f 1ebc 9052 6d3b
000001a0: 51e0 a2bc 1060 aebc 8700 0bbc 1e28 3abc
000001b0: a695 d73b bc46 4f3c 319b 28b9 be8f ffbb
000001c0: 7cb2 603c 5517 913c 6374 0c3d 05bc 06bc
000001d0: ca91 4ebb ed18 393c 8e19 e43a 5279 7f3c
000001e0: d88f a43b c37b ecbb 85b1 8fbb c72b c63b
000001f0: 59e6 fcbb ac3d 1ebc d82c 023d 10ff 0a3d
00000200: c159 ae3c b595 91bc 884a c4bb 1b34 ea3c
00000210: 6f4c 313c 8b0c 09bb 8608 f5ba ed17 c43c
00000220: 442f 893c c09a 923c 2ad8 a1bc 3638 b0bc
00000230: bc7a 883c e4cc 44bb 21c0 dd3b c3c9 993c
00000240: 48f8 6cbc ce3d a5ba 0294 8b3c 4203 6c39
00000250: d32e 963a 49cf 353a 7725 fc3c 2d32 7cbb
00000260: af02 95bb 7f1a 12bc 3931 16bc 985b 79bc
00000270: fdd9 313b 3d57 9f3c 2bae 65bc 0e34 a5bc
00000280: 9b88 543b 110f fa3c e1ba 513c 930a 3eba
00000290: 0714 a03b 6133 613c cfe3 033c 0c15 2bbb
000002a0: 2c08 31bc 6850 3cbc 9214 c73c 2c3a 863c
000002b0: 918e 633c 664a b13b 0c1c 2e3c 8a87 373c
000002c0: c1fa 98bb 212d e238 7f31 223c 7721 d83b
000002d0: 3ec4 a2bc 1b47 11bc 685e 04bc 2686 633c
000002e0: f8b3 e4bb 2af7 343c d748 923c cc2d 8ebb
000002f0: 4742 7d3c 80d2 4eba 2cdd 8bbb bc36 9e3b
00000300: 5f64 b2bc 6480 803b 6875 a63b 243a 74bc
00000310: 8812 57bb 5b90 9fbc ec6f ed3b 0e66 233c
00000320: 0dc8 86bc 8cfb bb3b 3d95 943c 98ec 06bb
00000330: a981 c13c 02e8 3bbc 76d2 493c b50a a33c
00000340: 920d 343c bcf2 d73b b3a1 95bc 760a 5e3c
00000350: c08a e1ba 8d1e 813c c687 1b3c 34bd c1bb
00000360: 8c8a f5bb f91a b63c fa2d 263c fe6f 553c
00000370: 89f5 85bc 3eff acbc fd5f 803c 726c a5bc
00000380: 3ce8 a83b fcbe f63b bc9c a1bc d319 18bc
00000390: bde5 26bc 45be 973c 2d13 ad3c 0291 94bc
000003a0: ca73 413c 143b 4bbc 8079 3039 7034 c83a
000003b0: 63a1 ac3c cc6c bdbb ba07 383c 2080 83bc
000003c0: 1b87 ba3c 00f6 05b8 0cf7 dd3b f0e1 ad3c
000003d0: a604 d53c 1e21 79bc e840 91b7 8b62 253c
000003e0: 05ea 90bc 8367 0c3c abf8 e9bb 032f 89bc
000003f0: 7c4f 8ebc 6712 2abc 7213 973c fbca 6ebb

fc1.bias f4 [64]
0.026441926 0.022891711 -0.022363657 0.016271317 0.0010603556 -0.023814773 -0.004360776 -0.00493302
-0.007057301 -0.002102603 0.0052938177 -0.0058443067 0.017467562 0.012367599 -0.005292074 0.020697022
0.007861729 -0.009042637 -0.002034719 -0.01571154 -0.002380962 0.0035110414 -0.015908808 -0.015128869
-0.013671123 -0.014028809 0.016246546 -0.018420694 -0.012478538 0.011936184 -0.00017888716 0.020699142
0.0031783688 0.011149517 0.011901029 -0.0022059178 0.012195275 0.024228033 0.008208377 -0.0120156305
-0.015200641 -0.0035268855 -0.0076884683 0.024207499 0.0146293845 -0.020832542 0.0004633716 -0.009361529
0.019282619 -0.0026447524 -0.019224387 -0.00081512704 -0.016794896 0.017155848 -0.020173443 0.02154635
-0.0152292345 -0.00077370554 0.025428617 -0.020662462 0.008907674 0.009344048 -0.0040543987 0.016638424
00000000: bd9c d83c 6687 bb3c fd33 b7bc 6d4b 853c
00000010: a1fb 8a3a 3317 c3bc d7e4 8ebb 2ca5 a1bb
00000020: ee40 e7bb d3cb 09bb c377 ad3b 9981 bfbb
00000030: 2218 8f3c 78a1 4a3c 2269 adbb cd8c a93c
00000040: 7bce 003c 9227 14bc ec58 05bb 7db5 80bc
00000050: ea09 1cbb 8019 663b 3053 82bc 13df 77bc
00000060: d9fc 5fbc 17d9 65bc 7a17 853c ffe6 96bc
00000070: c872 4cbc fc8f 433c a893 3bb9 3f91 a93c
00000080: 2e4c 503b 77ac 363c 89fc 423c 2991 10bb
00000090: b1ce 473c de79 c63c 6e7c 063c 35dd 44bc
000000a0: 1c0c 79bc 5223 67bb 8cef fbbb ce4e c63c
000000b0: 16b0 6f3c 02a9 aabc aff0 f239 1961 19bc
000000c0: 95f6 9d3c 9553 2dbb 767c 9dbc 40ae 55ba
000000d0: 7395 89bc 6c8a 8c3c c742 a5bc f981 b03c
000000e0: 0a84 79bc 80d2 4aba ad4f d03c 5344 a9bc
000000f0: 7ef1 113c c717 193c c3da 84bb 4e4d 883c

fc2.weight f4 [1, 64]
0.03063972 0.10169916 0.11768843 -0.08200054 -0.114038244 -0.06757495 -0.0063570817 -0.018417582
-0.06173035 -0.08793208 0.049038276 -0.065849274 -0.014843963 0.09769609 -0.026819983 -0.10099912
-0.07086328 0.1436232 0.07032249 0.11619619 -0.08816705 -0.009408757 -0.0927438 -0.014556882
-0.07740721 -0.06639823 0.09322677 0.12499075 0.0736533 0.10720231 -0.031146646 0.08549434
0.1099712 -0.09883042 0.09571854 -0.027934944 -0.08866126 0.050697036 -0.004288561 0.0105603635
-0.07452923 0.15661299 -0.03622171 0.032328967 -0.067559734 -0.07602289 -0.030355822 0.07229769
0.10982342 -0.059267282 -0.040580273 0.052090347 -0.030187959 0.12470034 0.08810161 0.05089235
0.11792576 -0.04615432 0.042821087 0.0042470503 -0.14844824 0.12089767 -0.070372045 -0.068948135
00000000: 2600 fb3c a647 d03d a206 f13d e6ef a7bd
00000010: e28c e9bd bc64 8abd 114f d0bb 78e0 96bc
00000020: f7d8 7cbd bc15 b4bd 5cdc 483d fcdb 86bd
00000030: 1834 73bc e314 c83d 95b5 dbbc a0d8 cebd
00000040: c420 91bd f611 133e 3d05 903d 45f8 ed3d
00000050: ed90 b4bd 3027 1abc 76f0 bdbd fd7f 6ebc
00000060: ac87 9ebd ccfb 87bd aded be3d 26fb ff3d
00000070: 8bd7 963d e28c db3d 4027 ffbc a817 af3d
00000080: 9538 e13d 9a67 cabd 1508 c43d d3d7 e4bc
00000090: 0994 b5bd b2a7 4f3d 0f87 8cbb 6005 2d3c
000000a0: c8a2 98bd 285f 203e 375d 14bd 616b 043d
000000b0: c25c 8abd e4b1 9bbd c6ac f8bc d010 943d
000000c0: 1aeb e03d 40c2 72bd 8037 26bd b05c 553d
000000d0: bd4c f7bc e462 ff3d 9e6e b43d 7f74 503d
000000e0: 1083 f13d 500c 3dbd 2a65 2f3d d72a 8b3b
000000f0: d102 18be 3399 f73d 381f 90bd ae34 8dbd
