best/CNN_noPCA_prediction_model.pth (torch, 110434 bytes, 11 tensors)

cnn.0.weight f4 [8, 6, 2]
0.53526574 1.122522 -0.08376854 0.22149669 -0.101861574 0.042239502 -0.19930468 0.041160353
0.04996575 -0.064814515 0.021941466 0.060159814 0.31824324 0.33057526 0.10730869 -0.07421094
0.20728514 0.034117367 -0.1778147 0.003900113 -0.16080275 0.050585747 -0.09265427 0.19986016
-0.19979908 -0.20540798 -0.0033808972 -0.100367345 0.12569898 -0.18703198 0.30917948 -0.17822874
0.28157204 0.06247594 -0.080280505 0.14117794 0.041439276 0.20929945 -0.032106012 -0.14856565
0.038580514 -0.12284405 0.08721442 0.22266847 0.06811134 -0.18333393 0.13026313 0.03571391
0.3826379 0.28297228 -0.29674476 -0.13092223 -0.20548567 0.26700822 0.08026616 0.08745953
0.021047493 0.06494831 0.12806818 -0.17891218 0.018176049 -0.19703238 0.08901355 -0.0994146
0.08845475 -0.06014301 0.23942482 -0.17109829 -0.17216527 -0.17217566 0.25964677 0.0962013
0.27777785 -0.23823673 -0.28632995 -0.22584897 -0.19418861 0.11692503 0.1033676 0.23986721
-0.14907916 -0.19679324 0.15316471 -0.11668378 0.23503442 0.062398266 0.18696274 -0.19561052
-0.12426295 0.118557334 0.087666094 -0.04839363 0.12814942 0.14619815 -0.23221053 -0.19133754
00000000: 2d07 093f cdae 8f3f d78e abbd 07d0 623e
00000010: cd9c d0bd 5403 2d3d 8716 4cbe c297 283d
00000020: e3a8 4c3d 79bd 84bd 97be b33c 236a 763d
00000030: c7f0 a23e 2941 a93e a9c4 db3d e8fb 97bd
00000040: 8e42 543e a7be 0b3d 0f15 36be 0a99 7f3b
00000050: 7aa9 24be 0033 4f3d 86c1 bdbd 24a8 4c3e
00000060: 2198 4cbe 7856 52be 0b92 5dbb 658d cdbd
00000070: 3cb7 003e 5085 3fbe c64c 9e3e 9881 36be
00000080: 362a 903e c5e6 7f3d 1b6a a4bd f390 103e
00000090: 3bbc 293d 9852 563e 9881 03bd 9821 18be
000000a0: 9a06 1e3d a995 fbbd 799d b23d 3403 643e
000000b0: f57d 8b3d e4bb 3bbe b363 053e c048 123d
000000c0: 1de9 c33e bee1 903e eeee 97be 7a10 06be
000000d0: d66a 52be 4db5 883e 9662 a43d fb1d b33d
000000e0: cb6b ac3c 9f03 853d 4e24 033e c134 37be
000000f0: f0e5 943c dbc2 49be bc4c b63d e299 cbbd
00000100: c427 b53d 8458 76bd c82b 753e 6434 2fbe
00000110: 184c 30be d14e 30be 6cf0 843e 3005 c53d
00000120: e638 8e3e 54f4 73be d799 92be f444 67be
00000130: 61d9 46be 6476 ef3d 64b2 d33d c09f 753e
00000140: 35a8 18be 2b84 49be 36d7 1c3e e8f7 eebd
00000150: ddac 703e 5395 7f3d 2973 3f3e 204e 48be
00000160: 937d febd 30ce f23d 488a b33d 6638 46bd
00000170: 9a39 033e f8b4 153e 99c8 6dbe fded 43be

cnn.0.bias f4 [8]
0.14866999 -0.15050289 -0.06471935 -0.2915505 -0.20847952 0.07211211 -0.038103133 -0.23017232
00000000: f23c 183e 6e1d 1abe 948b 84bd 1b46 95be
00000010: a87b 55be 84af 933d 0812 1cbd 4bb2 6bbe

cnn.3.weight f4 [16, 8, 2]
0.005735884 -0.1708281 -0.21209958 -0.13768639 -0.2188039 -0.15918452 0.24982129 0.047178246
0.07700578 -0.23317271 -0.16419345 -0.083213955 0.03909278 -0.21998033 -0.10775453 -0.14970161
0.0006928146 -0.0930258 -0.017323941 -0.16940743 -0.17159879 -0.14585045 -0.08557436 -0.19732022
0.20961747 -0.04961601 0.21509919 0.07789552 -0.21169925 0.1730088 -0.068786204 -0.09583151
-0.20751762 -0.24854016 0.07152766 -0.054610968 0.09733078 -0.20516586 0.18560728 -0.18351343
-0.043168336 0.052217424 0.12906295 0.20182759 0.22773981 -0.19823053 0.062916815 -0.10753149
0.017264187 -0.14177987 0.24483761 -0.1676017 0.10444708 0.05249244 0.09855156 -0.1158261
0.22501066 0.05193229 0.032160014 -0.2203137 0.10494712 -0.03750515 -0.09511218 0.23256774
0.08013579 -0.11889055 -0.121314056 -0.014747437 0.17826267 -0.039520126 -0.13733722 -0.0747657
-0.17884015 0.09863657 0.19351006 -0.23536009 0.058062673 0.12914795 0.039436284 -0.09369776
0.008173288 0.63571954 0.0723523 0.19510488 -0.1190392 -0.038930546 0.047699396 0.10448617
0.052767787 0.2663074 -0.024749339 -0.055974215 0.0036480725 -0.014927059 0.086425096 0.22807404
-0.22134173 -0.08751546 0.21268843 0.099732965 -0.012489418 -0.15036598 -0.15291408 -0.22410052
-0.07923518 0.08677601 0.15940541 0.115424335 -0.22098601 -0.15034062 -0.036796097 0.24727714
0.033976592 -0.066713735 0.102935046 -0.095005155 -0.1678095 0.17555198 -0.1136549 -0.050333057
-0.25114828 0.164518 0.18940866 0.09111205 -0.17431855 -0.24673498 -0.20416966 0.18364294
0.073294334 0.25852156 0.11380841 0.08205582 0.01814158 -0.18203661 -0.21706644 -0.22009093
0.09055428 -0.11525456 -0.050313145 -0.14387631 -0.04555589 -0.17595872 -0.18890382 0.07364028
-0.047076352 0.18434061 -0.07523981 -0.1785463 -0.04506058 -0.12130824 -0.07598352 -0.23446007
0.14446881 -0.17033613 0.12565443 0.11344606 0.17860818 -0.19176301 0.1888253 -0.10594511
0.04205422 0.46353248 -0.06445556 0.107757516 -0.027724974 -0.21782216 0.13447438 -0.20076321
0.115356304 0.20672815 0.23642659 -0.058969885 -0.20541048 0.056207567 0.13812298 -0.19116698
-0.056745917 -0.14986387 -0.021865934 -0.12305337 -0.102191895 -0.07936472 -0.23757601 0.20512688
0.2095828 -0.039217263 -0.028470516 -0.10202998 -0.2257657 -0.2432861 0.09291461 -0.13726154
-0.17082801 -0.03005334 -0.087391615 -0.08426445 0.0034537232 -0.060394246 -0.08534027 -0.1185696
-0.20673311 0.20714392 -0.10004678 0.06624487 -0.08674148 0.02031532 0.22101375 0.10397142
-0.26551208 0.11884412 0.22890647 0.10147448 0.118829034 0.25602 -0.049265847 0.03933536
-0.17770016 -0.06260803 0.18514594 0.12816146 -0.15819725 -0.20047125 -0.16772325 -0.20811863
-0.19290975 -0.06182435 0.16871929 0.04184556 -0.19015136 -0.20055598 0.12436882 -0.18596032
-0.030781865 0.11992651 -0.11570302 -0.027259976 -0.02176112 -0.059145838 -0.12675804 -0.22285959
-0.12728764 -0.10915879 0.26821902 -0.08353383 -0.18701778 0.060289875 0.08603122 0.15046066
0.2605632 0.17546675 -0.24787524 0.022172153 0.15143827 -0.023106366 -0.14011553 0.21615593
00000000: 15f4 bb3b 90ed 2ebe a230 59be a9fd 0cbe
00000010: 210e 60be 4401 23be 27d1 7f3e fa3d 413d
00000020: 35b5 9d3d d4c4 6ebe 5422 28be 146c aabd
00000030: c01f 203d 8642 61be 68ae dcbd 614b 19be
00000040: 009e 353a 5084 bebd f0ea 8dbc 2479 2dbe
00000050: 98b7 2fbe d259 15be 9c41 afbd 500e 4abe
00000060: f6a5 563e 283a 4bbd f642 5c3e b087 9f3d
00000070: b0c7 58be 3829 313e c8df 8cbd 5043 c4bd
00000080: 807f 54be 5081 7ebe 187d 923d c0af 5fbd
00000090: 5c55 c73d 0017 52be d60f 3e3e f2ea 3bbe
000000a0: 48d1 30bd f0e1 553d 1429 043e e4ab 4e3e
000000b0: a034 693e f2fc 4abe 88da 803d 7839 dcbd
000000c0: a06d 8d3c be2e 11be b6b6 7a3e c89f 2bbe
000000d0: 5ae8 d53d 5002 573d 66d5 c93d 3c36 edbd
000000e0: 3269 663e f4b6 543d 38ba 033d ea99 61be
000000f0: 84ee d63d 009f 19bd 2dca c2bd 3d26 6e3e
00000100: 3c1e a43d e47c f3bd 8173 f8bd 3c9f 71bc
00000110: 7d8a 363e dbdf 21bd 21a2 0cbe c21e 99bd
00000120: df21 37be f801 ca3d 8027 463e 3c02 71be
00000130: 20d3 6d3d 5c3f 043e f187 213d 9ce4 bfbd
00000140: 41e9 053c 84be 223f 712d 943d 93c9 473e
00000150: d3ca f3bd a375 1fbd 7160 433d d8fc d53d
00000160: 0923 583d 7259 883e 20bf cabc 3845 65bd
00000170: 8014 6f3b a090 74bc a4ff b03d 3e8c 693e
00000180: 68a7 62be 4e3b b3bd ffca 593e cc40 cc3d
00000190: 6aa0 4cbc 8af9 19be 8295 1cbe 9b7a 65be
000001a0: 0e46 a2bd 9fb7 b13d 2c3b 233e 9863 ec3d
000001b0: 284a 62be e4f2 19be 81b7 16bd 3836 7d3e
000001c0: 0a2b 0b3d 36a1 88bd 9ccf d23d 1092 c2bd
000001d0: 41d6 2bbe e6c3 333e e6c3 e8bd 092a 4ebd
000001e0: 8296 80be 6877 283e 58f4 413e f498 ba3d
000001f0: 9080 32be 18a8 7cbe da11 51be e50c 3c3e
00000200: 571b 963d f05c 843e 6214 e93d e20c a83d
00000210: a79d 943c ce67 3abe aa46 5ebe 845f 61be
00000220: 8674 b93d 950a ecbd 2815 4ebd 5054 13be
00000230: d098 3abd 862e 34be 0170 41be b7d0 963d
00000240: 22d3 40bd c9c3 3c3e 5417 9abd d7d4 36be
00000250: 7191 38bd 7470 f8bd 3f9d 9bbd 4d16 70be
00000260: a2ef 133e 986c 2ebe 8eab 003e 6856 e83d
00000270: 10e5 363e 865d 44be 6b5b 413e c0f9 d8bd
00000280: 0c41 2c3d 2154 ed3e 4701 84bd f9af dc3d
00000290: 7c1f e3bc c60c 5fbe a7b3 093e df94 4dbe
000002a0: ed3f ec3d 8bb0 533e d019 723e 688a 71bd
000002b0: 2057 52be e839 663d 1c70 0d3e 47c1 43be
000002c0: 686e 68bd ea75 19be 3020 b3bc 6803 fcbd
000002d0: fc49 d1bd f889 a2bd 2047 73be c80c 523e
000002e0: e09c 563e 48a2 20bd 003b e9bc 18f5 d0bd
000002f0: 202f 67be fe1f 79be 044a be3d 4a8e 0cbe
00000300: 8aed 2ebe 6c32 f6bc 60fa b2bd d792 acbd
00000310: dc57 623b f55f 77bd e1c6 aebd 9ed4 f2bd
00000320: d8b1 53be 891d 543e 54e5 ccbd 64ab 873d
00000330: 84a5 b1bd 506c a63c 6e51 623e f8ee d43d
00000340: 33f1 87be 8c64 f33d 7566 6a3e dad1 cf3d
00000350: a35c f33d 0e15 833e fcca 49bd 1d1e 213d
00000360: 08f7 35be a438 80bd e696 3d3e c23c 033e
00000370: 76fe 21be 5648 4dbe a5bf 2bbe 0d1d 55be
00000380: 228a 45be 883b 7dbd c0c4 2c3e 4066 2b3d
00000390: 0ab7 42be 8c5e 4dbe 14b5 fe3d 626c 3ebe
000003a0: 402a fcbc 089c f53d b4f5 ecbd 5050 dfbc
000003b0: 6044 b2bc e842 72bd dccc 01be 4e35 64be
000003c0: b157 02be a58e dfbd 0154 893e c913 abbd
000003d0: 9781 3fbe 84f2 763d 2331 b03d 5c12 1a3e
000003e0: 8a68 853e 8ead 333e 02d3 7dbe 60a2 b53c
000003f0: a212 1b3e 9049 bdbc 727a 0fbe fb57 5d3e

cnn.3.bias f4 [16]
-0.09352474 -0.14233613 -0.22538877 0.019387329 0.11528725 -0.0659508 0.050911266 -0.19079228
-0.25889972 0.009722946 0.19116871 0.14423034 -0.14882186 -0.06494488 -0.1842959 -0.12915453
00000000: e689 bfbd 90c0 11be 50cc 66be 2dd2 9e3c
00000010: b91b ec3d 3711 87bd 5588 503d 0d5f 43be
00000020: 818e 84be fe4c 1f3c bbc1 433e 1eb1 133e
00000030: c264 18be d201 85bd 10b8 3cbe 1641 04be

cnn.6.weight f4 [32, 16, 2]
0.032013968 0.096261725 0.14643638 -0.16229975 0.11819558 -0.12467921 0.070061795 0.15355946
0.0030473876 0.16161177 -0.1492554 -0.06714018 0.10310553 -0.03851396 -0.036173653 -0.0736458
0.12185325 0.086709544 0.056648105 -0.09934208 -0.14342117 0.018604247 0.052375197 -0.081619896
-0.049461707 0.11938928 0.019292878 0.014146959 -0.043504834 -0.16008715 -0.16614868 -0.08442096
-0.089859374 0.055075407 -0.051461592 -0.06915895 0.16854416 0.061575368 0.1260245 -0.08557985
-0.07220741 0.064972594 -0.117781915 -0.11555964 -0.008538261 -0.064657964 -0.13252206 0.104856685
0.14215724 0.0286773 -0.030779168 -0.16374348 -0.064388916 0.0450048 0.08335568 -0.022347674
-0.069889165 0.09850459 -0.1407849 0.11172606 -0.06858137 0.0027056336 -0.03493388 0.021432221
-0.05342164 0.1285391 -0.004595697 0.1379918 0.16996734 -0.08612401 -0.1289602 0.14182828
0.13852467 -0.13497737 -0.013665423 -0.17432414 -0.14470924 0.034143105 0.04702872 0.037473306
-0.048112378 0.16309024 0.02527517 -0.10431324 -0.010008007 0.042452082 0.061905906 -0.12499541
0.066254064 -0.09031197 -0.1468909 -0.096556745 0.1704851 0.15111895 0.15830077 0.10376991
0.13354586 -0.02366151 -0.097267464 0.08832763 -0.09160263 -0.11930055 -0.058946688 0.034918193
0.09100403 -0.06866166 -0.12808068 -0.0016240422 -0.10422133 -0.11505558 0.09214518 -0.02969563
0.15575497 0.16621342 0.052782938 0.060567793 0.026473027 -0.012001976 -0.012857407 0.0024296343
0.0659847 0.16435307 -0.045813292 -0.0747263 -0.0428091 -0.08540511 0.02896782 0.13023952
0.13823538 0.081162676 -0.13009554 -0.09487689 -0.03883986 -0.032584205 0.01453948 -0.16227597
0.05502081 -0.13485801 -0.11185451 -0.14696905 0.154029 -0.16739689 0.13335447 -0.0059426874
-0.020558923 0.11057003 -0.016339049 0.11086623 0.12781219 -0.15347931 0.068020836 0.03337173
0.038009062 0.025807887 0.048353896 -0.085041404 -0.022617012 0.16795908 0.118767336 -0.006641224
-0.16626254 0.007745178 -0.12038025 0.1437533 -0.1073189 -0.01276356 -0.046094555 -0.03933271
0.15123932 0.0067447047 -0.019779023 0.35496742 0.14178891 -0.06257167 -0.039262917 0.08474874
-0.05591538 0.16126418 -0.04255161 -0.12577255 -0.027652148 0.1332156 0.078815594 0.17562519
0.12481326 0.16610338 0.039368175 -0.06501573 -0.12401366 -0.10980904 -0.1574087 -0.094204105
-0.16273493 -0.16309687 -0.10563372 -0.17427245 -0.10850774 0.06740649 0.1474411 -0.05258449
-0.051420584 0.0943905 -0.087216474 -0.08358578 0.10891734 -0.15402582 0.021615326 0.15616135
0.030314818 0.04807332 -0.10295318 -0.0024389178 0.009719968 0.043387055 0.068685874 0.15360619
-0.13493356 0.0052989274 -0.08832405 -0.13984166 -0.014155865 -0.15560536 0.1233723 0.020473361
-0.09527522 0.09237979 -0.1673064 -0.068377085 -0.034439415 -0.15021604 -0.11606469 -0.03262584
0.13263029 0.16921607 0.106225155 -0.11181847 -0.115651056 0.15427183 0.06252691 0.0046926583
0.023785982 -0.14218274 -0.05901899 0.17016844 -0.04472661 -0.010075271 -0.14678319 -0.09889014
-0.003609702 -0.10980651 -0.030253947 0.06337047 -0.17291895 0.052504808 -0.11688619 -0.08627733
00000000: 1421 033d de24 c53d 6bf3 153e e831 26be
00000010: 8610 f23d d057 ffbd 8f7c 8f3d b13e 1d3e
00000020: aeb6 473b 8e7d 253e 68d6 18be ca80 89bd
00000030: fe28 d33d d0c0 1dbd d32a 14bd 9cd3 96bd
00000040: 328e f93d c694 b13d d807 683d dc73 cbbd
00000050: 00dd 12be ef67 983c 6087 563d 5528 a7bd
00000060: 5c98 4abd 5e82 f43d 190c 9e3c a6c8 673c
00000070: 2032 32bd e3ed 23be e122 2abe e5e4 acbd
00000080: 3108 b8bd c096 613d 64c9 52bd 35a3 8dbd
00000090: d796 2c3e 7436 7c3d 910c 013e 7d44 afbd
000000a0: 7be1 93bd 5a10 853d a537 f1bd 88aa ecbd
000000b0: 10e4 0bbc 656b 84bd ddb3 07be 1abf d63d
000000c0: ab91 113e a8ec ea3c 9824 fcbc 5fac 27be
000000d0: 56de 83bd f456 383d 62b6 aa3d 7812 b7bc
000000e0: 0d22 8fbd c6bc c93d eb29 10be a2d0 e43d
000000f0: 6474 8cbd 0051 313b d416 0fbd a092 af3c
00000100: a6d0 5abd c19f 033e 8097 96bb b94d 0d3e
00000110: eb0b 2e3e c961 b0bd 250e 04be 6f3b 113e
00000120: 69d9 0d3e 8237 0abe f0e4 5fbc 0782 32be
00000130: a92e 14be a4d9 0b3d 30a1 403d 9c7d 193d
00000140: 7c11 45bd 2101 273e e00d cf3c 2ea2 d5bd
00000150: a0f8 23bc 3ce2 2d3d 0c91 7d3d 98fd ffbd
00000160: 36b0 873d 7bf5 b8bd 916a 16be 8bbf c5bd
00000170: a593 2e3e edbe 1a3e 9919 223e 5285 d43d
00000180: 3fc0 083e c8d5 c1bc 2a34 c7bd 1ee5 b43d
00000190: 299a bbbd d953 f4bd 1572 71bd 6106 0f3d
000001a0: 5260 ba3d 7c9e 8cbd 9527 03be d0dd d4ba
000001b0: fe71 d5bd 43a2 ebbd 9db6 bc3d 4044 f3bc
000001c0: 3b7e 1f3e da33 2a3e ec32 583d ef15 783d
000001d0: f6dd d83c f0a3 44bc e0a7 52bc 803a 1f3b
000001e0: fd22 873d 2c4c 283e b8a6 3bbd 1a0a 99bd
000001f0: 9858 2fbd e0e8 aebd ec4d ed3c 825d 053e
00000200: 938d 0d3e 9e38 a63d c437 05be d14e c2bd
00000210: 8c16 1fbd 0477 05bd 0037 6e3c ac2b 26be
00000220: 805d 613d 3818 0abe fa13 e5bd 0e7f 16be
00000230: c7b9 1d3e 176a 2bbe 138e 083e e0ba c2bb
00000240: 306b a8bc 8a72 e23d 78d9 85bc d60d e33d
00000250: 33e1 023e ae29 1dbe 824e 8b3d ccb0 083d
00000260: 64af 1b3d 106b d33c bc0e 463d 302a aebd
00000270: 5047 b9bc 77fd 2b3e 4a3c f33d a09e d9bb
00000280: ba40 2abe 43cb fd3b ec89 f6bd 1134 133e
00000290: 03ca dbbd 401e 51bc a5cd 3cbd 561b 21bd
000002a0: 7bde 1a3e af02 dd3b 9e07 a2bc 4abe b53e
000002b0: 1d31 113e 9325 80bd 27d2 20bd bf90 ad3d
000002c0: 8707 65bd 7022 253e 994a 2ebd 85ca 00be
000002d0: c286 e2bc ac69 083e 126a a13d 17d7 333e
000002e0: 189e ff3d 0117 2a3e 8640 213d f826 85bd
000002f0: e0fa fdbd 90e3 e0bd bf2f 21be 15ee c0bd
00000300: fca3 26be de02 27be 7e56 d8bd 7a74 32be
00000310: 4e39 debd 6a0c 8a3d cdfa 163e d662 57bd
00000320: 649e 52bd ce4f c13d 8d9e b2bd 052f abbd
00000330: 0e10 df3d f2b8 1dbe a012 b13c c3e8 1f3e
00000340: c856 f83c 88e8 443d 1ed9 d2bd 40d6 1fbb
00000350: 8040 1f3c a0b6 313d 2eab 8c3d f14a 1d3e
00000360: 062c 0abe a0a2 ad3b 3de3 b4bd a732 0fbe
00000370: 00ee 67bc 0357 1fbe 9eaa fc3d c0b7 a73c
00000380: a81f c3bd 9e31 bd3d 5e52 2bbe 4909 8cbd
00000390: 5810 0dbd 3cd2 19be 53b3 edbd aca2 05bd
000003a0: 3cd0 073e fa46 2d3e 938c d93d 1501 e5bd
000003b0: 76da ecbd 6ff9 1d3e 1c0e 803d dfc4 993b
000003c0: d2da c23c 5a98 11be e5bd 71bd a340 2e3e
000003d0: 4033 37bd c012 25bc 554e 16be ea86 cabd
000003e0: c090 6cbb 3ce2 e0bd 20d7 f7bc 61c8 813d
000003f0: aa11 31be 480f 573d 0762 efbd 2bb2 b0bd

cnn.6.bias f4 [32]
-0.053649608 -0.16473007 -0.08243991 0.0056592147 -0.116426766 -0.14271516 -0.031764373 -0.022798644
-0.15378658 -0.042116303 -0.03134553 -0.019836344 -0.013697374 -0.12731853 -0.06051725 -0.028728968
-0.10657729 0.013906435 -0.009825542 0.0677201 0.04172817 0.16269532 -0.06111834 -0.13062122
0.077156305 -0.119472384 0.014033243 -0.05724202 -0.06860218 -0.06494157 0.14133273 0.06731211
00000000: b1bf 5bbd 00af 28be 41d6 a8bd ef70 b93b
00000010: 2871 eebd ec23 12be 5c1b 02bd 39c4 babc
00000020: 3b7a 1dbe 2582 2cbd 2c64 00bd d47f a2bc
00000030: f36a 60bc ca5f 02be f0e0 77bd 0359 ebbc
00000040: 3245 dabd d1d7 633c 4ffb 20bc d6b0 8a3d
00000050: 28eb 2a3d 9a99 263e 3957 7abd 92c1 05be
00000060: 2004 9e3d f0ad f4bd b0eb 653c 9c76 6abd
00000070: 4d7f 8cbd 1600 85bd 87b9 103e eeda 893d

cnn_fc.weight f4 [128, 64]
0.03490802 0.117970735 -0.11327775 0.020170942 0.08002205 0.083036244 -0.09943405 0.04442218
-0.07121074 -0.004884228 -0.015646577 -0.10771506 -0.1192393 -0.08223724 0.05692538 0.057454716
-0.09941233 -0.04616496 0.0054754084 -0.11326933 0.07220498 0.114543915 0.03758893 -0.09464493
0.033816297 0.045988858 0.09874458 -0.071686774 -0.11208154 0.054839566 0.02070433 -0.040179655
-0.051706232 -0.06301128 0.10147745 -0.02122639 0.09307798 0.114920095 0.015967313 0.02687356
-0.008491488 0.08587015 -0.11013455 0.051992293 -0.011997299 0.053338833 -0.0005567521 -0.04628326
-0.013374011 0.067471646 -0.08681624 -0.079012394 -0.028837664 -0.039013147 0.0491049 0.084121235
-0.013306592 0.11853946 -0.051600836 -0.06933664 -0.051331043 -0.0877957 -0.078082904 -0.10596408
-0.11073759 0.032084115 0.07623175 0.11735591 0.10647467 -0.007199213 0.024202349 -0.07461278
0.048315138 -0.119855136 0.044748317 0.04189223 0.038413033 0.045768544 -0.05755013 0.10700604
0.051778883 0.09712865 0.016667688 0.098168336 0.08191862 0.05634495 0.078813165 0.001457024
0.07850099 0.034903046 0.07605591 0.13414037 0.028532704 -0.046228718 -0.027777726 0.049313124
0.0206419 -0.036250804 0.097692415 0.07475529 -0.08049668 -0.013948104 -0.0118130725 -0.0785577
0.018255258 -0.038355935 -0.069305405 -0.045247734 -0.05142864 0.13989809 0.047946498 0.12301415
0.03410821 0.028437695 0.0513867 0.021454066 -0.09527824 -0.08481749 -0.03028482 0.0018791615
0.04700803 0.04751605 0.0996275 0.024802892 -0.04666131 -0.08345059 -0.09833255 -0.069653384
0.03797604 0.06748934 0.10936408 -0.039538965 -0.009860367 -0.03712043 -0.00052123424 0.040206227
-0.002746433 0.005786851 0.0055612708 0.049589027 -0.03792517 -0.0745372 0.0294169 -0.014949727
-0.06186605 0.055634703 -0.00063274335 -0.010764704 -0.06136904 -0.016706143 -0.11832156 0.033507578
-0.000381613 0.077712625 0.0070120734 0.014138989 0.03412841 0.095183566 -0.06863963 0.07688766
0.030720625 -0.08405111 0.043429963 -0.07508047 -0.040382206 -0.060897727 -0.084986694 0.09842455
-0.111687005 0.06252974 -0.11448694 -0.017086925 0.0020357876 0.095527396 -0.04523669 0.035978436
0.019280314 0.07365244 0.0074314475 0.046805575 -0.07302739 -0.09185732 0.11138471 -0.09108338
-0.021222925 -0.015277674 0.12249382 -0.026931193 -0.098678485 -0.028834673 0.05993935 0.0485005
0.103279315 -0.025106948 0.058880687 -0.117630005 0.04836747 0.057432964 0.08076107 -0.07180836
-0.033372298 0.030241221 -0.075383514 -0.118088394 -0.12025535 0.006977856 0.07783335 0.032424673
0.016930077 0.031485885 -0.07673091 -0.004617406 -0.02767455 -0.06024627 0.122921064 -0.1210407
0.023536408 -0.11407952 -0.0053363754 -0.06815623 0.040942315 -0.07035369 0.09537629 -0.114674225
0.07559715 -0.091747 0.06706402 -0.052462272 0.0031359422 -0.018576942 0.08081703 0.040964484
-0.11011647 0.011516429 -0.081765704 0.09815123 0.02738611 -0.052260466 -0.06377117 0.043266118
-0.074621454 0.059205856 0.06820941 0.07672542 0.02968471 -0.09800844 0.089914635 -0.03877793
-0.03689173 -0.012868851 0.09034518 0.095794186 0.023964094 0.050051313 -0.10942545 -0.0034669049
00000000: b6fb 0e3d a49a f13d 2afe e7bd 883d a53c
00000010: 9ae2 a33d e80e aa3d 14a4 cbbd 08f4 353d
00000020: f0d6 91bd e00b a0bb 402d 80bc b799 dcbd
00000030: bc33 f4bd 006c a8bd 962a 693d a355 6b3d
00000040: b198 cbbd 7817 3dbd 0e6b b33b c0f9 e7bd
00000050: 34e0 933d 0096 ea3d daf6 193d 33d5 c1bd
00000060: f582 0a3d d05e 3c3d 993a ca3d 84d0 92bd
00000070: 028b e5bd 749f 603d 219c a93c 6c93 24bd
00000080: eac9 53bd 0f0c 81bd 69d3 cf3d f7e2 adbc
00000090: ab9f be3d 3a5b eb3d e2cd 823c f125 dc3c
000000a0: e21f 0bbc b0dc af3d 398e e1bd dff5 543d
000000b0: 5290 44bc d279 5a3d 00f3 11ba 8493 3dbd
000000c0: ab1e 5bbc 932e 8a3d b6cc b1bd 40d1 a1bd
000000d0: f73c ecbc 40cc 1fbd 3822 493d c147 ac3d
000000e0: e403 5abc d1c4 f23d 665b 53bd 5e00 8ebd
000000f0: 8040 52bd 3bce b3bd eee9 9fbd b203 d9bd
00000100: 64ca e2bd a26a 033d 641f 9c3d 4c58 f03d
00000110: 640f da3d 60e7 ebbb 0144 c63c 96ce 98bd
00000120: 18e6 453d 9c76 f5bd 034a 373d 3097 2b3d
00000130: fc56 1d3d cc77 3b3d afb9 6bbd fc25 db3d
00000140: 1816 543d 63eb c63d ad8a 883c 7b0c c93d
00000150: f3c4 a73d f6c9 663d cc68 a13d 9df9 be3a
00000160: 21c5 a03d 7ff6 0e3d 33c3 9b3d 185c 093e
00000170: 6bbd e93c 535a 3dbd 1d8e e3bc 8ffc 493d
00000180: 3419 a93c b97b 14bd f612 c83d 4d19 993d
00000190: 72db a4bd 9786 64bc 9e8b 41bc dce2 a0bd
000001a0: 0d8c 953c 1d1b 1dbd feef 8dbd b055 39bd
000001b0: d6a6 52bd 7241 0f3e 8c63 443d d8ee fb3d
000001c0: 0db5 0b3d 2bf6 e83c dc7a 523d 70c0 af3c
000001d0: 3d21 c3bd cbb4 adbd df17 f8bc 324e f63a
000001e0: 7e8b 403d 31a0 423d 8109 cc3d 6f2f cb3c
000001f0: ee1f 3fbd 25e8 aabd 9362 c9bd 6fa6 8ebd
00000200: c48c 1b3d da37 8a3d 46fa df3d 9cf3 21bd
00000210: 608d 21bc 980b 18bd 70a3 08ba 49af 243d
00000220: 80fd 33bb a09f bd3b 523b b63b dd1d 4b3d
00000230: 6c57 1bbd f6a6 98bd b6fb f03c b3ef 74bc
00000240: 4167 7dbd 37e1 633d b0de 25ba 715e 30bc
00000250: 1a5e 7bbd 52db 88bc 9352 f2bd 3e3f 093d
00000260: 3b13 c8b9 cc27 9f3d 89c5 e53b 38a7 673c
00000270: 3bca 0b3d 9aef c23d ef92 8cbd 4777 9d3d
00000280: d2a9 fb3c fd22 acbd 9ee3 313d cac3 99bd
00000290: d067 25bd e56f 79bd 810d aebd cf92 c93d
000002a0: 28bc e4bd 980f 803d 2178 eabd e1f9 8bbc
000002b0: d96a 053b dea3 c33d 1c4a 39bd 205e 133d
000002c0: c0f1 9d3c 17d7 963d 8083 f33b 34b7 3f3d
000002d0: 628f 95bd b11f bcbd ab1d e43d ec89 babd
000002e0: b3db adbc 364f 7abc 0ade fa3d ce9e dcbc
000002f0: f217 cabd b136 ecbc f782 753d 76a8 463d
00000300: 1b84 d33d 16ad cdbc e02c 713d 00e8 f0bd
00000310: f81c 463d d43e 6b3d 0f66 a53d 4310 93bd
00000320: 64b1 08bd 70bc f73c ac62 9abd 54d8 f1bd
00000330: 7048 f6bd 80a6 e43b 1767 9f3d bccf 043d
00000340: f2b0 8a3c 58f7 003d 1825 9dbd 9c4d 97bb
00000350: bdb5 e2bc cbc4 76bd 0abe fb3d 30e4 f7bd
00000360: 6dcf c03c 86a2 e9bd c3dc aebb 7e95 8bbd
00000370: 21b3 273d 9815 90bd a554 c33d 52da eabd
00000380: aed2 9a3d dae5 bbbd dc58 893d aee2 56bd
00000390: 6184 4d3b ac2e 98bc 6683 a53d 60ca 273d
000003a0: be84 e1bd 67af 3c3c c774 a7bd 8303 c93d
000003b0: d658 e03c 120f 56bd 769a 82bd d037 313d
000003c0: 22d3 98bd d781 723d 60b1 8b3d 3822 9d3d
000003d0: 592d f33c a6b8 c8bd 2a25 b83d 9bd5 1ebd
000003e0: c81b 17bd e0d7 52bc e506 b93d be2f c43d
000003f0: 5950 c43c 9b02 4d3d 731a e0bd 0335 63bb

cnn_fc.bias f4 [128]
-0.011415208 -0.057138175 -0.12974009 0.044370517 0.11109488 -0.08812781 -0.031582993 0.022618711
0.05014676 0.037176162 0.0960789 0.022863362 -0.01965136 -0.0940046 -0.124929756 -0.11471733
0.07344136 0.10993926 0.12181601 0.114225805 0.014202972 0.08558503 0.040685497 -0.09593998
-0.04358686 -0.13132115 0.10521025 0.010138844 0.10213869 0.009847152 0.09145601 0.06519358
-0.014067789 -0.018855302 0.09594004 -0.016127225 0.09230427 0.015438124 -0.054737404 -0.07292739
-0.07299876 0.07804656 0.07803611 -0.0634223 -0.12188748 0.06923762 -0.02776786 -0.11700454
0.02931732 -0.02542254 0.08208588 0.0039606215 -0.07251265 -0.03322508 -0.09141456 0.047160313
0.014211345 0.069092885 -0.09003143 -0.06863984 -0.07708531 -0.09288348 -0.09425304 -0.07915928
0.08744324 -0.057400607 -0.035200987 0.052234415 0.045617465 0.04017989 -0.091645785 0.14633162
-0.024354283 -0.050315388 0.08017863 -0.08630566 -0.07577217 0.079096064 0.049055494 -0.0516251
-0.007420007 -0.024649598 0.03420437 0.018974986 0.056169726 0.109575346 -0.07940146 -0.09465022
-0.03325849 -0.03985203 -0.09059246 0.10591188 0.099693835 0.109495044 -0.083679184 -0.016829237
-0.07956721 -0.05270502 0.11699739 -0.0022095705 0.022278532 -0.11727834 0.051797025 0.09541993
-0.033373974 0.09111972 0.04649019 -0.08930466 -0.08615528 0.0051588663 -0.14177367 -0.087871194
0.042848766 -0.035144344 0.003073323 -0.0515661 0.07235595 0.097780585 0.10201633 -0.10555416
-0.033861253 0.023985542 0.082259074 -0.019472942 0.058249734 0.0006202097 0.0019290785 0.07630612
00000000: da06 3bbc b809 6abd 96da 04be dcbd 353d
00000010: b685 e33d 5a7c b4bd 2b5d 01bd e04a b93c
00000020: b066 4d3d 0846 183d 04c5 c43d f24b bb3c
00000030: e4fb a0bc 7c85 c0bd 2cdb ffbd ebf0 eabd
00000040: 6c68 963d d627 e13d ac7a f93d 38ef e93d
00000050: 95b3 683c 3447 af3d d6a5 263d 2e7c c4bd
00000060: 2388 32bd 0d79 06be 7978 d73d 651d 263c
00000070: 172e d13d f355 213c 4a4d bb3d 3684 853d
00000080: 957c 66bc 6f76 9abc 367c c43d 3e1d 84bc
00000090: 050a bd3d 2ff0 7c3c 5434 60bd f55a 95bd
000000a0: 6080 95bd e0d6 9f3d 65d1 9f3d 8de3 81bd
000000b0: 25a0 f9bd 74cc 8d3d 6c79 e3bc 14a0 efbd
000000c0: e02a f03c ee42 d0bc a41c a83d 1ac8 813b
000000d0: 8381 94bd 0617 08bd 8f37 bbbd 2c2b 413d
000000e0: b4d6 683c 9280 8d3d 6662 b8bd 0b93 8cbd
000000f0: e7de 9dbd b239 bebd bd07 c1bd 431e a2bd
00000100: 7115 b33d e61c 6bbd e92e 10bd c1f3 553d
00000110: 61d9 3a3d ab93 243d c9b0 bbbd f5d7 153e
00000120: a282 c7bc 8217 4ebd b234 a43d 06c1 b0bd
00000130: 712e 9bbd 1efd a13d 6aee 483d d774 53bd
00000140: 8823 f3bb f4ed c9bc e219 0c3d 6e71 9b3c
00000150: 3a12 663d 0a69 e03d 3c9d a2bd f9d7 c1bd
00000160: 0e3a 08bd e23b 23bd 8a88 b9bd 54e8 d83d
00000170: 482c cc3d f03e e03d fe5f abbd 78dd 89bc
00000180: 22f4 a2bd 38e1 57bd 549c ef3d 71ce 10bb
00000190: 7881 b63c a02f f0bd 1e29 543d 866b c33d
000001a0: 26b3 08bd fa9c ba3d 7f6c 3e3d 5de5 b6bd
000001b0: 2e72 b0bd b50b a93b 1e2d 11be d0f5 b3bd
000001c0: 3082 2f3d 84f3 0fbd ce69 493b fa36 53bd
000001d0: 5b2f 943d 3041 c83d f0ed d03d c82c d8bd
000001e0: 19b2 0abd 547d c43c 7277 a83d b885 9fbc
000001f0: 4697 6e3d 9295 223a 22d9 fc3a 6246 9c3d

fc1.weight f4 [128, 128]
0.060679115 -0.06187549 -0.05523886 0.031430803 0.055899058 -0.020948198 0.081535645 -0.009615146
-0.046411883 -0.007623165 -0.07609642 0.024727803 -0.08164601 0.08220261 -0.06739268 0.05503953
-0.06470975 -0.011934881 -0.050051063 0.04546071 0.05283859 -0.08297894 -0.07592687 0.009970659
-0.0027970318 -0.0009670225 0.026330536 -0.017350703 0.07201313 0.007852118 -0.03872147 0.031399377
-0.06978107 -0.044524416 0.026666688 -0.036443237 -0.08524642 0.04577435 0.02148377 0.02716704
0.03028292 -0.0882398 -0.038077056 -0.04167931 0.086165264 -0.03550071 -0.057070743 -0.033268284
0.0073499423 0.037291136 0.06544691 0.064224936 0.009308105 0.08204075 0.049014434 0.043400947
-0.07579609 0.009210888 -0.018721038 -0.08713851 -0.043124862 0.06669488 0.034830317 0.08076967
0.06261952 -0.0006034719 0.07872425 0.018994456 -0.011647219 -0.036278505 0.055795025 0.0409122
0.061440434 -0.016525406 -0.0804786 0.017166529 0.010572811 -0.059130326 0.022149347 -0.011244475
0.07663258 0.0035819293 -0.043906383 0.070027485 0.003689746 -0.01641383 0.04472522 0.08384049
0.040739726 3.6064546e-05 0.07294791 -0.03850252 0.07813674 -0.050411116 0.002372046 0.077594385
0.034367282 -0.01694606 0.055429265 0.04941419 -0.080108754 -0.012071394 -0.0728496 -0.019219268
-0.009440169 -0.03522266 -0.033011254 0.04658828 -0.0010346397 -0.086884655 0.016442195 -0.08691397
-0.060436677 0.054717097 0.06691873 -0.031422846 -0.05451229 0.040565223 -0.08591006 0.053000495
0.061582644 0.039881304 0.029896595 0.019526651 -0.068127446 -0.0371807 0.056724016 0.07167592
0.0023608804 0.022708066 -0.08383672 0.062396728 -0.051481973 -0.047380887 0.08721601 -0.025337264
-0.04465489 0.012158215 0.06965614 0.08031357 0.00739903 0.06017404 0.06303597 -0.014772609
-0.06984223 0.0023780018 -0.030025456 0.030974783 -0.06476119 -0.059287466 -0.066565886 -0.06612377
0.06723275 -0.088074215 -0.0032535791 -0.054550674 -0.037176292 -0.025472134 0.04146605 0.059434198
-0.019886956 0.0028822199 -0.00097225606 0.08049191 0.039504223 -0.01835236 0.059852324 -0.07136965
0.035031557 0.06856408 -0.045876414 0.03307361 0.0405278 -0.07415519 0.02542594 0.06684279
0.008116938 -0.017083101 -0.034639336 -0.05866367 0.021465085 -0.0835539 -0.075659364 -0.03198144
-0.083700836 0.082535006 -0.028480344 -0.046992946 0.022218779 0.038039215 0.06656247 -0.03568429
-0.015444852 -0.06674543 -0.07718053 -0.038458694 0.0099448785 -0.04381792 -0.024399646 0.03239823
0.018237375 0.054537557 0.04081597 0.046608843 -0.045694232 0.04740853 -0.079221904 0.027219206
-0.055745024 0.024406962 -0.08086718 -0.014639325 0.054366298 -0.044201422 0.0547167 -0.013742752
0.08292202 0.083275445 -0.052150622 -0.020702332 -0.018065214 -0.03342029 0.029055044 -0.080477655
-0.05300646 -0.01385612 -0.07864196 -0.08466055 0.036248684 -0.073800005 0.058725215 -0.05132253
-0.0070493 0.05329565 -0.08716377 -0.08605529 0.0036806539 -0.035886735 0.04131537 0.030851185
0.010878831 0.03317818 0.075618975 0.0140283555 0.05848088 -0.04983455 0.07282669 -0.015716515
0.047852375 -0.07345581 -0.05311643 -0.051741842 0.046692453 -0.002945371 -0.08111881 0.08668446
00000000: aa8a 783d 2771 7dbd 2542 62bd 96bd 003d
00000010: 69f6 643d 8e9b abbc 29fc a63d d888 1dbc
00000020: 631a 3ebd becb f9bb 71d8 9bbd f691 ca3c
00000030: 0636 a7bd d859 a83d 2c05 8abd 2171 613d
00000040: 8c86 84bd 858a 43bc 5802 4dbd 0235 3a3d
00000050: 476d 583d ddf0 a9bd 8c7f 9bbd fa5b 233c
00000060: 684e 37bb c87f 7dba 23b3 d73c 1023 8ebc
00000070: 9f7b 933d 2ca6 003c 679a 1ebd a29c 003d
00000080: 61e9 8ebd 3c5f 36bd 1974 da3c 8145 15bd
00000090: ad95 aebd e37d 3b3d bbfe af3c 6a8d de3c
000000a0: e313 f83c 11b7 b4bd b0f6 1bbd edb7 2abd
000000b0: 6a77 b03d 3169 11bd 03c3 69bd 5344 08bd
000000c0: c9d7 f03b 97be 183d 0809 863d 5d88 833d
000000d0: 0681 183c fb04 a83d 5cc3 483d 31c5 313d
000000e0: fb3a 9bbd 44e9 163c dd5c 99bc ad75 b2bd
000000f0: b2a3 30bd 5397 883d 3caa 0e3d 926a a53d
00000100: aa3e 803d 5032 1eba 2e3a a13d 439a 9b3c
00000110: fad3 3ebc c598 14bd 5389 643d 8d93 273d
00000120: f7a8 7b3d 4a60 87bc f7d1 a4bd d2a0 8c3c
00000130: 9539 2d3c a432 72bd 8c72 b53c bf3a 38bc
00000140: 8bf1 9c3d cdbe 6a3b 2ed7 33bd 926a 8f3d
00000150: aacf 713b 4c76 86bc cb31 373d 90b4 ab3d
00000160: b3de 263d 0344 1738 b765 953d d2b4 1dbd
00000170: 2806 a03d e37b 4ebd 5474 1b3b cee9 9e3d
00000180: b5c4 0c3d 77d2 8abc cc09 633d 8966 4a3d
00000190: 0f10 a4bd 19c7 45bc 2c32 95bd ba71 9dbc
000001a0: f0aa 1abc a345 10bd cf36 07bd 5ad3 3e3d
000001b0: bf9c 87ba 95f0 b1bd c8b1 863c f4ff b1bd
000001c0: 738c 77bd 091f 603d b00c 893d 3eb5 00bd
000001d0: 4748 5fbd b827 263d 9df1 afbd 0c17 593d
000001e0: 153e 7c3d 945a 233d b4e9 f43c 5bf6 9f3c
000001f0: 6786 8bbd ca4a 18bd 7157 683d d3ca 923d
00000200: 00b9 1a3b 4406 ba3c 96b2 abbd b693 7f3d
00000210: c3de 52bd 7612 42bd 4f9e b23d 1890 cfbc
00000220: 0ce8 36bd 4033 473c e1a7 8e3d 717b a43d
00000230: 9073 f23b 0e79 763d 0119 813d d008 72bc
00000240: 7109 8fbd 40d8 1b3b f2f7 f5bc d4be fd3c
00000250: 84a1 84bd 6ad7 72bd b253 88bd e66b 87bd
00000260: 53b1 893d 4160 b4bd 003a 55bb 8770 5fbd
00000270: 2b46 18bd f0aa d0bc 4ed8 293d 4671 733d
00000280: f8e9 a2bc a0e3 3c3b 00df 7eba f1d8 a43d
00000290: 2ecf 213d b057 96bc b627 753d 402a 92bd
000002a0: 407d 0f3d 536b 8c3d e8e8 3bbd 3278 073d
000002b0: 7a00 263d adde 97bd 104a d03c dfe4 883d
000002c0: e8fc 043c dcf1 8bbc fae1 0dbd 5149 70bd
000002d0: 8cd7 af3c 4f1e abbd 4cf3 9abd f8fe 02bd
000002e0: 586b abbd 1d08 a93d 9c4f e9bc ad7b 40bd
000002f0: 2804 b63c 02cf 1b3d e751 883d b129 12bd
00000300: 680c 7dbc d4b1 88bd d310 9ebd dd86 1dbd
00000310: d8ef 223c 6b7a 33bd c4e1 c7bc 02b4 043d
00000320: 8c66 953c c662 5f3d a62e 273d eae8 3e3d
00000330: e029 3bbd 722f 423d 183f a2bd d0fa de3c
00000340: e554 64bd 1cf1 c73c b19d a5bd c8d9 6fbc
00000350: 32af 5e3d 8d0c 35bd 9e1e 603d 4829 61bc
00000360: 05d3 a93d 518c aa3d e49b 55bd f097 a9bc
00000370: 80fd 93bc b7e3 08bd d804 ee3c 78d1 a4bd
00000380: 4d1d 59bd c804 63bc 090f a1bd 8362 adbd
00000390: 8079 143d 7524 97bd da89 703d 9337 52bd
000003a0: d0fd e6bb 8a4c 5a3d eb82 b2bd c23d b0bd
000003b0: 2037 713b f8fd 12bd 4e3a 293d a0bb fc3c
000003c0: 203d 323c d8e5 073d 1fde 9a3d 30d7 653c
000003d0: a689 6f3d 501f 4cbd 2926 953d ecbf 80bc
000003e0: da00 443d 0070 96bd 9d90 59bd 41ef 53bd
000003f0: 9640 3f3d 2007 41bb 9e21 a6bd 9f87 b13d

fc1.bias f4 [128]
-0.061466496 0.03750605 0.027624007 0.052880067 -0.028953712 0.01270396 0.03424226 0.06413249
-0.03743482 0.04877948 -0.033722106 0.041680664 -0.028834788 0.011452888 -0.07035266 0.024946485
-0.06294614 -0.073278114 -0.03331446 -0.031059299 0.056488708 0.06668747 0.035524234 -0.053342745
0.04178371 0.07112323 -0.041789442 -0.0507614 0.07038106 0.0819026 0.031250857 -0.08669087
-0.059934348 0.060212005 -0.08098255 0.025071738 0.052086085 -0.026698332 -0.08344035 -0.08644346
0.061864562 0.033629864 0.030331573 -0.05708869 -0.054624148 0.022272253 -0.060288735 0.046305202
-0.0037310496 0.042333327 -0.061267275 -0.034044996 -0.07423011 0.025230264 -0.017603688 -0.030721158
-0.0858982 0.057955954 0.077775426 -0.05146115 -0.018357683 -0.029271752 -0.055574603 -0.086403
-0.011815083 0.040205278 -0.061309174 0.071305215 -0.019134186 -0.075160496 -0.051140502 0.078407936
-0.029509697 0.054308977 0.006821586 0.06418193 -0.08837429 0.02496455 0.031569 -0.025736684
-0.05594667 -0.017079124 -0.00886769 -0.051527217 -0.08374697 0.016602045 0.010879576 -0.057401907
-0.035891317 -0.0052301334 0.04064114 0.026129844 0.06420407 0.005370475 0.0018599229 -0.09618898
0.02333574 -0.04049647 0.050594497 0.023279987 -0.008002868 -0.030299412 0.036005247 0.016791167
0.02418822 0.01286924 -0.08582853 -0.04935112 -0.11364002 -0.0308709 -0.04117578 -0.017602734
0.035885904 0.02230949 0.031965204 0.033400327 0.072005875 0.07020505 0.014357053 0.07642845
-0.0956695 0.0353699 0.05925809 -0.083770186 -0.0751617 -0.01417686 0.01621284 0.0681326
00000000: 4bc4 7bbd f29f 193d be4b e23c c598 583d
00000010: 5630 edbc 4524 503c 9d41 0c3d e557 833d
00000020: 4155 19bd fecc 473d 3120 0abd 58b9 2a3d
00000030: ef36 ecbc e5a4 3b3c 0e15 90bd 925c cc3c
00000040: e8e9 80bd d612 96bd be74 08bd 1270 febc
00000050: b460 673d 7193 883d dc81 113d ec7d 5abd
00000060: 6525 2b3d 0ea9 913d 682b 2bbd 30eb 4fbd
00000070: f223 903d 8dbc a73d e600 003d fc8a b1bd
00000080: b87d 75bd dda0 763d 2eda a5bd 3f63 cd3c
00000090: 3858 553d 76b6 dabc c6e2 aabd 4509 b1bd
000000a0: b265 7d3d 78bf 093d eb79 f83c d5d5 69bd
000000b0: 92bd 5fbd 4d74 b63c 52f1 76bd 86aa 3d3d
000000c0: a084 74bb b665 2d3d 65f3 7abd c472 0bbd
000000d0: f505 98bd b3af ce3c 9c35 90bc f0aa fbbc
000000e0: 65eb afbd 3963 6d3d b948 9f3d edc8 52bd
000000f0: da62 96bc 50cb efbc 32a2 63bd 0ef4 b0bd
00000100: 0d94 41bc 4aae 243d 541f 7bbd 7808 923d
00000110: 4cbf 9cbc bfed 99bd b478 51bd 5794 a03d
00000120: 52be f1bc 1773 5e3d 9c87 df3b d171 833d
00000130: 94fd b4bd 7582 cc3c 7f4e 013d bdd5 d2bc
00000140: 5628 65bd 85e9 8bbc ca49 11bc 340e 53bd
00000150: 8883 abbd 0301 883c 4040 323c 431e 6bbd
00000160: c602 13bd 8a61 abbb 5377 263d 410e d63c
00000170: 6c7d 833d cffa af3b a8c8 f33a bafe c4bd
00000180: 982a bf3c a0df 25bd 2d3c 4f3d acb5 be3c
00000190: 761e 03bc 7936 f8bc 3d7a 133d a18d 893c
000001a0: 6026 c63c 81d9 523c dec6 afbd 6624 4abd
000001b0: 19bc e8bd f8e4 fcbc efa7 28bd 9c33 90bc
000001c0: 19fd 123d 64c2 b63c f2ed 023d c8ce 083d
000001d0: d177 933d aac7 8f3d d839 6b3c 8586 9c3d
000001e0: 5fee c3bd 07e0 103d 9cb8 723d b48f abbd
000001f0: 61ee 99bd 1046 68bc cad0 843c 1b89 8b3d

fc2.weight f4 [1, 128]
-0.093448035 0.080707856 -0.006497864 -0.020383481 -0.016937237 0.05830688 0.0893975 0.08791729
-0.06171307 -0.008694385 -0.07289278 -0.08806425 0.027366797 -0.010922176 -0.09145278 -0.07243419
0.08483965 0.17505088 -0.0623362 -0.046849668 0.09128829 -0.013159903 0.102667704 -0.015802389
0.15164535 -0.065114155 0.1083523 0.033916757 0.043711383 0.049365543 -0.026230935 -0.038918074
-0.04284996 -0.047756374 -0.08042715 0.11894037 -0.048599 -0.08577219 0.01392737 0.11482098
0.090126924 -0.07196642 0.09381706 -0.04338989 0.13512044 0.12801854 0.08013954 -0.021680592
0.08118335 0.11527132 0.12215905 0.015824003 -0.045431063 0.13211943 0.07223068 -0.07706819
0.024726186 0.13050884 0.07951995 -0.060549304 -0.064034835 0.023820138 -0.025065782 0.15908863
0.019632677 0.069042295 -0.06573413 0.09682851 -0.018780254 0.10229788 -0.038656097 0.115390405
0.1345864 0.09948825 -0.023707254 0.098210156 0.1142108 -0.07904821 -0.056255795 -0.025726669
-0.05847946 0.056106716 -0.00071773917 -0.033166617 -0.049878005 0.1365797 0.08129882 -0.05043265
0.11490912 -0.009427424 -0.032729417 0.11772255 -0.026954887 -0.080176644 0.15380913 0.19393097
0.14521642 0.12072704 0.115115084 0.022157185 0.013032486 -0.053445503 0.08957448 0.13474034
-0.07614355 -0.08521261 0.12476482 -0.055890765 0.15511836 0.07683455 -0.017481843 0.07992082
0.13465816 0.008814907 0.10447774 -0.01757504 -0.014838621 -0.04213839 -0.06181355 0.014294031
0.12492537 0.0806114 0.020703292 -0.032820635 -0.08440954 0.04239299 0.14188537 -0.08292472
00000000: af61 bfbd 294a a53d 09ec d4bb 42fb a6bc
00000010: f6bf 8abc 32d3 6e3d 0916 b73d fb0d b43d
00000020: d8c6 7cbd e572 0ebc cf48 95bd 085b b4bd
00000030: 5530 e03c edf2 32bc 984b bbbd 6058 94bd
00000040: 69c0 ad3d 8a40 333e 3e54 7fbd 70e5 3fbd
00000050: 5bf5 ba3d a29c 57bc 7243 d23d 0374 81bc
00000060: eb48 1b3e 925a 85bd d0e7 dd3d 4cec 0a3d
00000070: b50a 333d 8633 4a3d 42e2 d6bc 8f68 1fbd
00000080: 7183 2fbd 309c 43bd fdb6 a4bd 0297 f33d
00000090: bf0f 47bd 54a9 afbd a02f 643c 4327 eb3d
000000a0: 7794 b83d 2163 93bd 2923 c03d 99b9 31bd
000000b0: 035d 0a3e 4b17 033e 3320 a43d 7f9b b1bc
000000c0: 7543 a63d 5f13 ec3d 862e fa3d 57a1 813c
000000d0: ec15 3abd 514a 073e aeed 933d edd5 9dbd
000000e0: 928e ca3c 1ca4 053e 5bdb a23d 8c02 78bd
000000f0: b224 83bd 7322 c33c c156 cdbc 21e8 223e
00000100: b5d4 a03c 0c66 8d3d 9e9f 86bd 074e c63d
00000110: 0cd9 99bc 8d81 d13d db55 1ebd ce51 ec3d
00000120: 04d1 093e 7fc0 cb3d b735 c2bc 6822 c93d
00000130: 5ae7 e93d 07e4 a1bd 7a6c 66bd bcc0 d2bc
00000140: 2988 6fbd 28d0 653d a926 3cba b8d9 07bd
00000150: e14c 4cbd 8ddb 0b3e ff7f a63d 7792 4ebd
00000160: 7955 eb3d 7b75 1abc 480f 06bd 8518 f13d
00000170: 7fd0 dcbc a733 a4bd 2480 1d3e d795 463e
00000180: 9db3 143e bd3f f73d 75c1 eb3d fc82 b53c
00000190: 3586 553c ace9 5abd d372 b73d 5ff9 093e
000001a0: 26f1 9bbd f383 aebd b384 ff3d b7ed 64bd
000001b0: 59d7 1e3e 6f5b 9d3d 1536 8fbc 87ad a33d
000001c0: d4e3 093e 666c 103c 6df8 d53d 88f9 8fbc
000001d0: b01d 73bc 4e99 2cbd 3430 7dbd 8331 6a3c
000001e0: dfd8 ff3d 9717 a53d f399 a93c ee6e 06bd
000001f0: e9de acbd 46a4 2d3d 664a 113e 70d4 a9bd
