best/cnn_gru_attention_price_prediction_model.pth (torch, 524120 bytes, 18 tensors)

cnn.0.weight f4 [8, 3, 2]
00000000: 1e93 ac3e 4c83 a73e 9c04 10be faa6 a13e
00000010: 4140 a53e 0169 9e3e e758 c7be a8f1 66bd
00000020: 8955 46be 00cd 413e 3c3f 5e3e 8008 063e
00000030: 8375 233c 8f31 96bd 26ec c23e dd10 c5be
00000040: 914f 91bd 4df5 403d 9f0f bebe aee2 a0be
00000050: b067 f0bd d484 373e d4f3 cabe 8b15 74be
00000060: 7269 bc3d fe2b 27bd 5651 d9bc cbef 8abd
00000070: a392 3dbe ef60 983e c804 cc3e b211 c0be
00000080: a3be 9c3e a2c5 783c d60c 083e cc26 a0be
00000090: 1136 00be 5f40 8fbe 571e febd d051 b63d
000000a0: 2637 7bbc d965 c33e d62a 86be 6480 f0bd
000000b0: 6fce c4be 4c81 433e 8cc0 bb3d 8090 aebc
0.33705992 0.3271736 -0.14064258 0.31572706 0.32275584 0.30939487 -0.38935015 -0.056382805
-0.19368567 0.18925858 0.2170381 0.1308918 0.009976747 -0.07333671 0.38070792 -0.38489428
-0.07095254 0.047108937 -0.37121293 -0.31422943 -0.11738527 0.17921764 -0.3963915 -0.23836343
0.091997996 -0.04081344 -0.026528042 -0.06784018 -0.18512969 0.29761454 0.39847398 -0.375135
0.30614194 0.015183838 0.13286147 -0.312796 -0.12520625 -0.279788 -0.124081306 0.08902323
-0.015332973 0.3816364 -0.26204556 -0.117432386 -0.38438746 0.19092292 0.09167585 -0.021309137

cnn.0.bias f4 [8]
00000000: 7a0c ad3e 0ba3 80be 4669 3a3e 108f 7cbe
00000010: a24b d43e 0399 91be cca7 b23e bc63 34be
0.3379858 -0.25124392 0.18204221 -0.24663949 0.41463953 -0.2843705 0.34893644 -0.1761617

cnn.2.weight f4 [16, 8, 2]
00000000: 7c05 543e 5b06 703e 04d2 a1bd 1086 d3bd
00000010: d976 1c3e c5fd 713e aeee 67be 5a5b 623e
00000020: b8ea 1fbe abbc 6f3e ebc3 29be 7ae5 423e
00000030: 3fc8 d0bc 52a7 063e ca07 273e 40c1 a73c
00000040: 2b1d a73d 6add 6d3e 62a2 55be 90b0 1bbe
00000050: 07fd 2dbe ca7b 38be de2f 693e a88e 123d
00000060: 20ab b6bd 099b 6a3e b947 763e 2f04 08be
00000070: 8dbf 233e 693c 3fbe 24db 583e 3034 0e3e
00000080: e83e 43bc 8e83 2dbd 844e 29be 74b2 803d
00000090: 8a2e 233e 5f93 d3bd f0e6 cfbd f801 2ebd
000000a0: e75b 673c 3fb2 673e 9e2b 36be 0ff8 fe3a
000000b0: 63fb 4bbd efeb 8b3d 9432 de3d 20a0 b1bd
000000c0: f056 19be 2589 213d d407 19be b06c 003d
000000d0: ba40 3abd 8382 8abd 2cf1 50be 02ef 0f3e
000000e0: 108a 553c eadb 90bd 50a5 1dbd 2821 273d
000000f0: aa52 ef3d 5793 593e 783f 55bd 7866 663d
00000100: 925c 74be 1451 c53d f02f 573e 7095 45be
00000110: d0be 183d ee2b 33be c807 ff3d 306b cd3d
00000120: 241a c8bd c8a1 433e c412 15be 7008 4a3e
00000130: 8ada 093e 08cc 263d ac1d b8bd 0e95 103e
00000140: a8f9 0cbe 70f3 55bd 281e c43d 44da 86bd
00000150: 00cc bd3d 0e74 7fbe 00e0 4c39 dcf1 ebbd
00000160: ce97 6dbe a866 8dbd 1092 3dbd 0065 043b
00000170: 4462 b9bd 002d 87bb 4829 e43d 9808 49bd
00000180: 643d 3e3e 7869 273d 020d 263e 00ab b4bd
00000190: bc69 5abd 841b 74be 8cdf ddbd d826 a73d
000001a0: 65a5 383e 2876 13bd d2f5 ce3d ec23 edba
000001b0: c2c9 73be 728c f93c 0801 7cbd bc75 04be
000001c0: 3124 af3b b612 653e 22ab 6fbe 6499 4dbe
000001d0: 4dd4 df3d d988 693e e874 29be 0843 ff3d
000001e0: b783 7d3e fbfb 983d 1741 69be fdee 33be
000001f0: 10fd 85b8 fb35 7dbe bc34 4b3e e0db c73d
00000200: 292f 913d faa9 d93d 8a30 483e bad3 043e
00000210: 09e8 86bd f4c1 313d 38e0 01be 48a1 53bd
00000220: 5258 5c3e bfed 5dbe c3c7 993d cfa1 babc
00000230: 111e 3cbc 7433 d63d e013 ac3c 9820 3f3e
00000240: ac2c ab3d d81f 74be 3226 26be d073 f53c
00000250: 50a8 af3c 0876 dd3d 48ab 55be a007 f0bc
00000260: 92ba 2abe d4c3 743e f05f 2fbe f8c2 35bd
00000270: 7eb0 303e ee9b 48be 8484 1cbe 809a ac3c
00000280: 5856 773e b1fd 77be 46c6 45be 08c1 d6bd
00000290: fa3c 733d 85b1 1b3d eef0 79be 3805 b2bd
000002a0: 4ea3 f4bd a0d0 1ebe ef78 09be 949d eb3d
000002b0: 11cf 483d ee9e a4bd 98bb 7dbe e06a 4e3d
000002c0: e422 633e 497f 2cbe 8c90 14be b8d7 2fbd
000002d0: 56aa 513d df11 f6bd 5c76 dbbd 78e0 03bd
000002e0: 72e3 3b3e 2a1d 603e a55f 463e a39b c43d
000002f0: 58c2 87bd bef0 ca3d 566b 403e c4d4 86bd
00000300: 97e6 6fbe e640 773e 3060 e6bc 889a babd
00000310: 2d92 673e 7a50 b1bd 5afb 6dbe c0c3 e8bb
00000320: 21a1 6f3e 7f10 3f3e fdec 733e fc9e 103b
00000330: 5cb8 1b3e 5000 5ebd 806e e7bd 8a5e 0d3e
00000340: ef00 093e 1cef a23d ece4 6f3e b453 92bd
00000350: 3e48 d9bd e592 243d 7e29 6c3e 8655 56be
00000360: d6b3 623e b040 b13d d77c 79be ba99 f5bd
00000370: e06f 5c3e b840 003e 8494 253e 662c 323e
00000380: c451 33be 59e8 813e c024 d0bb 905d 0f3d
00000390: 5081 68be 9647 1a3e e888 51be 203d 77bd
000003a0: 6bc3 b9bd 1ae1 de3d ab97 60be 10d0 a6bd
000003b0: 2d01 113e e09f 40be c8c6 733e 90b9 a13c
000003c0: 50f8 7fbe 9661 09be 188c 083d e840 28bd
000003d0: 58a3 44bd 0ca0 793e a070 763e 4400 e7bd
000003e0: f4f4 20be 1e1b 47be e4fe 29be a0ba 88bc
000003f0: 2420 b73d acdb 113e 801b 3a3d 8033 37be
0.20705217 0.23439924 -0.079013854 -0.10328305 0.15279712 0.23631962 -0.22649643 0.2210516
-0.15616882 0.23411815 -0.16578643 0.19032851 -0.02548611 0.13149765 0.16311565 0.020477891
0.0815986 0.23228994 -0.20862725 -0.15204072 -0.16991054 -0.18015972 0.22772166 0.03578058
-0.08919358 0.22910704 0.24050798 -0.13282846 0.1599104 -0.18675388 0.21177346 0.13887095
-0.0119168535 -0.04236179 -0.16533858 0.06284037 0.15935722 -0.10330843 -0.1015147 -0.042482346
0.014121032 0.22626589 -0.17790076 0.0019452589 -0.049800288 0.0683211 0.10849491 -0.086731195
-0.1497457 0.03943743 -0.14944392 0.031353652 -0.045471884 -0.067631744 -0.204045 0.14056018
0.013033405 -0.07073195 -0.038487732 0.040803105 0.11685689 0.21247612 -0.05206248 0.056250066
-0.23863438 0.09634605 0.2101438 -0.19295287 0.037291348 -0.17497227 0.12452656 0.1003021
-0.09770611 0.19104683 -0.1455794 0.19729781 0.13462272 0.040721923 -0.089900345 0.1411936
-0.13767111 -0.052234113 0.09576064 -0.065845996 0.092674255 -0.24946615 0.00019538403 -0.115207404
-0.2320244 -0.06904346 -0.046281874 0.0020201802 -0.09051946 -0.0041252375 0.11140686 -0.04908046
0.18578106 0.040872067 0.162159 -0.08821678 -0.053323492 -0.23838621 -0.10833654 0.08161706
0.18031843 -0.036001354 0.1010548 -0.0018092371 -0.23807433 0.030462477 -0.06152442 -0.12935537
0.0053448905 0.22370419 -0.23405126 -0.20078045 0.10929165 0.2280611 -0.16548502 0.12463957
0.24757276 0.074699365 -0.22778736 -0.17571636 -6.389071e-05 -0.24727623 0.19844335 0.09758735
0.07089073 0.106281236 0.19549766 0.12971392 -0.06587226 0.04339786 -0.12683189 -0.05166748
0.21518067 -0.21672724 0.07508805 -0.022782234 -0.011481778 0.10459033 0.02100557 0.18664777
0.0835813 -0.23840272 -0.16225508 0.02996245 0.021442562 0.10813528 -0.2086612 -0.02930051
-0.16672733 0.23902828 -0.17126441 -0.04437539 0.17254826 -0.19590732 -0.15284926 0.021069765
0.24154031 -0.2421787 -0.19313917 -0.104860365 0.059384324 0.038011093 -0.24408314 -0.08692402
-0.119452104 -0.15509272 -0.13425039 0.11504665 0.0490256 -0.08038126 -0.24778593 0.050394893
0.22181278 -0.1684543 -0.14508265 -0.042930335 0.051187836 -0.120151274 -0.10715935 -0.032196492
0.18348482 0.21886125 0.19372423 0.09599998 -0.06628865 0.09909199 0.18790945 -0.065835506
-0.23427807 0.2414585 -0.028122038 -0.09111506 0.22614355 -0.08657928 -0.23240414 -0.0071034133
0.2340131 0.18658637 0.23820873 0.0022067418 0.15207046 -0.054199517 -0.11300373 0.13805595
0.13379262 0.07955763 0.2342717 -0.07144871 -0.10609482 0.040179152 0.23062703 -0.20931062
0.22138914 0.08654916 -0.24364029 -0.11992212 0.21527052 0.12524688 0.16169935 0.17399749
-0.1751166 0.2537258 -0.006352037 0.035001338 -0.22705579 0.1506637 -0.20462382 -0.060361028
-0.09070476 0.108827785 -0.21932857 -0.081451535 0.14160605 -0.18810987 0.23806298 0.019741803
-0.24997067 -0.13416132 0.03333673 -0.041077524 -0.04800734 0.2437746 0.240664 -0.112793475
-0.15718442 -0.19443938 -0.1660114 -0.016690552 0.08941677 0.14243954 0.045436382 -0.1789074

cnn.2.bias f4 [16]
00000000: 52a3 40be fbf8 cb3d a885 3d3e 90ef b5bc
00000010: dc83 dfbd 649d 74be 575d 373a 5892 70be
00000020: ef02 503d 9ed0 51be e599 e43d deaf 293b
00000030: feac 3ebe 0229 3fbe 5376 4c3e e871 55be
-0.18812302 0.09959599 0.18508017 -0.022208959 -0.10913822 -0.23888165 0.0006994805 -0.23493326
0.050784048 -0.20489737 0.111621656 0.0025892179 -0.18620679 -0.18667987 0.19967012 -0.20844233

cnn.4.weight f4 [32, 16, 2]
00000000: c6da 24be 9a94 17be cf63 1e3e 40c9 953c
00000010: bf28 91bd 0040 e3b9 a429 18be b7ae 233e
00000020: c427 0dbe 4b72 0b3e 0086 52bb 68b9 97bc
00000030: 8285 ce3d 40d7 913c 8840 f43c b25d f33d
00000040: 4c5c 7c3d 6083 c9bc c0c6 f4bc 72cf fa3d
00000050: fa14 20be 3875 bcbc 978c 0f3e e050 9bbc
00000060: 52fa dc3d a0c2 723d 90e3 613c c80d e43c
00000070: 379d 8cbd 0271 a23d 82c1 a23d 0083 6aba
00000080: a67e 1d3e cdb9 753d 8bd8 063d db0c 2ebe
00000090: 1f1a 243e 3c0a 233e bd55 b8bd 50f4 35bd
000000a0: 8a05 ab3d d1c7 82bd 28a0 dcbc 9a70 a63d
000000b0: 6f0d fcbd f623 a5bd b304 09bd 459a 0a3e
000000c0: 97b0 df3c 3607 203e 2e77 cabd 4572 043e
000000d0: 7a5a 0d3e 7972 1abd c6c6 0d3e 1a22 0bbe
000000e0: 5cc3 d5bb 9b9c a1bd 3583 e139 6a96 06bc
000000f0: 7b82 e43d 53ff 42bd b06f 77bd 5027 18bc
00000100: 2c7e d03c 4c80 0c3e 598d d33d 222c 563b
00000110: 4407 313e 43e0 a3bd e948 e3bd 567c fa3d
00000120: 6fec 183e 4862 f73c 255b 1a3e 0f1e 183e
00000130: d264 e53b 84a4 b8bd 04ab 9f3d f3ba 023d
00000140: 4212 babd 2e1a 193e 74d3 ffbd d86e a1bd
00000150: 3834 be3d e01f 12be d09f dd3d fef5 023c
00000160: 46ba 223d 249c 9f3d 5921 413d a85e a4bd
00000170: ad03 0dbe bfd7 c8bd ffdb 133e d5f6 113e
00000180: df8e 0abe 2ab4 903d bb2c b1bd 0657 233e
00000190: 47d6 ef3d baa1 26be 40fe 003e 8bc2 b3bd
000001a0: 8046 b5bc 8db1 80bd 6438 233d 3727 073e
000001b0: cc4e 233b 9b45 b9bd 7c48 0f3e 9a94 a0bd
000001c0: 65d4 97bd 153e df3d 758d 253e c87e a53c
000001d0: 7f11 853d 1512 10bd 8327 4e3d a456 d03d
000001e0: e7d1 ef3d 5c55 fcbd 6415 bf3d 2579 a33d
000001f0: 6b3e 0abe 1d52 c53c 101e 1abc fcc8 36bd
00000200: a4a2 1fbe 17c3 0a3e 622b 023e 2097 0cbd
00000210: 5173 0cbe 02e9 19be ee3a d2bd 2cc0 d13d
00000220: 211c f0bd c4ef 01bd 0434 05be a9d7 253e
00000230: 9506 f2bc 1fb9 95bd 00e4 e83d 4aef 283e
00000240: d920 0d3c 2b05 3a3e e833 6bbd 14ff 443d
00000250: eec3 2c3e 2ce2 fabc db11 cbbd a091 abbb
00000260: ad63 083e e379 c0bd 8c92 4abd 3b3e 0d3d
00000270: 288c c03c bd9c 283e cbd7 09be eaca 813d
00000280: e2fe c7bd b77c 8c3c c4b5 b4bd 5861 f33d
00000290: 1bbc 22bd 9d39 113e 4ac5 dd3d 01da e13b
000002a0: e4bd 1fbe 8cf6 ffbd 1499 893d 116b 21be
000002b0: 340e 87bd 4612 2fbd a9c1 d6bd 3cf7 3bbe
000002c0: 6a63 12be be52 b43d 66ce c73d c2e2 0dbe
000002d0: cb3a 98bc dcd1 e2bd 1565 383d fe82 c73d
000002e0: c7d0 263e 6806 343e c9e3 053d fa18 89bd
000002f0: 351b 0dbc 543d 013e b3ba f8bd 7d37 9bbd
00000300: 7ff9 153e 131b 033e 994d e73d 49b9 fa3c
00000310: 3763 1f3d d908 aebd 6eaf d2bd a9f1 00be
00000320: 287d ddbc 5022 c0bc 7809 1ebd 7c6d 823d
00000330: 603b d73d a1d4 14be 86e4 ae3d cb3b 923c
00000340: 3475 5c3d c0ef 2cbd 147a d8bd fc33 043d
00000350: e62a f73d 1f31 7abd 90ac 6c3d e5b9 ea3d
00000360: 3466 143e 6a11 103e f8e3 02bc d951 4dbb
00000370: 5f27 17be 43db fc3d b229 e33d 8316 2d3e
00000380: 040f e7bd cfdb 2f3e f01c ee3c b1e1 edbd
00000390: efa6 2d3e 8294 54bd 5a1d ecbd a0d5 2dbe
000003a0: 5025 86bc 942d b2bd b08a 9ebc 10db c23c
000003b0: 52cb cfbd b140 cebd 40e6 613b e462 20bd
000003c0: 764b f53d 4046 29bb 1090 a8bc 0098 3eba
000003d0: 05c6 c2bd 88f9 1bbe 5089 21bd c81e a4bc
000003e0: ed98 c5bd b092 6e3c 5875 e4bd a045 18bc
000003f0: c685 fdbd 2655 c93d a761 f3bd 8fc0 243e
-0.1609908 -0.14802781 0.15467761 0.01828444 -0.0708785 -0.00043344498 -0.14859635 0.15984617
-0.137847 0.13617818 -0.0032123327 -0.018521026 0.10084058 0.017802835 0.029815927 0.11883105
0.06161146 -0.024598777 -0.029879928 0.12246598 -0.15633002 -0.023005113 0.14018475 -0.018959463
0.10789932 0.05926764 0.013787165 0.027838603 -0.06865924 0.07931711 0.07947065 -0.0008945912
0.15380344 0.059991647 0.032921355 -0.16997091 0.1602559 0.15921873 -0.09000728 -0.044422448
0.08350666 -0.06385768 -0.026931837 0.08126946 -0.1230725 -0.080635 -0.033451747 0.13535412
0.027305884 0.15627751 -0.09886013 0.12934215 0.13804045 -0.037706826 0.13845357 -0.13587227
-0.006523533 -0.07891198 0.000430131 -0.008214572 0.111577 -0.047606777 -0.060409248 -0.009286717
0.025450788 0.13720816 0.10329694 0.0032680114 0.17287928 -0.08001759 -0.11097891 0.122307464
0.14933942 0.030198231 0.15073831 0.14855216 0.007000544 -0.09015754 0.077962905 0.03191657
-0.09085514 0.14951393 -0.12491503 -0.0788247 0.09287304 -0.14269972 0.108214974 0.007993219
0.039728425 0.07793453 0.047150943 -0.08025867 -0.13770933 -0.09806775 0.1443939 0.14254315
-0.13531063 0.070656136 -0.0865111 0.15951166 0.11710792 -0.16272631 0.12596989 -0.087773405
-0.022128344 -0.06283865 0.0398487 0.13198553 0.0024918793 -0.09046479 0.13992494 -0.078408435
-0.07413558 0.10900513 0.16167243 0.020202056 0.06497478 -0.035173494 0.05033065 0.101727754
0.117099576 -0.123209685 0.09330252 0.07982091 -0.13500373 0.024087006 -0.0094065815 -0.044625267
-0.15589386 0.13550983 0.12711862 -0.03432381 -0.13715865 -0.15030292 -0.10265146 0.10241732
-0.11724115 -0.0317228 -0.13008124 0.16195549 -0.029544154 -0.073107 0.113716125 0.16497532
0.0086137885 0.18166034 -0.05742255 0.048094824 0.16871616 -0.030625425 -0.09915515 -0.0052358657
0.13319273 -0.09398248 -0.049456164 0.034483176 0.023504332 0.16466041 -0.13461225 0.06337531
-0.09765412 0.017149312 -0.088237315 0.11883801 -0.039730173 0.14182134 0.108286455 0.006892443
-0.15599781 -0.12498197 0.067186505 -0.15763499 -0.06594506 -0.042742036 -0.104861565 -0.18356031
-0.14295736 0.08804844 0.09756164 -0.13856032 -0.018582722 -0.11075184 0.045018274 0.09741782
0.1629058 0.17580569 0.032687936 -0.06694217 -0.008612444 0.12621051 -0.12144985 -0.07578943
0.14645956 0.12803297 0.112940975 0.030605929 0.038912978 -0.08497781 -0.10287367 -0.12592186
-0.027037218 -0.023453861 -0.03858325 0.06368539 0.10509372 -0.14534236 0.08539681 0.017850777
0.05382271 -0.04222083 -0.105701596 0.03227614 0.12068729 -0.061082 0.057781756 0.11461238
0.14492112 0.14069143 -0.007988922 -0.0031329303 -0.14761113 0.12346508 0.11091937 0.16903119
-0.11282161 0.17173694 0.029066533 -0.11615313 0.16958211 -0.05189944 -0.11529036 -0.16976023
-0.016375214 -0.087000996 -0.01935324 0.023786098 -0.10146202 -0.10070933 0.0034469515 -0.03915681
0.11977284 -0.0025829226 -0.020576507 -0.00072705746 -0.095104255 -0.15231907 -0.039437592 -0.020034209
-0.09648309 0.01456134 -0.11155194 -0.009293944 -0.12379031 0.09830694 -0.1188386 0.1608908

cnn.4.bias f4 [32]
00000000: 988b abbd b3ef 7e3d 6587 a83c 045c 093d
00000010: 4ded 083c ffef 483d 8f8d c53d 40f5 5fbb
00000020: 9dc2 0cbe 5390 a9bd 7f99 713d 8ea0 31be
00000030: 3505 0fbc 18f1 87bc 02ba b5bd 8c51 0cbe
00000040: 911e 08be ceaa 023e ffe1 343e 01fd c4bc
00000050: dc6d ce3d 0e48 12be c810 ac3d 87e3 5cbc
00000060: df3e 10bc 4301 d03c 94f4 0abe e6ee f0ba
00000070: 5369 9e3d a492 2dbd f0a3 20be d88b 22bd
-0.08376235 0.062240314 0.020572374 0.03353502 0.008357358 0.049057003 0.09646141 -0.003417328
-0.13746114 -0.08279481 0.058984276 -0.17346403 -0.008729269 -0.016594455 -0.08873369 -0.13702983
-0.1329291 0.1276047 0.17664336 -0.024046423 0.10079548 -0.14285299 0.08401638 -0.013481981
-0.008804052 0.025391227 -0.13569862 -0.0018381744 0.07734933 -0.042376176 -0.15687537 -0.039684147

gru.weight_ih_l0 f4 [6, 3]
00000000: ee8f 2c3f c058 163f a54d 1a3e 1611 87be
00000010: 212c 11bf 291a 7e3e 86b3 133f e838 6e3e
00000020: 870c e73e 40b8 b6be 193a f23c 53eb 253f
00000030: 9a20 9f3e daf0 71be ab56 a83e 78dc e93d
00000040: d522 2f3f 7a34 8f3c
0.6740712 0.5872917 0.15068682 -0.26380223 -0.5670796 0.24814667 0.57695806 0.23263896
0.45126745 -0.35687447 0.029568719 0.648122 0.3107956 -0.23627034 0.32878622 0.11419004
0.68412524 0.017481077

gru.weight_hh_l0 f4 [6, 2]
00000000: a542 18bf 4d47 f2be 8b50 25bf 2dfd f03e
00000010: 4846 9bbe 4dde 4a3e 7c1e f83e 2e54 35be
00000020: 2367 283f a188 e93d a907 fdbe 8753 b5be
-0.5947669 -0.47320023 -0.64576024 0.47068158 -0.30327058 0.19811364 0.48460758 -0.17707893
0.65782374 0.11403013 -0.49419907 -0.3541529

gru.bias_ih_l0 f4 [6]
00000000: 1db8 1fbf e10b a1be 45d4 263f 0c9d ecbd
00000010: 202a 733e 0af9 3e3e
-0.6239031 -0.31454375 0.6516765 -0.11553392 0.23746538 0.18649688

gru.bias_hh_l0 f4 [6]
00000000: 104b 023e 5463 133f ce21 a9be c6ea 9c3e
00000010: e70c b73e 64ef 92be
0.12723947 0.5757344 -0.33033603 0.30647868 0.3575203 -0.28698266

cnn_fc.weight f4 [128, 864]
00000000: 28b1 023c 4a4c 9cbc f01f df3b 004b a13c
00000010: 6673 c03c 6279 b73c c04b 553b 6fcc ddbc
00000020: f8eb 9ebc 524d 28bc 20ae d93b 7047 4c3c
00000030: 7048 e9bb aa09 a93c 0451 cdbc 007e adba
00000040: 2261 ac3c 30ee fbbb a236 af3c 98e2 7a3c
00000050: 1cdf a7bc 2824 b53b f022 a73b 3888 f83c
00000060: 46c0 883c 40be 27ba 79fe 96bc 9740 053c
00000070: 3bab 9e3c f970 eabb 5746 e53c 9c10 113d
00000080: 14e9 d13b 24a3 fabb e091 9dbc 375b b93c
00000090: b47d 96b8 5efc ff3b 7699 993b 2036 943c
000000a0: 1076 b13c 77fe 21bc 6cf1 7f3c 8285 883c
000000b0: a686 5dba e25b f53c 96cd aa3c fe17 fcbb
000000c0: 29b9 bdbb 0289 94ba 6bfe 9cbc 887e d2bb
000000d0: 88e8 c63b 3777 0f3c 94be 9bbc 502f a03c
000000e0: 3047 c43c e740 e139 83d4 b13c 2bf1 a13c
000000f0: 1625 aa3c e7f7 003d dff0 f9bc 8aa0 013c
00000100: 5c49 8f3c cbfc 883b 38b2 84bb 1d50 51bc
00000110: b25f 35bc 26ed 5bba a808 4dbc b866 c4bc
00000120: be8e 20bc 295b c03a 6d60 c8bc 6081 dd3c
00000130: 29a6 0b3d cd9f 81bc 1ad2 713c f195 88bc
00000140: 069f b03c 42cd 093c dbb8 913c 30c1 c8bc
00000150: 971d d73c 84b9 e33c 177a b7bc 24bb 39bc
00000160: 8f94 d5bc 036b c93b 6c7c bebc 77f1 a73a
00000170: c8bb f0bc 7900 fabc bff6 2bbc a00c fdbc
00000180: 7c22 59bb 5c5c 85bb a55c fabc e46b 043b
00000190: 786d 7abc 113c 3fbc a04c d33c 2233 d2bc
000001a0: 9f3b 853c bc02 d53b 0993 0d3c 3e6f ef3b
000001b0: 5dd4 073c 8b0b 9b3c cbad 07b9 55ad 863c
000001c0: 0185 f9bc 8084 eb3c 8b79 173d 5efa b4bc
000001d0: 2ef4 83ba 60b9 223d f4d3 02bb d41d bd3c
000001e0: 16ee 1d3d 46cc 8f3b 59b5 363d 0520 093d
000001f0: 75b1 76bc 27ed 013d 6a59 573c 3ec6 fd3c
00000200: f68f 0a3c b4eb 833c 7df5 a1bb 815f b23b
00000210: 0e0c 3c3c 9385 103d 6ddb 18bc cb87 673a
00000220: 1d72 9a3c 8b6e c8bb 5d82 753c f344 bf3c
00000230: deca bf3a 03c1 b1bc 415a 0a3c 048f eabc
00000240: 231d e4bc ad95 23bc 450d ae3c 0ea9 32bb
00000250: ef50 c0bc 4393 573c af77 f63c 828d d23c
00000260: ec26 eabb 0a02 9e3c ac86 ae3a 482a d93c
00000270: eed8 6bbb 42dd 13bb c74e 58bc 15bb 2dbd
00000280: 5c2c 2ebc cdb7 e8bc 7a2a 0c3d f5ed b83c
00000290: 0cba e03c d249 a83c cf59 d83c 3364 e53c
000002a0: 5bf2 ad3c e03e 0db9 eea9 84bc bbd8 9f3c
000002b0: 6080 063d fd44 d2bb 284f edbc 0b39 9e3b
000002c0: 219c 8fbc 462f 513c 4de6 093c 0cca c4bc
000002d0: 2d38 9fbb 6e02 993c ce85 68bc 3990 4d3c
000002e0: 49f0 0f3c 64f9 c23c 8010 e4ba 7bbf bbbc
000002f0: 52a9 813b 7810 e6bc dc46 103c 72e9 b83c
00000300: c70d 89bc 443c 403c 38cf 413c 8852 68bc
00000310: c84a bd3b f8c8 113c d8a9 f13b 4067 373b
00000320: cede bf3c 3c7f 523c e098 d63a 01ce 98bc
00000330: 7a36 a93c b828 cf3b 7038 77bc b834 c53c
00000340: 26fc 833c b851 d0bb d635 b73c 58be 03bc
00000350: 465c c9bc 859c ebbc a239 1ebc 085b 8f3c
00000360: 727c b33c 9275 043d ab6e ebbc a253 64bc
00000370: 6067 a73b 30fb 20bb a8b1 acbb 5338 f5bc
00000380: ec8c 05bc 0065 c339 282c a63b e0b4 edbb
00000390: 2cb8 5dbc 6c70 a53c d047 4bbb 74c1 953c
000003a0: 20e4 e83a eade 55bc 8aba 22bc 78d1 c1bc
000003b0: 62ed 9e3c 2cb9 17bc 3412 783c 7af6 6bbc
000003c0: c678 c9bc a28f 23bc 340f 2e3c a838 d93c
000003d0: 2627 76bc 0cfc cc3c b6cd a0bc 2441 143c
000003e0: d8cd 973b 4ebe d33c 14cd 243c eec8 45bc
000003f0: 607e 773c c89c 6c3c 1cb3 e2bb 3d60 94bc
0.007976808 -0.019079346 0.006809227 0.019689083 0.023492526 0.022396747 0.0032546371 -0.02707502
-0.019399628 -0.010272341 0.006643072 0.012468204 -0.007119231 0.020634491 -0.025063045 -0.0013236403
0.02104241 -0.0076883063 0.021388356 0.015312813 -0.020492129 0.005527992 0.0051006004 0.030338392
0.016693246 -0.0006398894 -0.018431889 0.008133075 0.019368758 -0.0071545807 0.027987642 0.03541623
0.006405959 -0.0076488424 -0.019234598 0.022626502 -7.1759714e-05 0.007812067 0.0046874834 0.018092215
0.021662742 -0.009887329 0.015621524 0.016665224 -0.0008450545 0.02995104 0.020849984 -0.00769329
-0.005789895 -0.0011332335 -0.019164285 -0.006423775 0.0060702004 0.00875645 -0.019011773 0.01955381
0.023959726 0.000429637 0.021707779 0.019768318 0.020769637 0.031486418 -0.030510364 0.007911811
0.017491035 0.004180526 -0.0040495656 -0.012775448 -0.011070179 -0.0008389525 -0.012514271 -0.023974761
-0.009799657 0.0014675605 -0.024460042 0.02703923 0.03409401 -0.01582327 0.014759565 -0.01667306
0.021560203 0.008410754 0.017788341 -0.024506181 0.026259227 0.027798422 -0.022397084 -0.011336122
-0.026071815 0.00614679 -0.023252688 0.0012813051 -0.029386416 -0.030517804 -0.010495841 -0.03088981
-0.0033132127 -0.004069848 -0.030561754 0.002020591 -0.015284888 -0.011672036 0.025793374 -0.025659148
0.016263781 0.00650057 0.008641013 0.0073069623 0.008290377 0.018926403 -0.00012939346 0.016440073
-0.030458929 0.028749704 0.036981147 -0.02209204 -0.0010067278 0.03972757 -0.001996276 0.023085512
0.038557135 0.004388365 0.04460654 0.0334778 -0.0150569575 0.031720307 0.013143877 0.030978318
0.0084571745 0.016103603 -0.0049425946 0.005443514 0.011477483 0.035283636 -0.009329659 0.00088321854
0.018853242 -0.0061166934 0.014984694 0.023348307 0.0014632603 -0.02169848 0.00844437 -0.028632648
-0.027845925 -0.009984416 0.021246562 -0.002726141 -0.023476092 0.0131576685 0.030086366 0.025702242
-0.007145753 0.019288082 0.0013315282 0.02650942 -0.0035987454 -0.00225623 -0.013202376 -0.042414743
-0.010630693 -0.028407956 0.034220196 0.022574404 0.027432464 0.020543013 0.026410012 0.02800188
0.021233728 -0.0001347023 -0.01619431 0.019512525 0.03283727 -0.0064169155 -0.028968409 0.0048285774
-0.017530503 0.0127676185 0.008416724 -0.024022125 -0.0048589916 0.018677916 -0.014192058 0.012546592
0.008785316 0.02380056 -0.0017399937 -0.022918453 0.003956952 -0.028084025 0.008805957 0.022572253
-0.016730202 0.011733118 0.01182919 -0.014179833 0.005776737 0.008898012 0.0073749833 0.0027985126
0.023421671 0.012847718 0.0016372465 -0.018652918 0.02065586 0.0063219927 -0.015089139 0.02407299
0.016111445 -0.006357398 0.022364538 -0.008040987 -0.024580132 -0.028761158 -0.009657295 0.017499462
0.021909926 0.032338686 -0.028739294 -0.013935955 0.005108759 -0.0024563782 -0.0052702017 -0.029934084
-0.008151274 0.0003726855 0.005071182 -0.007254228 -0.0135326795 0.020195208 -0.0031018145 0.018280722
0.0017768182 -0.013053635 -0.00993217 -0.023659453 0.019400302 -0.009260457 0.015141059 -0.014402026
-0.024593722 -0.009982975 0.010623742 0.026516274 -0.015023982 0.025022529 -0.01962934 0.009048734
0.004632693 0.02584758 0.01005866 -0.012071831 0.015105814 0.014441676 -0.006918324 -0.018112296

cnn_fc.bias f4 [128]
00000000: bcd4 033d 593e 87bc 72f7 8b3c 162a f4bc
00000010: 00cf 98bc 028a ab3c b738 d53c a191 e5bc
00000020: e428 01bd edae aabc 22a6 e8bc bcee cc3c
00000030: cbf0 a9bc 42c4 93bc 7abc 5b3b cc25 ddbc
00000040: 7ba2 873c c477 d9bc 51a6 57bc 1b31 863c
00000050: 4263 0ebc efe0 2ebc fc85 fdbc e467 bebc
00000060: 1983 943c 8de5 c93b 5355 c8bc 785c 6bbc
00000070: 018b 973c 35f3 8f3a 30b3 9c3c 654e 233c
00000080: 4ef6 7f3c 4ab1 f93c d853 783c bb23 0ebc
00000090: 703f dabc 87bc c93b d205 2fbb cc0c 313c
000000a0: 2827 ad3c 29d9 473c 51a8 dbbc 4bdb 063c
000000b0: 7b31 183c bd2e 953c a233 d93c f40c 073d
000000c0: 52d8 adbc 1ef7 13bc 8844 c73c adee eebb
000000d0: d248 57bc d2e0 8cb9 0885 0cbc 64c9 b33c
000000e0: 52f1 843c c9de 34bb 4d7a 8c3a cbf3 6e3c
000000f0: 00de acbc d222 cdbc 1c03 563b 60ee fc3b
00000100: 4bd9 083c 74db c9bc 1bba 8cbc 1149 0b3d
00000110: 9b6a 56bc e88e 2cbc ae66 1bbc 59bc 9abc
00000120: 7898 8ebc 65c2 543b 4b4d 46bb 8b14 a33c
00000130: e81d 91bc a4cc 4abc e7b2 efbc e33e 92bc
00000140: 9b1f f13c f75c 38bc 9eda 61bc 4ec1 4c3c
00000150: 5585 36bc 76de aabc a850 ecbc d58f bc3c
00000160: cbe5 253d ff0f 8a3c 2b34 6b3a a6d4 07bc
00000170: 11c1 13bd 9a06 2ebc 64cf c2bc a713 83bb
00000180: 8d64 aa3c 624c be3a f6ec 683c d511 9f3c
00000190: 8da2 a7bc 65ba d7bb 5af0 86bb 2868 ad3c
000001a0: 67cf 2bbc 7a03 02bc fd26 a0bc ec76 573c
000001b0: 6ea8 c23c 6032 c1bb 4f86 193a be94 ae3c
000001c0: 38b7 8ebc adf3 dbbc adfd 433a a3a0 823c
000001d0: 4fd9 f8bc 2bb2 8bbc 4da9 a63c 8bac 2abb
000001e0: fe41 e0bc 89f2 0bbd 5c47 05bc 8052 abbc
000001f0: 9bc8 9438 3784 e23b aea4 763c eb93 3fbb
0.0321853 -0.016509222 0.017085765 -0.029805224 -0.018653393 0.02093983 0.02602802 -0.028023543
-0.031533137 -0.020835364 -0.02839953 0.025016181 -0.020744702 -0.018037919 0.0033529089 -0.026995562
0.016556969 -0.026546367 -0.0131622115 0.016380837 -0.008690657 -0.010673746 -0.030947678 -0.023242898
0.018128918 0.006161398 -0.024454748 -0.014365308 0.0184989 0.0010982516 0.019128412 0.009967421
0.015622688 0.030480046 0.015156709 -0.008675511 -0.026641577 0.0061565074 -0.002670635 0.010806274
0.021136835 0.012197771 -0.026813658 0.008230994 0.009289141 0.018210763 0.026513878 0.032971337
-0.021221314 -0.009031085 0.02432467 -0.007291636 -0.01313992 -0.00026870385 -0.008576639 0.021946616
0.016228352 -0.002759861 0.0010717601 0.014584492 -0.021101952 -0.025041018 0.0032655662 0.007718846
0.008352588 -0.024640776 -0.017178586 0.03400523 -0.01308694 -0.010532118 -0.00948493 -0.01888864
-0.017406687 0.00324645 -0.0030258473 0.019907257 -0.017714456 -0.012377892 -0.029260112 -0.017852252
0.029434016 -0.011252633 -0.013785033 0.012497259 -0.011140187 -0.02085803 -0.028847054 0.023017803
0.04050235 0.01685333 0.0008972312 -0.008290445 -0.036072794 -0.010621691 -0.023780532 -0.0040001455
0.0207999 0.0014518613 0.014216652 0.019417683 -0.020463252 -0.0065834993 -0.0041180076 0.02116783
-0.01048646 -0.007935399 -0.019549841 0.013150912 0.023761954 -0.0058958977 0.00058565004 0.02131116
-0.01742135 -0.026849592 0.00074764603 0.015945738 -0.030377058 -0.01705273 0.0203444 -0.0026042785
-0.027375218 -0.034166846 -0.008134689 -0.020913363 7.0945556e-05 0.006912734 0.015053911 -0.0029232453

gru_fc.weight f4 [128, 2]
00000000: 70d8 15bf 92ef 11be 34f7 303e c404 cdbe
00000010: e8a9 35bf b3a7 093e e828 26bf f469 bb3e
00000020: 148b 12bd 3d5f 2bbf 75bb bd3c f8ed 26bf
00000030: f020 283f a0c7 313f 2d8b b23e faa8 da3e
00000040: feb2 b2be d04f 013f 3071 3a3e b489 153f
00000050: 36d0 153f adc6 77be 574d 223e 782c 00bf
00000060: 35a0 633a e228 22bf b0e4 26bf 0ad0 c9be
00000070: dca7 9f3e 49c1 18bf 3357 203f ac8f a93e
00000080: 29a5 0e3f c63d 133f 3fdf babe 4ab9 913e
00000090: 726f 0cbf f748 aebe 1271 5d3e 1a4e dabe
000000a0: 9592 be3e 44b9 edbe 11cb cf3e fac9 59be
000000b0: c604 7a3e f28f 21bf d461 1e3f 2dbe 9fbe
000000c0: 9299 333e 8374 273f 122d 8fbd d72a e03e
000000d0: c080 cabd c829 0cbe 278c dd3e a1fe 89bd
000000e0: 008c 153f 5a81 e03e 96ae 85be 2a10 15bf
000000f0: 9bac 25bf 8af9 ffbe f051 c6bd 0df1 40be
00000100: 3d63 b4be e947 77bc b039 14bf 3790 31be
00000110: 6aa4 b9bd 3fc4 2fbf 16b3 9abd 588a e73e
00000120: 3b4e 653c b4f2 4c3e f907 e6bd 4cc9 f63e
00000130: 76eb 12be 115b 023f 6d96 263f c347 08bd
00000140: 699b df3b d6b4 053f 6290 0b3f 79fe 17be
00000150: 45ac ca3d 4a74 a7be 40e7 dc3c 8659 5bbd
00000160: 2da8 aebe ba76 8cbd 0ac9 d63d 19fd c73e
00000170: a594 c13d bcc4 3abe 8457 abbd f6da a83e
00000180: cbe6 87be 422c 9ebe b472 bdbe 95f6 c53e
00000190: 9588 f2bd 00f7 d33e 83c4 acbd bf98 273e
000001a0: 03c2 0dbd ff12 f7be e9f1 abbe 3f6f 2fbe
000001b0: 1c92 64be 981b babe 8c6a 773e 61c5 163e
000001c0: fc80 c53e 1231 a8be 6ed0 123f 3ecd ad3d
000001d0: ce24 343f d13c 223f c0fe 433e 2259 063f
000001e0: 4aba 86be f73d 36bf ab6d cb3e cd89 bd3e
000001f0: 4ffc b2be 8211 1b3e 4a03 8ebe 2318 f33d
00000200: fa99 22bf bb59 e8bc f055 e13e 3858 003f
00000210: 513f babe 854c d2be 7c74 cabe cec5 cf3b
00000220: c72e 963e 9dde d03e c041 a43e fd93 87bd
00000230: 9234 23bf 9e6e 383e 981a b1be d6a0 abbe
00000240: f8e5 c53e 33d3 933e 7cef 13bf 84c8 9bbe
00000250: 907d 9d3e a0e5 e4be c1ff bd3e 8245 0a3f
00000260: e688 e9bc 0b70 50bd d386 dabe 2bed 1fbf
00000270: 95c4 213e ac18 023f adde 82be e23c 173f
00000280: 56b9 4ebe 680b 90be 4498 abbd 3fbe 363d
00000290: 32bf 1bbf 1309 ec3e 23cb 8ebd 2e08 e4bd
000002a0: d5c4 113f 610a aabe bddb 9a3e 278e e33e
000002b0: c4cc 1e3f 7b30 d7be 68e4 a93e 6f07 123f
000002c0: 1eb6 f3be 93ed 1abe 41d2 6a3e 9e5a 04bf
000002d0: 7fc3 873d f80e 183f 5753 9ebe 1704 023e
000002e0: f73a 1c3f 50ae 9cbe 7f71 163e 059d 26bf
000002f0: 6ce7 023f 2da3 183f 8c5e 06bf cf87 f93e
00000300: c739 853e 3013 fbbe bbca 2ebf b4d4 26bf
00000310: 4d06 313f 5784 df3e 57d8 233e 8406 d63e
00000320: 3f7e ab3e 898d eebe 0125 e3bd 7deb 7f3d
00000330: 89a4 8b3e 2742 603e 7e03 173f 6ca8 e63e
00000340: 3f06 513e 1f44 a1bd ff0f b33e b730 0f3f
00000350: 807d 25bf 1f4c 293f b0fb 8f3e a393 483e
00000360: 7d99 b6be fab4 dd3e 893a fe3e 7b57 1c3f
00000370: 7d45 1bbf 3d9c 06bf 8cb7 753d 1af1 a7be
00000380: b8f0 85be 148f f23e 69d2 e2be b216 d43e
00000390: 0a6e 2bbf 2d13 933d 98d6 90bd f50b cbbe
000003a0: 156c 0cbf c792 53bd 4899 afbc ccf4 2b3f
000003b0: d7ac 903e 412c c5be ad7b 033f 0065 903e
000003c0: d0c8 80be 6dd3 cabe 947e c4be 977e 21be
000003d0: 4670 533e 84c0 d1be 552b 82be 8b3f a8be
000003e0: 8d77 283f 289e 34bf 653b 95be 0880 273e
000003f0: 6937 edbe ccfd 8e3c 3d4e 283e d2d4 c63e
-0.5853338 -0.14251545 0.172818 -0.40042698 -0.7096238 0.13442878 -0.6490617 0.36604273
-0.035777166 -0.669422 0.023160676 -0.6520686 0.6567526 0.6944523 0.34871808 0.42707044
-0.34902185 0.5051241 0.1820724 0.58413243 0.5852083 -0.24196883 0.15849815 -0.50067854
0.00086832355 -0.6334363 -0.651927 -0.39416534 0.31182754 -0.5966993 0.62633055 0.33117425
0.55720764 0.57516134 -0.36498448 0.28461677 -0.5485755 -0.34040043 0.21625164 -0.42637712
0.37221208 -0.4643041 0.40584615 -0.21268454 0.24415883 -0.6311027 0.61868024 -0.3119978
0.17539051 0.6541216 -0.06991018 0.43782684 -0.09887838 -0.13687813 0.4327099 -0.0673802
0.5841675 0.43848687 -0.2610976 -0.5822779 -0.647165 -0.4999507 -0.09683597 -0.18841954
-0.35231963 -0.015092828 -0.57900524 -0.1734017 -0.090645626 -0.6865882 -0.07553689 0.45222735
0.013995702 0.20014459 -0.112319894 0.48200452 -0.14347634 0.50920206 0.6507328 -0.033271562
0.0068239463 0.5222906 0.54517186 -0.14843167 0.09896139 -0.3270591 0.026965737 -0.053552173
-0.34112683 -0.06858583 0.10487564 0.39060286 0.0945218 -0.1823911 -0.08366302 0.32979554
-0.2654327 -0.3089314 -0.37001574 0.3866469 -0.11842457 0.41399384 -0.08435919 0.16366862
-0.034608852 -0.4825668 -0.33583 -0.17132281 -0.22321361 -0.36349177 0.24161738 0.14723732
0.3857497 -0.32849938 0.5734929 0.084864125 0.7036866 0.6337405 0.19140148 0.52479756
-0.26314002 -0.711883 0.39732108 0.37019196 -0.3495812 0.15143397 -0.27736884 0.11869838
-0.635162 -0.0283631 0.44010878 0.5013461 -0.36376432 -0.41074005 -0.39541996 0.006340719
0.29332563 0.4079484 0.32081413 -0.066200234 -0.6375209 0.18010947 -0.34590602 -0.33521146
0.38652015 0.2887207 -0.577873 -0.3042642 0.3075986 -0.4470644 0.37109187 0.5401231
-0.028507661 -0.050888103 -0.42680988 -0.62471265 0.15797646 0.50818896 -0.25560513 0.59077275
-0.20187888 -0.28133702 -0.08378652 0.044615027 -0.60838616 0.46100673 -0.06972339 -0.11134373
0.56940967 -0.33211043 0.30245772 0.4444439 0.620312 -0.42029175 0.33182073 0.5704259
-0.47599882 -0.1512969 0.22931768 -0.5170077 0.06629085 0.5939784 -0.30922958 0.12696873
0.61027473 -0.3060174 0.14691733 -0.6508334 0.5113437 0.59623986 -0.5248802 0.48736426
0.26020643 -0.49038076 -0.6827809 -0.6516831 0.6915024 0.43655655 0.16000496 0.41801846
0.33494756 -0.46592358 -0.11091042 0.06248044 0.27273968 0.21900235 0.58989704 0.4505037
0.20412539 -0.07874321 0.34973142 0.5593371 -0.6464462 0.66131777 0.2812171 0.19587569
-0.35663977 0.43302137 0.49654034 0.61070985 -0.60652906 -0.5258215 0.059989497 -0.32801133
-0.26160216 0.47374785 -0.44301155 0.41423565 -0.6696478 0.07181392 -0.070721805 -0.3965756
-0.5485242 -0.05165365 -0.021435395 0.67170405 0.28256866 -0.38510326 0.5136059 0.28202057
-0.25153208 -0.3961443 -0.3837782 -0.15770946 0.20648298 -0.4096719 -0.25423685 -0.3286098
0.6580742 -0.7055383 -0.29146877 0.16357434 -0.46331337 0.017455004 0.16436096 0.38834244

gru_fc.bias f4 [128]
00000000: d6f2 5fbe 0b25 b13e d281 063f 9b4a c6bd
00000010: 7d81 b9be f80f a2be c234 1c3f 2959 1ebf
00000020: f4cd 40bd 0f50 59be 416d 813e 6984 99be
00000030: daf0 3bbe 21b6 2abf c25c f33e 6a26 213f
00000040: c560 e9be 617b 1d3f a3e9 f4bb e997 1fbf
00000050: 43ed 88be 83b2 d53e 298c 113f b444 06bf
00000060: febc 37be ac73 e53e 0554 d83e 1f0c b93e
00000070: ae1a c73e f5ce 0f3f c434 30bf 20ec 0e3f
00000080: e2ba 933e ee46 c23e 82a3 c03c 3cd0 6dbd
00000090: 3fe7 edbe a6ab 263e f23e 5e3e 845f 133e
000000a0: 5ed0 913e e0cb 7fbe 82e9 163f 3e69 263e
000000b0: cdfc f63e da59 e4be b145 2ebf f568 e83c
000000c0: 0b6d 323f c1e7 2cbf 7b53 dd3d f12a 16bf
000000d0: fa71 383e 8cdf c9be 6207 15bf 4092 803e
000000e0: 1aaf 183f 2614 d53d ec46 a83d 63bc 82be
000000f0: 313a b33e f550 243e 2dbb 24bf 8ef8 3b3d
00000100: 627e 8cbe 32f7 a7be 6f3c 743e eaf4 1ebf
00000110: 1b3e 90be f725 60be b992 a23e c53b dc3e
00000120: 3795 f03e 5cae 093f f682 f63e 5bb5 13bf
00000130: 6836 e5be 6f4d 143f 1ccd 17bf 9a78 23bf
00000140: 93a4 893c 9433 e03e efb5 10bf ad1a bb3e
00000150: 80b7 ee3e 9436 1abf 0324 a93e 3aaf 1dbf
00000160: 1669 0fbf 7cd4 e33d 1a2c 8e3e c034 b9bd
00000170: 8f2b fc3c c077 833d 9f34 33bf ab44 15bf
00000180: a1e9 26bf 65af a83e fa18 aabe eb35 debc
00000190: 8f1f 213e fe0b 343f 84c7 c73e 2e46 2ebf
000001a0: 13d6 d63c 222b e4be 37b7 5a3e f256 f6bd
000001b0: c2de 90be d12f 1e3c ace1 05bf fabc a03e
000001c0: 5541 74be 626a e53e 10a4 5bbe 5600 4b3e
000001d0: a084 1f3f 5fb5 9cbe 619d 26be a76f f13d
000001e0: e612 ed3e ee80 ba3e 6794 003e 6071 65bc
000001f0: ab8a 323f 31f2 143f d452 c8be 9d80 883e
-0.21869978 0.34598574 0.5254184 -0.096821986 -0.36231604 -0.31652808 0.61018 -0.618548
-0.047071412 -0.21221946 0.25278667 -0.29983833 -0.18353596 -0.66684157 0.47531706 0.6294924
-0.45581642 0.61516386 -0.0074741407 -0.6234117 -0.26743516 0.41737756 0.5685449 -0.5244858
-0.17943189 0.44814813 0.42251602 0.3614206 0.38887542 0.56175166 -0.68830514 0.5582905
0.28853518 0.3794474 0.023515467 -0.058059916 -0.4646549 0.16276416 0.21703699 0.14391905
0.28479284 -0.24980116 0.58950055 0.16251084 0.48239747 -0.445998 -0.6807509 0.02837036
0.69697636 -0.6754113 0.10806938 -0.58659273 0.18012229 -0.39428365 -0.5821439 0.2511158
0.59642184 0.10404234 0.08216652 -0.25534353 0.35005334 0.16046508 -0.6434811 0.045891337
-0.27440172 -0.32805783 0.23851179 -0.6209246 -0.28172383 -0.21889482 0.31752566 0.4301435
0.46988842 0.53781676 0.4814679 -0.576986 -0.4476807 0.57930654 -0.5929735 -0.638559
0.016802108 0.4378935 -0.5652761 0.3654379 0.46624374 -0.6023953 0.33035287 -0.615955
-0.56019723 0.111245126 0.27768022 -0.090432644 0.03078249 0.06419325 -0.7000217 -0.58307904
-0.6520024 0.32946315 -0.3322218 -0.02712532 0.15734695 0.703308 0.39019406 -0.68075836
0.026225125 -0.44564158 0.21358953 -0.12028302 -0.2829495 0.009654955 -0.5229747 0.31394178
-0.23853047 0.44807726 -0.21449304 0.19824347 0.62311745 -0.30607125 -0.16270973 0.11788874
0.4630348 0.3642649 0.12556611 -0.0140040815 0.6974284 0.58182055 -0.39125693 0.26660624

attn_fc.weight f4 [1, 128]
00000000: 7214 b1bd 878e 3f3d fcf7 7cbd aad8 08bd
00000010: 03a1 7dbd db8d b1bb 19d3 ab3c c6f4 11bd
00000020: da97 333c 0144 693a 12c3 85bb 7c3a 42bd
00000030: f979 0d3c 0ed5 373d b7d3 51bc 61f4 03bb
00000040: c78a a63c bec5 17bc 0920 943c 8b91 96bd
00000050: d142 603d 1eae 8cbd b7d8 fabc 79fb 84bd
00000060: e51a 6e3d 9a91 753d cf3a 043d e6d6 793d
00000070: 021c da3c e921 debb a1d0 183c 9dfe 8cbd
00000080: 1598 a83d 15bb 4a3d 44c4 9bbd 62d5 993d
00000090: 98f6 8cbd 9b22 8d3d 6e4b 053d 60af 623c
000000a0: bada fdbc 9d58 963c 6568 eb3c 93a4 e03c
000000b0: fda0 19bd a1b3 28bc 2575 963d 365d a03c
000000c0: 2e98 873d be27 903d a7ea 763d 1af2 163c
000000d0: 328b a03d 3cc8 9f3d 3fd0 7a3d 59f9 96bd
000000e0: ec2a 403a ad99 543d f153 89bd 2dec 4a3d
000000f0: 785f 95bd 415a 303a e8eb 473d ea7c 8b3d
00000100: 62bd 5abd 7895 293d da15 973c 104f 7ebd
00000110: 09ec 9bbd 2c63 c2bb 0772 1b3a dc80 373c
00000120: 3507 4a3d d019 a4bd 5c59 063d aecf 9cbc
00000130: 123b 4c3d 36e4 f13b 13fc 463a fe3c 32bb
00000140: dadd 17bd a87d 4abd 2a84 2ebd 93d8 b5bd
00000150: 85d5 f8bc 45a8 fcbc 7b4f 21bd 661d 90bd
00000160: 7a9a bebd 6895 1abd db17 a1bd 5946 0cbd
00000170: d24a 72bd c2fa 4f3d 2514 3f3d 51df 6bbd
00000180: 143e 0cbd 2acd 373d f57c efba c27e 1dbd
00000190: 002d 8b3d 8409 863d 87ad 723c 0613 8d3d
000001a0: 2042 b53d 8584 86bc 91f3 66bd fe4d e0bc
000001b0: 3b77 c6bc b0ab a73c edff 473b cfb6 59bd
000001c0: 8364 933c 0dfd 083d 780b 00bd c42b 543d
000001d0: d66e 0e3d e89a b73d e103 82bd 0dd6 14bd
000001e0: 4a0b 87bd 5f6d acbd 1e05 89bc f73e 743c
000001f0: 6ca5 333d d526 b33c fe0e c4ba a39f a03d
-0.08646478 0.046766784 -0.061759934 -0.033409752 -0.06192113 -0.005418522 0.020974683 -0.035633825
0.010961497 0.0008898378 -0.004082092 -0.047419056 0.008635038 0.04488092 -0.012806824 -0.0020134675
0.020329846 -0.009263454 0.018081682 -0.07351979 0.05475122 -0.06869148 -0.030620916 -0.06493277
0.058131117 0.05995331 0.032282647 0.06099596 0.026624683 -0.0067789447 0.009327085 -0.06884501
0.08232132 0.04949482 -0.07605794 0.07511403 -0.068829715 0.06891366 0.03254264 0.013835758
-0.030988086 0.018352801 0.028736303 0.027422225 -0.037507046 -0.010296733 0.07346562 0.019575696
0.06620823 0.0703883 0.060282376 0.009212995 0.078390494 0.078018636 0.061233755 -0.07371778
0.00073306146 0.05190437 -0.06705464 0.04954164 -0.072936 0.0006727316 0.048808962 0.06810935
-0.053403266 0.04140231 0.018443037 -0.06208712 -0.076133795 -0.0059322324 0.0005929772 0.011200156
0.04932328 -0.08012736 0.032800063 -0.019141998 0.04986102 0.007381941 0.00075906626 -0.0027196999
-0.03707681 -0.04943624 -0.04260651 -0.08879199 -0.030375252 -0.030841956 -0.03938244 -0.07036857
-0.09306808 -0.03774014 -0.07865878 -0.034246776 -0.059153385 0.05077625 0.04665007 -0.057586018
-0.03423889 0.044873394 -0.0018271493 -0.038450964 0.067956924 0.06544784 0.01481188 0.06888394
0.08850503 -0.016420612 -0.056384627 -0.02738094 -0.024226775 0.02046761 0.0030517534 -0.053152855
0.017992264 0.033444453 -0.031260937 0.05179955 0.03477367 0.08965093 -0.06348396 -0.036336947
-0.0659395 -0.084192984 -0.016726073 0.01490759 0.04385893 0.021869102 -0.0014958081 0.07842948

fc1.weight f4 [128, 128]
00000000: 462b 1fbd 10af b7bd 6f4f b33c bb7e 49bc
00000010: b6b1 e73c df66 24bd c92a a33d 80c4 9ebd
00000020: 8e5e e1bb 5484 383b 6685 9dbd 2bc2 91bd
00000030: 0476 93bd 68c0 d23b 1f2f 4bbd 6e10 e1ba
00000040: d2c1 bd3d fc4b 233d 3771 033d c63e 86bb
00000050: 96ee a8bd 9938 bcbc c939 43bc 1977 a3bd
00000060: 9fd8 033d bf80 a93d a699 c4bc cb8f 8bbd
00000070: 7e7d 5abc ce3d a6bd 11f9 9cbc 00a0 513d
00000080: 765a 3bba 0c52 3d3c 9061 5fbd 5077 bfbc
00000090: 5d2b 583d 7ab8 41bd 5052 8cbd 9330 4eb9
000000a0: ca83 383d 6761 953d f388 17bd 7f94 05bd
000000b0: 7ab4 2cbd a217 a2bc 8b5b a9bd e8ff 45bb
000000c0: 3187 803c 723e 90bd 0d70 383d d7dc 9dbc
000000d0: 3ac3 c0bd 330d 98bd 0a52 4abd 1dd8 c7bc
000000e0: 2605 243d ef59 a1bd 69ed 63bd dcf1 65bd
000000f0: 12d0 88bc f2e4 88bd 1fed 923d 3ce6 ae3d
00000100: 42c2 88bd 22c9 d03c 1415 8e3d 49b7 6c3d
00000110: bd8c 18bd 00be 0a3b 4635 c8bc f75e 553d
00000120: 9c1c 983d db96 aebd 9f87 a13d c666 58bd
00000130: 7ef5 ce3c 62f4 aa3b 6175 453d 4eef 82bd
00000140: 71c9 a9bd 768e 1e3d c4b7 99bd 2dea 9c3d
00000150: 1f9b 023d 940c 783c 7fee b33c 16df 743a
00000160: a48a 4abc 9a67 acbd e9fc c73c 5b4d ac3d
00000170: 3477 543d 7e57 abbb 9aac 37bd f0c5 e43b
00000180: 6236 a33d ed6e 10bc e1f1 12bd 2de0 743c
00000190: 5b60 ebbc 82b2 893c 374b bb3b 97c1 4bbd
000001a0: e6f8 c63c 1004 c7bc 5320 9c3d 2d1a 18bc
000001b0: 55a8 d9bc b3b3 873d 55f9 b53d 3f9b b23c
000001c0: b3f8 31bb cad1 463c 84ce 383c 3d64 a1ba
000001d0: 007c 53bd d299 2dbd 095e 89bd 8fc1 98bd
000001e0: cd5a 12bc 963e 923d 25a1 383d 60ed 6fbc
000001f0: 5f9f 683d 3c83 1fbd bdaf 0cbd 4083 a63d
00000200: 88d1 96bd a41e 3fbd bae9 763d a423 ed3c
00000210: c6df 99bd a729 963d 64f8 bdbc 2002 1cbb
00000220: 4615 25bd 9cc0 d0bc 2e4e b4bd a02d a13c
00000230: a2a0 5c3d f68b 8dbd 1278 333d 74dc be3c
00000240: 0059 9e3c 0548 0ebd 90f6 b4bb ddbc 24bd
00000250: 8cfa 9f3c 1dfc a53d 5778 9ebd 0915 a63d
00000260: a82e 493c f01f cc3c d0fc babb b86b a3bd
00000270: a4b6 77bd bc32 11bd 80ef a63b 9808 68bc
00000280: c67d 3d3d c0c1 503c 20fb 773b fe73 7a3d
00000290: 160c 4f3d 4862 b73c cf7a a23d 8c88 7fbd
000002a0: 9dbe 9e3d e025 be3b 9064 8cbd bf29 ab3d
000002b0: f05e 1b3c f2d1 793d 4a81 343d 8aee 1d3d
000002c0: 9086 f03b 852b a23d 70c6 0abd 4d32 2dbd
000002d0: 1ae4 543d 3c44 88bc 9265 82bd 63b4 87bd
000002e0: b0c1 81bd 0620 7ebd 0ab2 3fbd f238 86bd
000002f0: 9eeb afbd c1bb a63d a6ec 1d3d acb3 39bd
00000300: 02ac 0ebd 7868 a0bd 80cd 1bbc 6414 9d3c
00000310: b200 693d 72e8 463d 722a abbd 647b 3fbd
00000320: c316 4ebd c917 8c3d 1076 893b c05a 26bb
00000330: 27ac 803d 00c5 8f3b 1e90 13bd 2d9b ad3d
00000340: 3159 adbd e044 31bd bfcd 33bd 1e64 283d
00000350: 10c9 99bd 3817 34bc 4119 3ebd 6ce1 96bd
00000360: f0e1 8e3b 084f a9bd 6c2e fd3c 10a5 a6bb
00000370: e041 353b d82d 753c 0049 0b3d c28f 6e3d
00000380: 98bd 80bd 6204 b1bd 684b afbc 8330 853d
00000390: e5cb 983d e0df 443b 34b8 b8bc 98de 28bc
000003a0: 926c 87bd 9c3d 94bd 6a67 053d aad7 3b3d
000003b0: 0369 40bd 7118 92bd f3e0 9e3d 67e7 97bd
000003c0: de51 533d e440 a93c 4cc7 e63c 020a 473d
000003d0: b004 57bc 148f f4bc 30b5 b33c 50a4 943b
000003e0: 9a02 6c3d 52f6 acbd 3e6f a0bd 4b69 a0bd
000003f0: 984c 5c3c f64f e1bc c065 e0ba 08d7 70bc
-0.03885963 -0.089689374 0.021888463 -0.012298281 0.028282981 -0.040137168 0.07967145 -0.07752323
-0.006877727 0.0028155046 -0.07691459 -0.07117113 -0.07200244 0.006431628 -0.049605485 -0.0017171034
0.09265484 0.039867386 0.032090392 -0.0040968386 -0.08248632 -0.022976207 -0.0119156325 -0.079817005
0.032189008 0.082765095 -0.023999047 -0.06814536 -0.013335584 -0.08117257 -0.019161733 0.05117798
-0.00071469636 0.011555206 -0.054536402 -0.023372322 0.05277573 -0.04729507 -0.06851637 -0.00019663786
0.04504756 0.07293969 -0.03699584 -0.03261232 -0.042164303 -0.01978666 -0.082694136 -0.0030212346
0.015689464 -0.070431605 0.045028735 -0.019270344 -0.094122365 -0.074243926 -0.049394645 -0.024395043
0.040043972 -0.078784816 -0.055646334 -0.05613886 -0.016700778 -0.06684293 0.071741335 0.085400075
-0.06677677 0.025486533 0.06937614 0.05779198 -0.037243593 0.0021170378 -0.024439465 0.05209252
0.07427332 -0.08524867 0.07887196 -0.052832387 0.025263544 0.005217121 0.048207644 -0.063933
-0.08290375 0.03871008 -0.07505754 0.07661853 0.031886216 0.015139718 0.02196431 0.0009341104
-0.012362156 -0.08418198 0.02441259 0.08413192 0.051871493 -0.0052289357 -0.04484234 0.006981604
0.07969357 -0.008815509 -0.035875205 0.014946026 -0.02873247 0.016808752 0.0057157534 -0.04974517
0.024288606 -0.02429393 0.07623353 -0.009283585 -0.026569525 0.06626072 0.08885447 0.021802543
-0.0027156293 0.012134979 0.011279706 -0.0012313199 -0.051631927 -0.042383023 -0.06707389 -0.07458793
-0.008932781 0.071408436 0.045075554 -0.014643997 0.056792613 -0.038943514 -0.034347285 0.08130503
-0.07364184 -0.04666008 0.060281493 0.028947659 -0.075133845 0.07332163 -0.023189731 -0.0023804978
-0.04030349 -0.025482468 -0.08803974 0.019675076 0.05386413 -0.06911461 0.04381568 0.02329848
0.019329548 -0.034736652 -0.0055225566 -0.040219177 0.01952865 0.081047274 -0.07737797 0.08109481
0.01227919 0.024917573 -0.005706407 -0.0797953 -0.060476914 -0.035448775 0.0050944686 -0.014162205
0.046262525 0.012741506 0.003783889 0.061145775 0.050548635 0.022385731 0.0793358 -0.06238608
0.077512 0.005802855 -0.06855118 0.08357572 0.009483084 0.060991235 0.044068612 0.038557567
0.00734026 0.07918457 -0.03388065 -0.0422843 0.051975347 -0.0166341 -0.06367029 -0.06626203
-0.06335771 -0.06204226 -0.04680065 -0.0655383 -0.08589862 0.0814128 0.038555764 -0.045337364
-0.03483201 -0.07832426 -0.009509444 0.019174762 0.05688543 0.04856152 -0.08357705 -0.046748534
-0.050314676 0.06840474 0.0041949823 -0.002538368 0.062828355 0.004387498 -0.036026113 0.08476863
-0.084642775 -0.043278575 -0.043897387 0.041111104 -0.07509053 -0.010991864 -0.046410803 -0.073672146
0.00436043 -0.08267027 0.030905925 -0.005085595 0.0027657673 0.014964543 0.034005165 0.058242567
-0.06286162 -0.08643414 -0.021398261 0.065033935 0.07460765 0.0030040666 -0.022548772 -0.010306977
-0.06612505 -0.072383136 0.032569326 0.04585997 -0.046975147 -0.07133568 0.077577494 -0.07417183
0.051591747 0.020660825 0.028171204 0.04859353 -0.013123676 -0.029853381 0.021936983 0.004536189
0.05761967 -0.08445419 -0.07833718 -0.07832583 0.013445996 -0.027503949 -0.0017120168 -0.014699705

fc1.bias f4 [128]
00000000: 4967 de3c c0e4 efbc d0fa 92bb a114 65bd
00000010: 98a9 95bc bb58 a1bd 5292 d2bc 2c64 d03c
00000020: 0197 8b3d 9b93 53bd 14c6 443d 0170 cf3c
00000030: 35ba 20bd b6a2 363d 4a1c 5ebd 5240 37bc
00000040: f8b1 aebc 2032 fe3b 9624 983d 0f98 c73c
00000050: ad4e 96bd a15f 803d e03c df3c 4ce1 b2bc
00000060: db17 8dbd 7802 443d 343e dbbc e03f 273c
00000070: da8b 0e3c fdd2 1fbd 1ac6 44bd dbae b23d
00000080: fe94 76bd 9ddb 8b3d 2246 7dbc b466 e0bc
00000090: 8a24 24ba 9b26 483d f870 aa3d 83eb e33c
000000a0: dc95 47bd 8d93 86bd 50e9 11bd 1a17 5dbd
000000b0: 38a4 4c3c 86e1 fa3c 3048 abbd f093 8bbd
000000c0: 8171 1b3d d8bd 023d a20f 183d 36ac a3bd
000000d0: c9e8 043c 03de 42bd 970b 883d 28bd 79bd
000000e0: 4ef9 b03d cc2e 82bd 1a0f 563d 52e2 523d
000000f0: e011 773d 02b4 063d c699 4abd 6e75 6e3d
00000100: 0d0c 1a3d 27f7 af3d a452 0d3d 1c3d b6bc
00000110: 66e6 6d3d 6184 ccbc 72be 87bc d97d e73c
00000120: 73b5 343c 00fc f53b 9c02 c43d f4db c43c
00000130: 6ca2 59bd 5787 f7bc 236b 5b3d 427f 3dbd
00000140: 6c33 da3a 2709 b2bd 917e 73bd cee7 503d
00000150: 8d5b abbc 70ba 30bd f0da 273d 80f0 80bc
00000160: a828 113d 52b9 bb3c 0288 4b3d cc97 f2bc
00000170: a51b 34bd e2ed 393d 0e79 9ebd bec6 6abd
00000180: e97a 053d e31e 81bd 7f60 94bd 1ab6 27bd
00000190: 8c88 3c3d a7cc ca3c b86c 19bd d6fc 6d3d
000001a0: fc4e afbc f15c 3e3c ebe7 b23d dce3 9abd
000001b0: 0a10 af3d c889 90bd 8023 56bb b2cc 963d
000001c0: e342 9fbd 0068 4bb9 20dd 9abd e022 853d
000001d0: 8cf4 e4bc a5e3 a33d dae3 8cbd 7dd3 b23c
000001e0: c135 803c ce2c 6abd d043 21bc 1d78 6a3d
000001f0: 1e73 6a3d 1a5a e63c c4bc 183d 162b 983d
0.02714886 -0.029283881 -0.0044854656 -0.055927876 -0.018269345 -0.07878252 -0.025704537 0.02543839
0.06815911 -0.05165444 0.048040465 0.025321962 -0.03924008 0.044588767 -0.054226197 -0.011184769
-0.021325096 0.00775744 0.07428853 0.0243645 -0.07339225 0.0626824 0.027250707 -0.021835946
-0.06889316 0.047853917 -0.02676306 0.0102081 0.008700335 -0.039019573 -0.048040487 0.08724757
-0.060200684 0.06828997 -0.0154586155 -0.027392723 -0.0006261548 0.048864942 0.08322328 0.027822262
-0.0487269 -0.06571112 -0.035622895 -0.05397711 0.012490325 0.030625116 -0.08363378 -0.06815326
0.037950043 0.03191933 0.037124284 -0.07991831 0.008112141 -0.047575008 0.066428356 -0.06097141
0.08641301 -0.06356582 0.052260496 0.051485367 0.06031978 0.032886513 -0.049463056 0.05821746
0.03760915 0.085920624 0.03450264 -0.022245936 0.058081053 -0.024965467 -0.016570304 0.028258251
0.011029589 0.0075068474 0.0957081 0.024030663 -0.053133413 -0.030215902 0.05356897 -0.04626394
0.0016647405 -0.08693152 -0.059446875 0.051002316 -0.020917678 -0.04314655 0.04098028 -0.01573968
0.035439163 0.022915516 0.049690254 -0.029613398 -0.043971676 0.04539288 -0.07737933 -0.05731844
0.03258792 -0.06304719 -0.07244968 -0.04094515 0.04602866 0.024755789 -0.037457198 0.05810245
-0.021399967 0.011618839 0.08735641 -0.07562992 0.08547981 -0.0705753 -0.0032674968 0.07363261
-0.077764295 -0.00019398332 -0.075617075 0.065007925 -0.02794864 0.08002404 -0.06879397 0.021829361
0.015650632 -0.057171635 -0.009842828 0.057243455 0.05723869 0.028119136 0.037289396 0.07430093
