best/timestep_50_att_prediction_model.pth (torch, 860208 bytes, 22 tensors)

cnn.0.weight f4 [8, 3, 2]
0	0xbd0073f4	-0.03136058
1	0xbd4dab33	-0.050212096
2	0x3ebdc428	0.37063718
3	0x3d785092	0.060623713
4	0x3ebbfd1e	0.3671655
5	0xbe19f416	-0.15034518
6	0x3e8799bc	0.26484478
7	0xbe9e8b9b	-0.30965886
8	0xbe88f17a	-0.26746732
9	0x3d80c4dc	0.06287548
10	0xbeb7f695	-0.35930315
11	0x3db3f966	0.08787803
12	0x3e81f846	0.2538473
13	0xbe892b4a	-0.2679084
14	0xbe77b370	-0.24189544
15	0x3eb3c723	0.35112867
16	0xbe9d74e5	-0.30753246
17	0x3e5a9191	0.21344592
18	0x3cfffeff	0.031249521
19	0xbd96a67a	-0.07355972
20	0xbda08501	-0.078378685
21	0xbe94e4b8	-0.2908075
22	0xbe2bf50a	-0.16792694
23	0x3e5f5d8e	0.21813032
24	0xbd709db2	-0.05874414
25	0xbda3f4d6	-0.08005683
26	0x3df9b8b9	0.12193436
27	0xbe3b995d	-0.18320222
28	0x3df2095b	0.11818191
29	0xbea31bdf	-0.318572
30	0x3e8f6d9a	0.28013307
31	0xbd50a179	-0.050935242
32	0xbdeb7f5c	-0.11498901
33	0x3eac6864	0.33673394
34	0xbe349175	-0.17633612
35	0xbe2b3da0	-0.16722727
36	0x3ec99c73	0.39377174
37	0x3ca7b8b1	0.02047381
38	0xbe28cda4	-0.16484696
39	0xbe856648	-0.26054597
40	0xbd8b9b44	-0.06816724
41	0x3d231107	0.03981116
42	0xbdd35e91	-0.103207715
43	0x3c3e23c2	0.011605205
44	0x3e198b64	0.1499458
45	0xbea3de5b	-0.3200558
46	0xbe8a2853	-0.2698389
47	0x3c3cae87	0.01151622

cnn.0.bias f4 [8]
0	0xbe97f086	-0.29675692
1	0xbe6f7202	-0.23383334
2	0xbe7165ba	-0.23573962
3	0x3e45d949	0.19321169
4	0x3eaf4558	0.34232593
5	0xbe68efa5	-0.22747667
6	0x3d8c5cae	0.06853615
7	0xbd57f04f	-0.05271941

cnn.2.weight f4 [16, 8, 2]
0	0xbe2a35ef	-0.16622137
1	0x3d8f9acf	0.07011949
2	0xbc6757b7	-0.014120034
3	0xbc5ae6cb	-0.013360689
4	0x3d963132	0.07333602
5	0xbe71d70a	-0.23617187
6	0x3dac9ffa	0.084289506
7	0xbe533f0e	-0.20629522
8	0xbc1dc712	-0.009629982
9	0x3de87259	0.11349935
10	0xbe1987e4	-0.14993244
11	0x3e11edad	0.14250822
12	0xbde657a1	-0.11247183
13	0xbdb1bf72	-0.086790934
14	0x3d6499f7	0.055810895
15	0xbe33d841	-0.17562963
16	0x3e6bbd27	0.23021375
17	0xbe2c9068	-0.16851962
18	0x3def0bae	0.116721496
19	0xbcd187e4	-0.025577493
20	0xbe463c97	-0.1935905
21	0xbb585c0e	-0.0033013853
22	0x3da7554e	0.081705675
23	0xbe2e2a7e	-0.17008397
24	0x3e0f9396	0.14021143
25	0xbe16c9da	-0.14725438
26	0x3c8361f2	0.016037915
27	0x3e2f0606	0.17092142
28	0x3e68ae8b	0.22722833
29	0x3e3c173c	0.18368238
30	0xbc8b1832	-0.01697931
31	0xbdcb4acb	-0.09926375
32	0xbddabe65	-0.10680846
33	0x3e3a92b6	0.18220028
34	0xbe5eecbd	-0.21769996
35	0xbd5ecdd9	-0.05439553
36	0xbc2a56b2	-0.010396646
37	0x3d9986ae	0.07496391
38	0x3c815b33	0.015790557
39	0x3e28f473	0.164995
40	0xbe2a09fa	-0.16605368
41	0x3d627a85	0.055292625
42	0xbe2edf62	-0.17077401
43	0xbe78a2e8	-0.24280894
44	0x3d890dcb	0.06692084
45	0x3d8081b0	0.06274736
46	0x3da7e714	0.081983715
47	0xbe5e6974	-0.21719915
48	0xbe3bf620	-0.18355608
49	0xbde2fa11	-0.11082853
50	0xbe46987f	-0.1939411
51	0xbe3c7e4c	-0.18407553
52	0x3e193dcf	0.14964984
53	0xbb666f41	-0.0035161527
54	0xbd619b25	-0.055079598
55	0x3d549fa5	0.05191006
56	0xbdf1f98c	-0.118151754
57	0x3d8239c1	0.06358672
58	0xbe125917	-0.14291798
59	0xbe5a46ab	-0.2131602
60	0x3bb6cb55	0.0055784383
61	0x3e5f255a	0.21791592
62	0xbe45f2f6	-0.19330963
63	0x3dc1721a	0.09445591
64	0xbd7acbf3	-0.061229657
65	0x3d4fc5b5	0.050725657
66	0xbe504888	-0.20340168
67	0x3e0a910c	0.13531893
68	0xbd6a6782	-0.05722762
69	0x3e951431	0.29116967
70	0x3e08b2ee	0.13349506
71	0x3e461aad	0.19346114
72	0xbb7959bd	-0.0038047873
73	0x3e1caa91	0.15299441
74	0xbe3c0012	-0.18359402
75	0x3e635312	0.22199658
76	0x3e5140c3	0.20434861
77	0xbe51a3aa	-0.20472589
78	0x3e08a1df	0.13342999
79	0x3c06e1fc	0.00823259
80	0xbe5acead	-0.21367903
81	0x3e2e25cb	0.17006604
82	0xbd6d281b	-0.057899576
83	0xbe792f97	-0.2433456
84	0xbe97128b	-0.29506335
85	0x3c10a6fb	0.008828874
86	0xbe5904ee	-0.21193287
87	0x3e04f888	0.12985432
88	0x3dad95e1	0.08475853
89	0x3da0f610	0.07859433
90	0xbe445d37	-0.19176184
91	0x3e79dfca	0.24401775
92	0xbcfce260	-0.030869663
93	0x3e36c729	0.17849411
94	0xbe71db6a	-0.23618856
95	0xbda22f44	-0.079191715
96	0x3e7df997	0.24802242
97	0x3e80171c	0.2501763
98	0xbd8fc0d9	-0.07019205
99	0xbddee41e	-0.10883354
100	0xbddfe0fd	-0.10931585
101	0xbe4157e0	-0.18881178
102	0xbe0bae13	-0.13640623
103	0x3c426aba	0.011866266
104	0xbc8ed891	-0.017437251
105	0x3bd23827	0.0064153853
106	0x3e073096	0.13202128
107	0x3df542e1	0.11975647
108	0xbdc4ab4c	-0.09602985
109	0x3d0813ea	0.033222117
110	0x3e38bc8c	0.18040675
111	0x3db7b97b	0.089709245
112	0x3e28c55e	0.1648154
113	0x3e5895a6	0.21150836
114	0x3e858657	0.26079056
115	0xbdb02f14	-0.086027294
116	0xbe06c48a	-0.13160911
117	0x3daa2306	0.083074614
118	0x3e35565f	0.17708729
119	0xba2685f7	-0.000635236
120	0xbe5a0f67	-0.21294938
121	0xbe415741	-0.18880941
122	0x3dafe681	0.08588887
123	0x3e752394	0.23939353
124	0xbda3e764	-0.08003119
125	0x3e1919cd	0.14951248
126	0x3c2d5948	0.010580368
127	0x3e1d1000	0.15338135
128	0xbe03e97e	-0.12882039
129	0x3df1bf67	0.11804085
130	0x3d0291fa	0.031877495
131	0xbdc53df4	-0.09630957
132	0xbd8cca36	-0.06874506
133	0xbdacd4a0	-0.084389925
134	0x3e025f70	0.12731719
135	0xbdc1f1ca	-0.09469946
136	0x3dff75f4	0.1247367
137	0xbd8b33cd	-0.067969896
138	0xbda59f11	-0.0808698
139	0xbdd2a9a0	-0.1028626
140	0xbd6f6f50	-0.058455765
141	0x3a403bd6	0.0007333135
142	0xbe24bfdb	-0.16088812
143	0xbdfe6b07	-0.124227576
144	0x3e1591e5	0.14606436
145	0x3e402540	0.1876421
146	0xbdd0d56c	-0.10196957
147	0xbe164b54	-0.14677173
148	0x3e4286fa	0.18996802
149	0x3dd8d5c8	0.105876505
150	0x3e384c70	0.17997909
151	0x3daebc20	0.08531976
152	0x3e1e484d	0.15457268
153	0xbe00c53b	-0.12575237
154	0x3cf770a3	0.030205077
155	0x3e7be191	0.24597766
156	0xbe68c9e6	-0.22733268
157	0xbe71463a	-0.23561946
158	0xbd464e18	-0.04841432
159	0x3d857ddc	0.065181464
160	0x3b8a7769	0.0042256606
161	0xbc853989	-0.016262786
162	0x3dabbb18	0.08385295
163	0x3e6addd2	0.2293618
164	0x3e7ff521	0.24995853
165	0xbd42f948	-0.047601014
166	0x3e14fe97	0.14550243
167	0x3e0eb224	0.13935143
168	0x3ce3b1ee	0.027794804
169	0xbda31f4c	-0.07964954
170	0xbd43568e	-0.047689967
171	0xbddc0b57	-0.107443504
172	0x3d305136	0.0430462
173	0xbe1df3cc	-0.15425032
174	0xbdace4f6	-0.08442108
175	0x3bdb58df	0.006693944
176	0x3d1dc5e8	0.038518816
177	0xbe2b4970	-0.16727233
178	0x3e4cfd04	0.20018393
179	0xbd003a58	-0.03130564
180	0x3e39c2b4	0.1814068
181	0xbe673aaa	-0.22580972
182	0xbd965ae0	-0.07341552
183	0xbe4620ec	-0.19348496
184	0x3e3b78d4	0.18307811
185	0x3e084e6c	0.13311166
186	0xbe14041a	-0.1445469
187	0xbd90e118	-0.07074183
188	0xbe1b2b72	-0.15153292
189	0xbe2b8bec	-0.16752595
190	0x3dde3c78	0.10851377
191	0xbe1e76a2	-0.15474942
192	0xbe32917c	-0.1743831
193	0x3e3710be	0.1787748
194	0xbe261c82	-0.16221812
195	0xbd172bab	-0.03690688
196	0x3d76308b	0.060104888
197	0x3da09d98	0.078425586
198	0xbd60812a	-0.05481068
199	0xbe266168	-0.16248095
200	0x3e086720	0.13320589
201	0xbe17a3e7	-0.14808618
202	0x3db15c71	0.0866021
203	0x3e78b8d0	0.2428925
204	0x3e2ae40a	0.16688552
205	0x3e35680c	0.17715472
206	0x3d7d6256	0.06186136
207	0xbd9ea8ad	-0.07747016
208	0xbc512af2	-0.012766587
209	0x3d7b3282	0.061327465
210	0xbe4fb3f5	-0.20283492
211	0x3e151832	0.14560011
212	0x3e086581	0.1331997
213	0x3e266a91	0.1625159
214	0x3dcababb	0.09898897
215	0xbdc39e0d	-0.0955163
216	0x3dfeef7b	0.12448021
217	0xbe0e061d	-0.1386952
218	0x3d8dfa63	0.06932523
219	0xbe736b4e	-0.23771402
220	0x3c345612	0.011006849
221	0x3e29d168	0.16583788
222	0xbe5edbc7	-0.21763526
223	0xbe0e9685	-0.13924606
224	0x3e678ef9	0.22613133
225	0xbd0484cb	-0.032353204
226	0xbde176b4	-0.11008969
227	0x3e4866e1	0.19570495
228	0xbd37e90d	-0.04489999
229	0xbb8d93e7	-0.00432061
230	0xbce43399	-0.027856635
231	0xbe035347	-0.12824737
232	0xbe1e3210	-0.15448785
233	0xbe538ec1	-0.20659925
234	0x3e1253a2	0.14289716
235	0x3e23cbad	0.15995665
236	0x3e3b9c75	0.18321402
237	0x3dabe4f7	0.08393281
238	0xbe42f005	-0.19036873
239	0xbe57a80a	-0.21060196
240	0xbe469e07	-0.1939622
241	0x3e099042	0.13433936
242	0xbde6fafb	-0.112783395
243	0xbd28f281	-0.041246895
244	0x3e2f3e5f	0.17113636
245	0x3e39ade9	0.18132748
246	0xbe50b2fb	-0.20380776
247	0xbdfbf974	-0.12303439
248	0x3da57c06	0.08080296
249	0x3d1ec40f	0.038761195
250	0x3e881870	0.26581144
251	0xbe2a05e3	-0.16603808
252	0xbe7c482f	-0.24636911
253	0xbd81926b	-0.06326755
254	0x3ddb577e	0.10710047
255	0x3e0df6b6	0.13863644

cnn.2.bias f4 [16]
0	0x3e8614e5	0.26187816
1	0xbd7b6222	-0.061372884
2	0x3e73bebe	0.23803231
3	0xbdab4f50	-0.08364737
4	0xbe4e257b	-0.20131485
5	0x3daf0929	0.08546669
6	0xbe10b7e7	-0.14132653
7	0xbe0b2aef	-0.13590597
8	0x3e3c69fb	0.18399803
9	0xbcfe3cf5	-0.031034926
10	0x3e6b0d13	0.22954206
11	0xbce8d400	-0.028421402
12	0xbd3c2c55	-0.045940716
13	0x3e1590f5	0.14606078
14	0x3e4eb776	0.20187172
15	0x3e4c89f2	0.19974497

cnn.4.weight f4 [32, 16, 2]
0	0x3e605caa	0.21910349
1	0x3cf14dc5	0.029456029
2	0x3dd0677c	0.10175988
3	0x3e36c9c7	0.1785041
4	0xbdf37e18	-0.11889285
5	0x3d00f83f	0.031486746
6	0x3dbb881c	0.0915682
7	0xbd3f24fd	-0.046666134
8	0xbe06e4d2	-0.13173226
9	0xbe21790a	-0.15768829
10	0x3e19cd62	0.15019754
11	0x3d5b2623	0.053503167
12	0xbe1f5ee7	-0.15563546
13	0x3d7865ff	0.060644146
14	0xbd389dc6	-0.04507234
15	0x3b1dc59d	0.0024074086
16	0xbe1759d2	-0.14780357
17	0x3dc9b9d4	0.09849897
18	0x3e28e46a	0.16493383
19	0x3da58a5c	0.080830306
20	0x3ce5d1d7	0.028054161
21	0x3dca154c	0.09867343
22	0xbb2b0000	-0.002609253
23	0x3cc463b8	0.02397333
24	0xbd28d628	-0.04121986
25	0x3e0aca4c	0.13553733
26	0x3e194b81	0.14970209
27	0xbdbe291a	-0.09285183
28	0xbe27b691	-0.16378237
29	0xbe2207b8	-0.15823257
30	0xbd98cf03	-0.07461359
31	0x3c12821f	0.008942156
32	0xbe325481	-0.17415048
33	0x3dc5a3a3	0.09650352
34	0xbd9d31cc	-0.076755136
35	0x3c2c9055	0.010532458
36	0xbd2cf39a	-0.042224504
37	0x3d896daf	0.067103736
38	0x3e0baff9	0.13641347
39	0xbd56efc7	-0.052474763
40	0xbcfc1cb4	-0.030775405
41	0xbe0d24e7	-0.13783608
42	0x3d3443c1	0.044009928
43	0xbd96fe9e	-0.07372783
44	0x3d82583b	0.06364485
45	0x3dffc0da	0.124879554
46	0x3e202beb	0.15641753
47	0x3d3226dd	0.043494094
48	0xbd9afaa3	-0.075673364
49	0x3dc175c5	0.09446291
50	0x3daa0b91	0.08302987
51	0x3ba1a2e0	0.0049327463
52	0x3d919d35	0.07110063
53	0x3dfc54be	0.12320851
54	0xbdca673a	-0.0988297
55	0x3e2c51e7	0.16828118
56	0x3d5ef42f	0.05443209
57	0xbded99e7	-0.1160162
58	0xbdf590c4	-0.119905025
59	0x3d280727	0.041022446
60	0xbc26c816	-0.01017954
61	0x3deb9970	0.11503875
62	0x3d8309b7	0.06398337
63	0xbe063f9f	-0.13110207
64	0xbd2214a8	-0.03957048
65	0xbd6e9140	-0.05824399
66	0x3e0c1199	0.13678588
67	0xbdd730e9	-0.10507376
68	0xbc2de9d0	-0.010614827
69	0xbdd21a7f	-0.1025896
70	0xbe101c32	-0.14073256
71	0x3dd4474a	0.1036516
72	0x3dc5b29e	0.09653209
73	0xbe01f69f	-0.12691735
74	0xbd6a8930	-0.05725974
75	0x3d4d93c0	0.050189734
76	0x3e22248d	0.15834256
77	0x3daff822	0.085922495
78	0xbe276ecc	-0.1635086
79	0x3dceb3ea	0.1009291
80	0x3e01a0bb	0.1265897
81	0xbe2f5375	-0.1712168
82	0xbd3a86d0	-0.045538723
83	0xbdc8cd01	-0.098047264
84	0xbd72becc	-0.05926399
85	0xbd8dfc97	-0.06932943
86	0xbe31d482	-0.17366222
87	0x3e1cb8e9	0.15304913
88	0xbddf2de5	-0.108974256
89	0x3dbd56ea	0.09245093
90	0x3cb07840	0.021541715
91	0xbe010409	-0.12599196
92	0xbcd29528	-0.025705889
93	0xbe16d130	-0.14728236
94	0xbe00e715	-0.12588151
95	0x3e137fa5	0.14404161
96	0x3a948c00	0.0011333227
97	0x3e07d429	0.13264526
98	0x3db61ef6	0.08892624
99	0x3c3c7e50	0.011504725
100	0xbe1f88c2	-0.15579513
101	0xbd36bc04	-0.0446129
102	0x3e11a2cf	0.14222263
103	0xbdca9739	-0.09892125
104	0xbbca3a80	-0.0061715245
105	0xbd27e698	-0.040991396
106	0xbdcf1f2d	-0.10113368
107	0xbd8e195f	-0.06938433
108	0xbcfbe8e0	-0.030750692
109	0xbdaefa41	-0.08543826
110	0x3d85e9a6	0.065387055
111	0xbc8dc340	-0.017305017
112	0x3e17dacb	0.14829557
113	0x3bf75300	0.007547736
114	0x3dffc30a	0.124883726
115	0x3df26916	0.1183645
116	0x3d076078	0.033050984
117	0xbd8c6e23	-0.068569444
118	0x3d978262	0.073979154
119	0x3d8fb8ae	0.07017647
120	0xbdd513aa	-0.10404141
121	0x3e16a389	0.14710821
122	0x3d9f5d3a	0.077814534
123	0x3de34a82	0.110981956
124	0xbe2e2b79	-0.17008771
125	0xbb901280	-0.0043967366
126	0xbd48cdbc	-0.04902433
127	0x3c5bad40	0.013408005
128	0xbd0805cc	-0.033208653
129	0x3e455793	0.19271688
130	0x3dcf466f	0.10120856
131	0xbdd3ea3b	-0.1034741
132	0x3e0ce678	0.13759792
133	0xbd3004d5	-0.04297336
134	0xbdaefed0	-0.085446954
135	0xbcc812ec	-0.024423085
136	0x3e0e220e	0.13880178
137	0x3e0d3c35	0.13792498
138	0x3df703c5	0.12061266
139	0xbdfc08b2	-0.12306346
140	0xbe1a49ce	-0.15067217
141	0x3d8db490	0.06919205
142	0xbd648a66	-0.05579605
143	0x3e06f5d9	0.13179721
144	0x3daa9335	0.08328859
145	0xbe28a7df	-0.16470288
146	0xbe219133	-0.15778045
147	0xbe0fbdf8	-0.14037311
148	0xbe1a5c73	-0.15074329
149	0x3d693836	0.056938373
150	0x3e0d8ca3	0.1382318
151	0x3d8fd27c	0.070225686
152	0xbe2fcdc3	-0.17168336
153	0x3e0db9e6	0.13840446
154	0x3d9570c9	0.07296903
155	0x3ccf086f	0.025272576
156	0xbdfe4a0f	-0.12416469
157	0x3e1f2181	0.15540124
158	0x3d5b6c30	0.053569973
159	0x3d7f471e	0.062323682
160	0x3e05038f	0.12989639
161	0x3de3a407	0.1111527
162	0xbdbac0ab	-0.0911878
163	0x3cedff0b	0.029052278
164	0x3e29ed1f	0.16594361
165	0x3d2cf51f	0.042225953
166	0xbdd4497d	-0.10365579
167	0xbc5260fc	-0.012840506
168	0x3d5887eb	0.052863996
169	0x3d9430ef	0.07235896
170	0x391f0591	0.00015165495
171	0x3e092651	0.13393523
172	0xbe3beca3	-0.18351988
173	0x3cd25845	0.025676856
174	0xbe39254e	-0.18080637
175	0xbe24b098	-0.1608299
176	0x3c2c3c5b	0.010512437
177	0xbd7089f0	-0.058725297
178	0xbd0c2872	-0.03421826
179	0xbe02745f	-0.12739705
180	0xbd3aa3ff	-0.045566555
181	0xbdd0491a	-0.10170193
182	0xbd8b736f	-0.068091266
183	0x3de2399e	0.11046146
184	0x3d2bb6e3	0.04192246
185	0xbd6a312c	-0.0571758
186	0x3b612d2f	0.0034359207
187	0x3dbe34c1	0.09287406
188	0xbddff7b6	-0.10935919
189	0x3cc7e282	0.0244
190	0xbe2d998a	-0.16953102
191	0xbe482a1c	-0.19547313
192	0x3d2c07cc	0.041999623
193	0xbc73fc33	-0.014891672
194	0x3e0c00c4	0.13672167
195	0x3e266116	0.16247973
196	0xbe32fe47	-0.17479812
197	0xbce5c625	-0.028048584
198	0xbe05b04b	-0.13055532
199	0xbdccce9d	-0.10000346
200	0x3dff6e1f	0.12472176
201	0x3e152302	0.14564136
202	0x3dcfa5df	0.10139059
203	0x3df09ca6	0.11748628
204	0xbd650c5d	-0.055919994
205	0xbb90830a	-0.0044101523
206	0x3de12aef	0.10994517
207	0x3dca4cb6	0.09877913
208	0xbe1fd6f4	-0.15609342
209	0xbd8dec0b	-0.06929787
210	0x3e0e0ad5	0.1387132
211	0xbdc9cbd1	-0.09853328
212	0xbdbeb72b	-0.0931228
213	0x3d8b051e	0.067880854
214	0x3e305491	0.1721976
215	0xbe332ffa	-0.1749877
216	0x3dfffaa6	0.12498979
217	0xbe0d7287	-0.1381322
218	0xbddfa084	-0.10919288
219	0x3d7f6cc5	0.06235959
220	0x3e1c03c1	0.15235807
221	0xbb10be4e	-0.0022086087
222	0xbcd20d6f	-0.025641171
223	0x3df00cf8	0.117212236
224	0x3e2f61a8	0.17127097
225	0xbe01d347	-0.12678252
226	0xbdd13d23	-0.10216739
227	0x3d7aec8e	0.061260752
228	0xbe16dab5	-0.14731868
229	0xbd929913	-0.07158103
230	0x3e2c1b81	0.16807367
231	0x3d282446	0.041050218
232	0x3df7b20f	0.12094509
233	0xbdebda47	-0.115162425
234	0x3ce751d0	0.028237253
235	0xbde94b74	-0.11391345
236	0x3e3b4594	0.1828826
237	0x3c4efbe2	0.012633296
238	0xbe086299	-0.13318862
239	0x3e1eb138	0.15497291
240	0x3d883d25	0.066522874
241	0x3b61edb6	0.0034473962
242	0xbd45f4d7	-0.0483292
243	0xbdf3fe67	-0.11913758
244	0x3e053cf8	0.13011539
245	0xbcc8ab1b	-0.024495652
246	0xbd868a82	-0.06569387
247	0x3e2f7cd1	0.17137457
248	0xbe26a928	-0.16275465
249	0x3cf41bdb	0.029798439
250	0xbe253226	-0.16132411
251	0x3dc05679	0.09391493
252	0x3dcc0bdb	0.09963199
253	0x3de638df	0.11241316
254	0xbc79feb0	-0.015258476
255	0xbda07ec2	-0.07836677

cnn.4.bias f4 [32]
0	0xbd5cb630	-0.053884685
1	0x3cc4191d	0.023937756
2	0xbe15254d	-0.1456501
3	0xbd6f11fe	-0.058366768
4	0x3e098b3b	0.13432018
5	0x3d4cc48b	0.049992125
6	0xbe0b613a	-0.13611308
7	0x3e13d96b	0.14438407
8	0xbcf951ed	-0.030434573
9	0x3e176b49	0.1478702
10	0xbe1356ac	-0.14388531
11	0x3c3b1701	0.011419059
12	0x3d8ee807	0.069778495
13	0x3e238534	0.15968782
14	0xbdd4f385	-0.1039801
15	0x3dd73840	0.10508776
16	0xbd6c5ec0	-0.05770755
17	0x3d3a6ccd	0.045513917
18	0xbca8bfc8	-0.02059926
19	0xbcd0a7b4	-0.025470592
20	0xbe005c83	-0.1253529
21	0x3df2bf38	0.11852878
22	0x3e06e0ca	0.13171688
23	0xbde52699	-0.111890025
24	0xbd9a1601	-0.07523728
25	0x3cc86b20	0.024465144
26	0xbe34b544	-0.17647272
27	0x3d2c0102	0.04199315
28	0xbcf217a8	-0.029552296
29	0x3e18eaf7	0.14933382
30	0x3db6df04	0.089292556
31	0x3cb76c77	0.022390587

cnn_fc.weight f4 [128, 1504]
0	0x3c62edee	0.013850672
1	0xbccc0edd	-0.024909431
2	0xbc32e17d	-0.010918018
3	0x3ca8e0f3	0.020615077
4	0x3abe4eae	0.0014519298
5	0xbc83f91d	-0.016109997
6	0xbc16b051	-0.009197311
7	0xbc76f5ec	-0.015073281
8	0xb7b1440c	-2.1131731e-05
9	0x3c8ac28f	0.016938476
10	0xbac1820a	-0.0014763486
11	0x3c9c3f3f	0.019073127
12	0xbbc8f510	-0.0061327294
13	0xbcdfd2a3	-0.02732212
14	0xbcbe6f2c	-0.02324637
15	0x3c11f086	0.008907443
16	0xbb635886	-0.0034690215
17	0xbbced165	-0.006311583
18	0x3c213a96	0.009840628
19	0xbbbc04fc	-0.005737899
20	0xbb4b27ce	-0.0030999067
21	0x3c3b4a47	0.011431283
22	0x3cd6b724	0.026210375
23	0xbc973bcf	-0.018461136
24	0x3cb7c2aa	0.02243169
25	0x3ba8adba	0.005147663
26	0xb9c35499	-0.00037256329
27	0x3cc5f01b	0.024162343
28	0x3d0f5203	0.03499032
29	0x3d015111	0.03157145
30	0xba8e85a2	-0.0010873566
31	0x3b56cc85	0.0032775712
32	0xbc514491	-0.012772695
33	0xbd076a34	-0.033060268
34	0xbb8c0505	-0.0042730593
35	0xbcaad4e2	-0.020853464
36	0xbc540b71	-0.012942181
37	0xbce0886c	-0.027408801
38	0xbc9659bb	-0.018353334
39	0x3bdb3809	0.0066900295
40	0xbae039b6	-0.0017107043
41	0x3c68685e	0.014185039
42	0x3c950505	0.01819087
43	0xbb3f1e55	-0.0029162366
44	0xbbefe54d	-0.007321036
45	0x3a93b436	0.0011268917
46	0x3d1313b1	0.03590745
47	0x3cdc491d	0.026890332
48	0x3beffdc3	0.007323952
49	0xbc6ae0d8	-0.0143358335
50	0x3b493dc3	0.003070698
51	0x3ac30a50	0.0014880393
52	0xbce0e3cd	-0.027452374
53	0xba863a40	-0.0010240749
54	0xbcc5f7ca	-0.024166007
55	0x3c912f79	0.017722832
56	0xbc941579	-0.018076645
57	0x3c9dcefe	0.01926374
58	0xbc1dfa8e	-0.009642256
59	0x3cdeaf8b	0.027183315
60	0x3c825841	0.015911223
61	0x3b9f9a19	0.004870665
62	0xbca8d173	-0.020607686
63	0xbc87fd99	-0.016600417
64	0xbc87fccc	-0.016600035
65	0x3c82c994	0.01596526
66	0xbaf37998	-0.0018575666
67	0x3c40111d	0.01172283
68	0xbc18837a	-0.00930869
69	0xbca86cf4	-0.020559765
70	0x3b38d24a	0.0028201514
71	0xbc2a1283	-0.01038039
72	0x3c5fc3b5	0.0136575
73	0xba4e00af	-0.0007858378
74	0xbbab5675	-0.0052288123
75	0x3b7b7abf	0.0038372723
76	0x3cb47c79	0.02203201
77	0xbbf44c60	-0.0074553937
78	0x3caf9e96	0.021437924
79	0xbbde6676	-0.0067871166
80	0x3b657d5a	0.0035017342
81	0x3c49595a	0.0122893695
82	0x3c832e7b	0.016013375
83	0x3cbdd21b	0.023171475
84	0x3b117a86	0.0022198274
85	0xbc2b292a	-0.010446826
86	0x3b4bc384	0.0031091878
87	0x3bb5460d	0.0055320323
88	0x3bb618c3	0.005557151
89	0x3bf2cd0d	0.007409698
90	0xbc2123a5	-0.0098351585
91	0x3b64d58c	0.0034917323
92	0xbb0d3458	-0.0021546092
93	0xbb8ef871	-0.0043631126
94	0x3c1c443c	0.009537753
95	0xbc822fe6	-0.01589198
96	0x3cb0fa24	0.021603651
97	0x3cc181d2	0.023621473
98	0x3c8893cc	0.016672038
99	0x3b634700	0.003467977
100	0xbbd284d0	-0.006424524
101	0x3c3b4588	0.011430152
102	0xbca5b6a9	-0.0202287
103	0x3bdf2c18	0.0068106763
104	0xbc20cba6	-0.009814179
105	0x3ae85e00	0.001772821
106	0x3c28ccd8	0.010302745
107	0x3ba3b480	0.0049958825
108	0x3b84daac	0.004054388
109	0xbc07bef2	-0.008285271
110	0xbc9365dc	-0.017992906
111	0x3c9e2072	0.01930258
112	0xbc39d58c	-0.011342417
113	0xbcb9bfac	-0.022674404
114	0x3c728464	0.014802072
115	0xbc496ce0	-0.012294024
116	0xbc8dd4fe	-0.017313477
117	0xbc046172	-0.008079873
118	0xbb53a7c0	-0.0032296032
119	0xbc781074	-0.0151406415
120	0xbcaddd4e	-0.02122369
121	0xbc400625	-0.011720215
122	0xbc80719e	-0.015679177
123	0xbcad4280	-0.021149874
124	0xbcc9add3	-0.024619019
125	0x3c9e2030	0.019302458
126	0xbc2ccfb5	-0.010547568
127	0xbca21d86	-0.019789468
128	0x3c3cb8b0	0.011518642
129	0x3a0349a0	0.00050082244
130	0xbc19a7a6	-0.009378349
131	0x3c9e12f4	0.019296147
132	0xbb715578	-0.0036824625
133	0x3bfd3a50	0.0077278987
134	0xbc46f916	-0.012144348
135	0xbbc56af8	-0.0060247146
136	0x3ccac514	0.024752177
137	0x3c2e6dec	0.010646325
138	0x3ca8f0da	0.02062266
139	0x3cd25656	0.025675934
140	0xbc9788b0	-0.018497795
141	0x3b960cbc	0.004579155
142	0xbc659e00	-0.014014721
143	0xbbc1946c	-0.005907586
144	0xbbe84b94	-0.0070890877
145	0x3c9084be	0.017641421
146	0x3c8b7cd0	0.017027289
147	0xbc208b28	-0.009798802
148	0xbcb3fd94	-0.021971501
149	0xbbd58d88	-0.006517116
150	0x3ca28114	0.01983694
151	0x3c22e0f4	0.009941328
152	0xbc017a00	-0.007902622
153	0xbc701e87	-0.014655716
154	0xbc90c7a4	-0.017673321
155	0x3bc4a278	0.006000813
156	0xbc8f842a	-0.017519075
157	0x3ae27e90	0.001728015
158	0x3caaf2f8	0.02086781
159	0xbaef1210	-0.0018239636
160	0x3c95c7ea	0.018283803
161	0xbc371f03	-0.011176827
162	0x3c3c037c	0.01147544
163	0x3c3e6f94	0.011623282
164	0xbc975d42	-0.018477086
165	0x3b4dc0e0	0.003139548
166	0xbcaa204e	-0.020767357
167	0xbc7cb174	-0.0154231675
168	0x3c8a987e	0.016918417
169	0x3c361dcc	0.011115503
170	0xbc5d5b3d	-0.013510522
171	0xbca6e1d8	-0.020371363
172	0xbca44e4d	-0.020056868
173	0x3cbfef44	0.02342952
174	0xbcbf4c5c	-0.02335184
175	0xbccf3c91	-0.025297435
176	0xbc671d19	-0.0141060585
177	0xbcaaaf55	-0.020835558
178	0x3b877440	0.004133731
179	0x3cc9cdf8	0.024634346
180	0xbb4790a0	-0.0030451193
181	0x3cc91cba	0.02454983
182	0x3c5666f8	0.013086073
183	0x3c9c8c4a	0.019109864
184	0xbc02eecc	-0.007991504
185	0xbbb228dc	-0.0054369997
186	0x3c970248	0.018433705
187	0x3a9b60f0	0.0011854451
188	0xbcab09f7	-0.020878775
189	0x3c21b8fd	0.009870765
190	0x3ca15114	0.019691981
191	0xbb92a3ff	-0.0044751163
192	0x3bea49a9	0.0071498943
193	0x3c6a00f2	0.014282452
194	0x3c93939e	0.018014725
195	0x3cba016d	0.022705758
196	0xbc74e59c	-0.014947321
197	0xbc8d4f57	-0.017249746
198	0x3c547ec2	0.012969675
199	0x3cdee15e	0.027207073
200	0x3bd49a2a	0.0064881044
201	0x3ce06e43	0.027396327
202	0xbbce32a9	-0.0062926603
203	0x3c908ea9	0.01764615
204	0xbbf0405e	-0.007331892
205	0x3c8a614e	0.016892102
206	0x3c0c03fc	0.008545872
207	0x3cf7d874	0.03025458
208	0x3c9c5849	0.019085066
209	0x3bd095d2	0.006365516
210	0xbbfa2821	-0.0076341783
211	0x3ca7f995	0.020504752
212	0xbc0445b5	-0.00807326
213	0xbc5a1bf9	-0.013312333
214	0xbc8b335d	-0.016992265
215	0xbca2e3c6	-0.019884001
216	0xbbece4c3	-0.007229419
217	0x3c544f06	0.012958294
218	0xbc70ebf3	-0.014704692
219	0xbc8695e2	-0.016428892
220	0x3cafa3de	0.021440443
221	0x3cc9b4e7	0.024622394
222	0xbcb5db9b	-0.022199443
223	0x3c92ec07	0.017934812
224	0xbbb15537	-0.0054117697
225	0xbbfdfa3d	-0.007750778
226	0x3c84831a	0.016175795
227	0x3c66c830	0.014085814
228	0xbc6f72fb	-0.014614816
229	0x3cb8a46a	0.022539336
230	0xbbf9a6ac	-0.007618746
231	0x3c1403c3	0.0090341
232	0x3c68abe4	0.014201138
233	0x3d0e35b8	0.0347192
234	0x3cd296a0	0.02570659
235	0xbc5ef814	-0.013608951
236	0x3cb0ebd9	0.021596836
237	0x399ece95	0.00030290024
238	0x3cbf918f	0.023384837
239	0x3a96612c	0.0011473051
240	0x3d24069b	0.040045362
241	0xba23017f	-0.00062181795
242	0x3c68cde3	0.0142092435
243	0x3d09dd0d	0.033658076
244	0x3c06d631	0.008229778
245	0xbc9bc909	-0.01901676
246	0x3c71b5b0	0.01475279
247	0x3bc8fc3b	0.006133584
248	0x3ccdbcb2	0.025114391
249	0x3c0e8991	0.008699791
250	0xbbc01307	-0.0058616432
251	0x3b847e01	0.004043341
252	0x3c9042ce	0.01760998
253	0x3c03b156	0.008037886
254	0xbca90d86	-0.020636331
255	0xbcbe379f	-0.023219882

cnn_fc.bias f4 [128]
0	0x3d02397f	0.031793114
1	0x3c03955c	0.0080312155
2	0xbcac0bb5	-0.021001676
3	0x3c6f25bb	0.014596398
4	0x39aaafc4	0.00032555882
5	0xbc8d87c5	-0.017276654
6	0x3c914f1d	0.01773792
7	0x3aff3ffa	0.0019474023
8	0xbc9f2101	-0.019424917
9	0x3cc66e2e	0.02422246
10	0x3cd7dca0	0.02635032
11	0xbba4857c	-0.0050207954
12	0x3c308b7a	0.010775441
13	0x3cf078ff	0.02935457
14	0xbaedab58	-0.001813273
15	0xbc950d5a	-0.018194843
16	0x3cc7fcc7	0.024412526
17	0xbc05c048	-0.008163519
18	0xbc8be682	-0.017077688
19	0xbc70e6bc	-0.014703449
20	0x3c790dc8	0.01520104
21	0x3c384bf4	0.011248577
22	0x3c46524f	0.012104585
23	0xbcd35aee	-0.025800195
24	0x3c2c3105	0.010509734
25	0x3cd43667	0.025904847
26	0x3a50e304	0.0007968398
27	0xbc3077f1	-0.010770784
28	0x3c03054b	0.007996867
29	0x3c9f2acc	0.019429587
30	0xbc5d0f94	-0.013492484
31	0x3bf38c35	0.0074324855
32	0x3c7f5196	0.015583416
33	0xbc70712d	-0.014675421
34	0xbc173865	-0.009229754
35	0x3c45a913	0.012064236
36	0x3c346a77	0.011011711
37	0xbbf8ee02	-0.007596732
38	0xbc982713	-0.01857332
39	0xbcc73e4a	-0.024321694
40	0x3c7cdf39	0.01543408
41	0xbbf5133d	-0.0074791
42	0xbc0e33b9	-0.008679324
43	0x3c037001	0.008022309
44	0x3b0b0f61	0.0021218883
45	0x3c4a8f10	0.01236321
46	0x3c8ca55d	0.017168695
47	0x3b4f58d3	0.0031638637
48	0xbc18b8fb	-0.0093214465
49	0xbcc887aa	-0.024478752
50	0x3c8dc3fb	0.017305365
51	0xbc75eac4	-0.015009586
52	0x3c793ef8	0.015212767
53	0x3c953a72	0.018216345
54	0xbbfe6b7b	-0.0077642775
55	0xbce82384	-0.028337248
56	0x3c59b0b8	0.013286762
57	0x3c896f42	0.016776685
58	0xbcb64302	-0.022248749
59	0xbbd45e23	-0.0064809485
60	0xbb856050	-0.0040703192
61	0x3c985700	0.018596172
62	0x3b7b00f8	0.0038300138
63	0x3ce2f0ca	0.027702708
64	0x3c85283b	0.016254535
65	0xbc396b33	-0.011317062
66	0x3cb0b92e	0.021572676
67	0x3ac0804b	0.0014686672
68	0x3bf16b18	0.007367503
69	0x3aed0204	0.0018082266
70	0x3c0d8bc1	0.008639277
71	0xbb11e6a0	-0.0022262707
72	0xbca07688	-0.01958777
73	0x3c482bad	0.012217444
74	0xbd01ea76	-0.03171774
75	0xbc5da0d0	-0.01352711
76	0x3bb9d153	0.0056707053
77	0xbcabca5b	-0.020970514
78	0x39c1bdf4	0.00036953355
79	0xbbd66338	-0.0065425895
80	0x3c144bd5	0.009051283
81	0xbbe25727	-0.006907362
82	0xbbd6c351	-0.0065540452
83	0xbbef50e2	-0.007303343
84	0xbc8d96a9	-0.017283754
85	0x3ca1f938	0.019772157
86	0xbb57d495	-0.0032933105
87	0xbc8176cb	-0.015803715
88	0xbbd26d0c	-0.006421691
89	0x3c5cc992	0.0134757925
90	0x3c69116c	0.014225345
91	0xbbfc9e3e	-0.0077092936
92	0xbb73b378	-0.003718583
93	0xbd03130f	-0.032000598
94	0x3c894efd	0.016761297
95	0xbc0f7ce3	-0.008757803
96	0x398bc01d	0.00026655282
97	0xbc6da995	-0.014505764
98	0xbc803805	-0.015651712
99	0xbcc0ff3c	-0.023559205
100	0x3c97a772	0.018512461
101	0xbc865e3a	-0.016402353
102	0xbc12e687	-0.008966095
103	0xbc8560a5	-0.016281435
104	0x3c911253	0.017708933
105	0x3caae963	0.02086324
106	0xbcdb2897	-0.026752753
107	0x3c536e5d	0.012904731
108	0x3cb0afc2	0.021568183
109	0x3c9f0eb6	0.019416194
110	0xbc1d6cec	-0.0096084885
111	0xbca9fe8d	-0.020751262
112	0xbbcf6452	-0.006329098
113	0x3ca56ce8	0.020193532
114	0x3cc2003a	0.023681749
115	0xbb1aadcf	-0.0023602133
116	0xba1fe708	-0.0006099795
117	0x3b66f713	0.0035242483
118	0xbc37168d	-0.01117481
119	0x3cd30405	0.025758753
120	0xbc533405	-0.01289082
121	0x3c94bbfc	0.018156044
122	0xbcc831bb	-0.024437776
123	0x3b9e7e01	0.004836798
124	0xbaa1dc45	-0.0012348971
125	0x3c7f7fb9	0.015594416
126	0xbc2754e5	-0.0102131115
127	0xbc94c082	-0.018158201

gru.weight_ih_l0 f4 [30, 3]
0	0x3e2fbf16	0.17162737
1	0x3e1288d5	0.1431001
2	0xbde16f44	-0.1100755
3	0xbe848a29	-0.25886658
4	0x3e89961b	0.26872334
5	0x3d4417c6	0.047874235
6	0xbe49e7ee	-0.1971738
7	0xbd5a36d9	-0.053274963
8	0x3ebc61f3	0.3679348
9	0xbe918321	-0.28420356
10	0xbc10e032	-0.008842515
11	0x3da31c2f	0.0796436
12	0xbe59fa58	-0.21286905
13	0x3e94a3d3	0.29031238
14	0x3dd4b86e	0.1038674
15	0x3d7bf02c	0.061508343
16	0xbe24312c	-0.16034383
17	0x3c0d89e9	0.008638837
18	0xbd207402	-0.039173134
19	0x3ea12732	0.31475216
20	0x3e3bf9bd	0.18356986
21	0x3e04cbad	0.12968321
22	0x3d3bfc44	0.045894876
23	0xbeb505f1	-0.35356095
24	0x3e8524c0	0.260046
25	0xbd758ef3	-0.05995078
26	0xbe1bbdb2	-0.15209082
27	0x3e9a6032	0.30151516
28	0x3d9a1d33	0.075251006
29	0x3e40dd78	0.18834484
30	0xba67645e	-0.00088269066
31	0xbe810a79	-0.25203303
32	0x3d415db9	0.04720852
33	0xbece8f0b	-0.40343508
34	0xbe24317a	-0.16034499
35	0xbe827a2b	-0.25483832
36	0xbef5323e	-0.47889894
37	0xbdfca0a0	-0.12335324
38	0xbe375970	-0.17905211
39	0xbf05a126	-0.5219902
40	0x3e4d14eb	0.20027511
41	0x3e37ed2c	0.17961568
42	0x3e060114	0.13086349
43	0x3d8b05b5	0.06788198
44	0xbe85e5da	-0.26151925
45	0xbd81bab5	-0.0633444
46	0x3d96ade0	0.07357383
47	0x3e271f55	0.16320546
48	0x3dddc572	0.10828675
49	0x3d5e7048	0.0543063
50	0xbe5d4294	-0.21607429
51	0xbeca7987	-0.39545843
52	0xbe00aa13	-0.12564878
53	0xbd68a0d2	-0.056793995
54	0x3e12ddcd	0.14342423
55	0xbda45c71	-0.08025444
56	0x3eb807d6	0.35943478
57	0xbe77862b	-0.24172275
58	0xbe275ae9	-0.16343273
59	0x3deb5dde	0.11492513
60	0x3e100cba	0.14067355
61	0x3c84eb00	0.016225338
62	0x3daccd3c	0.08437583
63	0xbe40a895	-0.18814309
64	0xb8c6b4b7	-9.4750365e-05
65	0x3e8ce091	0.2751508
66	0xbe693532	-0.22774199
67	0x3e3177a0	0.1733079
68	0xbded768f	-0.11594879
69	0x3dd57418	0.10422534
70	0x3dea1c28	0.11431152
71	0xbe43e03a	-0.19128504
72	0x3df4925d	0.11941979
73	0x3e80c93d	0.25153533
74	0xbd6cebc1	-0.05784202
75	0x3e021d3c	0.12706465
76	0xbcc178c3	-0.023617154
77	0xbe3d2259	-0.18470134
78	0xbd422f62	-0.04740847
79	0x3e92b8e7	0.28656694
80	0x3ddcc2c3	0.10779335
81	0xbe295bb7	-0.16538893
82	0x3e762def	0.2404096
83	0xbe249c48	-0.16075242
84	0x3da72126	0.081606194
85	0x3d676f48	0.05650261
86	0xbe814157	-0.25245163
87	0x3e1b0e29	0.1514212
88	0x3dac462b	0.08411821
89	0x3e5c4610	0.21511102

gru.weight_hh_l0 f4 [30, 10]
0	0xbe117518	-0.14204824
1	0x3db16285	0.08661369
2	0xbeaaebc0	-0.33382988
3	0xbe309a50	-0.17246366
4	0x3e64c64b	0.22341268
5	0x3e59d438	0.21272361
6	0xbd787e24	-0.060667172
7	0x3e15fbf2	0.14646891
8	0x3eb7d15d	0.3590192
9	0x3de98777	0.11402791
10	0xbdb6f2ec	-0.089330524
11	0x3e0ab95a	0.13547269
12	0x3e0979af	0.13425325
13	0x3e3f4a5b	0.18680708
14	0xbe4193a0	-0.1890397
15	0xbdf5f5cc	-0.12009773
16	0x3e8756ca	0.26433402
17	0x3e21a16e	0.15784237
18	0xbde892a0	-0.113560915
19	0xbd3e0b5c	-0.046397552
20	0xbe0c8137	-0.13721167
21	0xbe859d23	-0.26096448
22	0xbe9f5895	-0.3112227
23	0xbd1ca1a8	-0.038240105
24	0x3e25d34b	0.16193883
25	0xbe4cdf92	-0.2000716
26	0xbea64bea	-0.32479793
27	0xbeb4c416	-0.35305852
28	0xbb1ba501	-0.0023749473
29	0x3ce0326f	0.027367799
30	0x3e5164e2	0.2044864
31	0x3ce7a588	0.028277174
32	0xbe14feb8	-0.14550292
33	0xbe4253fc	-0.1897735
34	0xbe3df6be	-0.18551156
35	0xbd2eb57c	-0.042653546
36	0x3e8e9cba	0.27853948
37	0xbe664f24	-0.22491127
38	0xbe755d7b	-0.23961441
39	0x3d1ed8c1	0.03878093
40	0x3e812158	0.25220752
41	0x3d8a00a7	0.06738406
42	0xbe30bb93	-0.17259054
43	0xbe7b1a2a	-0.245217
44	0xbe335d40	-0.17516041
45	0xbe1195c5	-0.14217289
46	0xbe49e757	-0.19717155
47	0x3de52b81	0.11189938
48	0x3c94caa1	0.018163027
49	0x3e6ff848	0.23434556
50	0xbe2a2e8b	-0.16619317
51	0xbea6492c	-0.324777
52	0x3e97f940	0.2968235
53	0x3ea2e948	0.31818604
54	0x3e89d10c	0.26917303
55	0x3dcb911a	0.09939785
56	0x3e9c7d3c	0.30564296
57	0x3e7d7e6f	0.24755262
58	0x3d8c88b7	0.06862014
59	0xbe4807d5	-0.19534238
60	0xbe460879	-0.1933917
61	0xbe139815	-0.14413483
62	0xbd98961a	-0.074505046
63	0xbde10358	-0.10986966
64	0xbdd39463	-0.10331037
65	0x3e8e9823	0.27850446
66	0x3e8b8c1c	0.27255332
67	0x3e16db4f	0.14732097
68	0x3c3f96d5	0.011693676
69	0xbe7282cd	-0.23682709
70	0xbe5fdf70	-0.21862578
71	0x3e518124	0.2045942
72	0xbe08b7e7	-0.13351403
73	0x3eb297ee	0.34881538
74	0xbe82d3bc	-0.25552166
75	0x3e12878d	0.14309521
76	0x3e74f9bc	0.23923391
77	0x3b438ae5	0.0029837426
78	0x3db3986d	0.08769307
79	0xbd8324c8	-0.064035
80	0x3e08017b	0.13281815
81	0x3e6caf11	0.23113658
82	0xbdd72502	-0.105051056
83	0x3d4dd03e	0.050247423
84	0x3e8c0740	0.2734928
85	0xbde363fc	-0.11103055
86	0xbc91573c	-0.017741792
87	0x3ea0689d	0.31329814
88	0x3e943c8f	0.28952453
89	0x3dae1831	0.08500708
90	0x3e560b80	0.20902824
91	0xbec72cce	-0.3890137
92	0xbe9efa09	-0.31050137
93	0x3e2c9418	0.16853368
94	0x3e011d4b	0.1260883
95	0x3ebcbbd6	0.36862057
96	0x3dfbd04f	0.12295591
97	0xbe5503b0	-0.20802188
98	0x3eb851d6	0.35999936
99	0xbdfecd53	-0.12441506
100	0xbc9c2e1c	-0.019064955
101	0x3ebd7fd1	0.3701158
102	0x3eb2dd6f	0.34934565
103	0xbe532918	-0.20621145
104	0xbd8f9846	-0.07011466
105	0xbf237295	-0.63846713
106	0x3e97a421	0.29617408
107	0x3c605fdd	0.013694731
108	0xbebd0e76	-0.36925095
109	0xbef383af	-0.47561404
110	0x3da72634	0.081615835
111	0x3edcde58	0.43138385
112	0x3f0735b3	0.52816314
113	0x3e0bc5e8	0.13649714
114	0xbdd7665f	-0.105175726
115	0xbf1db0ae	-0.61597717
116	0xbce14cd0	-0.027502447
117	0xbcaab0ec	-0.020836316
118	0xbf0fac08	-0.56121874
119	0x3c47db99	0.012198352
120	0xbd0d696d	-0.03452437
121	0x3f046e44	0.5173075
122	0x3e0916a3	0.13387541
123	0xbe045dfb	-0.12926476
124	0x3d9a6633	0.07539024
125	0xbdcaf129	-0.09909279
126	0x3dd96d15	0.10616509
127	0x3ea451e6	0.32093734
128	0xbef4a09b	-0.47778782
129	0xbe93daed	-0.28877965
130	0xbe6c1282	-0.23053935
131	0x3c70fb2f	0.014708324
132	0xbd84fd99	-0.064936824
133	0xbe8792b0	-0.264791
134	0xbec0daed	-0.37667027
135	0xbe15f7ac	-0.1464526
136	0xbe829537	-0.25504467
137	0x3df7d25b	0.12100669
138	0xbd397bfd	-0.04528426
139	0xbe94213f	-0.28931615
140	0x3d3e16c1	0.04640842
141	0xbeb8fa76	-0.36128587
142	0xbeca5614	-0.39518797
143	0x3e7f172d	0.24911185
144	0x3ea5538e	0.3229031
145	0xbe34c60e	-0.17653677
146	0xbd39f04a	-0.045395173
147	0xbe9b7d3f	-0.30368993
148	0x3e8eb3ca	0.27871543
149	0x3e869332	0.26284176
150	0x3e9a039e	0.30080885
151	0xbd6ad0c6	-0.057328008
152	0x3da871f9	0.082248636
153	0x3eb0186d	0.34393635
154	0xbc400153	-0.011719066
155	0x3eb937c1	0.3617535
156	0xbdca35ba	-0.09873529
157	0x3ca1b735	0.01974068
158	0xbdb4112b	-0.08792337
159	0x3d87f2bb	0.06638094
160	0x3e2214cd	0.15828247
161	0xbdc4faef	-0.09618174
162	0xbd815141	-0.06314326
163	0xbea111b2	-0.31458813
164	0x3d981757	0.07426327
165	0xbcdc54c6	-0.026895892
166	0x3e3a89e5	0.18216665
167	0xbd448692	-0.0479799
168	0xbe4392a7	-0.19098912
169	0x3dfcd927	0.12346106
170	0xbe5930be	-0.2121
171	0x3dd516ef	0.10404765
172	0x3f029b8f	0.51018614
173	0xbd0e39d8	-0.034723133
174	0xbe95711f	-0.29187867
175	0xbe436aaf	-0.19083665
176	0xbe23bafa	-0.15989295
177	0x3e3e268c	0.18569392
178	0xbe12b238	-0.14325798
179	0xbf055bf4	-0.52093434
180	0x3e275cc9	0.16343988
181	0xbb990467	-0.0046697143
182	0xbe0b6ae6	-0.13614997
183	0xbe035142	-0.12823966
184	0x3c3ec779	0.011644238
185	0x3df04e65	0.117337026
186	0x3d7db648	0.061941415
187	0x3d5517bd	0.05202459
188	0xbd91de83	-0.07122519
189	0xbd8cd16a	-0.0687588
190	0x3bb4c311	0.005516418
191	0x3df95dd0	0.121760964
192	0x3e7d0f48	0.2471286
193	0xbebc5d7b	-0.3679007
194	0x3dbdd804	0.09269717
195	0xbeef467d	-0.46733466
196	0x3e97399b	0.29536137
197	0x3f0bed34	0.5465882
198	0x3bd640d5	0.0065384903
199	0xbebdfd8a	-0.37107497
200	0xbe912f1f	-0.28356263
201	0x3c846407	0.016160978
202	0xbe1e234d	-0.15443154
203	0x3e3413cf	0.17585681
204	0xbdb01f25	-0.0859969
205	0xbeba76c6	-0.36418742
206	0xbe9c8d66	-0.30576628
207	0x3adfa808	0.0017063627
208	0xbddec11d	-0.10876677
209	0xbe7fb6a2	-0.24972013
210	0x3d44e319	0.04806814
211	0x3aab929e	0.001308996
212	0xbea7fbe8	-0.32809377
213	0x3e5b908e	0.21441862
214	0x3e04d941	0.12973501
215	0xbe402b5b	-0.18766539
216	0x3e22b3a6	0.15888843
217	0xbe5edf9f	-0.21764992
218	0x3d86758f	0.06565391
219	0xbe6766a7	-0.22597753
220	0x3e127cbd	0.14305396
221	0x3c2961de	0.010338275
222	0xbef96dbf	-0.48716542
223	0xbc95eba0	-0.018300831
224	0x3ddb1df8	0.106990755
225	0x3e1743ab	0.14771907
226	0xbdbe332e	-0.092871055
227	0xbe893521	-0.26798347
228	0x3e84f173	0.2596546
229	0x3dc42ae0	0.0957849
230	0xbe20475a	-0.15652218
231	0x3e89b788	0.26897836
232	0xbdbfb0b2	-0.09359874
233	0x3cc482de	0.023988184
234	0xbc745d8d	-0.014914882
235	0x3d7e5a60	0.062097907
236	0xbe32fe82	-0.174799
237	0x3d1298ad	0.035790134
238	0xbe7458ce	-0.23862001
239	0xbe421f99	-0.18957366
240	0x3e05678f	0.13027786
241	0xbea3b147	-0.3197119
242	0xbeac418f	-0.33643767
243	0x3e25a858	0.161775
244	0x3e5848d8	0.21121538
245	0x3df9eeb5	0.12203733
246	0xbe203974	-0.15646917
247	0x3e0c9ad3	0.13730936
248	0xbe1e808f	-0.15478729
249	0xbdfc262c	-0.12311968
250	0xbd833545	-0.06406645
251	0x3e103e1f	0.14086197
252	0xbd9f5750	-0.077803254
253	0x3e4cce96	0.20000681
254	0xbd92db65	-0.071707524
255	0x3e2fed1f	0.17180298

gru.bias_ih_l0 f4 [30]
0	0xbe604b63	-0.21903758
1	0xbead83a0	-0.33889484
2	0x3daf1c1d	0.08550284
3	0x3e4db5dc	0.20088905
4	0x3ea015e0	0.3126669
5	0x3ca39d23	0.01997239
6	0xbd19b997	-0.037530508
7	0xbe79b148	-0.24384034
8	0xbe5e7214	-0.21723205
9	0xbcaf8324	-0.021424837
10	0xbd80c0cd	-0.06286774
11	0xbe258e22	-0.161675
12	0xbd5aafff	-0.0533905
13	0xbdb21e69	-0.086972065
14	0x3e9e1cbd	0.308813
15	0x3e293ef4	0.16527921
16	0x3e54bd55	0.2077535
17	0xbea638a1	-0.3246508
18	0xbd49c89b	-0.049263578
19	0xbe891b07	-0.26778433
20	0xbda7414a	-0.0816675
21	0x3dfaf7a4	0.12254265
22	0x3e7b9c59	0.2457136
23	0xbe59c07e	-0.21264836
24	0xbe3314a6	-0.17488346
25	0x3e840917	0.25788185
26	0x3e45a8e0	0.19302702
27	0x3ddf6a6e	0.10908972
28	0x3e95630c	0.2917713
29	0xbdfe836e	-0.12427412

gru.bias_hh_l0 f4 [30]
0	0xbe55600f	-0.20837425
1	0xbeba76e5	-0.36418834
2	0xbe3b8cf9	-0.18315496
3	0x3e319f0c	0.17345828
4	0x3e7edbaf	0.2488849
5	0xbe77a599	-0.24184264
6	0x3c534c34	0.012896586
7	0x3e8a0b57	0.26961777
8	0x3e2c8f2d	0.16851492
9	0x3e34ced3	0.17657022
10	0xbda2c6f6	-0.07948105
11	0x3d129483	0.035786163
12	0xbeaa1eed	-0.3322672
13	0xbebe997f	-0.37226483
14	0xbd8819a1	-0.06645513
15	0x3ec0520e	0.37562603
16	0xbd89d88c	-0.06730756
17	0xbe348d78	-0.17632091
18	0x3e2eeb22	0.17081884
19	0xbd82eb56	-0.06392543
20	0xbbf6eda5	-0.0075356537
21	0xbe62f52c	-0.22163838
22	0xbddb7c1a	-0.1071703
23	0x3d86cb68	0.065817654
24	0xbe180da4	-0.14848953
25	0x3db5d789	0.08879001
26	0xbe6340f2	-0.22192743
27	0x3eb05113	0.34436855
28	0xbcba9b6a	-0.022779185
29	0x3cb59285	0.022164593

gru.weight_ih_l1 f4 [30, 10]
0	0x3e51ba5b	0.20481245
1	0xbe40c4fc	-0.18825144
2	0xbea8db0f	-0.32979628
3	0x3e80be2c	0.2514509
4	0x3dd45d2e	0.10369335
5	0x3e185d66	0.14879379
6	0xbe64ce11	-0.22344233
7	0x3dc8489e	0.09779476
8	0xbea3a295	-0.31959978
9	0x3ec7775e	0.38958257
10	0xbe143881	-0.1447468
11	0xbe8f7c5e	-0.28024572
12	0x3e502115	0.2032512
13	0xbe28ce25	-0.16484888
14	0x3dda156c	0.10648617
15	0xbe27f7dc	-0.16403145
16	0x3df93800	0.12168884
17	0xbe03c72b	-0.12868945
18	0xbd2316dd	-0.039816726
19	0x3e6c7750	0.23092389
20	0xbe93f709	-0.2889941
21	0x3da975d9	0.08274431
22	0xbe9981b4	-0.29981768
23	0x3e18371c	0.14864773
24	0x3e4a56a3	0.19759612
25	0x3e8af674	0.27141154
26	0xbe91b390	-0.28457308
27	0x3dd737a4	0.105086595
28	0xbe4f6c4a	-0.20256153
29	0x3e79ea51	0.24405791
30	0x3b486704	0.003057898
31	0xbd76bb3e	-0.06023716
32	0x3e6dd8c2	0.23227218
33	0x3e051455	0.12996037
34	0x3d9325c9	0.07184941
35	0xbc69cf7b	-0.014270659
36	0x3d1e3ff9	0.038635228
37	0xbdb37642	-0.0876279
38	0xbe3c9564	-0.18416363
39	0x3eb5875d	0.35454836
40	0xbd5b4317	-0.05353078
41	0x3dd5b309	0.10434539
42	0xbe7dc5d4	-0.24782497
43	0x3e6e72df	0.23286007
44	0xbca43e67	-0.020049287
45	0x3d84a607	0.0647698
46	0xbe3f5bb6	-0.18687329
47	0xbeb72845	-0.3577291
48	0x3d381f03	0.04495145
49	0xbbbaea92	-0.0057042325
50	0x3e681070	0.2266252
51	0xbe0ae66e	-0.13564464
52	0x3d06983a	0.03286002
53	0xbd888a9b	-0.06667062
54	0x3df82e92	0.121182576
55	0x3e9be4b3	0.3044792
56	0xbe306719	-0.17226829
57	0xbe860e46	-0.26182765
58	0xbb3a9cad	-0.0028474734
59	0xbe1986f1	-0.14992882
60	0x3e2bebd5	0.16789182
61	0xbe691ef5	-0.22765715
62	0xbd471177	-0.04860064
63	0x3d3c3c7e	0.045956127
64	0x3e9581f6	0.29200715
65	0x3eb68962	0.3565169
66	0x3dacab47	0.08431106
67	0x3d980c10	0.07424176
68	0x3db9fb71	0.09081162
69	0x3c838426	0.016054224
70	0xbe2c7286	-0.16840562
71	0xbe13b977	-0.14426218
72	0xbe91f002	-0.28503424
73	0x3dbf777c	0.09348962
74	0xbd05325a	-0.032518722
75	0xbd403297	-0.046923246
76	0x3e042a85	0.12906845
77	0x3df68670	0.12037361
78	0x3d88611d	0.06659148
79	0xbe0e99f4	-0.13925916
80	0x3e9e3b79	0.3090475
81	0x3e17fad9	0.14841785
82	0xbd6e1bef	-0.05813211
83	0xbe645967	-0.2229973
84	0xbe381edf	-0.17980526
85	0xbe93cbc1	-0.2886639
86	0x3e962cb0	0.2933097
87	0xbcbd66e3	-0.02312035
88	0xbe8cb8fc	-0.27484882
89	0xbe326fb1	-0.1742542
90	0xbe217ec2	-0.1577101
91	0x3e49d9f0	0.19712043
92	0x3d9d9b87	0.0769568
93	0xbeaaa91e	-0.3333215
94	0x3e140c3e	0.14457795
95	0xbe36025c	-0.17774338
96	0x3e7d6bb7	0.24748121
97	0x3e579f5b	0.21056883
98	0x3e6f2279	0.23352994
99	0xbeacc924	-0.33747208
100	0xbe95a98c	-0.29230917
101	0x3e8bec2e	0.27328628
102	0x3ee71d8d	0.45139733
103	0xbe6c3ebe	-0.23070809
104	0xbef8bab5	-0.48579946
105	0xbe0fd6d4	-0.14046794
106	0x3e99732d	0.29970685
107	0x3e9cac4d	0.30600205
108	0xbcb14a70	-0.02164194
109	0xbed9d990	-0.425488
110	0xbea19697	-0.31560203
111	0x3e1c72a5	0.15278108
112	0xbe0df98e	-0.13864729
113	0xbda70b91	-0.08156503
114	0xbd31d347	-0.04341438
115	0x3da74340	0.08167124
116	0x3ead00d6	0.337897
117	0x3e53039a	0.20606843
118	0xbe86b11f	-0.26307008
119	0xbdda349b	-0.10654565
120	0xbda11d55	-0.07866923
121	0x3ec0b085	0.37634674
122	0x3e599b1d	0.21250577
123	0xbeebe415	-0.4607245
124	0xbe0c7e1d	-0.13719983
125	0xbe916cd3	-0.2840334
126	0xbe9746b9	-0.29546145
127	0x3e7c80aa	0.24658456
128	0xbe9eedd3	-0.3104082
129	0x3caffd2b	0.021483025
130	0xbe45c1a1	-0.19312145
131	0x3ec53cef	0.3852305
132	0x3dc68ccd	0.09694824
133	0xbd3b0508	-0.045659095
134	0xbe9bf49e	-0.30460066
135	0xbcbc3544	-0.022974618
136	0x3cf54803	0.029941564
137	0x3e3cbfe9	0.18432583
138	0xbe4de9b6	-0.20108685
139	0xbdde3a80	-0.10851002
140	0xbe920549	-0.28519657
141	0xbd95417a	-0.07287879
142	0x3ec6b06d	0.38806477
143	0xbee97f67	-0.45605013
144	0xbecef578	-0.40421653
145	0x3cf386fc	0.029727452
146	0xbe48699a	-0.19571534
147	0x3d622922	0.05521501
148	0xbd1436f7	-0.03618523
149	0xbe42e81c	-0.19033855
150	0xbe3ca9dd	-0.18424173
151	0x3e7313eb	0.23738067
152	0x3e61ccf1	0.22050835
153	0xbe8ee19d	-0.27906504
154	0xbddbbf04	-0.10729793
155	0x3e271d81	0.16319849
156	0xbd975c56	-0.073906586
157	0xbe0a03ce	-0.13478014
158	0xbea8d8e9	-0.3297799
159	0xbdc3a9e6	-0.0955389
160	0xbea66478	-0.32498527
161	0x3eb0cd98	0.34531856
162	0x3f06e133	0.52687377
163	0xbdcfc0f9	-0.101442285
164	0xbe7b8882	-0.24563792
165	0xbecd4f17	-0.40099403
166	0x3e9b0b4f	0.30282065
167	0x3e33d613	0.17562132
168	0xbea2d985	-0.3180658
169	0xbed37005	-0.41296402
170	0xbecb2d44	-0.39682972
171	0x3edcf121	0.43152717
172	0x3d9b3c55	0.07579867
173	0xbf1a7fe1	-0.6035138
174	0xbec69ea8	-0.3879292
175	0xbe63127e	-0.22175023
176	0xbbd4417a	-0.006477532
177	0x3e3eaa3f	0.18619631
178	0xbebdf9d5	-0.3710467
179	0x3dd501cd	0.10400734
180	0xbe3dc379	-0.18531598
181	0x3eb44f84	0.35216916
182	0x3c794cb8	0.015216045
183	0xbea47277	-0.3211858
184	0xbea2027d	-0.31642523
185	0xbb760c14	-0.003754382
186	0xbea07a06	-0.31343096
187	0x3e672f49	0.22576632
188	0xbec886f2	-0.39165455
189	0x3de2ddba	0.11077447
190	0xbec4fa78	-0.38472342
191	0x3f00a030	0.50244427
192	0x3e7d744a	0.24751392
193	0xbea17090	-0.3153119
194	0xbeeca46d	-0.46219197
195	0xbebf9014	-0.3741461
196	0x3e9335b9	0.28751925
197	0x3e5f5fb5	0.21813853
198	0xbe026356	-0.12733206
199	0xbef64254	-0.4809748
200	0xbe4d21a1	-0.2003236
201	0x3e9540d9	0.29151037
202	0x3d65ba5d	0.056085933
203	0xbec04e5d	-0.37559786
204	0xbe8f6c41	-0.2801228
205	0xbe8df562	-0.27726275
206	0x3e2d10b7	0.16900907
207	0xbe5a65f5	-0.21327956
208	0x3ddee986	0.10884385
209	0xbd63f9ae	-0.055658035
210	0xbe04d2ab	-0.12970988
211	0xbe44e216	-0.1922687
212	0x3e21552c	0.15755147
213	0xbd5abc0b	-0.053401988
214	0x3e254fa2	0.16143659
215	0x3ea1c5c3	0.31596193
216	0xbe4341c7	-0.19068061
217	0xbe13bcde	-0.14427516
218	0xbdde3459	-0.10849828
219	0x3d84bd08	0.06481367
220	0x3ea9f34f	0.33193442
221	0xbe241dc7	-0.16026984
222	0xbe8aaeac	-0.2708639
223	0x3d4bcd29	0.049756203
224	0xbe81b6c0	-0.2533474
225	0x3dfca8c8	0.1233688
226	0x3d26636c	0.04062216
227	0xbe255116	-0.16144213
228	0x3dac65e8	0.084178746
229	0x3e648c09	0.22319044
230	0x3e7f373c	0.24923414
231	0xbd95dfd7	-0.07318085
232	0x3b872f0c	0.0041254815
233	0x3d879998	0.066210926
234	0xbd823aa3	-0.0635884
235	0x3e24676d	0.16055079
236	0x3d4868e2	0.04892815
237	0xbe91b130	-0.28455496
238	0x3dc3bd42	0.095575824
239	0x3d88ab85	0.0667334
240	0x3e9a49e6	0.30134505
241	0xbdf6862e	-0.120373115
242	0xbe369299	-0.1782936
243	0x3e0df16d	0.13861628
244	0x3e46b297	0.19404064
245	0x3ea046c9	0.31304005
246	0xbe17056e	-0.14748165
247	0x3d30d0fb	0.04316805
248	0xbbd6118c	-0.0065328535
249	0xbe359970	-0.17734313
250	0xbd0da535	-0.03458138
251	0xbe5c447a	-0.21510497
252	0x3eaa3555	0.33243814
253	0x3dbc4180	0.09192181
254	0xbc55b1c8	-0.013042875
255	0x3dbd5b71	0.09245957
