best/timestep_4_att_prediction_model.pth (torch, 106523 bytes, 22 tensors)

cnn.0.weight f4 [8, 3, 2]
0	0xbe519e6e	-0.20470592
1	0xbe338138	-0.17529762
2	0x3dac3f48	0.084105074
3	0x3d65ec20	0.05613339
4	0xbc273100	-0.010204554
5	0xbdf5426c	-0.119755596
6	0x3e8bbde2	0.27293307
7	0x3d9066cb	0.07050856
8	0x3d414eb6	0.047194205
9	0x3dc36a5d	0.095417716
10	0xbddd1852	-0.10795654
11	0xbe18925b	-0.1489958
12	0x3e897675	0.26848188
13	0x3dfac024	0.12243679
14	0x3e5b15bc	0.2139501
15	0xbeb03acf	-0.34419867
16	0x3ebf3c60	0.3735075
17	0x3d82305f	0.06356882
18	0xbec8e97e	-0.3924064
19	0x3e8c51e0	0.27406216
20	0x3ecae57d	0.3962821
21	0xbd05e67a	-0.032690503
22	0x3dfe71ce	0.1242405
23	0x3db61084	0.08889869
24	0xbea008d7	-0.31256744
25	0x3e7084ba	0.23488131
26	0x3e1ed185	0.15509613
27	0x3e83f5e4	0.25773537
28	0xbe9f9097	-0.31165
29	0x3e7e5bf3	0.24839763
30	0x3ea71174	0.32630503
31	0xbb65da09	-0.0035072586
32	0x3e81736f	0.2528338
33	0xbdb0ad49	-0.086268015
34	0x3d412d24	0.04716219
35	0x3e844b50	0.2583871
36	0x3e826537	0.25467846
37	0x3e4f7fd2	0.20263603
38	0x3d5b5448	0.053547174
39	0xbe9ba2b0	-0.30397558
40	0xbe36fc85	-0.17869766
41	0xbe1094fd	-0.14119335
42	0xbe9cde1c	-0.30638206
43	0x3e704449	0.23463549
44	0xbe8deef5	-0.27721372
45	0x3e530f03	0.20611195
46	0x3ea40e7a	0.32042295
47	0x3e82d5ba	0.25553685

cnn.0.bias f4 [8]
0	0xbe2705cf	-0.1631081
1	0x3dff6970	0.124712825
2	0xbe7d774d	-0.24752541
3	0x3df34870	0.11879051
4	0x3d1ef907	0.03881171
5	0xbeb04a3a	-0.3443163
6	0x3e3c113d	0.18365951
7	0xbcf389ee	-0.029728856

cnn.2.weight f4 [16, 8, 2]
0	0xbdacd41c	-0.08438894
1	0x3ca97c30	0.0206891
2	0xbc5a3400	-0.013318062
3	0xbe5da846	-0.21646222
4	0xbd114690	-0.035467684
5	0x3e51ef1c	0.20501369
6	0x3cbced30	0.023062319
7	0xbe166ee4	-0.14690739
8	0xbd816350	-0.063177705
9	0x3d9058a0	0.07048154
10	0xbcfd8790	-0.03094843
11	0xbe53e4ca	-0.20692745
12	0x3d5a0c60	0.053234458
13	0xbe533ffa	-0.20629874
14	0xbe320ac0	-0.17386913
15	0x3c49ac80	0.012309194
16	0x3dd2b8b4	0.102891356
17	0x3e01a194	0.12659293
18	0xbe4100e4	-0.18847996
19	0x3d8bc1c8	0.0682407
20	0x3e7d7ae8	0.24753916
21	0x3c6455c0	0.01393646
22	0xbe76f482	-0.2411671
23	0x3e7421be	0.23840997
24	0xbd9fccfc	-0.078027695
25	0x3df0298c	0.117266744
26	0xbd3c6268	-0.045992285
27	0xbe59eebc	-0.21282476
28	0xba65e600	-0.00087699294
29	0xbe5e7f78	-0.21728313
30	0xbdc9a4f4	-0.098459154
31	0xbe3fb2ea	-0.18720594
32	0x3e6a7a24	0.22898155
33	0xbbff1140	-0.007784039
34	0x3e3dd49a	0.18538132
35	0x3e3fbe92	0.1872504
36	0xbd2abee6	-0.04168596
37	0x3d42f8e3	0.047600638
38	0xbe444062	-0.19165185
39	0xbe4a3ef1	-0.19750573
40	0xbd7b1fa4	-0.06130947
41	0xbb1e14a0	-0.002412118
42	0x3e81af2c	0.25328958
43	0x3e49ba04	0.19699866
44	0x3dd898ab	0.10575994
45	0x3dc370d1	0.095430024
46	0x3df07eb9	0.117429204
47	0xbe0907a2	-0.13381818
48	0x3e503d80	0.2033596
49	0x3d1a12b8	0.037615508
50	0x3d624e9f	0.05525076
51	0x3e23801b	0.15966837
52	0x3e623f61	0.2209449
53	0x3d91b7eb	0.07115158
54	0x3db8eab4	0.09029141
55	0x3e422750	0.18960309
56	0xbe198223	-0.1499105
57	0x3d0c43e2	0.034244426
58	0xbe841f57	-0.2580516
59	0xbe82f718	-0.25579143
60	0xbd48059e	-0.048833482
61	0xbe5fc706	-0.21853265
62	0x3d8f8786	0.07008271
63	0x3e2dcdfa	0.16973105
64	0x3e017e4a	0.12645832
65	0x3e366336	0.17811283
66	0x3bce3f76	0.006294186
67	0xbca2adfa	-0.01985835
68	0x3e82fe3d	0.25584593
69	0x3ceaf3f9	0.028680788
70	0xbde56dd3	-0.11202588
71	0xbd073aa3	-0.033014905
72	0xbd9c5a2d	-0.07634387
73	0xbe630fb9	-0.22173966
74	0x3dc82f9c	0.09774706
75	0x3e162ca1	0.14665462
76	0x3d888849	0.06666619
77	0x3e1acc4d	0.15116997
78	0xbb121027	-0.002228746
79	0x3d891d23	0.066950105
80	0x3e0272ce	0.12739107
81	0xbda88fac	-0.08230528
82	0x3dcb0a16	0.09914033
83	0x3e1b5db9	0.15172471
84	0xbdd6690a	-0.10469253
85	0xbd06c008	-0.03289798
86	0xbe35ed7d	-0.17766376
87	0x3e7b8085	0.24560745
88	0x3e38365c	0.17989486
89	0xbe0cbf07	-0.13744746
90	0x3e4b8414	0.19874603
91	0x3e37d74f	0.17953227
92	0xbd9ae9ac	-0.075641006
93	0x3cd82ada	0.02638762
94	0xbe1cfdda	-0.15331212
95	0xbd691c15	-0.056911547
96	0x3c3cb480	0.011517644
97	0xbd31c408	-0.04339984
98	0xbd563cf3	-0.05230422
99	0x3e5ee11a	0.21765557
100	0x3d5bf363	0.05369891
101	0x3e2136e5	0.15743597
102	0xbd22bb31	-0.0397293
103	0x3bec1367	0.0072044614
104	0xbd33d77d	-0.043906678
105	0x3e3dbfe0	0.18530226
106	0x3c6bcf81	0.0143927345
107	0xbd8a18df	-0.06743025
108	0xbe022946	-0.12711057
109	0x3d9c74ef	0.07639491
110	0xbe391278	-0.18073452
111	0x3e01f4ed	0.12691088
112	0x3e728c46	0.23686323
113	0xbe650acc	-0.223674
114	0xbd2edfab	-0.042693775
115	0xbc5ccdd6	-0.0134768095
116	0x3d99d394	0.075110584
117	0xbd5bd43b	-0.053669196
118	0xbe41a0a9	-0.18908943
119	0x3e79d8ed	0.24399157
120	0x3c98f732	0.01867256
121	0x3e5c6925	0.21524484
122	0x3e0b3a23	0.13596396
123	0x3e0f271e	0.13979766
124	0x3e83fdeb	0.25779662
125	0xba58f38e	-0.00082760386
126	0x3e9a2c92	0.3011213
127	0x3ea878e7	0.3290474
128	0x3e6316de	0.22176692
129	0xbe483cb0	-0.195544
130	0x3d810afd	0.06300924
131	0xbe5ac871	-0.21365525
132	0xbe488501	-0.19581987
133	0xbd8281c6	-0.063724086
134	0xbe26105d	-0.1621718
135	0x3ce82af0	0.028340787
136	0xbe50dd91	-0.20397021
137	0xbdee88c4	-0.1164718
138	0x3dbcbf64	0.09216192
139	0x3e0e90ae	0.13922378
140	0x3e884574	0.2661549
141	0xbd0e7259	-0.03477702
142	0xbe185344	-0.14875513
143	0x3dfa44e9	0.12220175
144	0x3c63d280	0.013905168
145	0x3e3592a6	0.17731723
146	0xbb1caaaa	-0.0023905435
147	0x3e296ebb	0.16546147
148	0x3dddfdff	0.108394615
149	0xbd4ff604	-0.05077173
150	0xbd1ffb7e	-0.0390582
151	0x3e5c0bba	0.21488848
152	0xbde5f0fc	-0.11227605
153	0x3e1fd785	0.15609558
154	0xbe3815fe	-0.1797714
155	0xbdb60f0b	-0.08889588
156	0xbd300531	-0.0429737
157	0xbe3d91fb	-0.18512718
158	0x3db1835a	0.086676314
159	0x3e3402bf	0.17579173
160	0xbe555224	-0.20832115
161	0x3e265aaa	0.16245523
162	0xbd33fdae	-0.0439431
163	0xbe6f8654	-0.23391086
164	0xbe0d235b	-0.13783018
165	0xbe6cd127	-0.2312666
166	0x3db05a1d	0.08610938
167	0x3d221d81	0.03957892
168	0x3befd014	0.007318506
169	0x3d80a139	0.06280751
170	0xbe784991	-0.24246813
171	0x3dd68939	0.10475392
172	0xbe2a1218	-0.16608465
173	0x3ca706d0	0.02038899
174	0x3e61dd7c	0.22057146
175	0x3e236068	0.15954745
176	0xbe3d345a	-0.18477002
177	0x3d4465c8	0.04794863
178	0xbd68d9e9	-0.05684844
179	0x3c702407	0.014657027
180	0xbdd3be66	-0.1033905
181	0x3e621050	0.22076535
182	0x3e124f01	0.1428795
183	0xbde0a3f2	-0.1096877
184	0x3e38fd07	0.18065272
185	0x3e72be52	0.23705414
186	0xbe0812bf	-0.13288401
187	0x3e8993e7	0.26870653
188	0x3e38c436	0.18043599
189	0xbc0b3553	-0.0084966
190	0xbe2be805	-0.16787727
191	0xbddcb731	-0.107771285
192	0xbe617882	-0.22018626
193	0xbd1253c0	-0.0357244
194	0x3d77fe40	0.060545206
195	0xbd4a79d8	-0.049432606
196	0xbd6c2be8	-0.05765906
197	0xbe2eab74	-0.17057592
198	0xbd6f6ee0	-0.058455348
199	0x3ccba060	0.024856746
200	0xbe4d2f7a	-0.20037642
201	0x3e328c74	0.17436391
202	0xbd173b80	-0.036921978
203	0xbdfd1860	-0.12358165
204	0xbe54f726	-0.20797405
205	0xbdd51540	-0.10404444
206	0xbe489a70	-0.19590163
207	0xbe72cc40	-0.23710728
208	0xbe7d93f8	-0.24763477
209	0x3cd4a0b0	0.025955528
210	0xbda263a8	-0.07929164
211	0xbd04ce09	-0.032423053
212	0x3e83f272	0.2577091
213	0x3e0daeb8	0.13836181
214	0xbd9f47c1	-0.07777358
215	0x3e7d364d	0.24727745
216	0xbe1f2603	-0.15541844
217	0x3e0d0ed7	0.13775192
218	0x3e149a5f	0.14512013
219	0xbe17fe65	-0.14843138
220	0x3e09506a	0.13409582
221	0x3e1a4e6c	0.15068978
222	0xbdc9df78	-0.098570764
223	0x3dd0c6e8	0.10194188
224	0xbdbc6b00	-0.09200096
225	0xbb5c8e80	-0.0033654273
226	0xbde5ccd9	-0.11220712
227	0x3d7194d2	0.058979817
228	0xbe233638	-0.15938652
229	0x3e8919da	0.26777536
230	0xbd556ecb	-0.052107614
231	0xbe172a8a	-0.14762321
232	0x3e1c982f	0.15292428
233	0x3da341da	0.079715446
234	0xbe1ae9a1	-0.15128185
235	0x3dd50a90	0.10402405
236	0xbd686765	-0.05673923
237	0x3db5dacb	0.08879622
238	0x3dcd2347	0.10016494
239	0xbe0f3d71	-0.13988282
240	0x3d5df858	0.054191917
241	0xbe0ee93a	-0.13956156
242	0xbe3a00e0	-0.18164396
243	0x3d8aca13	0.06776824
244	0xbd6e20cb	-0.058136743
245	0x3c8ef908	0.017452732
246	0xbb4049aa	-0.0029340782
247	0xbdacca84	-0.08437064
248	0xbddc77c1	-0.10765029
249	0x3dced496	0.10099141
250	0xbe547311	-0.2074702
251	0x3e3b6129	0.18298782
252	0xbe09fb54	-0.1347478
253	0xbcd55e8a	-0.026046056
254	0xbdc3b9b9	-0.09556908
255	0x3e5e21e4	0.21692616

cnn.2.bias f4 [16]
0	0x3d4a7c58	0.04943499
1	0xbdf07fb4	-0.117431074
2	0xbe4c2d9e	-0.19939277
3	0xbdcf9e02	-0.101375595
4	0x3d6050b6	0.054764472
5	0xbde76c09	-0.11299903
6	0x3e154dab	0.14580409
7	0xbcba8733	-0.022769546
8	0x3e29d652	0.16585663
9	0xbd9cc545	-0.07654814
10	0x3e14f26b	0.145456
11	0x3e11b29b	0.14228289
12	0x3dc93770	0.09825027
13	0xbe738d87	-0.23784457
14	0x3e51976f	0.20467924
15	0x3e038afe	0.1284599

cnn.4.weight f4 [32, 16, 2]
0	0xbc9c1450	-0.019052655
1	0xbda3dce9	-0.0800112
2	0xbdb72668	-0.08942872
3	0xbdfe93c7	-0.1243053
4	0x3d9b9272	0.075962916
5	0xbd608555	-0.054814655
6	0xbd0b7f1e	-0.034056775
7	0xbd19d61c	-0.037557706
8	0xbe19f09d	-0.15033193
9	0x3dbaf4fc	0.09128758
10	0x3b755a8b	0.0037438
11	0xbe07bbfc	-0.13255304
12	0xbe3619f3	-0.17783336
13	0x3d9f6d2a	0.07784493
14	0xbdf8568d	-0.12125883
15	0x3ba6ae59	0.005086702
16	0xbe2fb9ad	-0.17160673
17	0x3c9b7b7a	0.018979777
18	0xb852d000	-5.0261617e-05
19	0xbdf37974	-0.118884
20	0xbca7c6b8	-0.020480499
21	0x3e1d693f	0.1537218
22	0xbde80e0d	-0.11330805
23	0x3e05c29f	0.13062523
24	0x3d6ab4c4	0.057301298
25	0x3c7558f0	0.014974818
26	0x3e1f58a6	0.1556116
27	0xbaad8acb	-0.0013240216
28	0xbd894f4a	-0.06704576
29	0xbd489f23	-0.04897989
30	0x3cc1d3f8	0.023660645
31	0x3e00a3eb	0.1256253
32	0x3e01b669	0.1266724
33	0xbe1600dd	-0.14648767
34	0xbe17de39	-0.14830865
35	0xbd3def94	-0.046371058
36	0x3e27f278	0.16401088
37	0xbe0be66b	-0.13662116
38	0xbdd85fdd	-0.105651595
39	0xbc4765d9	-0.0121702785
40	0x3d94a177	0.072573595
41	0x3dfdadc9	0.123866625
42	0xbddf736f	-0.10910689
43	0x3df8e72c	0.121534675
44	0x3d30717e	0.043076985
45	0x3d9d51c8	0.07681614
46	0xbd46dc84	-0.048550144
47	0x3e3bd314	0.18342239
48	0x3e2382ad	0.15967818
49	0x3b0abc34	0.0021169307
50	0x3d261dab	0.040555637
51	0x3e9058f2	0.2819286
52	0x3b2f19bf	0.0026718227
53	0x3d8cc4b8	0.068734586
54	0x3d0b08f2	0.033944078
55	0xbd9682ba	-0.07349153
56	0xbe253d53	-0.16136675
57	0xbdb2cf13	-0.087309025
58	0x3d8286c6	0.06373362
59	0x3d1e0fa3	0.03858913
60	0xbdfbb3b5	-0.12290136
61	0x3db05544	0.08610013
62	0xbe212aee	-0.15739033
63	0x3d0daf07	0.034590747
64	0x3d2e5784	0.04256393
65	0xbdc2d27c	-0.09512803
66	0xbcd71258	-0.026253864
67	0xbdd515a4	-0.10404518
68	0x3cc7a704	0.024371631
69	0x3e021884	0.12704664
70	0x3e1fa0d9	0.15588702
71	0xbc5256c4	-0.012838069
72	0xbde267db	-0.11054965
73	0xbcd20a8a	-0.025639791
74	0x3de791af	0.11307084
75	0xbd95475d	-0.07289002
76	0x3dcdcc94	0.10048786
77	0x3de5bb02	0.112173095
78	0x3d075a9f	0.033045407
79	0x3d07e5dd	0.0331782
80	0xbd1b54e9	-0.037922774
81	0xbd9e75f7	-0.07737344
82	0x3e52c288	0.2058202
83	0x3e0b9665	0.1363159
84	0x3b6d2f23	0.0036191426
85	0x3d9d364e	0.076763734
86	0xbdf47524	-0.11936405
87	0x3d55e386	0.052218936
88	0xbde243fd	-0.11048124
89	0xbd5adfa6	-0.053435944
90	0xbdf4fba8	-0.11962062
91	0x3d65e756	0.056128822
92	0xbdecd095	-0.11563221
93	0x3e66d3be	0.2254171
94	0xbe13a1b3	-0.14417152
95	0xbda3a2f5	-0.07990066
96	0xbe065d82	-0.13121608
97	0x3d83e7f0	0.06440723
98	0xbc10e740	-0.008844197
99	0xbdb83dbc	-0.0899615
100	0x3d909660	0.07059932
101	0xbe351984	-0.17685515
102	0x3d4a5ffe	0.04940795
103	0x3e325e1b	0.17418711
104	0xbe22e8e2	-0.1590915
105	0xbddd40f1	-0.10803402
106	0x3d758f31	0.05995101
107	0xbd6b6632	-0.057470508
108	0x3e1b7944	0.15182978
109	0xbd64da0c	-0.05587201
110	0xbe0f5089	-0.13995565
111	0x3cbd2e89	0.023093479
112	0xbe2408f8	-0.16019046
113	0xbe05eb48	-0.13078034
114	0xbe213cd9	-0.15745868
115	0xbd9e9198	-0.077426136
116	0xbe10ead1	-0.14152075
117	0x3e24ecbf	0.16105936
118	0xbbb2854f	-0.0054480205
119	0x3dfb2aac	0.122639984
120	0x3d9df3d6	0.07712524
121	0x3da43a46	0.08018927
122	0x3e40bd1b	0.18822138
123	0xbe29f3d6	-0.16596922
124	0x3a95f234	0.001143998
125	0xbd8ad46d	-0.06778798
126	0xbcb53dc4	-0.022124179
127	0xbce30d60	-0.027716339
128	0xbcefb860	-0.029262722
129	0x3deafdd2	0.11474194
130	0x3e0528bb	0.13003819
131	0x3dd3af7a	0.10336204
132	0x3d47f358	0.048816055
133	0x3e276d3d	0.16350265
134	0x3e1e4709	0.15456785
135	0xbdb3e9d2	-0.08784832
136	0xbc820230	-0.015870184
137	0xbdfae0d7	-0.12249916
138	0xbbf3c1a0	-0.0074388534
139	0xbe29f5ff	-0.16597746
140	0xbdb1d5b3	-0.08683338
141	0x3e2d4c7b	0.16923706
142	0xbdfe6461	-0.124214895
143	0xbe204639	-0.15651788
144	0xbe2c4eb6	-0.16826901
145	0x3e125fb9	0.14294328
146	0xbceef448	-0.029169217
147	0x3e02df1d	0.12780423
148	0x3e04f473	0.12983875
149	0xbe0d1aad	-0.13779707
150	0x3d8a0d6a	0.0674084
151	0x3c661930	0.014044091
152	0xbdb208cc	-0.08693084
153	0xbe101634	-0.1407097
154	0x3c3f45a0	0.011674315
155	0x3d07eb38	0.033183306
156	0x3c28adf0	0.010295376
157	0xbe0d93ab	-0.13825862
158	0x3c902198	0.017594144
159	0x3b9c3560	0.004767105
160	0x3dcc216e	0.09967314
161	0xbe34fb14	-0.17673904
162	0x3e1d2f49	0.15350069
163	0xbdb2727a	-0.08713241
164	0xbd2e34d6	-0.042530857
165	0x3d9ed3b4	0.07755223
166	0xbe32ee23	-0.17473654
167	0x3c954cbd	0.018225068
168	0x3cc97960	0.024594009
169	0xbe289550	-0.16463208
170	0x3d7562ab	0.05990855
171	0xbcd7357e	-0.026270624
172	0xbdcb018e	-0.09912406
173	0xbc6c0f50	-0.014407948
174	0xbe0dcbec	-0.13847321
175	0x3da193d8	0.07889527
176	0x3e20081b	0.15628092
177	0x3e18b74a	0.14913669
178	0x3e339769	0.17538227
179	0x3dd001b4	0.10156575
180	0xbc2bdfd3	-0.010490376
181	0xbe1691bd	-0.14704032
182	0xbdcdb4d7	-0.10044258
183	0xbdc1e1cd	-0.09466896
184	0x3dabf972	0.08397187
185	0x3dce35d6	0.10068862
186	0x3dfa7dc8	0.12231022
187	0xbdccfa49	-0.100086756
188	0xbd396554	-0.04526265
189	0x3e725161	0.23663856
190	0x3d488529	0.048955116
191	0x3dad75ff	0.084697716
192	0x3dd23b32	0.10265197
193	0x3e282545	0.16420467
194	0x3dfa190e	0.1221181
195	0x3ddea58e	0.10871421
196	0x3c72d60e	0.014821542
197	0xbaeb7193	-0.0017962925
198	0xbe192222	-0.14954427
199	0xbe20befd	-0.15697856
200	0xbd709d9c	-0.058744058
201	0x3da6e964	0.081499845
202	0x3d8cd7a9	0.068770714
203	0x3d33655d	0.04379784
204	0x3c9f8ddd	0.019476825
205	0xbd8fee09	-0.070278235
206	0x3dbca09b	0.092103206
207	0x3e09d8bd	0.13461585
208	0xbe0a3405	-0.13496406
209	0x3da9915e	0.0827968
210	0x3e6b6773	0.22988681
211	0x3e1c0eaf	0.15239976
212	0xbdfc1004	-0.12307742
213	0x3dc67290	0.0968982
214	0xbc922af7	-0.017842753
215	0x3e356db4	0.1771763
216	0xbe32f4a6	-0.17476138
217	0xbe1204c5	-0.14259632
218	0xbc4276f3	-0.01186918
219	0x3e3822d9	0.17982043
220	0x3d4b6974	0.049661115
221	0xbda59c0a	-0.08086403
222	0xbd4817cb	-0.048850816
223	0x3de86576	0.11347477
224	0xbd07ff2c	-0.033202335
225	0x3d50eb58	0.05100569
226	0xbe21b323	-0.15790991
227	0xbcd10098	-0.025512978
228	0xbe10fb65	-0.141584
229	0x3e38fac5	0.18064411
230	0x3d2c6872	0.042091794
231	0xbdd3e4ea	-0.10346396
232	0x3d333ca9	0.043759022
233	0x3cb5ad55	0.022177378
234	0xbab4aace	-0.0013783814
235	0xbd9ec4b5	-0.07752363
236	0xbcb8e9fb	-0.022572508
237	0xbca9847a	-0.020693053
238	0xbbb8f8ac	-0.0056448784
239	0x3e02d519	0.12776603
240	0xbe057da7	-0.13036214
241	0x3e0554a9	0.13020577
242	0xbd50f6d7	-0.051016655
243	0x3e8a250a	0.26981384
244	0xbe1053e9	-0.14094509
245	0xbde0eb87	-0.10982423
246	0x3ddb7ab2	0.10716762
247	0x3e26feb3	0.16308098
248	0xbdca0cf8	-0.09865755
249	0xbd4614a8	-0.048359543
250	0x3cc6ccf4	0.024267651
251	0x3cf92759	0.03041427
252	0x3cf40126	0.029785704
253	0xbdc9b9a0	-0.09849858
254	0x3ddb1593	0.10697474
255	0x3dcd29f6	0.10017769

cnn.4.bias f4 [32]
0	0x3d162883	0.03665973
1	0x3e05867b	0.13039581
2	0x3dfade3a	0.122494176
3	0x3c998246	0.018738877
4	0xbdaa0436	-0.083015844
5	0x3db12743	0.08650067
6	0x3d763ad4	0.060114697
7	0xbd9edd72	-0.07757081
8	0x3dc1029a	0.09424324
9	0xbdae18bc	-0.085008115
10	0x3deaa18c	0.11456594
11	0xbdd6bd52	-0.10485329
12	0xbe0e5b0a	-0.13901916
13	0x3e0a7934	0.13522798
14	0x3d37a57c	0.044835553
15	0xbe27c685	-0.16384323
16	0x3d80f7e6	0.06297283
17	0x3e3a25fe	0.18178555
18	0xbd829046	-0.06375174
19	0x3d033de6	0.032041453
20	0x3cf38283	0.029725319
21	0x3e032312	0.12806347
22	0xbc45b40b	-0.012066851
23	0xbd71b007	-0.059005763
24	0x3dd905a1	0.10596777
25	0xbe2e08ae	-0.16995499
26	0x3dc39c5b	0.09551307
27	0xbe1a9f90	-0.15099931
28	0xbd73fb21	-0.059565667
29	0x3e12632d	0.14295645
30	0x3d5a0eb8	0.053236693
31	0xbcd68168	-0.026184753

cnn_fc.weight f4 [128, 32]
0	0x3c3f3e60	0.011672586
1	0x3dd40fc8	0.103545725
2	0x3cd4d5b1	0.025980802
3	0x3dfc1646	0.12308936
4	0x3ce39da8	0.027785137
5	0xbe11f315	-0.14252885
6	0xbcfd125a	-0.03089254
7	0x3d35bc0a	0.04436878
8	0x3d8c4052	0.068482056
9	0xbd961d77	-0.07329839
10	0x3db52912	0.08845724
11	0x3e2d42a1	0.16919948
12	0x3c0c31a0	0.008556753
13	0xbe1278a1	-0.14303829
14	0x3da442a4	0.08020523
15	0xbdf746a0	-0.120740175
16	0xbdcf438c	-0.101203054
17	0x3d39bd2c	0.045346424
18	0x3e2897d1	0.16464163
19	0xbd142e81	-0.036177162
20	0x3d3a066a	0.045416273
21	0x3e06da7f	0.13169287
22	0xbe1cec6e	-0.15324566
23	0xbdf65e9c	-0.12029764
24	0xbdd7cde5	-0.10537318
25	0x3d22aef3	0.039717626
26	0x3d7598ef	0.059960302
27	0xbdb9d762	-0.09074284
28	0xbd03e900	-0.032204628
29	0x3e1f4764	0.15554577
30	0xbe195d85	-0.14977081
31	0x3e20278b	0.15640084
32	0xbe2dced4	-0.1697343
33	0xbdbb3896	-0.09141652
34	0x3e2f99f2	0.17148569
35	0x3d97d70a	0.07414062
36	0x3d7e877c	0.062140927
37	0x3e01afa3	0.12664656
38	0x3e4ef9a0	0.20212412
39	0x3d9df13d	0.07712028
40	0xbe3f3a92	-0.18674687
41	0x3dd81ecf	0.10552751
42	0x3d954fec	0.072906345
43	0xbda4b19b	-0.08041688
44	0xbd3a0630	-0.045416057
45	0x3e0a67fc	0.1351623
46	0xbd52f4eb	-0.051503103
47	0x3df497cc	0.119430155
48	0xbe2425e8	-0.16030085
49	0x3dc1728f	0.094456784
50	0xbd5bcdd0	-0.053663075
51	0x3db5da50	0.088795304
52	0x3dad9517	0.08475702
53	0xbde7015f	-0.112795584
54	0x3dbe8c7d	0.0930414
55	0x3d668242	0.056276567
56	0xbe56c642	-0.20974067
57	0xbc25f2db	-0.010128702
58	0x3bba6329	0.0056880903
59	0x3e270183	0.1630917
60	0x3e16e4ab	0.14735667
61	0xbdac0d67	-0.08400994
62	0xbd82cdde	-0.06386922
63	0x3e2c9637	0.16854177
64	0x3e1c7c17	0.15281712
65	0x3df77f8f	0.12084877
66	0xbd7dcaed	-0.061961103
67	0x3d73350b	0.059376758
68	0xbe1f2fd4	-0.15545589
69	0x3dd1316a	0.10214503
70	0xbdfa2bbb	-0.12215372
71	0x3d5ea13d	0.054352988
72	0xbe482bc4	-0.19547945
73	0x3dbc78ec	0.092027515
74	0xbc8a9144	-0.016914971
75	0x3df14cae	0.117822036
76	0xbe213ecd	-0.15746613
77	0x3cd04391	0.025422843
78	0xbe0aa223	-0.13538413
79	0xbdf0b664	-0.11753538
80	0xbe2ec071	-0.17065598
81	0xbd1d6901	-0.038430218
82	0xbe2bc0a2	-0.16772702
83	0x3d9c6497	0.076363735
84	0xbcf2a666	-0.02962036
85	0xbda526fc	-0.08064076
86	0xbccd6763	-0.025073713
87	0xbe26d88d	-0.16293545
88	0x3d4c4b66	0.049876593
89	0x3d90ee35	0.070766844
90	0x3dd756f5	0.105146326
91	0x3dc00146	0.09375243
92	0x3da211d6	0.07913558
93	0x3a9af290	0.0011821557
94	0xbde2a877	-0.11067288
95	0xbcb2589d	-0.02177077
96	0xbce5c908	-0.02804996
97	0xbd541415	-0.051776964
98	0xbd923f65	-0.07140998
99	0x3e0c26e2	0.13686708
100	0xbd2f8be8	-0.042858034
101	0x3dd5db28	0.10442191
102	0xbda6918e	-0.08133231
103	0xbd906f8e	-0.07052527
104	0xbc8d36c0	-0.01723802
105	0xbd573b46	-0.052546762
106	0xbd5bb665	-0.05364074
107	0x3ce0e340	0.027452111
108	0x3dcceaea	0.10005744
109	0x3d3f9308	0.04677108
110	0xbdb09ad0	-0.08623278
111	0xbd66bd21	-0.05633271
112	0xbe55c8e5	-0.20877416
113	0x3d574360	0.05255449
114	0xbd97c42e	-0.07410465
115	0xbe0b2295	-0.13587411
116	0x3d76a33b	0.060214262
117	0x3ddc9151	0.107699044
118	0xbe0f4725	-0.13991983
119	0x3e0dc453	0.13844423
120	0x3d7ebac9	0.06218985
121	0x3cac2473	0.021013474
122	0x3e1f4c8c	0.15556544
123	0xbc28eea0	-0.010310799
124	0xbde81c85	-0.11333565
125	0x3c4ad1d4	0.0123791285
126	0xbc8184a0	-0.01581031
127	0xbd0fad4b	-0.035077374
128	0xbce997b4	-0.02851472
129	0x3da4433c	0.080206364
130	0x3c2d90ec	0.010593634
131	0x3e2bfe74	0.16796285
132	0x3dd6c5de	0.10486959
133	0x3ddbed83	0.10738661
134	0xbe1a2766	-0.15054092
135	0xbd4b3727	-0.049613144
136	0xbe34ab9f	-0.17643593
137	0xbcce9c45	-0.025221
138	0xbd7663e8	-0.06015387
139	0x3e125a63	0.14292292
140	0x3e1d6aeb	0.15372817
141	0xbdc21eaa	-0.09478505
142	0x3e1b8020	0.15185595
143	0xbb74496f	-0.0037275215
144	0x3d21a1dc	0.039461
145	0xbd9b6f27	-0.0758956
146	0xbd97ed86	-0.07418351
147	0xbd3671cb	-0.044542115
148	0xbd8ff92e	-0.07029949
149	0x3e3bff70	0.1835916
150	0x3d42e3ca	0.047580518
151	0x3c93e212	0.018052135
152	0xbd56d787	-0.052451637
153	0xbdece419	-0.11566944
154	0x3c9b502c	0.018959127
155	0x3d5761f8	0.052583665
156	0x3e1ecae6	0.15507087
157	0xbd54a2dd	-0.05191313
158	0xbe047574	-0.1293543
159	0x3b9b30a0	0.004736021
160	0x3e16beb2	0.14721182
161	0x3e1240d5	0.14282544
162	0x3d511776	0.051047765
163	0xbdce309b	-0.100678645
164	0x3dc95096	0.09829824
165	0x3e2a895b	0.1665396
166	0xbe19d79e	-0.15023658
167	0x3e079642	0.13240913
168	0xbdf55211	-0.119785435
169	0x3dae6656	0.08515613
170	0xbdbfcb42	-0.0936494
171	0xbe31189d	-0.17294545
172	0x3dd449d6	0.103656456
173	0xbe26e2ed	-0.16297503
174	0xbe271ae6	-0.16318855
175	0xbd906f13	-0.07052436
176	0x3dfe0ed0	0.12405169
177	0x3d5d5692	0.054037638
178	0xbe128518	-0.14308584
179	0x3de82614	0.11335388
180	0xbd375dcf	-0.044767197
181	0x3db06e34	0.086147696
182	0x3dd145b5	0.10218374
183	0xbd82d83e	-0.06388901
184	0x3b41e223	0.002958425
185	0xbe2696c6	-0.16268453
186	0xbe0d2dd4	-0.13787013
187	0x3ba756a0	0.005106762
188	0xbdf3f1e5	-0.11911372
189	0xbd1970d6	-0.037461124
190	0x3e2770bd	0.163516
191	0xbd543812	-0.051811285
192	0xbddca7a2	-0.10774161
193	0xbd71e9f8	-0.05906102
194	0x3d706517	0.058690157
195	0xbe068d78	-0.13139904
196	0xbd16877c	-0.0367503
197	0xbd6c4e2c	-0.057691738
198	0xbda8f855	-0.082504906
199	0xbda55489	-0.080727644
200	0xbda27e5c	-0.079342574
201	0x3cef2a05	0.029194841
202	0xbdf96bd1	-0.121787675
203	0x3e066355	0.1312383
204	0xbd854704	-0.06507686
205	0x3e2e3ecc	0.17016143
206	0x3d845dbc	0.06463191
207	0x3c4d3adf	0.012526243
208	0xbbaf61b5	-0.0053522238
209	0x3ccd04fe	0.025026795
210	0xbe0cc26a	-0.13746038
211	0xbe128d7e	-0.14311787
212	0x3a70f6e9	0.0009192066
213	0xbdfb5c73	-0.12273493
214	0x3e3b9a2d	0.18320532
215	0x3da0a747	0.078444056
216	0xbc174fde	-0.00923535
217	0x3e202500	0.15639114
218	0x3d5156bc	0.051108107
219	0xbe144e9a	-0.14483109
220	0x3d5498e8	0.051903635
221	0xbe0e4474	-0.138933
222	0xbd5410b2	-0.051773734
223	0x3bd97088	0.006635729
224	0x3cfe4705	0.031039724
225	0x3e118e8d	0.14214535
226	0xbd0c4210	-0.03424269
227	0xbcc718b8	-0.024303779
228	0x3e25d673	0.16195087
229	0xbda311b7	-0.07962363
230	0x3d21730b	0.039416354
231	0xbb3881dc	-0.0028153574
232	0x3deefd14	0.116693646
233	0x3e048691	0.12941958
234	0xbd215e2f	-0.03939646
235	0xbd842f42	-0.06454326
236	0x3e075a05	0.13217933
237	0xbc9b04db	-0.018923214
238	0x3dc69c2d	0.09697757
239	0x3e13a0e3	0.14416842
240	0xbdb14f29	-0.08657677
241	0x3db0c7bd	0.08631847
242	0x3d556d40	0.052106142
243	0x3da02489	0.078194685
244	0xbd8a58da	-0.06755228
245	0x3d893b84	0.06700805
246	0x3de3ec1d	0.111290194
247	0x3e0b919a	0.13629761
248	0xbe242604	-0.16030127
249	0xbd84ff61	-0.06494022
250	0xbe1798f3	-0.14804439
251	0x3e1d0f8d	0.15337963
252	0x3e212e36	0.15740284
253	0xbe239797	-0.15975796
254	0xbdbcb3e4	-0.09213999
255	0x3d1b194b	0.037865918

cnn_fc.bias f4 [128]
0	0xbd903dba	-0.070430234
1	0x3d811ad9	0.06303949
2	0xbd91fb35	-0.07127992
3	0x3df327af	0.118728034
4	0x3e084cfa	0.13310614
5	0x3d1bb77b	0.038016777
6	0xbe066a7b	-0.13126557
7	0x3e1f180d	0.15536518
8	0xbdb59fb3	-0.08868351
9	0xbe21ac10	-0.15788293
10	0xbdcc7f72	-0.09985246
11	0xbda0961f	-0.07841133
12	0xbe3b059c	-0.18263859
13	0xbddadbdb	-0.10686465
14	0x3e3dbb08	0.18528378
15	0xbdba2e52	-0.09090866
16	0x3d54a6c7	0.051916864
17	0x3dd43a8a	0.10362728
18	0xbe2f6156	-0.17126974
19	0xbe222c44	-0.15837198
20	0x3d3b226e	0.04568713
21	0xbb96f08d	-0.0046063126
22	0xbe2238f5	-0.1584204
23	0xb9afc048	-0.00033521862
24	0xbcccef0a	-0.025016326
25	0x3d7428f2	0.05960936
26	0xbbd5f73a	-0.006529716
27	0xbd674330	-0.05646056
28	0xbd817528	-0.06321174
29	0x3e38e384	0.1805554
30	0x3d8f42e0	0.06995177
31	0x3e0fe2da	0.14051381
32	0xbdcece78	-0.100979745
33	0xbd29dfd3	-0.04147322
34	0xbe3f35aa	-0.18672815
35	0x3c706463	0.014672372
36	0x3a649a2b	0.00087204826
37	0xba111ab2	-0.0005535289
38	0xbd990edf	-0.074735396
39	0xbe188136	-0.1489304
40	0xbdff603e	-0.124695286
41	0x3d25a198	0.04043731
42	0x3c4883a9	0.0122384215
43	0x3e0a1ada	0.13486806
44	0xbe158388	-0.14600956
45	0xbd84c792	-0.064833775
46	0xbceaf752	-0.028682385
47	0x3a8c3c5d	0.0010699142
48	0xbdb8783c	-0.09007308
49	0xbd827d43	-0.06371548
50	0x3e04ac38	0.12956321
51	0xbe2b8c12	-0.16752651
52	0xbe1c5df2	-0.15270212
53	0x3de55721	0.11198259
54	0xbe437d6c	-0.19090813
55	0xbca5b5eb	-0.020228347
56	0x3e058ffb	0.13043205
57	0x3d85404f	0.065064065
58	0x3df20034	0.11816445
59	0xbd2a7cff	-0.04162311
60	0xbd69221e	-0.056917302
61	0xbe129ae1	-0.14316894
62	0x3de63eb1	0.11242426
63	0x3d994377	0.07483571
64	0x3dc38c28	0.09548217
65	0x3e2c2724	0.16811806
66	0x3dd95a7f	0.10612964
67	0x3e30fd46	0.17284116
68	0xbcd2a03d	-0.025711173
69	0xbcfd1980	-0.030895948
70	0x3da509e8	0.0805853
71	0xbd3b0d91	-0.045667235
72	0xbe299c14	-0.16563445
73	0x3bd3fc22	0.0064692656
74	0xbdb54076	-0.088501856
75	0x3e00fac9	0.12595667
76	0x3cc8a3fe	0.02449226
77	0x3c739dc1	0.014869154
78	0x3d78dcf5	0.060757596
79	0xbe0d79f6	-0.13816056
80	0xbcd876e5	-0.02642388
81	0x3d9fd19d	0.078036524
82	0xbdb5f4e8	-0.08884603
83	0xbe09704f	-0.13421749
84	0x3d898e79	0.06716628
85	0x3cd79b1e	0.026319083
86	0xbdb8eab6	-0.090291426
87	0xbe195085	-0.14972122
88	0x3dcd9a81	0.10039235
89	0x3e24edb6	0.16106305
90	0xbdef7e66	-0.116940305
91	0xbd30e6c7	-0.043188836
92	0x3c48077f	0.012208818
93	0x3dd4a131	0.10382307
94	0xbdeabbb1	-0.114615805
95	0x3d3c68cc	0.04599838
96	0xbe2a2f73	-0.16619663
97	0x3e0a490e	0.1350443
98	0xbdd3a775	-0.10334674
99	0x3b121ca0	0.0022294894
100	0xbe1ba44a	-0.1519939
101	0x3e15987b	0.14608948
102	0xbe0a16ed	-0.13485308
103	0xbd5c22ff	-0.053744312
104	0xbe02b2a9	-0.12763466
105	0xbd0ca2de	-0.03433501
106	0x3ddbb9f8	0.1072883
107	0x3bb0e2d0	0.005398132
108	0xbd9699f3	-0.07353582
109	0x3e0de249	0.13855852
110	0xbdf9564d	-0.12174664
111	0xbe0670fb	-0.13129036
112	0x3df2d953	0.118578576
113	0xbde84b69	-0.11342508
114	0x3c04a863	0.008096787
115	0x3ddd7d49	0.10814912
116	0xbdceceb5	-0.1009802
117	0x3c89273d	0.016742343
118	0xbc72fdfd	-0.014831063
119	0xbdf951b4	-0.12173787
120	0x3dc2db3b	0.09514471
121	0x3df30a1c	0.118671626
122	0x3c58ba80	0.013228059
123	0xbb8b830d	-0.004257566
124	0xbdfa26bb	-0.122144185
125	0x3e2102e6	0.15723762
126	0x3e3863f5	0.1800688
127	0xbe1ead26	-0.15495738

gru.weight_ih_l0 f4 [30, 3]
0	0xbeb1c05f	-0.3471708
1	0x3c0ddf79	0.008659237
2	0xbea98324	-0.33107865
3	0xbd43a5b5	-0.047765452
4	0x3ea06180	0.31324387
5	0xbce83d9a	-0.028349686
6	0xbe29beb2	-0.1657665
7	0xbe232ed3	-0.15935831
8	0xbe71e559	-0.23622645
9	0xbe2354f5	-0.15950377
10	0x3d9e4db9	0.07729668
11	0x3e38c3d6	0.18043455
12	0x3eafaed9	0.34313086
13	0x3e2ec66c	0.1706788
14	0x3e948985	0.2901117
15	0x3def0e8c	0.116726965
16	0xbe495ac3	-0.19663529
17	0x3e84bf6c	0.25927293
18	0xbd85d1fb	-0.06534191
19	0xbeadcbb3	-0.33944473
20	0xbcd358fc	-0.025799267
21	0x3e1251b3	0.14288978
22	0x3ce007f6	0.027347546
23	0x3e8f28e1	0.27960876
24	0xbd4e7adb	-0.050410133
25	0x3e02a23f	0.12757204
26	0xbe71e662	-0.2362304
27	0xbe795886	-0.24350175
28	0x3b95b43d	0.004568605
29	0x3e891539	0.26774004
30	0xbdb6b77e	-0.08921717
31	0xbbb24196	-0.0054399474
32	0xbe87e0d3	-0.26538715
33	0xbe8913f7	-0.26773044
34	0xbe5cc8b4	-0.21560937
35	0xbe701489	-0.23445334
36	0xbe83ee2c	-0.25767648
37	0xbd400b9a	-0.046886064
38	0x3e098084	0.13427931
39	0xbe146e24	-0.1449514
40	0x3df08d95	0.11745755
41	0x3e7a764f	0.24459194
42	0x3d7e1bb9	0.062038157
43	0xbdffd513	-0.124918126
44	0x3e05ed70	0.13078856
45	0xbe0baa71	-0.13639237
46	0x3e97aacd	0.29622498
47	0x3e35ea2e	0.17765114
48	0x3e4c7c6b	0.19969337
49	0x3e2d3b82	0.16917232
50	0xbd61eb7a	-0.05515621
51	0x3c2b78f7	0.010465852
52	0xbd6197a7	-0.055076268
53	0xbc111f61	-0.008857579
54	0x3e7dd34a	0.24787632
55	0x3da61a2f	0.08110463
56	0x3c21c2b9	0.009873086
57	0xbe89729b	-0.2684525
58	0xbe8033a2	-0.25039393
59	0xbe8ab4b6	-0.27090997
60	0x3e4ce03a	0.2000741
61	0x3df5b4b4	0.11997357
62	0x3d7ef408	0.062244445
63	0x3e3bebac	0.1835162
64	0x3e223017	0.15838657
65	0x3cc23a78	0.02370952
66	0xbe43a137	-0.19104467
67	0x3e000438	0.1250161
68	0x3e07179a	0.13192597
69	0x3e32449b	0.17408983
70	0x3db9a59a	0.09064789
71	0xbd6cb3d4	-0.057788685
72	0x3e8d086e	0.27545494
73	0xbe7a1d55	-0.24425252
74	0x3d432647	0.047643926
75	0x3e67643f	0.22596835
76	0x3e47582d	0.1946723
77	0xbe0abed5	-0.13549359
78	0x3e8b4710	0.27202654
79	0xbe556c1f	-0.20842026
80	0x3e8d948e	0.276524
81	0xbc777659	-0.0151039
82	0xbe6a86cd	-0.22902985
83	0xbe65448c	-0.2238943
84	0x3e726602	0.23671725
85	0xbe322440	-0.17396641
86	0x3e1c7136	0.15277562
87	0xbe1e6061	-0.15466453
88	0x3d16dfb8	0.03683445
89	0xbe338301	-0.17530443

gru.weight_hh_l0 f4 [30, 10]
0	0xbd87f501	-0.06638528
1	0xbe7e939f	-0.24861
2	0xbdf07346	-0.11740737
3	0xbe71af71	-0.23602082
4	0x3e7995d7	0.24373566
5	0xbe12f6eb	-0.14352004
6	0x3c3f48e9	0.011675098
7	0x3b5a26f6	0.0033287383
8	0xbde81903	-0.113328956
9	0x3e8be3eb	0.27322325
10	0xbe057191	-0.13031603
11	0x3d959b4a	0.0730501
12	0xbdf508b0	-0.11964548
13	0x3e84a051	0.25903562
14	0x3e956277	0.29176685
15	0x3d66d3e3	0.056354415
16	0xbe2e3929	-0.17013992
17	0xbdfd6b9b	-0.1237404
18	0xbca98870	-0.020694941
19	0xbe98552d	-0.29752484
20	0x3dca43e3	0.098762296
21	0x3e92ea26	0.28694266
22	0xbeee2445	-0.46512046
23	0xbdf874bc	-0.1213164
24	0x3ed91ada	0.424033
25	0xbcf64a74	-0.030064799
26	0xbdd78875	-0.10524074
27	0x3e092753	0.13393907
28	0xbe13226c	-0.143686
29	0xbeedfe27	-0.46482965
30	0x3eacabfb	0.3372496
31	0x3d9c6008	0.07635504
32	0x3db410eb	0.08792289
33	0x3db0c2f9	0.08630938
34	0x3ed1bb61	0.4096327
35	0x3d2c72af	0.04210156
36	0x3d4da60b	0.05020718
37	0xbe81f1a2	-0.25379664
38	0x3c01ec4e	0.007929875
39	0x3d188b4b	0.037242215
40	0x3cb6a5b0	0.022295803
41	0x3d87806e	0.06616293
42	0x3aaf5b19	0.001337859
43	0x3e61f8a2	0.22067502
44	0x3e241295	0.16022713
45	0x3ec962e9	0.39333275
46	0xbdd2ba73	-0.102894686
47	0xbe1e2c23	-0.15446524
48	0x3df4e3c2	0.11957504
49	0x3de4c9cf	0.111713044
50	0xbe9592f7	-0.29213688
51	0x3e5a29d1	0.21305014
52	0x3d51134c	0.051043794
53	0x3e1b775e	0.15182254
54	0x3de78ae5	0.11305789
55	0x3e3ad7dd	0.18246408
56	0xbe1b5340	-0.15168476
57	0x3e983372	0.2972675
58	0xbd06b95b	-0.032891612
59	0x3e4fa61d	0.20278211
60	0x3e605f41	0.21911336
61	0xbe672071	-0.22570969
62	0xbe6fef38	-0.23431098
63	0xbe4341d0	-0.19068074
64	0xbe317a07	-0.17331706
65	0x3da6ad1e	0.08138488
66	0x3ea2ea5a	0.3181942
67	0xbe1ef7ca	-0.15524212
68	0x3d634e18	0.055494398
69	0x3e4b1005	0.1983033
70	0x3e1735eb	0.14766662
71	0x3ea5fa56	0.32417554
72	0x3df5d7a3	0.1200402
73	0xbe0ffe67	-0.1406189
74	0xbdab2669	-0.083569355
75	0x3e244d23	0.1604505
76	0x3e8102d6	0.25197476
77	0x3dc9502d	0.098297454
78	0x3d36b4c2	0.044605978
79	0xbe816054	-0.25268805
80	0xbe240360	-0.16016912
81	0x3ebe4abf	0.37166402
82	0xbe8d184e	-0.27557606
83	0x3ea9ca31	0.33162072
84	0x3edca862	0.43097216
85	0x3e1611e4	0.14655262
86	0x3c3a9862	0.01138887
87	0x3e11a52a	0.14223161
88	0xbd201be4	-0.0390891
89	0xbe1df7ef	-0.1542661
90	0x3de2edaf	0.11080491
91	0x3e9c4c41	0.30526927
92	0x3dc9c3a4	0.098517686
93	0xbe32f759	-0.17477168
94	0xbdd417f6	-0.10356133
95	0xbdd519c3	-0.10405304
96	0xbd0e7379	-0.034778092
97	0xbe847532	-0.25870663
98	0xbe396806	-0.18106088
99	0xbe1bd716	-0.15218768
100	0x3c2ebfdb	0.010665859
101	0xbd9f59f3	-0.07780828
102	0xbe5ab75a	-0.21359006
103	0x3e153f25	0.14574869
104	0x3e922a5c	0.28547943
105	0x3db33030	0.087494254
106	0x3e8cd2fe	0.27504724
107	0x3e72a080	0.23694038
108	0xbe8f824a	-0.2802909
109	0x3e187ab9	0.14890565
110	0xbdb433d8	-0.08798951
111	0x3c93006b	0.017944535
112	0x3e6623a2	0.2247453
113	0xbee27cdf	-0.44235894
114	0xbf08f7cf	-0.53503126
115	0xbda81cec	-0.082086414
116	0xbdb06e7a	-0.08614822
117	0x3e8a5903	0.27021036
118	0xbe923700	-0.28557587
119	0x3f11f96f	0.5702123
120	0xbe482e8f	-0.1954901
121	0xbe9cf715	-0.3065726
122	0xbcfa21ef	-0.030533759
123	0xbe17f89c	-0.1484093
124	0x3e26bfcd	0.16284104
125	0x3e1ba9b7	0.1520146
126	0x3eb82695	0.35966936
127	0xbb9bae4e	-0.0047510033
128	0xbcfe425e	-0.031037506
129	0xbe26b676	-0.16280541
130	0xbea9923a	-0.33119375
131	0x3d21f17d	0.03953694
132	0x3c683d20	0.01417473
133	0xbe959c96	-0.29221028
134	0xbf009d93	-0.5024044
135	0xbdf65689	-0.12028224
136	0xbec22548	-0.37919068
137	0x3deede0c	0.11663446
138	0xbef194d4	-0.4718386
139	0x3ed399bb	0.41328225
140	0xbece7445	-0.40323082
141	0x3e27c9bc	0.1638555
142	0xbdd4e835	-0.103958525
143	0x3e3eccc9	0.18632807
144	0xbe636c76	-0.22209343
145	0xbd2794da	-0.04091344
146	0xbd5a1aa6	-0.05324807
147	0xbe41091e	-0.18851134
148	0xbd984bf4	-0.07436362
149	0x3dc4905a	0.095978454
150	0x3d71df9f	0.059051152
151	0xbe4f652d	-0.20253439
152	0x3df2eeab	0.118619286
153	0xbe61e059	-0.22058238
154	0xbe84dd2b	-0.25949988
155	0xbdb16b8e	-0.086630926
156	0x3cd17de7	0.02557273
157	0xbe383694	-0.1798957
158	0xbdf21a0d	-0.11821375
159	0x3e711c65	0.23545988
160	0xbe024de1	-0.12725021
161	0x3de5aef6	0.11215012
162	0x3e048c2a	0.12944093
163	0xbc0b4357	-0.008499942
164	0xbe817ab7	-0.25288936
165	0x3e71bd21	0.23607303
166	0xbebcde9e	-0.36888593
167	0xbd10f7a4	-0.03539242
168	0x3e156f07	0.14593135
169	0xbd8b05d5	-0.06788222
170	0xbd1e4467	-0.038639452
171	0xbd635c7c	-0.05550812
172	0x3d907c09	0.07054908
173	0x3e7c8e22	0.24663594
174	0x3e97143e	0.2950763
175	0x3e353290	0.1769507
176	0x3ea58cf2	0.32334095
177	0x3d299fb1	0.04141206
178	0x3db87c26	0.090080544
179	0xbe9dfe77	-0.30858204
180	0xbb163287	-0.00229183
181	0xbe9bec96	-0.30453938
182	0x3dc2dd23	0.09514835
183	0xbe5fec04	-0.21867377
184	0xbdf01383	-0.117224716
185	0x3d49e3cc	0.04928951
186	0x3de52524	0.11188725
187	0xbde9541f	-0.11392998
188	0xbce9488c	-0.028476976
189	0xbba0bb65	-0.0049051517
190	0xbea9308d	-0.33044854
191	0xbe3268bf	-0.1742277
192	0x3dbb9402	0.091590896
193	0x3e067bb4	0.13133126
194	0xbea388f9	-0.3194044
195	0xbe663c4d	-0.2248394
196	0xbef40d49	-0.47666386
197	0x3e35cc57	0.1775373
198	0xbc8eb89b	-0.017422011
199	0x3ea1e5c1	0.316206
200	0xbe6221d5	-0.22083218
201	0x3e860bdc	0.26180923
202	0xbdf16814	-0.117874295
203	0xbe43070e	-0.1904566
204	0xbd678169	-0.0565199
205	0xbe9a714b	-0.3016456
206	0xbe0b2bd6	-0.13590941
207	0x3da886b9	0.08228821
208	0xbd854eed	-0.065091945
209	0x3ded0d9c	0.115748614
210	0x3d0eeed3	0.03489573
211	0xbd471d98	-0.048612207
212	0x3e65ac44	0.22428995
213	0xbe6b970a	-0.23006836
214	0xbe82f00b	-0.25573763
215	0xbc952be0	-0.018209398
216	0xbeba454b	-0.3638099
217	0x3e88b3ee	0.26699775
218	0xbe72b63b	-0.23702328
219	0x3ddaffe3	0.10693338
220	0xbd870be4	-0.06594065
221	0x3d09db42	0.033656366
222	0xbe26915f	-0.16266392
223	0xbe5870dd	-0.21136804
224	0xbdedba7d	-0.116078354
225	0x3e101fca	0.14074627
226	0xbb1b3b04	-0.00236863
227	0x3ed6f223	0.4198161
228	0xbe42b7b2	-0.19015387
229	0x3ede047d	0.433628
230	0xbec60b1c	-0.3868035
231	0xbeac35cb	-0.3363479
232	0x3e8eb089	0.2786906
233	0xbdabac98	-0.08382529
234	0x3e6bca89	0.2302648
235	0xbe535811	-0.20639063
236	0xbe53e431	-0.20692517
237	0xbdec1044	-0.1152654
238	0xbcb95bcd	-0.022626782
239	0x3e293838	0.16525352
240	0xbea018c7	-0.31268904
241	0xbebe1248	-0.37123322
242	0x3ea71b66	0.3263809
243	0x3cc7db3d	0.024396533
244	0xbe4c27da	-0.19937077
245	0xbeb20a38	-0.3477342
246	0xbe83aff3	-0.25720176
247	0x3e0d4c55	0.1379865
248	0x3d4f7666	0.050650023
249	0x3c0ca755	0.008584817
250	0x3e09fa1d	0.13474317
251	0x3dfad49c	0.12247583
252	0xbdfa0a60	-0.1220901
253	0xbec2c218	-0.38038707
254	0xbdc2f8f8	-0.09520143
255	0x3d7e5351	0.062091175

gru.bias_ih_l0 f4 [30]
0	0x3e76a57f	0.24086569
1	0x3e700361	0.23438789
2	0xbb551122	-0.0032511433
3	0x3ed62b1f	0.41829774
4	0xbd2bbc0b	-0.04192738
5	0xbe90dcc9	-0.28293446
6	0xbe3b2a6c	-0.18277901
7	0x3beb8e4e	0.007188595
8	0x3c1aa75f	0.009439318
9	0x3cae43a1	0.021272482
10	0x3dfe3220	0.12411904
11	0xbe419d8e	-0.18907759
12	0xbc9fb4ce	-0.019495394
13	0xba60ba0c	-0.0008572645
14	0x3d865b6e	0.065604076
15	0x3d9770cf	0.073945634
16	0x3dd73ec9	0.10510022
17	0xbe8c972f	-0.27459094
18	0xbd1de223	-0.03854574
19	0x3e37bfc9	0.17944254
20	0x3d55af0e	0.0521689
21	0xbe81f4e1	-0.2538214
22	0xbec681f5	-0.38771024
23	0xbe9a47c7	-0.30132887
24	0x3e2498a3	0.16073851
25	0xbea3de4c	-0.32005537
26	0xbe91162b	-0.28337225
27	0xbe5e80cd	-0.21728821
28	0xbd016780	-0.031592846
29	0x3ba79108	0.0051137246

gru.bias_hh_l0 f4 [30]
0	0x3e2386d1	0.15969397
1	0xbdaedcc9	-0.08538205
2	0x3e0e7226	0.13910732
3	0xbe2ff59f	-0.17183541
4	0xbb3430a9	-0.0027494824
5	0x3cd31e85	0.025771389
6	0xbc8169b5	-0.015797475
7	0x3d49e131	0.049287025
8	0x3e8cf7af	0.27532718
9	0xbd987fe3	-0.074462675
10	0x3dd7e161	0.105410345
11	0xbf01b1a9	-0.5066171
12	0xbdaf6dd5	-0.08565871
13	0xbe0f7989	-0.14011206
14	0x3c84fb34	0.016233064
15	0xbe04544e	-0.12922785
16	0x3e2dea73	0.16983967
17	0xbdefa303	-0.11701014
18	0xbe9e9ff0	-0.30981398
19	0x3e22f8dd	0.15915246
20	0x3de21246	0.11038642
21	0xbe513d4a	-0.20433536
22	0xbec2460a	-0.3794406
23	0xbde0a837	-0.109695844
24	0x3e6778f5	0.22604735
25	0xbd446e9e	-0.047957055
26	0x3e2ebeb0	0.17064929
27	0xbc0bc73c	-0.008531388
28	0x3ece7b23	0.4032832
29	0x3eb7476d	0.3579668

gru.weight_ih_l1 f4 [30, 10]
0	0x3e985b13	0.29756984
1	0xbd775c90	-0.06039101
2	0x3e77e3a1	0.24207927
3	0xbe013e01	-0.12621309
4	0xbe20612d	-0.1566207
5	0x3e38bda2	0.18041089
6	0x3dfc1677	0.12308972
7	0xbe755401	-0.23957826
8	0x3e47ba93	0.19504766
9	0x3e3e4257	0.18579994
10	0xbe3b3b82	-0.18284419
11	0xbe483d25	-0.19554575
12	0xbe6254e1	-0.22102691
13	0x3e2e2a71	0.17008378
14	0xbe0dcfdc	-0.13848823
15	0xbe0f592a	-0.13998857
16	0xbcc8ad5a	-0.024496723
17	0x3e2736f4	0.16329557
18	0x3d8cb8c8	0.06871182
19	0xbe82b522	-0.25528818
20	0x3ddec1e6	0.10876827
21	0xbd9940c9	-0.0748306
22	0x3e276e45	0.16350658
23	0x3eb1b998	0.3471191
24	0x3d47be15	0.04876526
25	0x3cf77570	0.030207366
26	0x3e9680f4	0.29395258
27	0xbe84560f	-0.25846907
28	0xbe8749f3	-0.26423606
29	0xbdafd3e6	-0.08585338
30	0x3d952918	0.07283229
31	0xbe036d74	-0.12834722
32	0xbe21e465	-0.15809782
33	0x3e51f5ba	0.20503893
34	0xbe53ba6b	-0.20676582
35	0x3d646fed	0.055770803
36	0x3d0ca847	0.03434017
37	0xbe56e16b	-0.20984428
38	0xbd669eb6	-0.056303702
39	0x3e319db0	0.1734531
40	0xbe4a8511	-0.19777323
41	0x3da66b4c	0.08125934
42	0x3d011948	0.03151825
43	0xbe7aed3d	-0.24504562
44	0xbea127cb	-0.31475672
45	0xbe2b1353	-0.1670659
46	0xbe392984	-0.18082243
47	0xbe3ac128	-0.18237746
48	0xbe3e74e3	-0.18599276
49	0xbe9839d8	-0.2973163
50	0xbe4049fd	-0.18778224
51	0x3ddc9cd3	0.10772099
52	0xbdd1d9fc	-0.10246655
53	0xbc2b9a7e	-0.0104738455
54	0x3d8d7dbf	0.0690875
55	0x3b0ff60f	0.002196673
56	0x3ce33320	0.02773434
57	0x3e93bb13	0.28853664
58	0x3df5c12c	0.11999735
59	0xbe488a93	-0.19584112
60	0xbe6ddc8d	-0.23228665
61	0x3cf7f317	0.030267281
62	0xbe5cb00c	-0.21551532
63	0x3e89cd08	0.2691424
64	0xbe0e09d7	-0.13870941
65	0xbd952273	-0.07281961
66	0x3e0b3c6d	0.1359727
67	0xbe1ca864	-0.15298611
68	0x3e50b5f0	0.20381904
69	0x3e86b537	0.2631013
70	0xbe86a65a	-0.2629879
71	0x3e44bab7	0.19211851
72	0x3e8e252e	0.2776274
73	0x3eb62679	0.35576227
74	0xbe5fe9e2	-0.21866563
75	0x3d5f288b	0.054482024
76	0x3e9ce38e	0.3064236
77	0xbdd3c529	-0.1034034
78	0x3e641a61	0.22275688
79	0x3e37ee89	0.17962088
80	0x3e70ac06	0.23503122
81	0xbd16fc43	-0.03686167
82	0xbbacfa8d	-0.0052788914
83	0x3d24de6e	0.040251188
84	0x3e58a3d7	0.2115625
85	0xbdbd5c66	-0.09246139
86	0xbe72f0bd	-0.23724647
87	0x3e13089c	0.14358753
88	0xbc0303ed	-0.007996541
89	0x3e9e2ee4	0.3089515
90	0x3d1f0d8b	0.038831275
91	0x3e65465d	0.22390123
92	0x3d43af92	0.04777486
93	0xbe3b21af	-0.18274568
94	0xbe93b07c	-0.28845584
95	0xbe99dbf4	-0.30050623
96	0xbe6ba2ae	-0.23011276
97	0x3e90cba2	0.2828036
98	0xbe19c593	-0.15016775
99	0x3e00dc7f	0.12584113
100	0xbe8cb1e4	-0.2747947
101	0x3dd4c396	0.103888676
102	0x3e9afad8	0.30269504
103	0xbe9cc504	-0.3061906
104	0xbdfc6459	-0.12323827
105	0xbdcac001	-0.09899903
106	0x3dab77bb	0.08372446
107	0x3ea7b7dd	0.32757464
108	0x3e19bb8e	0.15012953
109	0xbe85f4a0	-0.26163197
110	0x3d262684	0.040564075
111	0x3e34d1c0	0.17658138
112	0x3efe1f3c	0.49633205
113	0x3e052e00	0.13005829
114	0xbe2a0708	-0.16604245
115	0x3d263d40	0.040585756
116	0xbe5ff312	-0.21870068
117	0xbd70c1e1	-0.058778647
118	0x3d17c7f1	0.037055913
119	0x3e9102a0	0.28322315
120	0xbeaa6017	-0.33276436
121	0x3e389836	0.18026814
122	0x3db940ba	0.09045549
123	0xbe0e0a63	-0.1387115
124	0xbe4ede20	-0.20201921
125	0xbe45385c	-0.1925978
126	0xbf0cdd4f	-0.5502519
127	0x3d2f9ee5	0.042876143
128	0xbe9b3f74	-0.30321848
129	0xbdc53e8a	-0.09631069
130	0xbe991489	-0.2989848
131	0xbd11e455	-0.035618145
132	0x3e0f237f	0.13978384
133	0xbe85bc40	-0.26120186
134	0x3e4eee56	0.20208105
135	0x3e2d6184	0.1693173
136	0x3da24957	0.07924145
137	0x3de516f4	0.111860186
138	0xbe4d0f93	-0.20025472
139	0xbe0241fb	-0.12720482
140	0x3dc97353	0.098364495
141	0xbeb2d229	-0.34925964
142	0x3d88189c	0.06645319
143	0x3e69ad3d	0.22819991
144	0xbd0e59ff	-0.034753796
145	0xbd60a9ec	-0.05484955
146	0xbcdfcfe6	-0.027320813
147	0x3e400414	0.18751556
148	0xbe10db25	-0.14146097
149	0xbe190bca	-0.14945903
150	0xbe6df459	-0.23237742
151	0xbeac5b7f	-0.33663556
152	0x3ed45204	0.41468823
153	0x3d203481	0.03911257
154	0xbef63c95	-0.48093095
155	0xbea191b1	-0.31556466
156	0xbeeac73c	-0.4585513
157	0xbc268a92	-0.010164874
158	0xbe15b7af	-0.14620851
159	0x3e4faa92	0.20279911
160	0x3cfc3d81	0.030791046
161	0x3db7bb88	0.089713156
162	0x3e7d1670	0.2471559
163	0x3e3b1f30	0.18273616
164	0xbdb1f050	-0.08688414
165	0x3cb375b9	0.02190672
166	0xbe7b23c8	-0.24525368
167	0xbdef50d8	-0.116853416
168	0xbea9d9a8	-0.3317387
169	0x3e63e4b7	0.22255217
170	0xbd53c59d	-0.05170213
171	0x3e2f9ab2	0.17148855
172	0x3c3bc4a4	0.011460457
173	0xbe317a7e	-0.17331883
174	0xbe257ac6	-0.16160116
175	0xbd35f569	-0.044423494
176	0xbc863f2e	-0.016387548
177	0x3dfbe859	0.12300176
178	0x3df73f3f	0.1207261
179	0x3e236a39	0.1595849
180	0xbe02e0b3	-0.12781028
181	0xbe166316	-0.14686236
182	0x3e8faf50	0.2806344
183	0xbe717766	-0.23580703
184	0xbeab1fc6	-0.3342268
185	0xbe87ed4b	-0.26548228
186	0xbd85ec2c	-0.06539187
187	0x3ed8f643	0.42375383
188	0xbed19963	-0.40937337
189	0x3e44f032	0.19232252
190	0x3e17549d	0.14778371
191	0x3e13cab7	0.14432798
192	0x3d580858	0.052742332
193	0xbcf494c5	-0.029856095
194	0x3e281b8d	0.1641676
195	0x3e3641d0	0.17798543
196	0x3e1b40b7	0.15161406
197	0x3e1fd1dd	0.156074
198	0x3de83666	0.11338501
199	0xbd9778ad	-0.07396064
200	0xbe4eaec7	-0.2018386
201	0xbdeb25de	-0.11481832
202	0xbc8175ea	-0.015803296
203	0x3e4e680a	0.20156875
204	0xbc3caacb	-0.01151533
205	0xbd28da3a	-0.041223742
206	0x3dcd56fc	0.100263566
207	0x3d24698d	0.040139724
208	0x3e110b97	0.14164577
209	0xbe9457c3	-0.28973207
210	0xbe7bd10c	-0.24591464
211	0xbe8be487	-0.2732279
212	0xbe48129b	-0.19538347
213	0xbea54932	-0.32282406
214	0xbe8257f2	-0.25457722
215	0x3de921e9	0.11383421
216	0xbe4538ef	-0.1926
217	0xbe163e5f	-0.1467223
218	0x3e6f548a	0.23372093
219	0xbd5018fd	-0.05080508
220	0x3d3b31e5	0.04570188
221	0x3ec24ed1	0.37950757
222	0x3db5df18	0.088804424
223	0x3e80ee79	0.2518194
224	0x3e8cc79a	0.27496034
225	0x3ea62111	0.32447103
226	0x3e0d87e3	0.13821368
227	0x3e82c90f	0.2554402
228	0xbea5e5be	-0.32401842
229	0x3ca54b07	0.020177377
230	0x3db7cf31	0.089750655
231	0x3e0259c9	0.12729563
232	0xbe6aed8b	-0.22942178
233	0xbe513b8a	-0.20432869
234	0x3e61bf6e	0.22045681
235	0x3e0aa062	0.13537744
236	0xbd75e641	-0.06003404
237	0xbe4e8cf7	-0.20170961
238	0x3dfc3fda	0.12316866
239	0xbd98c228	-0.07458907
240	0x3d299044	0.041397348
241	0xbe027972	-0.1274164
242	0x3e340c13	0.17582731
243	0xbde30701	-0.1108532
244	0xbbceb406	-0.0063080816
245	0x3e067ec7	0.13134299
246	0x3e58e90e	0.21182653
247	0x3e2fbf87	0.17162906
248	0xbd8f2548	-0.06989533
249	0xbe424ef4	-0.1897543
250	0xbe3d8b88	-0.18510258
251	0x3e7dca37	0.2478417
252	0x3d503921	0.050835732
253	0x3e93d239	0.28871325
254	0xbc4ad7c1	-0.012380541
255	0x3dbf9d6f	0.093562
