best/timestep_7_att_prediction_model.pth (torch, 155675 bytes, 22 tensors)

cnn.0.weight f4 [8, 3, 2]
0	0x3e893c1d	0.26803675
1	0x3d01da6f	0.031702455
2	0x3eb9bc7f	0.36276624
3	0xbc8c5fb4	-0.017135479
4	0xbe35dd5a	-0.1776022
5	0x3dfe84ce	0.12427674
6	0xbe86e14d	-0.26343766
7	0x3e064b47	0.13114654
8	0x3ea150f2	0.3150707
9	0x3e4b9cc9	0.19884028
10	0xbe557120	-0.20843935
11	0x3eb05577	0.34440205
12	0xbd8e30d0	-0.06942904
13	0xbb301f37	-0.0026874074
14	0x3e80aaff	0.2513046
15	0x3eb3f18c	0.35145223
16	0x3ec87b99	0.39156798
17	0x3e8629c4	0.2620374
18	0xbeb6039e	-0.35549635
19	0xbeae1828	-0.34002805
20	0xbeabc40d	-0.33548012
21	0xbe45100c	-0.19244403
22	0xbe864599	-0.26224974
23	0xbeb7e572	-0.3591724
24	0x3ebe5b7c	0.37179172
25	0x3ee5d968	0.4489243
26	0xbeba1ce4	-0.36350167
27	0xbe8a7387	-0.27041265
28	0xbea63ccf	-0.32468268
29	0xbe8b8606	-0.2725069
30	0xbeae20d1	-0.34009412
31	0x3dcade64	0.09905699
32	0xbeca3399	-0.3949249
33	0x3d5e40ed	0.054261137
34	0xbdccaab9	-0.099935
35	0x3dab1b96	0.08354871
36	0x3ea3209f	0.31860825
37	0x3cdc59f8	0.02689837
38	0x3e38aece	0.18035433
39	0xbc34bcba	-0.011031324
40	0xbe284169	-0.16431202
41	0x3e87b795	0.2650725
42	0x3ec046b4	0.37553942
43	0xbe574983	-0.21024136
44	0xbdc5131e	-0.09622787
45	0xbead912d	-0.33899823
46	0xbe034ffe	-0.12823483
47	0xbe9aba43	-0.3022023

cnn.0.bias f4 [8]
0	0xbe947cc6	-0.29001445
1	0x3e20614e	0.15662119
2	0x3e38a584	0.18031889
3	0x3dd79618	0.10526675
4	0xbd25e7d4	-0.04050429
5	0xbc997642	-0.018733148
6	0x3d062142	0.03274656
7	0x3dd85333	0.10562744

cnn.2.weight f4 [16, 8, 2]
0	0x3dc77206	0.09738545
1	0xbcfc8b73	-0.030828213
2	0xbe8400e9	-0.25781944
3	0xbe8a082a	-0.26959354
4	0xbddd5827	-0.10807829
5	0xbe66b190	-0.22528672
6	0xbcef62bc	-0.029221885
7	0x3e28446b	0.1643235
8	0xbe20ed8b	-0.15715615
9	0x3e2a6356	0.16639456
10	0xbdc5de6d	-0.09661565
11	0x3c236f6f	0.009975298
12	0xbe27535c	-0.16340393
13	0xbd75221a	-0.059846975
14	0x3e30572b	0.17220752
15	0x3c90ebcd	0.017690564
16	0x3e722dc9	0.23650278
17	0xbd16ebc4	-0.036845937
18	0x3a97b807	0.001157523
19	0x3e2acce1	0.16679718
20	0xbdf347cf	-0.11878931
21	0xbe2587b2	-0.16165045
22	0xbd5a4a2d	-0.053293396
23	0xbbde3303	-0.0067809834
24	0xbe1b1b9c	-0.15147251
25	0x3e132884	0.14370924
26	0xbe176ea2	-0.14788297
27	0x3e640f0c	0.22271365
28	0xbd8fe4c0	-0.070260525
29	0xbdce2f0e	-0.10067569
30	0x3e5d9c86	0.2164174
31	0xbe2f2572	-0.17104128
32	0xbdab1bac	-0.08354887
33	0x3dac7a8b	0.08421811
34	0x3e140af0	0.14457297
35	0xbe462a02	-0.19351962
36	0x3d674729	0.056464348
37	0xbdacb23f	-0.08432435
38	0x3dc8cfd0	0.09805262
39	0xbe9034f7	-0.2816541
40	0x3e63f225	0.2226034
41	0x3e0fc7c1	0.14041044
42	0xbc5c76cb	-0.013456057
43	0x3e6f3509	0.23360075
44	0x3dcf77aa	0.10130246
45	0x3e29331e	0.16523406
46	0xbe7e3a16	-0.24826846
47	0xbe1ca671	-0.15297867
48	0x3cff9006	0.031196605
49	0xbd410886	-0.04712727
50	0xbe307dd3	-0.17235498
51	0xbe5422b1	-0.20716359
52	0x3e74dac2	0.23911574
53	0x3e594ead	0.21221419
54	0x3dcc13b9	0.09964699
55	0x3cbb8629	0.022891121
56	0x3e6702f5	0.22559722
57	0xbe6390da	-0.22223225
58	0x3e334b68	0.17509234
59	0xbe69d3fc	-0.22834772
60	0x3e06569e	0.1311898
61	0x3e574d31	0.2102554
62	0x3d1b8d09	0.0379763
63	0xbdbdb377	-0.09262746
64	0x3e22615c	0.15857452
65	0xbd8cbe2d	-0.06872211
66	0x3e42740e	0.18989584
67	0x3e3b91c1	0.1831732
68	0xbbbcd6ea	-0.0057629244
69	0x3bf35375	0.0074257203
70	0xbc6522e2	-0.0139853675
71	0x3e24e3b0	0.16102481
72	0xbdfa0e8d	-0.122098066
73	0x3be867fd	0.0070924745
74	0xbe12fef3	-0.14355068
75	0xbe0a14ac	-0.13484448
76	0xbdb1dc8b	-0.08684643
77	0xbd4c7e04	-0.049924865
78	0x3e83e2c3	0.25758943
79	0x3b99a2d7	0.0046886015
80	0xbe547dc6	-0.20751104
81	0x3e1b7afb	0.15183632
82	0x3e483749	0.1955234
83	0x3e410e3f	0.1885309
84	0x3e42d62b	0.19027011
85	0xbccac2b3	-0.024751043
86	0xbd26232b	-0.040560883
87	0xbdaa32f0	-0.08310497
88	0xbe56e461	-0.20985557
89	0x3e383486	0.17988786
90	0x3e23c5c9	0.15993418
91	0xbe6236a0	-0.2209115
92	0x3e7c3e6a	0.24633184
93	0xbdb4f1db	-0.08835193
94	0xbe28da3b	-0.16489498
95	0x3e446d18	0.19182241
96	0xbd8c1202	-0.06839372
97	0x3e68d241	0.22736456
98	0xbcd1fab2	-0.025632236
99	0xbe481801	-0.19540407
100	0x3df0e63f	0.11762666
101	0x3e8e5a53	0.27803287
102	0xbe3afde0	-0.18260908
103	0xbe0cf5e6	-0.13765678
104	0x3d418f71	0.047255937
105	0xbc67b0a9	-0.01414124
106	0x3e17362e	0.14766762
107	0x3e699dc6	0.22814092
108	0x3d4b8e3e	0.0496962
109	0xbdf031f9	-0.117282815
110	0x3d575b1b	0.05257712
111	0xbd956339	-0.07294316
112	0x3dd5079d	0.10401843
113	0x3cb05e5c	0.021529369
114	0xbb9bcbf8	-0.0047545396
115	0x3e80fb50	0.25191736
116	0xbd6355e2	-0.055501826
117	0xbd9df1a4	-0.07712105
118	0x3e331d54	0.17491657
119	0x3e36363c	0.17794126
120	0xbe3abf76	-0.18237099
121	0x3e5a272a	0.21304002
122	0x3daf2d43	0.08553555
123	0x3db20134	0.08691636
124	0x3cd8192a	0.026379187
125	0x3e01002a	0.12597719
126	0x3db2d2c7	0.08731609
127	0xbe86bc2a	-0.26315433
128	0x3d603e60	0.054746985
129	0x3d225280	0.03962946
130	0x3c7ff620	0.015622646
131	0xbe6832fa	-0.22675696
132	0xbde11918	-0.109911144
133	0xbe2f89ca	-0.17142406
134	0xbd411e20	-0.04714787
135	0xbd951b60	-0.07280612
136	0x3e514a08	0.20438397
137	0xbe44101e	-0.19146773
138	0xbe151f34	-0.14562684
139	0x3e38e4e6	0.18056068
140	0xbd2cd190	-0.042192042
141	0xbe4172cc	-0.18891448
142	0xbe46a236	-0.19397816
143	0x3d065170	0.03279251
144	0xbe73f152	-0.23822525
145	0xbe644b73	-0.22294407
146	0x3d0f6a51	0.0350135
147	0x3e8bb272	0.2728458
148	0xbd72e9f4	-0.059305146
149	0xbdc1e5b5	-0.09467641
150	0x3e0e4f49	0.13897432
151	0x3da70c66	0.08156662
152	0x3e5fd8e0	0.21860075
153	0x3e02fe11	0.12792231
154	0xbe3b7a22	-0.18308309
155	0xbcea1f34	-0.028579332
156	0x3e3f2c2b	0.18669192
157	0x3e4ca5f0	0.19985175
158	0xbd1a6e2d	-0.037702728
159	0xbe67d226	-0.22638759
160	0x3e324361	0.17408516
161	0xba2a1cb0	-0.000648926
162	0x3df1f742	0.11814739
163	0xbdef9f64	-0.11700323
164	0x3e0f50c5	0.13995655
165	0x3e31a384	0.17347533
166	0x3ca2f773	0.019893384
167	0xbe70b097	-0.23504864
168	0xbcfa194a	-0.030529637
169	0x3e7fac20	0.24968004
170	0x3cff80a6	0.031189274
171	0xbbeb09ea	-0.0071728127
172	0xbc85b4ab	-0.0163215
173	0xbda8dec9	-0.08245618
174	0x3d52e99b	0.051492315
175	0xbc44adbb	-0.012004311
176	0x3e142509	0.14467253
177	0xbdec362e	-0.115337715
178	0xbc290875	-0.010316958
179	0xb903f3e2	-0.00012583987
180	0x3e688d54	0.22710162
181	0xbb840f37	-0.004030134
182	0x3e44021e	0.19141433
183	0xbe5af438	-0.21382225
184	0xbbb35bd3	-0.005473593
185	0xbe6c3b79	-0.23069562
186	0x3d67b398	0.05656776
187	0xbcea4e70	-0.028601855
188	0x3def02d7	0.116704635
189	0x3dd9a8f6	0.1062793
190	0x3e2af8b1	0.1669643
191	0xbe985d95	-0.29758897
192	0xbe747ab6	-0.23874936
193	0x3e2cc2f6	0.16871247
194	0x3e000c38	0.12504661
195	0x3dbe032f	0.09277951
196	0xbc17c6f4	-0.009263743
197	0x3db35490	0.087563634
198	0x3e4590cf	0.19293521
199	0xbd45ebae	-0.048320465
200	0x3e6cae30	0.23113322
201	0x3d23aa89	0.039957557
202	0xbda55c17	-0.08074205
203	0x3e478fe6	0.19488487
204	0xbe49913d	-0.1968431
205	0x3e67daf6	0.2264212
206	0xbe593998	-0.21213377
207	0x3d01df9b	0.031707387
208	0xbd03647e	-0.03207826
209	0xbe282fa3	-0.16424422
210	0xbdb93a55	-0.09044329
211	0xbd9662b9	-0.073430486
212	0xbe1c9cf1	-0.15294243
213	0xbdbf245d	-0.093331076
214	0xbc83bb51	-0.01608053
215	0x3d12a1c8	0.035798818
216	0x3e128452	0.14308289
217	0x3e0230ac	0.1271388
218	0xbe4fa236	-0.20276722
219	0x3e230a2d	0.1592185
220	0xbe1abb25	-0.15110452
221	0x3da73a82	0.08165456
222	0xbe20a231	-0.15686871
223	0xbe4927d6	-0.19644102
224	0x3e1fca0e	0.15604421
225	0xbe4b46e0	-0.19851255
226	0xbdc08855	-0.09401003
227	0x3e8bd69d	0.27312174
228	0x3e008d35	0.12553866
229	0xbe0b0233	-0.13575058
230	0xbe659210	-0.22419
231	0x3dfde387	0.12396913
232	0xbc1ae2e9	-0.009453514
233	0x3e311a7c	0.17295259
234	0xbd338344	-0.043826357
235	0x3e305419	0.1721958
236	0xbe6b80c6	-0.22998342
237	0x3e029349	0.12751497
238	0x3c99baf5	0.018765906
239	0xbe68b3a5	-0.22724779
240	0x3da1dcf4	0.079034716
241	0x3de06334	0.109564215
242	0xbde4fae0	-0.11180663
243	0xbc9ec950	-0.019383103
244	0xbde13130	-0.1099571
245	0x3da132ec	0.07871041
246	0x3c8508c0	0.016239524
247	0xbe6582d2	-0.22413185
248	0x3cf1c730	0.029513925
249	0x3ddb17f0	0.10697925
250	0xbe324356	-0.17408499
251	0x3d2bf3e0	0.041980624
252	0xbe494a20	-0.19657183
253	0xbe377882	-0.17917064
254	0xbe5509de	-0.20804545
255	0xbe48f104	-0.1962319

cnn.2.bias f4 [16]
0	0x3dcccb4e	0.09999715
1	0x3dc5c677	0.09656995
2	0xbd60f8d6	-0.05492481
3	0xbdb05003	-0.08609011
4	0x3e0db38c	0.13838023
5	0x3c9a639b	0.018846324
6	0xbe1777ed	-0.14791842
7	0x3e6983e1	0.22804214
8	0x3d5b9710	0.05361086
9	0x3d2ab748	0.041678697
10	0xbe4322d2	-0.19056252
11	0xbc6d859e	-0.014497189
12	0x3dbd47a4	0.0924218
13	0x3e29d25f	0.16584156
14	0xbdbb50e3	-0.09146287
15	0xbdbb91d0	-0.09158671

cnn.4.weight f4 [32, 16, 2]
0	0xbe25f913	-0.16208296
1	0x3da7ccb2	0.081933394
2	0x3e4421a9	0.19153465
3	0x3ce96bd9	0.028493809
4	0xbc404595	-0.01173534
5	0xbbb2ec22	-0.005460278
6	0x3d52dadc	0.05147825
7	0xbe079d65	-0.13243635
8	0xbcfa425f	-0.030549226
9	0x3df4cf5a	0.11953612
10	0xbdcf9a8b	-0.101368986
11	0x3deba3c6	0.11505847
12	0x3df115bc	0.11771724
13	0xbe260d2c	-0.16215962
14	0x3d7c9b65	0.061671633
15	0x3e3f4a4a	0.18680683
16	0xbd530f10	-0.051528037
17	0x3dc71342	0.0972047
18	0xbe3b3fc4	-0.18286043
19	0xbd044111	-0.032288615
20	0x3e1aa4f4	0.15101987
21	0xbdfdd29b	-0.123936854
22	0xbbbc2493	-0.0057416647
23	0xbd251315	-0.0403014
24	0xbd0cce67	-0.034376528
25	0xbd8c3be7	-0.06847363
26	0xbe858aec	-0.2608255
27	0x3aa19b12	0.001232954
28	0x3dc14447	0.09436851
29	0xbd10a6e8	-0.035315424
30	0x3c81ab20	0.01582867
31	0xbe1c60f7	-0.15271364
32	0x3d1f2df1	0.038862173
33	0x3e058a36	0.13041005
34	0x3d98fbd8	0.074699104
35	0x3e8bb6a1	0.27287772
36	0x3db6ac1d	0.08919547
37	0xbda1e4ea	-0.0790499
38	0xbdde80a0	-0.10864377
39	0x3de8764f	0.113506906
40	0x3e2c9ea4	0.16857392
41	0xbcedb4cd	-0.029016877
42	0x3c9643cb	0.018342873
43	0x3de1d3b9	0.11026711
44	0x3e20584e	0.15658686
45	0xbe07a5c0	-0.13246822
46	0x3e284a54	0.16434604
47	0xbe215fda	-0.1575922
48	0xbbe4baa0	-0.0069802552
49	0xbc18ad20	-0.00931862
50	0xbe161c75	-0.14659293
51	0xbdada931	-0.08479536
52	0xbddaa0ae	-0.106751785
53	0xbe2b0452	-0.16700867
54	0x3cb5fafb	0.022214403
55	0xbdfceed0	-0.12350237
56	0xbc80dba0	-0.015729725
57	0x3e1f2cfc	0.15544504
58	0xbe347b63	-0.17625193
59	0x3d0355f8	0.032064408
60	0x3e19d403	0.15022282
61	0x3e4e1701	0.20125963
62	0x3cdfd230	0.027321905
63	0x3d67bd1c	0.056576833
64	0xbe1358e0	-0.14389372
65	0xbe0c7782	-0.13717464
66	0xbd51d4c5	-0.051228303
67	0xbd0b6126	-0.034028195
68	0xbe3b9933	-0.1832016
69	0xbe27c070	-0.16382003
70	0x3c80c087	0.015716804
71	0x3d767758	0.06017241
72	0x3e1a3f29	0.15063156
73	0x3dfe33a9	0.12412197
74	0xbc493d38	-0.012282662
75	0x3ddf31ff	0.10898208
76	0x3de5e8aa	0.11226018
77	0x3e1c84e4	0.15285069
78	0xbe14a69e	-0.14516684
79	0xbb918a7b	-0.004441557
80	0xbd9f4d80	-0.07778454
81	0xbc3d9420	-0.01157096
82	0x3cb7881d	0.022403771
83	0x3e127626	0.14302883
84	0x3c181c16	0.00928404
85	0xbe25a6ef	-0.16176961
86	0xbd9bbf7c	-0.07604882
87	0xbd8918aa	-0.066941574
88	0xbbc47ca6	-0.0059963046
89	0x3d8b709f	0.0680859
90	0xbe21b88d	-0.15793057
91	0xbd3539fd	-0.044244755
92	0xbe40062a	-0.18752351
93	0xbe3b574a	-0.18295017
94	0x3dbcb2fe	0.092138276
95	0x3db0f852	0.08641113
96	0xbe1c7494	-0.15278846
97	0xbe13d882	-0.1443806
98	0x3dcecf6d	0.10098157
99	0x3dc4872f	0.09596097
100	0xbca916fa	-0.020640839
101	0xbdd383aa	-0.10327847
102	0x3bec0460	0.00720267
103	0x3e0451e6	0.12921867
104	0x3e51c52d	0.20485373
105	0x3d40cda1	0.047071103
106	0x3d17cb83	0.03705932
107	0x3dcaf6c2	0.099103466
108	0x3dc84028	0.09777862
109	0x3e07ba2f	0.13254617
110	0xbcdf59c5	-0.027264485
111	0x3e21df0e	0.15807745
112	0x3e20c69b	0.15700762
113	0x3e09ebdf	0.13468884
114	0xbd9a687c	-0.0753946
115	0xbde77d1f	-0.11303162
116	0x3d4bf24f	0.04979163
117	0xbdb29625	-0.08720044
118	0xbd434ed9	-0.047682617
119	0xbde1a231	-0.11017264
120	0xbe2ba010	-0.16760278
121	0xbda2f33d	-0.0795655
122	0x3da9a2fe	0.082830414
123	0xbdc365d9	-0.0954091
124	0x3d734f6a	0.059401907
125	0x3d976f79	0.073943086
126	0x3d5720dc	0.05252157
127	0xbd52e4bc	-0.05148767
128	0x3d02719c	0.031846628
129	0xbd61a015	-0.055084307
130	0x3c787d89	0.015166649
131	0x3c40434a	0.011734793
132	0xbe2ea49d	-0.17054982
133	0x3e02ba6c	0.12766427
134	0xbe1a81dc	-0.150886
135	0x3d0f3fb9	0.03497288
136	0xbb005ab3	-0.001958531
137	0xbc02f693	-0.007993358
138	0xbddcd7a5	-0.107833184
139	0x3cdca643	0.026934749
140	0x3dee4c78	0.11635679
141	0x3e036552	0.1283162
142	0xbe207fff	-0.15673827
143	0xbdc7bfd4	-0.09753385
144	0x3d9dd77e	0.077071175
145	0xb861f000	-5.3867698e-05
146	0x3bd34bc6	0.006448242
147	0xbe086dea	-0.13323179
148	0x3dfcdfda	0.12347384
149	0x3d2ae890	0.041725695
150	0x3e3da75f	0.18520878
151	0xbda0d70c	-0.07853517
152	0x3db47322	0.08811022
153	0x3e44db7b	0.1922435
154	0x3e078d85	0.13237579
155	0x3e07791e	0.13229796
156	0x3df699bd	0.12041042
157	0x3e3b52df	0.18293332
158	0xbc09ee60	-0.008418649
159	0x3c7f88c0	0.015596569
160	0x3d96df6e	0.073668346
161	0x3d0f1ef0	0.034941614
162	0x3d7f8dda	0.06239114
163	0xbd8cfc34	-0.068840414
164	0xbdfdb26f	-0.12387549
165	0xbdc1f315	-0.09470192
166	0xbd7ac418	-0.061222166
167	0x3deb981d	0.11503623
168	0x3d1e1fd4	0.038604572
169	0x3d0f1b21	0.03493798
170	0x3db80fcf	0.0898739
171	0xbb6a9caf	-0.0035798957
172	0xbd8dd672	-0.06925668
173	0xbe08d317	-0.13361774
174	0xbdaa60fe	-0.08319281
175	0x3e2f0892	0.17093113
176	0x3d151aa4	0.03640236
177	0x3ca59320	0.020211756
178	0xbda7264d	-0.08161602
179	0xbe2c2695	-0.16811593
180	0xbd4ba831	-0.049720947
181	0x3e2b8971	0.16751648
182	0xbdeedc4f	-0.11663114
183	0x3d275944	0.040856615
184	0xbdfaac1e	-0.1223986
185	0x3b0d683a	0.0021577016
186	0xbc128c40	-0.008944571
187	0xbc289e90	-0.0102917105
188	0x3c189a40	0.00931412
189	0x3e16857b	0.14699356
190	0xbd0bd1ac	-0.034135506
191	0xbe1ff607	-0.15621196
192	0xbe0accfe	-0.13554761
193	0xbc3fcf10	-0.011707082
194	0x3c855ea5	0.016280482
195	0xbd746ea9	-0.059675846
196	0xbe2b9a7f	-0.16758154
197	0x3db7e7bc	0.08979747
198	0xbdb6f4e2	-0.089334264
199	0xbe207ba8	-0.15672171
200	0x3c8cbf71	0.01718113
201	0x3dfdbda2	0.12389685
202	0xbaa5e72c	-0.0012657396
203	0xbe296d02	-0.1654549
204	0xbdcb47bf	-0.09925794
205	0x3d82b06c	0.06381306
206	0x3e34140e	0.17585775
207	0xbe1b6f01	-0.15179063
208	0x3e2d71ab	0.16937892
209	0x3e242e99	0.160334
210	0x3dd628a0	0.10456967
211	0x3df9cd75	0.12197391
212	0xbe2705c8	-0.16310799
213	0xbe2d9d28	-0.16954482
214	0x3d9de80a	0.077102736
215	0x3e0223eb	0.12709014
216	0xbe316ca0	-0.17326593
217	0x3dfe1463	0.12406232
218	0xbd396f21	-0.045271996
219	0x3dccef92	0.10006632
220	0xbd0b362e	-0.033987217
221	0xbd1f303d	-0.038864363
222	0xbdaa9f6f	-0.08331191
223	0xbdfb47bf	-0.12269544
224	0xbdd05fbf	-0.10174512
225	0xbdc7fe88	-0.09765345
226	0x3e33c71d	0.17556424
227	0xbcf3c5a0	-0.02975732
228	0xbdfb0d08	-0.12258345
229	0xbdb3aae6	-0.08772831
230	0xbce8a818	-0.028400466
231	0xbcfcf190	-0.030876905
232	0x3e194e51	0.14971282
233	0x3dbf2156	0.0933253
234	0xbe22aa13	-0.1588519
235	0x3d463660	0.0483917
236	0x3be82d80	0.007085502
237	0xbc6b6350	-0.01436694
238	0xbda5044b	-0.080574594
239	0xbca91a30	-0.02064237
240	0xbdc321e4	-0.095279485
241	0xbdecae58	-0.11556691
242	0xbd998f50	-0.07498038
243	0x3e1ba8cd	0.15201111
244	0xbe046037	-0.12927328
245	0xbde098c6	-0.10966639
246	0x3db73bda	0.08946963
247	0xbdbec665	-0.093151845
248	0xbdeb34c6	-0.11484675
249	0x3d3eb4e8	0.046559244
250	0x3e089859	0.13339366
251	0x3e048e43	0.12944894
252	0x3d9efaca	0.07762678
253	0x3e0dc6b3	0.13845329
254	0xbe1e52cf	-0.15461276
255	0x3dd9f746	0.10642867

cnn.4.bias f4 [32]
0	0x3d478d25	0.04871859
1	0x3d6ac9c6	0.057321332
2	0xbc02762f	-0.0079627475
3	0xbdf348b1	-0.11879099
4	0x3d989e14	0.07452026
5	0xbd992ffb	-0.07479855
6	0xbcaf161c	-0.021372847
7	0xbdc67eed	-0.09692178
8	0x3e22aeff	0.15887068
9	0x3e072bdc	0.13200325
10	0x3d36b790	0.044608653
11	0x3e3a5fe9	0.1820065
12	0x3db32622	0.08747508
13	0xbdeb1655	-0.11478869
14	0x3e3ef8df	0.18649624
15	0x3c8fb12a	0.017540533
16	0x3dec0a37	0.11525386
17	0x3c7dc425	0.015488659
18	0xbe1dd234	-0.15412217
19	0x3e1c0897	0.15237652
20	0xbe27f32d	-0.16401358
21	0x3e0068ee	0.12540027
22	0xbe1f84ba	-0.15577975
23	0x3c3506d2	0.011048989
24	0xbe259339	-0.16169442
25	0xbd964641	-0.073376186
26	0xbd945ae4	-0.072438985
27	0x3d9d813a	0.07690664
28	0x3c31c1c1	0.010849417
29	0x3b99532a	0.0046791034
30	0xbb8e5eac	-0.004344782
31	0x3dba416f	0.09094512

cnn_fc.weight f4 [128, 128]
0	0xbde1e18f	-0.1102935
1	0xbde5a493	-0.11213031
2	0x3d974ad4	0.07387319
3	0xbd78ccdc	-0.060742244
4	0xbe087215	-0.13324769
5	0xbdfd3794	-0.12364116
6	0x3d1f9dd2	0.03896887
7	0x3ce4d689	0.02793433
8	0xbb7d4ed0	-0.0038651712
9	0xbe0b138d	-0.13581677
10	0xbd8e098f	-0.06935417
11	0xbe37e0f4	-0.17956907
12	0x3e0f57b1	0.13998295
13	0x3be66ce8	0.0070320256
14	0x3d866710	0.06562626
15	0x3da2aae6	0.079427525
16	0x3c7f6d17	0.015589974
17	0x3db06480	0.08612919
18	0xbd99ed6c	-0.07515988
19	0xbda98c27	-0.08278685
20	0xbc5edd45	-0.013602559
21	0xbb658c7d	-0.0035026364
22	0xbcb79ac7	-0.02241267
23	0xbc4e0c4f	-0.012576177
24	0x3d8735ba	0.066020444
25	0xbcfcc52d	-0.03085574
26	0xbd50f990	-0.05101925
27	0xbc2d9a97	-0.010595939
28	0x3c880130	0.016602129
29	0xbdb4cf3b	-0.088285886
30	0x3cba3ea8	0.022734955
31	0xbd954f05	-0.072904624
32	0x3b1f6098	0.002431905
33	0x3d82f7e1	0.063949354
34	0xbda57583	-0.08079054
35	0x3b1c56c0	0.0023855418
36	0xbdb64937	-0.089006834
37	0x3d8c4164	0.0684841
38	0x3d688b0e	0.056773238
39	0xbd13738a	-0.03599886
40	0xb8b9e716	-8.8645305e-05
41	0xbcdf0918	-0.027226016
42	0xbcaca574	-0.021074988
43	0x3cb62e97	0.022239013
44	0xbd4c3882	-0.049858578
45	0xbcbc6cd5	-0.023001114
46	0x3d3557ac	0.044273064
47	0x3d9474d8	0.07248849
48	0x3d249305	0.04017927
49	0xbd395339	-0.045245383
50	0xbdc0656a	-0.09394343
51	0xbd4ea108	-0.05044654
52	0x3bd247e0	0.0064172596
53	0x3d2d4eb6	0.042311393
54	0xbce97a7a	-0.028500784
55	0xbd826bc2	-0.063682094
56	0xbd90e932	-0.070757285
57	0xbd7420ab	-0.059601467
58	0xbc47ec39	-0.012202316
59	0x3de472b7	0.111546926
60	0x3da31a0e	0.07963954
61	0x3d170da4	0.036878243
62	0x3d2b03ab	0.041751545
63	0xbc1fe13c	-0.00975829
64	0xbca81c9c	-0.020521455
65	0x3d07ce31	0.033155624
66	0xbd9064d3	-0.07050481
67	0xbdff96c2	-0.12479927
68	0x3c8e184c	0.01734557
69	0xbcf8a6ea	-0.030353028
70	0x3c155cef	0.009116395
71	0xbde49b57	-0.11162441
72	0xbdb51c7c	-0.088433236
73	0x3cd79a9b	0.026318839
74	0x3cdadbd4	0.02671615
75	0xbe0655ff	-0.13118742
76	0x3d522b69	0.05131093
77	0xbb25e99e	-0.0025316249
78	0x3dcbfea7	0.099606805
79	0x3c21309c	0.00983825
80	0xbd82e260	-0.06390834
81	0x3b283560	0.002566658
82	0x3c5e02f0	0.013550505
83	0x3bfa7510	0.0076433495
84	0xbd0ac346	-0.033877634
85	0xbbaba550	-0.0052382126
86	0xbc9bd50b	-0.019022485
87	0xbdf86ff0	-0.121307254
88	0x3d671ce0	0.05642402
89	0x3ac94f86	0.0015358783
90	0xbdd9c850	-0.1063391
91	0xbdcbe847	-0.09956413
92	0x3d4dc725	0.050238747
93	0xbcdc0793	-0.02685908
94	0xbb11302a	-0.0022153952
95	0x3dbde23f	0.09271669
96	0x3d818af7	0.063253336
97	0x3d2326a6	0.03983178
98	0x3d8d9019	0.0691225
99	0xbc081840	-0.008306563
100	0xbd173934	-0.036919788
101	0xbdb9e3fa	-0.09076686
102	0xbda23a5e	-0.07921289
103	0x3d2062b3	0.039156627
104	0x3a2bbb80	0.0006551072
105	0x3d26161e	0.040548436
106	0x3d957739	0.072981305
107	0x3d4086ba	0.047003485
108	0xbd49856a	-0.0491995
109	0xbd424e07	-0.047437694
110	0xbd61dbe4	-0.055141345
111	0xbc181099	-0.009281301
112	0x3d1ce7d7	0.038307037
113	0x3d4363c2	0.04770256
114	0xbdbe30a6	-0.09286623
115	0xbe1ef8be	-0.15524575
116	0x3da3dab1	0.080006965
117	0x3d71e542	0.059056528
118	0x3e01ddf5	0.12682326
119	0x3d4f0142	0.05053831
120	0xbc0d8f7f	-0.008640169
121	0xbdfb9e89	-0.122860976
122	0xbdfafe7b	-0.122555695
123	0xbe1cf1e0	-0.15326643
124	0x3c5c50a0	0.013446957
125	0xbd25fc30	-0.040523708
126	0x3cb565b9	0.022143232
127	0xbd2f412a	-0.042786755
128	0xbdc29425	-0.095009126
129	0x3b93c677	0.004509743
130	0x3d940e9b	0.07229348
131	0xbd380c5f	-0.044933673
132	0xbd2210ef	-0.03956693
133	0xbc21d565	-0.009877537
134	0x3d3b7af8	0.04577157
135	0x3c597cf7	0.013274423
136	0xbdbfe47c	-0.09369752
137	0xbc6d2e9f	-0.014476447
138	0xbcee4b03	-0.029088503
139	0x3c2f6724	0.010705743
140	0x3d5dc6fa	0.054144837
141	0x3bd83694	0.006598303
142	0x3bb567dd	0.005536063
143	0x3d4f2d9f	0.050580617
144	0xbd2341a0	-0.039857507
145	0x3cbe83c8	0.023256198
146	0x3cad026b	0.021119317
147	0xbd2d1bad	-0.04226272
148	0xbd00f1d1	-0.031480614
149	0x3c8d807d	0.017273182
150	0xbd78e4e3	-0.06076516
151	0x3d11af79	0.035567734
152	0xbd82687e	-0.063675866
153	0xbd908639	-0.07056851
154	0xbca08d9c	-0.019598775
155	0x3d986aee	0.0744227
156	0xbd8cdebd	-0.068784215
157	0x3c885c84	0.016645677
158	0x3db30f37	0.087431364
159	0xbb93a9c0	-0.0045063198
160	0x3c7b49cd	0.01533742
161	0xbd3af24d	-0.045641232
162	0x3b8ebf20	0.00435628
163	0x3d6a2bcc	0.057170674
164	0xbd909871	-0.07060326
165	0xbd6b1a22	-0.05739797
166	0xbc9b4b27	-0.018956734
167	0xbd36fbff	-0.044673916
168	0xbd6af7b4	-0.057365134
169	0x3d37a6ce	0.04483681
170	0x3a871590	0.0010306109
171	0x3b035ce1	0.0020044374
172	0xbd38ed0d	-0.045147944
173	0x3e02923c	0.12751096
174	0x3cb4fc25	0.022092888
175	0x3d9e81e9	0.07739622
176	0x3ccc61b9	0.024948942
177	0x3b19e238	0.0023480784
178	0xbd0da4a2	-0.034580834
179	0xbd117252	-0.035509415
180	0x3d780a6a	0.060556807
181	0xbd1f1c0c	-0.038845107
182	0x3d8e8f73	0.069609545
183	0x3cbd9e44	0.023146756
184	0x3d1ce558	0.038304657
185	0xbd1f9730	-0.038962543
186	0x3deb94e5	0.11503009
187	0x3e1cef9b	0.15325777
188	0xbd0d873c	-0.034552798
189	0x3dbd8151	0.09253181
190	0x3cf4bb4d	0.029874468
191	0xbdd5c6fb	-0.10438343
192	0xbcfcc6a8	-0.030856445
193	0x3d2498b3	0.040184688
194	0x3cf69d1f	0.030104218
195	0xbd8de0a1	-0.0692761
196	0x3bdc00dc	0.0067139696
197	0x3d3d967e	0.0462861
198	0xbd8c552e	-0.06852184
199	0xbb0ed80f	-0.0021796261
200	0xbdb6f661	-0.08933712
201	0xbd82b2fd	-0.063817956
202	0xbd2ed62e	-0.042684726
203	0x3cc979a1	0.02459413
204	0x3cc85e8c	0.024459146
205	0xbd0fafca	-0.035079755
206	0x3d522fc3	0.05131508
207	0x3da81839	0.08207745
208	0x3d9a3b1b	0.07530805
209	0x3d3667fa	0.044532754
210	0x3d9f0add	0.07765744
211	0xbd10be76	-0.035337888
212	0x3c68a90f	0.014200463
213	0xbd4aceb4	-0.049513534
214	0xbd3787c4	-0.04480721
215	0xbd964722	-0.07337786
216	0x3d9bf165	0.07614402
217	0x3d24dd07	0.04024985
218	0xbd0b73fc	-0.03404616
219	0x3d0571ed	0.03257935
220	0x3ca14cd0	0.019689947
221	0xbd0128f8	-0.03153321
222	0xbda598b0	-0.080857635
223	0xbc8703d6	-0.016481321
224	0xbd994416	-0.074836895
225	0x3cc4f32c	0.024041735
226	0x3d815969	0.06315882
227	0xbb829080	-0.003984511
228	0xbc1ab625	-0.009442841
229	0x3d3ce3b9	0.04611561
230	0x3d869021	0.06570459
231	0x3cf78fab	0.030219873
232	0xbd8f9ff9	-0.07012934
233	0x3cedd014	0.029029883
234	0xbcc101b8	-0.02356039
235	0x3cf45760	0.02982682
236	0x3d8368ad	0.0641645
237	0xbcfc850f	-0.030825166
238	0x3cc9b384	0.024621733
239	0xbd8a0e73	-0.06741037
240	0x3d86c97a	0.06581397
241	0x3c92b16c	0.017906867
242	0xbd9d92af	-0.07693993
243	0xbc67ce46	-0.0141483005
244	0x3db8fc84	0.090325385
245	0x3db58075	0.08862392
246	0x3d99b85f	0.07505869
247	0x3d2eaa9a	0.042643167
248	0x3ddafd19	0.10692806
249	0xbd5fecf5	-0.05466934
250	0xbd62e85e	-0.055397384
251	0xbda5faff	-0.08104514
252	0x3c09c439	0.0084085995
253	0x3d74b6ab	0.05974452
254	0x3c2dc783	0.010606649
255	0xbda4aee5	-0.08041171

cnn_fc.bias f4 [128]
0	0xbd2fae5c	-0.04289089
1	0x3cb9bc68	0.022672847
2	0x3b1a18df	0.002351336
3	0x3d10e87c	0.035377964
4	0x39c38142	0.00037289603
5	0x3c8a297a	0.01686548
6	0x3d916ce8	0.0710085
7	0xbdaadb2f	-0.08342587
8	0xbd7e389f	-0.062065717
9	0xbd8bc45d	-0.06824563
10	0xbd841cd5	-0.06450812
11	0x3cbc3ed1	0.022979172
12	0x3da39c25	0.079887666
13	0xbcf71da4	-0.030165501
14	0xbc9a4fb6	-0.018836837
15	0xbd4d99dd	-0.050195564
16	0xbb268679	-0.0025409742
17	0xbadd2981	-0.0016873331
18	0x3da0e4ab	0.07856115
19	0x3b8f232a	0.0043682056
20	0x3cdfe46e	0.027330603
21	0x3d12b656	0.03581842
22	0xbd11f9b7	-0.035638537
23	0xbd73d812	-0.059532233
24	0x3cf93856	0.03042237
25	0xbdb92b9f	-0.09041523
26	0x3d404db1	0.046949092
27	0xbcb90700	-0.022586346
28	0x3d85dc70	0.06536186
29	0xbc0451b3	-0.008076119
30	0xbd82d127	-0.06387549
31	0xbcc0e15c	-0.02354496
32	0xbb5288fd	-0.0032125108
33	0x3d535eb9	0.051604006
34	0x3cf843a7	0.030305697
35	0x3d3c6ebe	0.04600405
36	0xbd5cb2e3	-0.053881537
37	0x3da71c62	0.081597105
38	0x3d469863	0.04848517
39	0xbdb72209	-0.089420386
40	0x3b06df40	0.0020579845
41	0x3c5398cc	0.012914848
42	0x3c905f94	0.0176237
43	0xbda7f629	-0.08201248
44	0xbc0aef67	-0.0084799295
45	0x3cd05bdb	0.025434425
46	0xbc537843	-0.012907091
47	0xbc5179b5	-0.012785365
48	0x3d0376b3	0.032095622
49	0x3db47f35	0.08813325
50	0x3d9bdf44	0.07610944
51	0x3d81ed18	0.0634405
52	0x3d497d3f	0.04919171
53	0xbd03592e	-0.03206747
54	0x3cd5c419	0.026094483
55	0xbd327ffd	-0.04357909
56	0xbc249e5d	-0.010047522
57	0x3d0fb2f8	0.035082787
58	0x3d82ba90	0.0638324
59	0x3d982d80	0.074305534
60	0xbdb20ad6	-0.08693473
61	0xbd3b5ee3	-0.045744788
62	0x3cb45f9c	0.022018246
63	0x3d5c5f12	0.053801604
64	0xbcad3316	-0.021142524
65	0x3d921cc5	0.071343936
66	0xbd930328	-0.071783364
67	0x3d8b78c8	0.068101466
68	0xbc2d1431	-0.010563896
69	0x3d873714	0.06602302
70	0x3c25e9d3	0.010126549
71	0x3d64d270	0.05586475
72	0xbd900433	-0.07032051
73	0x3d9ac823	0.07557704
74	0x3c81875c	0.015811615
75	0xbd699bff	-0.057033535
76	0x3d3ed933	0.046593856
77	0x3d8e9625	0.069622315
78	0x3d2d978f	0.042380866
79	0xbdaa8918	-0.0832693
80	0xbcf4aad6	-0.029866617
81	0x3cbe8e0a	0.023261089
82	0x3bfa73c3	0.0076431944
83	0x3d4924b2	0.04910726
84	0x3c43e565	0.011956547
85	0x3d8cbeb5	0.06872312
86	0x3d1c5071	0.038162652
87	0x3b19c7f6	0.0023465133
88	0xbd8d02c1	-0.06885291
89	0x3d849057	0.06472843
90	0xbd9fb187	-0.077975325
91	0x3d9a0a1a	0.07521458
92	0x3d8045a2	0.062632814
93	0x3c779e5a	0.015113438
94	0x3d50f785	0.051017303
95	0xbd1f2b86	-0.038859867
96	0x3d7434fa	0.059620835
97	0xbcf9bd95	-0.030485908
98	0xbd3e253a	-0.04642222
99	0xbc2231e0	-0.009899586
100	0xbd5f0576	-0.054448567
101	0x3d46d63f	0.048544165
102	0xbce4019d	-0.0278328
103	0xbc76177a	-0.015020246
104	0x3db75084	0.08950904
105	0x3acc28fe	0.0015576181
106	0xbd5c1c9b	-0.053738218
107	0x3d9e5dce	0.077327356
108	0xbda9e56c	-0.08295712
109	0xbd0585c8	-0.032598287
110	0x3db62543	0.08893826
111	0xbd5c4526	-0.053776883
112	0x3d4e91d2	0.050432034
113	0xbd4affc0	-0.04956031
114	0x3d1e66c1	0.038672213
115	0xbd904a27	-0.070453934
116	0xbd3c133e	-0.04591679
117	0x3cfa5741	0.030559184
118	0x3d894e39	0.06704373
119	0x3cfe6d66	0.031058025
120	0x3d701785	0.05861618
121	0xbdb0f524	-0.08640507
122	0x3d22a2c7	0.039706018
123	0x3d598b73	0.053111505
124	0xbd6baa90	-0.057535708
125	0x3d4330ac	0.04765384
126	0xbd943f8d	-0.07238684
127	0x3daa37a6	0.08311395

gru.weight_ih_l0 f4 [30, 3]
0	0x3dda6483	0.10663702
1	0x3bcaef44	0.0061930735
2	0xbeb0241b	-0.34402546
3	0xbda71c2c	-0.0815967
4	0xbe550424	-0.20802361
5	0xbe4c3c41	-0.1994486
6	0x3ec3e8e6	0.38263625
7	0xbd61a843	-0.055092108
8	0xbda055fc	-0.078289
9	0x3e8a24df	0.26981255
10	0xbe52e157	-0.20593773
11	0xbde1597e	-0.110033974
12	0x3e2a6162	0.16638711
13	0xbe7ad58c	-0.24495524
14	0xbe689c93	-0.22715978
15	0xbd8008e2	-0.06251694
16	0x3e45a79d	0.1930222
17	0xbcea6820	-0.028614104
18	0x3ea90a8b	0.33015856
19	0x3e2aecfa	0.16691962
20	0xbd0e54c9	-0.034748826
21	0xbd9050cd	-0.070466615
22	0xbcde5d3c	-0.027144067
23	0x3cb2af6a	0.02181216
24	0xbcca7e5b	-0.024718454
25	0xbe00ef59	-0.12591304
26	0xbe742d49	-0.238454
27	0x3e08cbde	0.13359019
28	0x3df28cfd	0.11843298
29	0xbe791a8a	-0.2432653
30	0xbe14afeb	-0.14520232
31	0xbe14e59a	-0.14540711
32	0xbe2fac00	-0.17155457
33	0xbeb416fb	-0.35173783
34	0xbd0fc1cd	-0.035096932
35	0x3e0dc06d	0.13842936
36	0xbd7fb508	-0.062428504
37	0x3e75e98a	0.2401487
38	0xbd1da1c0	-0.038484335
39	0xbe2a10a0	-0.16607904
40	0x3d867bd0	0.06566584
41	0xbe31d59e	-0.17366645
42	0xbee53512	-0.44767052
43	0xbcae387d	-0.02126717
44	0xbdd5aade	-0.10432981
45	0x3e0609b8	0.13089645
46	0xbe8d7a12	-0.27632195
47	0xbd05d322	-0.032672055
48	0xbf0128d3	-0.5045292
49	0x3d6460c4	0.055756345
50	0xbd3e8cbc	-0.046520934
51	0x3e7ebaa7	0.2487589
52	0x3e981d0c	0.2970966
53	0xbe191df6	-0.14952835
54	0xbebb09a9	-0.36530808
55	0x3b5a62b2	0.0033322987
56	0x3da23cc5	0.07921747
57	0xbe8f5cf7	-0.28000614
58	0xbe1281e3	-0.1430736
59	0x3e01b709	0.12667479
60	0x3e5a474a	0.21316257
61	0xbcf3e3ca	-0.029771704
62	0xbe8a4b19	-0.2701042
63	0x3def85fe	0.11695479
64	0x3cce2792	0.025165353
65	0x3e840cc2	0.25790983
66	0x3df50baa	0.11965115
67	0x3e3c05cb	0.18361585
68	0xbdc51a88	-0.09624201
69	0xbdd9e74f	-0.10639822
70	0x3e2054b6	0.15657315
71	0xbe8c6855	-0.2742335
72	0xbdd39c46	-0.10332541
73	0x3da3271b	0.07966443
74	0x3e2b1a4c	0.1670925
75	0xbe9947aa	-0.29937488
76	0x3e1795b7	0.14803205
77	0x3c89d7e7	0.016826583
78	0x3e33c831	0.17556836
79	0x3cfad3d9	0.030618595
80	0xbdfecbf7	-0.12441247
81	0xbe8828ab	-0.26593527
82	0x3e59345c	0.2121138
83	0xbe581299	-0.21100844
84	0xbe343feb	-0.17602508
85	0xbdd1abf0	-0.102378726
86	0x3e2610bc	0.16217321
87	0x3db184f6	0.086679384
88	0xbe78d75a	-0.243009
89	0x3e001580	0.12508202

gru.weight_hh_l0 f4 [30, 10]
0	0x3ec760a1	0.3894091
1	0x3e101a0d	0.14072438
2	0xbdb4ca3a	-0.08827634
3	0x3e8b1b41	0.2716923
4	0xbea5e59c	-0.3240174
5	0xbe36d116	-0.17853197
6	0xbe0a39e1	-0.13498642
7	0xbd1fae83	-0.038984787
8	0x3dc75d14	0.0973455
9	0xbdc3bd9e	-0.09557651
10	0x3eb99b44	0.3625127
11	0xbe20b28e	-0.15693113
12	0xbe1e1956	-0.15439352
13	0x3e258827	0.16165219
14	0xbe99ed42	-0.30063826
15	0xb9c4f5f2	-0.00037567277
16	0x3e4492a0	0.19196558
17	0xbded4121	-0.11584688
18	0xbe6550a0	-0.22394037
19	0xbe25f939	-0.16208352
20	0xbd9261a5	-0.071475305
21	0xbe53d037	-0.20684896
22	0x3e50b451	0.20381285
23	0x3de00caa	0.109399155
24	0xbcc57ede	-0.024108347
25	0xbe41b215	-0.18915589
26	0x3d18b746	0.03728416
27	0xbe0add97	-0.13561092
28	0xbe9e157d	-0.3087577
29	0xbe4a5c0f	-0.1976168
30	0x3d8a9d5d	0.06768296
31	0xbe56d93b	-0.20981304
32	0xbda97bb9	-0.08275551
33	0x3ddd941d	0.10819266
34	0xbe22c629	-0.15895905
35	0x3e144bf9	0.14482106
36	0xbc3c6157	-0.011497817
37	0x3afececb	0.0019440291
38	0xbe2bc439	-0.16774072
39	0xbea53b0a	-0.32271606
40	0xbd8db0c7	-0.06918483
41	0x3e0acf4b	0.13555638
42	0xbd2f7384	-0.042834774
43	0xbcc8a65c	-0.024493389
44	0xbc1b4ee3	-0.009479257
45	0x3e3fe197	0.187384
46	0x3e00d9b2	0.12583044
47	0xbe7cb774	-0.24679357
48	0x3e0e8e43	0.13921456
49	0x3e03558a	0.128256
50	0x3dd700d1	0.104982026
51	0xbdf0650b	-0.117380224
52	0x3947b112	0.00019044083
53	0x3e299e3c	0.16564268
54	0x3e8bbe44	0.272936
55	0x3e9dbaad	0.30806485
56	0xbe947594	-0.28995955
57	0x3d3eb134	0.046555713
58	0x3eb1f468	0.3475678
59	0x3df7a1fe	0.120914444
60	0x3dc85306	0.097814605
61	0xbcca15e6	-0.024668645
62	0xbe32c6c4	-0.17458636
63	0xbe506bb8	-0.20353591
64	0xbe431ace	-0.19053194
65	0xbdc382c8	-0.09546429
66	0xbe3b5fbf	-0.18298243
67	0x3c776d94	0.015101809
68	0xbcda00ba	-0.026611675
69	0xbe286551	-0.16444899
70	0xbdf40cc9	-0.11916501
71	0xbd96b1ce	-0.07358132
72	0xbe71edbc	-0.23625845
73	0x3c7bffa6	0.015380776
74	0xbe696ce4	-0.22795445
75	0xbe4b0115	-0.19824632
76	0x3e1470db	0.14496176
77	0xbdc1a873	-0.09455957
78	0xbeb119b0	-0.3458991
79	0x3e74759d	0.23872991
80	0x3eaaf026	0.33386344
81	0x3e0c9519	0.13728751
82	0x3ebaf68d	0.36516228
83	0xbe7f5b00	-0.24937057
84	0x3dda5ae3	0.106618665
85	0xbe835ee3	-0.2565833
86	0x3e6645be	0.22487542
87	0xbe7ec3ac	-0.2487933
88	0x3d83d151	0.06436408
89	0xbd2e4ed5	-0.04255565
90	0x3e829ee8	0.2551186
91	0xbe84493a	-0.25837117
92	0x3e810805	0.2520143
93	0x3d36aa97	0.04459628
94	0x3cf04934	0.029331781
95	0x3df6721f	0.120334856
96	0xbe730565	-0.23732527
97	0x3d26972e	0.04067152
98	0x3e2865f9	0.1644515
99	0x3e57b1d7	0.21063934
100	0x3dba3a3b	0.09093138
101	0xbe393e4c	-0.1809017
102	0xbdb57c6d	-0.08861623
103	0x3de1f800	0.1103363
104	0x3d9ffa02	0.07811357
105	0x3cb78654	0.02240292
106	0xbec9c920	-0.3941126
107	0xbc80820f	-0.015687017
108	0x3ec8e1c6	0.3923475
109	0xbe73f179	-0.23822583
110	0xbe69272d	-0.2276885
111	0xbf0f5360	-0.55986595
112	0xbe072086	-0.13196
113	0x3e2143e6	0.15748557
114	0xbcdea867	-0.02717991
115	0x3eccba52	0.399859
116	0xbef5f7b0	-0.48040533
117	0x3e119084	0.14215285
118	0x3cfa9e0a	0.030592937
119	0xbdb796d1	-0.08964313
120	0x3d53180b	0.0515366
121	0x3d044a0e	0.032297187
122	0xbeb1c45a	-0.34720117
123	0x3ec1cb91	0.3785062
124	0x3e2363b9	0.1595601
125	0xbe0ac11a	-0.13550225
126	0xbea9c62d	-0.3315901
127	0x3effd659	0.49968222
128	0xbb4b5af0	-0.0031029545
129	0xbe895d97	-0.26829216
130	0x3cd2cff8	0.025733933
131	0xbe37c699	-0.17946853
132	0xbd5828df	-0.052773353
133	0xbd6c4650	-0.057684243
134	0x3d24029f	0.040041562
135	0x3e1f6bc7	0.15568458
136	0x3d8c3c89	0.06847484
137	0x3df8c792	0.1214744
138	0xbdffd233	-0.12491264
139	0xbd85ebec	-0.06539139
140	0xbebe4ca5	-0.3716785
141	0x3cf8d2ec	0.030374013
142	0xbe740e70	-0.23833632
143	0xbd4a10c4	-0.049332395
144	0x3eadc5e7	0.3394005
145	0x3d7f4385	0.06232025
146	0xbec8264d	-0.3909172
147	0x3eeea2ce	0.46608585
148	0x3d3c3559	0.045949314
149	0xbef8fb31	-0.48629144
150	0xbe3e6b90	-0.1859572
151	0x3e2931c9	0.16522898
152	0xbe5ddf95	-0.21667321
153	0xbe6b83bf	-0.22999476
154	0xbe270a5a	-0.16312543
155	0xbe8c25d3	-0.27372608
156	0x3de84d8f	0.11342918
157	0xbd897e40	-0.067135334
158	0xbdba8446	-0.091072604
159	0x3e26980e	0.16268942
160	0xbd3d45b1	-0.04620904
161	0x3c59fcd5	0.013304909
162	0xbea7a4e6	-0.32742995
163	0x3f1de912	0.6168376
164	0x3e1a90b5	0.15094264
165	0x3e78c464	0.24293667
166	0xbd31f106	-0.04344275
167	0x3e6296ce	0.2212784
168	0x3e99e103	0.30054483
169	0xbbd9ef7c	-0.006650863
170	0xbe63da95	-0.22251351
171	0x3e366740	0.17812824
172	0xbe984f04	-0.29747784
173	0x3e761934	0.24033052
174	0x3e039774	0.12850744
175	0x3e21c6a6	0.15798435
176	0xbe0e66ec	-0.13906449
177	0x3e4b4a93	0.19852667
178	0x3d9343ec	0.071906894
179	0xbd4e02c4	-0.050295606
180	0xbe9a9e3b	-0.30198845
181	0xbde7913d	-0.11306999
182	0xbe60a44a	-0.21937671
183	0x3f0da33a	0.5532719
184	0x3c4431c4	0.011974756
185	0x3ea169cc	0.3152603
186	0xbec5bfec	-0.38622987
187	0x3ef7754f	0.48331687
188	0x3d0e0f1d	0.034682382
189	0xbf1fab61	-0.6237088
190	0xbe150d46	-0.14555845
191	0xbccc3c8e	-0.024931218
192	0x3db76ff8	0.08956903
193	0x3e2ce34a	0.16883579
194	0xbe98eba9	-0.29867294
195	0xbe88744e	-0.26651233
196	0x3ba8c8b0	0.005150877
197	0x3e862b04	0.26204693
198	0xbe9f6833	-0.31134185
199	0x3d94e0dd	0.07269452
200	0xbe6947df	-0.22781323
201	0x3e452eec	0.1925618
202	0xbdbb705c	-0.0915229
203	0x3ea6683c	0.325014
204	0x3cfaaf7b	0.030601254
205	0xbe80ca8d	-0.25154534
206	0xbe283c0d	-0.16429158
207	0x3d6ce2d1	0.057833496
208	0x3e71562f	0.23568033
209	0xbc2b8b21	-0.010470183
210	0x3cfac087	0.030609382
211	0xbeb19f70	-0.34691954
212	0xbeb2b618	-0.34904552
213	0x3d5cc4d3	0.053898644
214	0x3df5598f	0.119799726
215	0xbdfd000b	-0.12353524
216	0xbc704228	-0.01466421
217	0x3e4d0f4b	0.20025365
218	0x3ec80982	0.39069754
219	0xbe0f8033	-0.14013748
220	0xbe075e75	-0.13219626
221	0xbe930c87	-0.28720495
222	0xbe1450a6	-0.1448389
223	0x3dc871d1	0.09787334
224	0x3e8baa0e	0.2727818
225	0xbc34184b	-0.01099212
226	0xbe1efc01	-0.1552582
227	0xbc9a4f3e	-0.018836614
228	0x3e8bcfd8	0.2730701
229	0xbea8a40a	-0.32937652
230	0xbe5e18d7	-0.21689163
231	0xbdfbef33	-0.12301483
232	0xbe827c93	-0.25485668
233	0xbb7f3ca1	-0.003894605
234	0x3e515c59	0.20445384
235	0x3e131e4a	0.14367023
236	0xbddee1c7	-0.10882907
237	0xbd70c66e	-0.058782987
238	0xbd0397e9	-0.032127295
239	0xbe78094f	-0.24222301
240	0xbe012f9d	-0.1261582
241	0xbe6f5789	-0.23373236
242	0x3d2ae1c8	0.041719228
243	0xbe416d83	-0.18889432
244	0xbe21f332	-0.15815428
245	0xbe444ecb	-0.19170682
246	0x3d4a8c9f	0.049450513
247	0xbeb34542	-0.35013777
248	0xbe432950	-0.19058728
249	0xbdaa7905	-0.08323864
250	0x3df5c41f	0.12000298
251	0x3e7cfbf5	0.24705489
252	0xbea9e341	-0.33181193
253	0xbdb188d1	-0.08668674
254	0xbe8a3d74	-0.2700001
255	0x3d15693f	0.036477324

gru.bias_ih_l0 f4 [30]
0	0xbd958665	-0.07301024
1	0xbda0cd3e	-0.07851647
2	0x3d9f5967	0.07780724
3	0xbeae85a0	-0.34086323
4	0xbe18ebb8	-0.1493367
5	0x3e53a4ff	0.2066841
6	0xbbb082c9	-0.0053866846
7	0xbd4bbda8	-0.049741417
8	0x3ec50b99	0.3848541
9	0x3e111a38	0.14170158
10	0xbe7d0e3a	-0.24712458
11	0xbec1424a	-0.37745887
12	0xbec76c8c	-0.38950002
13	0x3da1858d	0.07886801
14	0xbe379d56	-0.17931113
15	0xbe43e97d	-0.19132037
16	0xbe887cac	-0.26657617
17	0xbe5bc251	-0.21460845
18	0xbf216ea5	-0.63059455
19	0x3e6781eb	0.22608154
20	0x3e2354de	0.15950343
21	0xbe699f01	-0.22814561
22	0x3e7c27af	0.24624513
23	0x3aa45f0b	0.0012540532
24	0x3eb8835f	0.36037728
25	0xbe0f2e16	-0.13982424
26	0xbd3655fc	-0.044515595
27	0x3e82625e	0.25465673
28	0xbdb87c51	-0.090080865
29	0x3e07b479	0.13252439

gru.bias_hh_l0 f4 [30]
0	0xbcd302c4	-0.025758155
1	0x3e6fb593	0.23409109
2	0x3ca011d6	0.019539755
3	0xbe536163	-0.20642619
4	0x3dd22a7f	0.10262012
5	0x3e4f045b	0.20216505
6	0x3eb5ecef	0.35532328
7	0x3d610741	0.05493856
8	0x3e9e982a	0.30975467
9	0x3e9667eb	0.29376158
10	0xbe9460f6	-0.28980225
11	0xbea2b8d9	-0.31781653
12	0x3d9eee2b	0.07760271
13	0xbe43d19f	-0.19122933
14	0xbf00558d	-0.5013054
15	0x3e9712db	0.29506573
16	0xbea10010	-0.3144536
17	0xbd59c836	-0.05316945
18	0xbddb62e9	-0.10712225
19	0xbdf86f31	-0.12130583
20	0x3d7940c7	0.060852792
21	0xbd589a56	-0.05288156
22	0x3e7e8776	0.24856362
23	0x3d862cce	0.065515146
24	0xbe04bb36	-0.1296204
25	0x3e3ac0cd	0.1823761
26	0x3e4e9427	0.20173703
27	0xbd4c6391	-0.04989964
28	0x3db37e25	0.087642945
29	0xbd93dc87	-0.07219797

gru.weight_ih_l1 f4 [30, 10]
0	0x3c4edc3b	0.012625749
1	0x3d99ffb6	0.07519476
2	0xbd695485	-0.05696537
3	0xbe886078	-0.266361
4	0xbe94d0d8	-0.29065585
5	0x3e9c8beb	0.305755
6	0xbd9424a3	-0.072335504
7	0xbdf5c080	-0.11999607
8	0x3e0a17f6	0.13485703
9	0x3e132ec8	0.14373314
10	0x3d8e68a1	0.0695355
11	0x3defdbd9	0.117118545
12	0x3d67cbfe	0.056591026
13	0x3a450f77	0.0007517258
14	0x3e0e762b	0.13912265
15	0x3d481dce	0.04885655
16	0x3e8e87f6	0.27838105
17	0x3d991864	0.07475355
18	0x3e10fa83	0.14158063
19	0xbe09a48b	-0.13441674
20	0xbd436a9c	-0.047709092
21	0x3da4e48f	0.080514066
22	0xbe88d77e	-0.26726907
23	0xbe91da4b	-0.28486857
24	0x3e81ead6	0.25374478
25	0x3e456d82	0.19280055
26	0xbdca2e34	-0.09872094
27	0xbda1ca50	-0.07899916
28	0x3d6999fc	0.057031617
29	0x3e5eb7da	0.21749821
30	0xbe9342be	-0.28761858
31	0xbe38057a	-0.17970839
32	0xbe88fa9f	-0.2675371
33	0xbe81697c	-0.2527579
34	0x3d3fca7f	0.046823975
35	0x3b8ef504	0.004362704
36	0x3e44c099	0.19214095
37	0xbcc44efd	-0.023963446
38	0x3de6123f	0.11233949
39	0x3da387f1	0.07984913
40	0x3e61b4be	0.22041604
41	0x3e97bdbe	0.2963695
42	0x3d89a692	0.06721224
43	0x3e84dbdb	0.25948986
44	0xbe57c0fc	-0.21069711
45	0x3e835939	0.2565401
46	0x3e98e5a4	0.29862702
47	0x3d3ba776	0.045814
48	0xbec9e224	-0.39430344
49	0x3e956c51	0.291842
50	0xbe4c280b	-0.1993715
51	0xbdcd15c3	-0.10013916
52	0xbe4bc325	-0.1989866
53	0xbe4653e2	-0.19367936
54	0x3cfca712	0.030841384
55	0x3c6a9827	0.0143185025
56	0x3e18ebb6	0.14933667
57	0x3e5231c4	0.20526797
58	0xbe7a5b99	-0.24449004
59	0x3e434cd9	0.19072284
60	0x3ccf280d	0.025287652
61	0xbca7673f	-0.020434974
62	0x3dff76e3	0.12473848
63	0xbe5181a5	-0.20459612
64	0xbea32bce	-0.31869358
65	0x3e727b13	0.23679762
66	0xbd7a78b8	-0.061150283
67	0x3e1a3d5e	0.15062472
68	0x3e0d6106	0.13806543
69	0x3e7a7270	0.24457717
70	0x3e8d860d	0.27641335
71	0x3c93ead3	0.018056309
72	0x3e4bbed9	0.19897021
73	0xbe6e0b86	-0.23246583
74	0x3d467a20	0.04845631
75	0x3e1fe970	0.15616393
76	0x3e401ee5	0.18761785
77	0xbe9eef46	-0.31041926
78	0x3e2e575f	0.17025517
79	0x3d0d2cea	0.03446666
80	0xbe9d945a	-0.30777246
81	0x3e330494	0.17482215
82	0xbd9ef425	-0.077614106
83	0xbe3c1df3	-0.183708
84	0x3e575265	0.21027525
85	0xbe48ca02	-0.1960831
86	0x3e8b0096	0.27148885
87	0x3de3a632	0.111156836
88	0xbcd096ee	-0.025462594
89	0x3e51fc76	0.20506462
90	0x3cd2889c	0.025699906
91	0xbe7f36df	-0.24923275
92	0xbd281180	-0.041032314
93	0xbe5ab21d	-0.21357007
94	0xbcaba2bc	-0.020951621
95	0xbe917355	-0.28408304
96	0x3e849308	0.25893426
97	0xbd3a32ca	-0.045458592
98	0x3d1a3d31	0.037656013
99	0x3e3428f7	0.17593752
100	0x3c1ecabd	0.009691891
101	0xbe6449e6	-0.22293815
102	0x3e853e1f	0.26023957
103	0xbd3abfd5	-0.0455931
104	0xbd213964	-0.039361373
105	0xbe71844b	-0.23585622
106	0x3e0ac889	0.1355306
107	0xbda9dbf6	-0.08293907
108	0xbe4914de	-0.19636866
109	0x3dc5ffea	0.09667952
110	0xbce63805	-0.028102884
111	0xbe206138	-0.15662086
112	0x3d90550b	0.07047471
113	0x3ec19fed	0.37817326
114	0xbc182114	-0.00928523
115	0x3ea01a53	0.31270084
116	0xbef2861e	-0.47367948
117	0x3f0f82b3	0.56058806
118	0x3e9d0ff4	0.30676234
119	0xbed4e7e1	-0.4158316
120	0xbe37b1ad	-0.17938872
121	0xbeb317fc	-0.34979236
122	0xbdb2480f	-0.0870515
123	0x3de12f2a	0.10995324
124	0xbd3bfc92	-0.045895167
125	0x3ed3e174	0.41382945
126	0xbef5a96c	-0.4798082
127	0x3f03fe82	0.51560223
128	0x3efd8370	0.4951434
129	0xbe71c11e	-0.23608825
130	0xbd07aa0a	-0.033121146
131	0x3e1a7693	0.15084295
132	0x3c5b591c	0.013387945
133	0x3e4c1820	0.19931078
134	0xbd623ceb	-0.055233877
135	0x3d8825c7	0.066478305
136	0xbd833322	-0.06406237
137	0xbcc0f992	-0.023556504
138	0x3c064f3f	0.008197605
139	0xbd85ee35	-0.06539575
140	0xbe905ed8	-0.2819736
141	0xbe8b3d47	-0.27195188
142	0xbd66f38f	-0.05638462
143	0xbe0c2733	-0.13686828
144	0x3e3314d3	0.17488413
145	0xbe23accf	-0.1598389
146	0xbe8e6900	-0.27814484
147	0xbd8ea44e	-0.069649324
148	0x3da5ee3d	0.08102081
149	0xbc4aea6d	-0.012384993
150	0xbd7bda7d	-0.061487664
151	0xbdf21872	-0.11821069
152	0x3e870c5c	0.26376617
153	0x3e5fa877	0.21841608
154	0xbe30df1a	-0.17272606
155	0xbe97e1bc	-0.2966441
156	0xbe53cee8	-0.20684397
157	0x3df8d21d	0.12149451
158	0x3e180e81	0.14849283
159	0x3c8b2cd9	0.016989158
160	0x3dff2267	0.124577336
161	0x3e414990	0.18875718
162	0xbdf0f0a7	-0.11764651
163	0x3db24e99	0.087063976
164	0xbe0cd022	-0.13751271
165	0xbe54ecf2	-0.20793512
166	0x3d209d13	0.039212298
167	0x3e5fd33f	0.21857928
168	0x3d62c2f5	0.055361707
169	0xbe350b59	-0.1768011
170	0x3da67082	0.08126928
171	0xbce82c7d	-0.028341526
172	0xbe907ad9	-0.28218725
173	0xbe08748f	-0.13325714
174	0x3c487b31	0.012236402
175	0x3ea7cc0e	0.3277287
176	0xbd592b1e	-0.053019635
177	0x3daa9bf3	0.08330526
178	0xbe33758f	-0.17525314
179	0xbe6fd954	-0.23422748
180	0xbe7f04de	-0.249042
181	0xbe6cbd19	-0.2311901
182	0xbe1dfe65	-0.15429075
183	0xbcfc9667	-0.030833436
184	0xbe6b42a2	-0.22974637
185	0x3e021bcb	0.12705915
186	0xbf04b24a	-0.5183455
187	0x3e2a87e2	0.16653398
188	0x3eda5bb2	0.42648083
189	0x3d793afd	0.06084727
190	0x3e33b61f	0.17549942
191	0xbe0fe60d	-0.14052601
192	0x3e1e074b	0.1543247
193	0x3e112a6b	0.14176337
194	0x3cf5acdd	0.029989654
195	0x3d261394	0.040546015
196	0xbe959d31	-0.2922149
197	0x3e47154d	0.1944172
198	0x3e53d169	0.20685352
199	0xbe8f0efa	-0.27941114
200	0xbea4de06	-0.3220064
201	0xbe1cbcb8	-0.15306365
202	0xbd10a5bb	-0.035314303
203	0xbe96f85b	-0.29486355
204	0x3c84bd78	0.016203627
205	0xbe731cf3	-0.23741512
206	0xbe9c1c09	-0.3049014
207	0x3dc34d7f	0.095362656
208	0xbd6e4763	-0.05817355
209	0xbceb82ec	-0.028748952
210	0xbe4ffd37	-0.20311438
211	0x3ec7fc9e	0.3905992
212	0x3d931439	0.071815915
213	0x3d969898	0.07353324
214	0x3e21400a	0.15747085
215	0x3e4a760d	0.19771595
216	0x3ca4cb48	0.020116463
217	0x3ddf6710	0.109083295
218	0xbe91990f	-0.28437087
219	0xbe6f396b	-0.23361747
220	0x3db2034b	0.08692034
221	0x3e6d77c8	0.23190224
222	0x3c045af5	0.0080783265
223	0xbd464443	-0.048404943
224	0xbea48109	-0.32129696
225	0x3d234459	0.039860103
226	0x3e5a1654	0.2129758
227	0xbe79f127	-0.24408399
228	0xbe8c2de3	-0.2737876
229	0x3e514229	0.20435394
230	0xbd344eff	-0.04402065
231	0x3e41b04b	0.18914907
232	0xbeae78b5	-0.34076467
233	0x3d8810cb	0.06643828
234	0x3da86184	0.08221725
235	0x3df5703e	0.11984299
236	0xbeb0b6c2	-0.34514433
237	0x3e4941f0	0.1965406
238	0x3ea25412	0.31704766
239	0x3e3bf769	0.18356098
240	0x3e6067f8	0.21914661
241	0x3da5cef0	0.08096111
242	0x3d464fa5	0.0484158
243	0x3e92444d	0.28567734
244	0xbd9220e5	-0.071351804
245	0x3eb09f0d	0.34496346
246	0xbe819296	-0.2530715
247	0xbe27b7ff	-0.16378783
248	0x3e502d3c	0.20329756
249	0xbe912608	-0.28349328
250	0xbe979aa9	-0.29610184
251	0x3e5cc78a	0.21560493
252	0xbe63413d	-0.22192855
253	0xbc91f291	-0.01781586
254	0x3e3f737f	0.18696402
255	0x3e9b57e5	0.30340496
