best/timestep_20_att_prediction_model.pth (torch, 368688 bytes, 22 tensors)

cnn.0.weight f4 [8, 3, 2]
-0.081685625 0.2717565 0.15383253 0.09567005 -0.3018059 0.25530183 0.27535033 -0.24114512
-0.23117283 0.2717549 0.3619964 -0.19867732 0.22812182 0.16828513 -0.27017698 0.003835375
0.36060616 0.16436385 0.10321122 0.30909994 -0.20086333 -0.18327779 -0.17187263 0.3809943
-0.07345336 -0.15534031 -0.0333279 -0.012016813 -0.11012466 -0.33401394 0.16758302 -0.28806645
-0.14985956 0.116214074 -0.17174207 -0.4082699 0.27934718 0.034830738 0.35651404 -0.13033529
0.19570972 -0.1554454 -0.24210282 -0.15529129 -0.448415 -0.41995537 -0.11511226 0.108231604
00000000: cb4a a7bd ab23 8b3e 4686 1d3e a9ee c33d
00000010: 4e86 9abe ecb6 823e b8fa 8c3e bfee 76be
00000020: 92b8 6cbe 7523 8b3e 9857 b93e 1172 4bbe
00000030: c498 693e f052 2c3e a354 8abe ea5a 7b3b
00000040: 5fa1 b83e ff4e 283e 6760 d33d 5942 9e3e
00000050: 1eaf 4dbe 2cad 3bbe 61ff 2fbe af11 c33e
00000060: b76e 96bd 8811 1fbe d682 08bd 2be2 44bc
00000070: 0a89 e1bd e003 abbe e29a 2b3e 727d 93be
00000080: c974 19be a501 ee3d 27dd 2fbe c108 d1be
00000090: 9806 8f3e adaa 0e3d 0289 b63e 9d76 05be
000000a0: 2168 483e 142d 1fbe cde9 77be ae04 1fbe
000000b0: a796 e5be 6404 d7be fabf ebbd 88a8 dd3d

cnn.0.bias f4 [8]
-0.30383772 0.2787695 0.22606958 0.31187844 0.23360455 -0.064955264 0.13538513 -0.14548635
00000000: 9e90 9bbe e0ba 8e3e c97e 673e 88ae 9f3e
00000010: 0836 6f3e 4407 85bd 66a2 0a3e 60fa 14be

cnn.2.weight f4 [16, 8, 2]
-0.059834834 -0.05157464 -0.0031171036 0.17564848 0.17236184 0.2393303 -0.05410528 0.2285569
-0.17970935 -0.17493533 0.05233185 -0.085479304 -0.10595361 0.0025819887 0.00950146 0.013331027
0.15227032 -0.090307064 0.06282055 0.18936819 0.20544523 0.002150774 -0.19202347 -0.101004474
0.15222302 -0.06653933 -0.0061056623 -0.049268816 0.12932567 -0.025122883 -0.007791547 0.19925359
-0.1811465 0.03523573 -0.0031396353 -0.049705226 0.24937013 0.05927254 0.09840101 -0.17208366
0.09587744 -0.1262925 -0.16578849 0.052869562 0.043014605 -0.112838686 -0.20860226 -0.17750387
0.15902787 -0.19705749 -0.110007554 -0.14701232 -0.023658007 -0.09333041 -0.061029077 0.09107438
-0.0005682111 0.024766207 -0.24591991 0.10575533 -0.19701931 0.052523702 -0.117913574 0.17101687
0.06822273 -0.13784963 -0.054573834 -0.16593164 0.092286795 0.16392374 -0.24517441 -0.23136851
0.20237437 -0.0134601295 0.08688587 -0.12315416 0.05243799 -0.20966145 0.12266496 -0.13195899
-0.20757267 0.19733673 0.08875946 0.13003056 0.21587624 -0.094989695 -0.03566383 0.22270797
-0.2555482 0.13270304 0.12372205 0.054423247 0.09294316 -0.058813404 -0.05165737 -0.13706607
-0.20638332 -0.26306793 -0.0022371402 0.0134809865 0.13223268 -0.037896995 0.21737774 -0.021084
0.19221486 -0.10223215 0.18399665 0.15073024 -0.0077848597 -0.09979534 -0.007471879 0.25471452
-0.12788501 -0.20857921 0.14796603 -0.14716738 0.017199934 0.13017806 -0.002436757 -0.2271913
-0.24080333 -0.14154008 0.12990278 0.119280994 -0.033537805 0.1282036 -0.086894125 -0.11357179
0.09528055 0.21761498 -0.23214416 -0.007223282 0.19110371 -0.025278967 -0.22201928 -0.16956343
0.041598126 -0.25821006 0.009488803 -0.097670496 -0.11498197 0.18846822 -0.18348753 -0.24864316
-0.050204247 0.035991132 -0.17833367 0.14307198 -0.071427435 0.018063784 -0.04113072 0.008861989
0.13746792 0.060563207 -0.18099156 0.0634101 -0.20676431 0.18037051 -0.04988399 -0.2185742
-0.22596553 -0.1969127 -0.07017056 -0.19103344 0.115612015 0.07072131 -0.2013399 0.11086855
0.10221592 0.07763335 0.09681932 -0.25843388 0.16958259 0.062229052 -0.09484756 -0.029458858
0.25220147 -0.014709502 -0.19274275 0.20327435 -0.14085835 -0.028501231 -0.2268871 -0.12001841
-0.078829065 -0.08753083 0.16132864 -0.15103859 -0.0727249 0.040931314 0.23494852 -0.0070751905
0.08671428 0.1335091 -0.028529322 0.08491552 -0.17282741 -0.046917204 -0.0077998387 0.15781711
-0.0644487 -0.16527824 0.025489528 -0.073855914 -0.12348885 0.065558225 0.13292678 0.108633175
0.11646698 -0.15894732 0.07206753 -0.03562009 -0.12387797 0.16275297 0.18031415 -0.0118362075
0.09392207 -0.19290978 0.12926427 0.20067678 0.15122795 0.2601727 -0.014113148 -0.13493225
-0.18930005 -0.011693081 -0.18524973 -0.07139512 0.24613549 -0.05046339 -0.009969638 0.21225774
-0.22329983 0.09028942 0.04808843 -0.032299668 0.027156154 -0.20129284 0.16561167 0.149753
0.09161574 -0.17410272 0.14485617 -0.0017619893 -0.23285238 0.08901222 -0.026904402 0.23620678
0.12609884 0.14657399 0.2218469 0.17880107 -0.077358104 -0.042657662 0.2411385 -0.0115887355
00000000: 5f15 75bd ee3f 53bd 5248 4cbb 32dd 333e
00000010: 9f7f 303e 0113 753e 809d 5dbd d20a 6a3e
00000020: ba05 38be 3f22 33be ec59 563d c60f afbd
00000030: 35fe d8bd 9536 293b 03ac 1b3c 616a 5a3c
00000040: c0ec 1b3e e9f2 b8bd 0fa8 803d bce9 413e
00000050: 3c60 523e 00f4 0c3b cda1 44be 6fdb cebd
00000060: 5ae0 1b3e c645 88bd 0212 c8bb 19ce 49bd
00000070: f36d 043e 81ce cdbc 3c50 ffbb 2209 4c3e
00000080: 787e 39be 5753 103d 57c2 4dbb b597 4bbd
00000090: e25a 7f3e c3c7 723d 7886 c93d b336 30be
000000a0: 645b c43d d252 01be 75c4 29be c18d 583d
000000b0: 1530 303d f817 e7bd d59b 55be 93c3 35be
000000c0: 34d8 223e 70c9 49be a44b e1bd 668a 16be
000000d0: 70ce c1bc 0424 bfbd a0f9 79bd 3485 ba3d
000000e0: 00f4 14ba 80e2 ca3c 6ed2 7bbe 4096 d83d
000000f0: 6ebf 49be 1823 573d ac7c f1bd 0c1f 2f3e
00000100: 5cb8 8b3d 7428 0dbe d088 5fbd fce9 29be
00000110: dc00 bd3d a0db 273e 000f 7bbe deeb 6cbe
00000120: 3a3b 4f3e e087 5cbc 38f1 b13d 4038 fcbd
00000130: 38c9 563d 7eb1 56be c437 fb3d 4220 07be
00000140: ee8d 54be a412 4a3e 85c7 b53d bb26 053e
00000150: a90e 5d3e f589 c2bd 3c14 12bd 8f0d 643e
00000160: 37d7 82be 4ee3 073e fc61 fd3d e9ea 5e3d
00000170: fc58 be3d 53e6 70bd ae96 53bd 0c5b 0cbe
00000180: 2656 53be d7b0 86be fc9c 12bb 5bdf 5c3c
00000190: 0168 073e e139 1bbd 4598 5e3e 5ab8 acbc
000001a0: f9d3 443e 175f d1bd 9e69 3c3e 0759 1a3e
000001b0: 2318 ffbb 8061 ccbd aad6 f4bb f169 823e
000001c0: 4af4 02be ca95 55be 6884 173e 0cb3 16be
000001d0: e0e6 8c3c 664d 053e 00b2 1fbb d6a4 68be
000001e0: 2695 76be e2ef 10be 3c05 053e 9849 f43d
000001f0: f05e 09bd ce47 033e 8cf5 b1bd 5498 e8bd
00000200: 7322 c33d 76d6 5e3e 33b7 6dbe 48b1 ecbb
00000210: b1b0 433e d615 cfbc 0659 63be 09a2 2dbe
00000220: cc62 2a3d 1c34 84be ed76 1b3c 7807 c8bd
00000230: ab7b ebbd d0fd 403e 28e4 3bbe 509c 7ebe
00000240: f8a2 4dbd 706b 133d 1a9d 36be 7681 123e
00000250: 8c48 92bd 80fa 933c b078 28bd e031 113c
00000260: 64c4 0c3e 2011 783d da55 39be 28dd 813d
00000270: 06ba 53be 0cb3 383e 2853 4cbd ead1 5fbe
00000280: 8263 67be 7ca3 49be 95b5 8fbd 459e 43be
00000290: fec5 ec3d 56d6 903d 0c2c 4ebe 0d0f e33d
000002a0: 9556 d13d 3cfe 9e3d 3549 c63d 7251 84be
000002b0: 0fa7 2d3e e4e3 7e3d 703f c2bd b453 f1bc
000002c0: 8d20 813e 2000 71bc 5b5e 45be 2727 503e
000002d0: 2c3d 10be 6a7b e9bc 1855 68be 36cc f5bd
000002e0: 2271 a1bd 5d43 b3bd 5633 253e dca9 1abe
000002f0: cbf0 94bd 98a7 273d 5896 703e 00d7 e7bb
00000300: 4297 b13d 9cb6 083e 53b6 e9bc 30e8 ad3d
00000310: abf9 30be 412c 40bd ca95 ffbb cf9a 213e
00000320: aefd 83bd b33e 29be 6acf d03c c541 97bd
00000330: b9e7 fcbd 6443 863d f51d 083e 127b de3d
00000340: 3d86 ee3d 16c3 22be 2498 933d 5fe6 11bd
00000350: bcb3 fdbd b7a8 263e 46a4 383e a7ec 41bc
00000360: 375a c03d 248a 45be da5d 043e 377e 4d3e
00000370: 80db 1a3e 5b35 853e d53a 67bc ae2b 0abe
00000380: dfd7 41be 5694 3fbc 1bb2 3dbe 9b37 92bd
00000390: f10a 7c3e b3b2 4ebd b157 23bc 185a 593e
000003a0: b6a8 64be a9e9 b83d 60f8 443d a84c 04bd
000003b0: 9576 de3c b61f 4ebe 1b96 293e da58 193e
000003c0: 08a1 bb3d fc47 32be 2d55 143e 8df2 e6ba
000003d0: db70 6ebe 0a4c b63d 9f66 dcbc 31e0 713e
000003e0: 0e20 013e 7e17 163e d52b 633e a117 373e
000003f0: ed6d 9ebd cdb9 2ebd 03ed 763e aede 3dbc

cnn.2.bias f4 [16]
0.074233234 0.17406309 0.15214656 -0.090093076 0.0029637218 0.0141709605 -0.18536027 -0.22960696
0.25529236 -0.14654928 -0.020309957 0.19640572 0.03584491 0.106108226 0.101444095 -0.06962142
00000000: 9807 983d 983d 323e 4fcc 1b3e b882 b8bd
00000010: 003b 423b 512d 683c 15cf 3dbe 161e 6bbe
00000020: aeb5 823e 0411 16be 1161 a6bc 951e 493e
00000030: 1dd2 123d 454f d93d ecc1 cf3d ad95 8ebd

cnn.4.weight f4 [32, 16, 2]
0.10601598 -0.0961745 -0.11553362 0.006056682 0.14893734 -0.10941339 0.08212419 0.062960014
-0.0013484657 0.03000696 0.08918109 -0.010681576 -0.2324429 -0.13871656 0.09009351 -0.049787477
-0.022324275 -0.00047941864 -0.14918035 0.10437055 0.044658054 -0.13297236 -0.1894775 -0.06072543
0.06212967 0.02242552 0.17889014 -0.1042185 0.017643511 -0.0072825756 -0.11920997 0.013142152
0.0030077235 0.09370935 0.058760993 -0.07252305 -0.17194359 -0.11807925 -0.1572988 -0.059533834
-0.051279753 -0.062854335 -0.08554592 -0.03816379 -0.10802902 -0.140845 0.16789253 -0.17375766
-0.0926063 0.048538342 -0.059419893 0.10922919 -0.084387824 -0.036623195 -0.048872516 -0.060609616
0.107846126 0.01811521 0.09184759 0.16566917 -0.08967146 0.1492785 -0.0054651625 -0.12208184
-0.0683251 -0.09078144 0.19372098 0.039706867 0.015753021 0.09602409 0.11329536 -0.00404799
-0.030000165 -0.023360372 -0.10750895 0.035789434 0.021583842 0.06193158 0.07879995 -0.080124594
-0.03694289 0.00973159 0.04835309 -0.019291863 0.028236244 0.14079799 0.10752215 0.067404285
-0.14342414 -0.19579503 0.1516043 -0.06377562 0.15422913 -0.1424362 -0.14146009 0.024785824
0.03564478 -0.21140088 0.15565684 -0.11382013 -0.020021893 -0.064844996 0.066842705 0.026081294
0.06434114 -0.162782 -0.005014533 -0.08355103 -0.0848945 0.0016947091 0.17273144 -0.053201273
0.2176943 0.05614615 0.08187391 0.12723367 -0.19922777 -0.113140024 0.1143586 0.04789013
0.09941976 0.0831859 0.0068271337 -0.10240173 0.07235698 -0.26211134 0.039296888 -0.013951504
-0.06205284 -0.12672982 0.13017745 -0.1490869 -0.13774405 -0.030338092 0.1494313 0.12804018
-0.031296268 -0.06721836 0.025863595 0.07032656 0.0979821 -0.0028009054 0.14109705 -0.115187466
0.06753344 0.018330099 0.019716635 0.12130867 -0.11753297 0.08083041 -0.0033574817 -0.08626765
0.0077392496 -0.13181722 -0.10529656 0.114074916 0.13399112 -0.051162057 0.034556556 0.17698157
-0.04277213 -0.13726908 0.17554387 -0.13658331 -0.10399251 -0.107257254 0.12160988 0.16138263
0.11465822 0.08101009 -0.074524544 -0.13841048 0.16351739 0.068698615 -0.046742722 0.11640109
0.13482872 0.13241035 0.07460596 -0.013890088 -0.1737324 -0.029669337 0.077692054 0.009994231
0.1050638 0.19608249 0.11707893 0.06104999 0.1186822 -0.051841862 0.0977811 0.08415438
-0.08308954 0.0041086483 0.19097516 -0.010487632 0.07238995 -0.120524004 -0.06836929 -0.0022076666
-0.17520668 0.06989285 0.14430998 0.026566008 -0.096725546 0.13076949 -0.06863785 -0.15571938
0.050241552 -0.02096402 0.012490749 -0.011568576 -0.06607763 0.12794228 -0.09084103 -0.008656012
0.051545516 -0.15149286 -0.04001985 -0.10278639 -0.04393935 0.025134966 -0.16394302 0.009404645
-0.12087262 0.103571095 0.008029759 -0.11828269 0.05713123 0.1118014 -0.1479018 0.07785849
-0.008764207 -0.11122216 0.15260272 -0.15977049 0.039573416 -0.23662016 -0.17324463 0.071682185
0.104446426 -0.13520096 0.086537495 0.02075249 0.06868244 0.047364626 0.15009786 0.16856343
-0.14472629 0.033614565 -0.07869258 0.07649383 0.049493466 0.1647297 -0.14067751 -0.036421943
00000000: e81e d93d 23f7 c4bd e49c ecbd 2277 c63b
00000010: 0883 183e 2114 e0bd ba30 a83d 2ef1 803d
00000020: 00bf b0ba 28d1 f53c 93a4 b63d c701 2fbc
00000030: 8305 6ebe b70b 0ebe f282 b83d f4ed 4bbd
00000040: 66e1 b6bc 7b5a fbb9 bcc2 18be 3ac0 d53d
00000050: 5deb 363d e829 08be 6406 42be 3abb 78bd
00000060: ae7b 7e3d b9b5 b73c fa2e 373e 8270 d5bd
00000070: 2089 903c aca2 eebb 5b24 f4bd 2e52 573c
00000080: 3a1d 453b b0ea bf3d 5eaf 703d f786 94bd
00000090: fb11 30be 89d3 f1bd f012 21be c0d9 73bd
000000a0: b80a 52bd c6b9 80bd b332 afbd a251 1cbd
000000b0: 523e ddbd ac39 10be 05ec 2b3e 87ed 31be
000000c0: 5fa8 bdbd 24d0 463d 4662 73bd 8eb3 df3d
000000d0: 86d3 acbd 3402 16bd 8c2e 48bd ca41 78bd
000000e0: 6ede dc3d 5966 943c 971a bc3d 2ea5 293e
000000f0: aca5 b7bd 77dc 183e 1b15 b3bb 0b06 fabd
00000100: 08ee 8bbd 9feb b9bd cb5e 463e aba3 223d
00000110: 7b0c 813c 47a8 c43d 6607 e83d 00a5 84bb
00000120: e8c2 f5bc 405e bfbc a72d dcbd f197 123d
00000130: 99d0 b03c f8ab 7d3d de61 a13d 5d18 a4bd
00000140: 6e51 17bd 3f71 1f3c e40d 463d f809 9ebc
00000150: b24f e73c 592d 103e 9334 dc3d 420b 8a3d
00000160: c7dd 12be 7e7e 48be 283e 1b3e cb9c 82bd
00000170: 3eee 1d3e ccda 11be eada 10be a40b cb3c
00000180: 4300 123d 7979 58be 8264 1f3e 871a e9bd
00000190: f404 a4bc 74cd 84bd d4e4 883d 70a8 d53c
000001a0: 4ac5 833d 53b0 26be f450 a4bb cd1c abbd
000001b0: 2bdd adbd 0021 de3a 83e0 303e 94e9 59bd
000001c0: 41eb 5e3e 81f9 653d 82ad a73d 8b49 023e
000001d0: 5d02 4cbe f5b5 e7bd d734 ea3d 7128 443d
000001e0: 969c cb3d 5e5d aa3d 26b6 df3b 00b8 d1bd
000001f0: e52f 943d 7533 86be c6f5 203d d994 64bc
00000200: 1e2b 7ebd 76c5 01be 3d4d 053e 3caa 18be
00000210: c70c 0dbe 9787 f8bc 8504 193e f71c 033e
00000220: 8430 00bd c8a9 89bd e4df d33c 5f07 903d
00000230: d7aa c83d 658f 37bb bf7b 103e 68e7 ebbd
00000240: f94e 8a3d 0129 963c c884 a13c ae70 f83d
00000250: 20b5 f0bd 6a8a a53d 3209 5cbb 18ad b0bd
00000260: 8899 fd3b 18fb 06be b9a5 d7bd 1ca0 e93d
00000270: f834 093e 4e8f 51bd 2d8b 0d3d a83a 353e
00000280: d431 2fbd 4490 0cbe c6c1 333e 7fdc 0bbe
00000290: 06fa d4bd b1a9 dbbd 9a0e f93d 7d41 253e
000002a0: eed1 ea3d 9ee8 a53d 53a0 98bd 7abb 0dbe
000002b0: 1a71 273e dcb1 8c3d 4c75 3fbd b263 ee3d
000002c0: 8a10 0a3e 9496 073e 02cb 983d 4093 63bc
000002d0: e8e6 31be 1c0d f3bc 031d 9f3d d8be 233c
000002e0: b12b d73d d9c9 483e 14c7 ef3d 8e0f 7a3d
000002f0: a70f f33d 2258 54bd 7541 c83d 2259 ac3d
00000300: d92a aabd d7a1 863b fe8e 433e 51d4 2bbc
00000310: 2f41 943d 4ad5 f6bd 3305 8cbd 80ae 10bb
00000320: 6169 33be fc23 8f3d ffc5 133e f5a0 d93c
00000330: 0b18 c6bd 70e8 053e 0092 8cbd e774 1fbe
00000340: 16ca 4d3d bdbc abbc 00a6 4c3c 208a 3dbc
00000350: b553 87bd 4d03 033e dd0a babd f2d1 0dbc
00000360: 6421 533d f220 1bbe dbeb 23bd ac81 d2bd
00000370: bff9 33bd d8e7 cd3c aee0 27be f115 1a3c
00000380: 108c f7bd 151d d43d 408f 033c 323e f2bd
00000390: 7002 6a3d 22f8 e43d 9273 17be 4674 9f3d
000003a0: c097 0fbc 72c8 e3bd e343 1c3e e09a 23be
000003b0: bc17 223d 8e4c 72be 0a67 31be 1cce 923d
000003c0: 02e8 d53d 1f72 0abe 923a b13d 2001 aa3c
000003d0: 61a9 8c3d 6901 423d 41b3 193e e49b 2c3e
000003e0: 2133 14be 6daf 093d 9329 a1bd cca8 9c3d
000003f0: a9b9 4a3d e7ae 283e c40d 10be 2d2f 15bd

cnn.4.bias f4 [32]
-0.06867053 0.1534852 0.16003878 0.0808206 -0.108711824 0.16308999 0.19733086 0.06678507
0.08722069 -0.029861167 0.18534942 0.15921126 0.06825935 -0.008702644 -0.11370171 0.026415572
-0.026527436 0.007960711 0.1208326 -0.17076878 -0.11991537 0.079058975 0.11820786 -0.11521877
0.051487863 -0.032230284 -0.04632242 0.100293785 0.14496723 0.19448291 0.14093532 0.18049105
00000000: 23a3 8cbd 392b 1d3e 35e1 233e 4585 a53d
00000010: 4ea4 debd 1001 273e 1a11 4a3e 9cc6 883d
00000020: c3a0 b23d 689f f4bc 3dcc 3d3e 4708 233e
00000030: 8fcb 8b3d 8995 0ebc 71dc e8bd 7865 d83c
00000040: 1150 d9bc a46d 023c 1577 f73d 03de 2ebe
00000050: 3196 f5bd ace9 a13d f616 f23d d2f7 ebbd
00000060: f0e4 523d e703 04bd 94bc 3dbd d466 cd3d
00000070: 4a72 143e 8726 473e 5951 103e a5d2 383e

cnn_fc.weight f4 [128, 544]
0.020348955 -0.042131834 0.007490577 -0.0018552083 -0.025901724 0.010178048 0.046420015 0.011017048
0.016015094 0.03696793 -0.0067901122 0.025263537 0.007766927 0.0056937025 -0.059128594 -0.0010026704
0.0056695207 0.006378355 0.018758895 -0.011550538 0.028181588 -0.01365356 -0.018450363 -0.021178897
0.026509581 0.01924676 0.025140397 -0.03984337 -0.007051806 0.0198019 -0.028430669 -0.054223225
-0.029194014 -0.005086665 -0.03982177 -0.0020507034 -0.033368554 0.027139517 0.030709041 -0.037381083
-0.01751122 0.025781007 0.0052414187 -0.04447203 0.01108925 -0.023938028 0.00990967 -0.030477233
0.011596877 0.025044028 0.07472931 0.08280142 0.0059432173 0.051195428 0.069246955 0.042016074
0.09948526 0.044051494 0.050230302 -0.033972483 -0.0033952354 0.01145767 0.017651942 -0.08999896
-0.05105143 -0.008021843 0.0002159087 -0.016784558 -0.04037305 0.03880336 0.07622756 0.05100066
-0.01342637 -0.0025530418 -0.009438029 0.012663895 -0.050891794 -0.046963736 -0.01061988 0.107432455
0.021864215 0.0743947 0.013624527 0.061798774 0.028387759 -0.013757032 -0.027275516 0.019541176
0.015348222 -0.039193206 -0.0150998775 -0.0010089928 0.013625809 -0.0272891 0.010113264 -0.012378992
-0.018983005 -0.0014492455 -0.031933386 -0.016014872 -0.038717765 -0.035490457 -0.03042361 0.018680768
-0.039387845 -0.025750354 0.018121785 -0.040470026 -0.045752734 0.023927828 0.030867599 -0.023640634
-0.038574357 0.027190683 0.009193294 0.057357088 0.056333113 0.06494863 0.045955423 0.03774107
0.0062036486 -0.031370446 0.0012842495 0.04562957 0.036612857 -0.03110027 -0.02043595 0.01987212
-0.026544707 0.023117881 -0.03725993 -0.044006824 0.02682472 0.010105607 0.009015064 -0.039640266
-0.020221429 -0.012142976 0.02848461 -0.015584966 -0.0066001313 -0.0004926678 0.03063333 0.022189114
-0.014436274 -0.031173496 0.030020345 0.010411696 -0.03355616 0.015157474 -0.057068665 -0.032181464
-0.0017376558 -0.0030662417 0.03576993 0.023201104 0.018786702 -0.0061900318 0.04100888 0.034321632
-0.014018733 -0.025443267 -0.0007111728 0.014256589 0.023325529 -0.013465812 0.042178135 -0.0006081797
0.03973348 -0.041620545 0.0061403946 -0.052418116 0.027103234 0.017174544 -0.037595164 -0.008427324
-0.024543509 -0.008200373 0.0038568226 0.021749953 0.0043341327 -0.005547017 -0.024875734 -0.024793131
-0.04907982 0.020621138 0.0005668056 -0.048931062 0.004242666 -0.051401198 -0.031517822 -0.0571756
0.021570357 -0.030284535 0.032293063 0.03546689 -0.036202572 -0.0076932614 -0.038329855 0.008314607
0.011016586 -0.04275865 0.022910764 -0.02615622 -0.020223577 0.014418825 -0.016228363 -0.03952627
0.030826893 -0.04809095 -0.049030945 0.012033822 -0.0037228204 -0.043431014 -0.021091014 0.017124653
-0.032259546 0.0077180606 0.0044207494 -0.0059573897 -0.07530105 0.006444072 -0.027193166 -0.007813449
0.024813514 0.043523423 -0.0137966 0.0130960075 -0.0074830013 0.013445066 0.013572111 0.0103410045
-0.024700873 -0.04638279 -0.011039259 -0.01994898 -0.023695849 -0.037991334 -0.0024180224 0.01481948
0.032969873 -0.02157142 0.0052273516 -0.0010219326 0.041085325 0.030512854 0.033385754 -0.022857243
0.009513023 0.010813599 -0.03376282 0.021014458 0.0035992146 -0.025875563 -0.049064707 -0.042339034
00000000: dab2 a63c 6e92 2cbd 8473 f53b 762a f3ba
00000010: da2f d4bc d4c1 263c ea22 3e3d d980 343c
00000020: 1632 833c af6b 173d 977f debb 7af5 ce3c
00000030: b581 fe3b 3d92 ba3b d330 72bd 096c 83ba
00000040: 63c7 b93b 8501 d13b 41ac 993c 783e 3dbc
00000050: 13dd e63c 2eb3 5fbc 3725 97bc 5e7f adbc
00000060: 9f2a d93c 62ab 9d3c 3cf3 cd3c cd32 23bd
00000070: d612 e7bb 9837 a23c 6fe7 e8bc 2c19 5ebd
00000080: 4928 efbc 0aae a6bb 271c 23bd 1865 06bb
00000090: 77ad 08bd b153 de3c 8791 fb3c e81c 19bd
000000a0: b173 8fbc b132 d33c 35c0 ab3b 4e28 36bd
000000b0: b0af 353c af19 c4bc 2b5c 223c 64ab f9bc
000000c0: d400 3e3c 2229 cd3c ae0b 993d ca93 a93d
000000d0: 52bf c23b 4cb2 513d 59d1 8d3d 0c19 2c3d
000000e0: eebe cb3d 576f 343d 4abe 4d3d bb26 0bbd
000000f0: 9982 5ebb f3b8 3b3c ce9a 903c 6051 b8bd
00000100: 4e1b 51bd 0c6e 03bc 8d65 6239 c57f 89bc
00000110: 365e 25bd 46f0 1e3d 321d 9c3d 11e6 503d
00000120: 47fa 5bbc ef50 27bb f6a1 1abc 3a7c 4f3c
00000130: ea73 50bd 0c5d 40bd 01ff 2dbc 8c05 dc3d
00000140: 951c b33c 405c 983d 6839 5f3c b620 7d3d
00000150: 728d e83c 2d65 61bc e770 dfbc d114 a03c
00000160: 1c77 7b3c 0e89 20bd 7a65 77bc 2e40 84ba
00000170: c93e 5f3c 648d dfbc 1bb2 253c 41d1 4abc
00000180: 3f82 9bbc 9cf4 bdba 95cc 02bd 9f31 83bc
00000190: 8596 1ebd 715e 11bd ef3a f9bc 6908 993c
000001a0: 2655 21bd 68f2 d2bc 2374 943c e6c3 25bd
000001b0: 3867 3bbd 4b04 c43c 0cde fc3c 01aa c1bc
000001c0: 2500 1ebd ffbe de3c 789f 163c 44ef 6a3d
000001d0: 8dbd 663d ca03 853d c13b 3c3d 6196 1a3d
000001e0: fa47 cb3b 4c7e 00bd 4354 a83a 12e6 3a3d
000001f0: 5df7 153d fec5 febc 4b69 a7bc dbca a23c
00000200: 4974 d9bc b661 bd3c de9d 18bd 8040 34bd
00000210: 84bf db3c fd91 253c ebb3 133c d55d 22bd
00000220: 69a7 a5bc 55f3 46bc 8f58 e93c 1658 7fbc
00000230: ea45 d8bb 6026 01ba c0f2 fa3c f2c5 b53c
00000240: 1f86 6cbc 8f5f ffbc 3aed f53c d195 2a3c
00000250: 2f72 09bd 0e57 783c d5c0 69bd b6d0 03bd
00000260: 0ec2 e3ba 00f3 48bb 7d83 123d 3e10 be3c
00000270: 92e6 993c c0d5 cabb edf8 273d d794 0c3d
00000280: d4ae 65bc 666e d0bc 006e 3aba 7894 693c
00000290: 2e15 bf3c b69f 5cbc fbc2 2c3d 406e 1fba
000002a0: 93bf 223d 4e7a 2abd 5d35 c93b 61b4 56bd
000002b0: 9a07 de3c a1b1 8c3c 63fd 19bd c212 0abc
000002c0: 780f c9bc db5a 06bc bfc2 7c3b f52c b23c
000002d0: 5705 8e3b c0c3 b5bb 32c8 cbbc f71a cbbc
000002e0: ec07 49bd a9ed a83c ae95 143a f06b 48bd
000002f0: 1006 8b3b 108a 52bd d518 01bd f630 6abd
00000300: 51b4 b03c 4617 f8bc bb45 043d bb45 113d
00000310: 2649 14bd c117 fcbb c4ff 1cbd fd39 083c
00000320: e97e 343c b223 2fbd 5baf bb3c 9245 d6bc
00000330: eaab a5bc ef3c 6c3c 58f1 84bc 4ce6 21bd
00000340: ae88 fc3c 04fb 44bd acd4 48bd 8229 453c
00000350: 90fa 73bb b8e4 31bd 10c7 acbc 0049 8c3c
00000360: 9622 04bd c9e7 fc3b efdb 903b 3536 c3bb
00000370: 7037 9abd cb28 d33b 34c4 debc fb03 00bc
00000380: b645 cb3c 9e45 323d 220b 62bc a390 563c
00000390: f733 f5bb b248 5c3c 8f5d 5e3c 516d 293c
000003a0: 7c59 cabc e1fb 3dbd 02de 34bc 0b6c a3bc
000003b0: cc1d c2bc cd9c 1bbd af77 1ebb 67cd 723c
000003c0: 6b0b 073d 8cb6 b0bc 344a ab3b 5ef2 85ba
000003d0: 1649 283d 18f6 f93c 80bf 083d 1d3f bbbc
000003e0: 83dc 1b3c 862b 313c e24a 0abd 8326 ac3c
000003f0: cde0 6b3b fdf8 d3bc 13f8 48bd b26b 2dbd

cnn_fc.bias f4 [128]
-0.04834086 0.01686417 0.0129704075 -0.042157855 0.002877813 -0.046705622 0.046679236 -0.017702997
0.020579435 -0.043360457 0.039332367 -0.018285055 0.02633417 0.0012500463 -0.0035857717 0.010857296
-0.027828295 0.03550449 -0.03249324 0.012305105 0.011286423 0.016478933 -0.0003703852 -0.0015893637
-0.02658899 -0.043520458 0.019947171 -0.042861804 -0.008261271 0.032688346 0.01701612 0.040784236
0.037466194 -0.010645535 0.02960494 -0.02368223 -0.003909563 0.0010588379 -0.016549073 -0.016160708
0.038846914 -0.018197218 -0.0073284074 -0.042360075 0.014089146 0.0139705455 0.014981982 -0.030684024
-0.044464238 0.00953519 0.0026911355 -0.0063915383 0.019851116 0.042918958 -0.028094174 -0.039462626
0.02349444 -0.032120366 0.024038795 0.027764063 -0.01696836 0.010120161 -0.0074194586 0.015834661
0.033983085 -0.032550845 -0.011077502 0.045017727 -0.027805785 3.5910987e-05 0.027650291 -0.023444599
-0.030505605 -0.038895395 0.032357927 -0.0030420306 -0.035815865 0.0074742874 -0.008758083 -0.022355272
0.019067723 0.03355532 0.039548658 0.003972018 -0.036435135 0.018758964 -0.0526103 -0.005831224
-0.016327893 0.008674415 0.0017916228 0.005537058 0.0059470814 0.013677651 0.010508116 0.037825882
0.021530755 -0.005433711 0.017934524 -0.017107945 0.0043254583 -0.010386092 -0.015583654 0.054217108
0.0047791214 0.01645242 -0.003375698 -0.01768247 0.011341529 0.030199328 0.026580371 -0.02246102
0.029690392 -0.017076228 -0.040999185 -0.023671027 0.049584333 -0.006400686 -0.01839291 0.016175477
-0.04207357 0.021814471 0.017838936 -0.030375514 0.012384829 -0.041804343 0.015103666 -0.02447517
00000000: 1101 46bd ba26 8a3c d581 543c b7ad 2cbd
00000010: b199 3c3b 654e 3fbd ba32 3f3d e005 91bc
00000020: 3496 a83c bc9a 31bd fa1a 213d 8aca 95bc
00000030: c2ba d73c 98d8 a33a 44ff 6abb cde2 313c
00000040: 2af8 e3bc 286d 113d a217 05bd 5a9b 493c
00000050: b0ea 383c d4fe 863c 4330 c2b9 3252 d0ba
00000060: 27d1 d9bc 8242 32bd 4068 a33c dc8f 2fbd
00000070: 485a 07bc 37e4 053d 6465 8b3c 5f0d 273d
00000080: 2776 193d 9c6a 2ebc 0f86 f23c 3c01 c2bc
00000090: cb1b 80bb b4c8 8a3a ec91 87bc 7663 84bc
000000a0: f11d 1f3d 5512 95bc 2323 f0bb c281 2dbd
000000b0: 29d6 663c b7e4 643c fd76 753c 105d fbbc
000000c0: 2220 36bd 7c39 1c3c c35d 303b 1c70 d1bb
000000d0: cf9e a23c cacb 2f3d c125 e6bc 90a3 21bd
000000e0: 6977 c03c a590 03bd 02ed c43c 7671 e33c
000000f0: 3b01 8bbc 08cf 253c ee1e f3bb b1b7 813c
00000100: d931 0b3d 0954 05bd 697e 35bc 8264 383d
00000110: f5c8 e3bc 219f 1638 dd82 e23c e30e c0bc
00000120: e4e6 f9bc c750 1fbd bf89 043d ce5c 47bb
00000130: a8b3 12bd deea f43b 107e 0fbc 6722 b7bc
00000140: ea33 9c3c 4e71 093d c6fd 213d b427 823b
00000150: 023d 15bd 66ac 993c e67d 57bd da13 bfbb
00000160: 13c2 85bc 221f 0e3c e3d4 ea3a 3670 b53b
00000170: bcdf c23b 3a18 603c 3c2a 2c3c 50ef 1a3d
00000180: 4461 b03c 460d b2bb 6ceb 923c f625 8cbc
00000190: 93bc 8d3b 6d2a 2abc 9552 7fbc c212 5e3d
000001a0: 2d9a 9c3b 3ac7 863c d13a 5dbb d4da 90bc
000001b0: d2d1 393c 9564 f73c 14bf d93c 2c00 b8bc
000001c0: 4439 f33c 72e3 8bbc c3ee 27bd bee9 c1bc
000001d0: f118 4b3d d9bc d1bb baac 96bc 6f82 843c
000001e0: 5655 2cbd 43b4 b23c f622 923c 12d6 f8bc
000001f0: bde9 4a3c 083b 2bbd 5e75 773c 2780 c8bc

gru.weight_ih_l0 f4 [30, 3]
-0.050357 0.21341139 -0.15388903 0.11394685 -0.21252799 0.18993635 -0.084530644 -0.08595888
-0.06413466 0.090298824 0.24630935 -0.24517982 -0.20357014 0.30677444 0.22287852 -0.13078938
-0.26360267 -0.25847238 0.25661218 0.27035996 -0.18105185 -0.0543386 0.10789005 -0.07657426
0.051425647 -0.024311872 -0.062010102 -0.17938755 -0.0978843 0.08533705 -0.18126383 0.012440634
0.16781189 0.13623244 -0.17109172 0.011364525 -0.189683 -0.13544014 -0.31715286 -0.1309758
0.058443904 -0.000117911266 0.001872634 -0.4109581 -0.073783934 -0.16394225 -0.31313765 0.09113448
0.095041394 0.1752562 -0.3224148 0.12797235 -0.09019218 -0.021095986 -0.49958527 -0.110778406
0.18901719 -0.3788959 -0.040080756 0.046622552 -0.16799305 -0.1309719 -0.2551242 0.16191845
-0.16345988 -0.1643572 -0.17469558 0.009151761 0.15942125 0.16527492 0.05101796 -0.12690793
0.060349394 -0.05735053 -0.22016376 -0.26984948 0.07350541 0.028433247 0.22019991 0.31235957
0.13545765 -0.26812592 -0.29518047 0.2610838 0.129025 -0.18518507 0.084120855 -0.2231278
-0.20268087 -0.13219266
00000000: 2443 4ebd 8488 5a3e 1695 1dbe f75c e93d
00000010: f0a0 59be ad7e 423e 671e adbd 360b b0bd
00000020: 0859 83bd 97ee b83d 8538 7c3e 6b10 7bbe
00000030: b174 50be 8a11 9d3e 443a 643e a7ed 05be
00000040: eef6 86be 7e56 84be ac62 833e 9f6c 8a3e
00000050: a865 39be 2792 5ebd 75f5 dc3d f7d2 9cbd
00000060: b3a3 523d b129 c7bc 4efe 7dbd 5fb1 37be
00000070: 9077 c8bd 31c5 ae3d 3a9d 39be cdd3 4b3c
00000080: e1d6 2b3e 8480 0b3e ab32 2fbe 4632 3a3c
00000090: 433c 42be d2b0 0abe dc61 a2be 851e 06be
000000a0: e062 6f3d 2147 f7b8 2c73 f53a 1a69 d2be
000000b0: 081c 97bd 7ae0 27be 9453 a0be b7a4 ba3d
000000c0: 10a5 c23d 5c76 333e 8d13 a5be 2f0b 033e
000000d0: adb6 b8bd 7dd1 acbc a4c9 ffbe cadf e2bd
000000e0: b98d 413e a5fe c1be b82b 24bd 4af7 3e3d
000000f0: 5f06 2cbe 7f1d 06be a49f 82be f3cd 253e
00000100: 0762 27be 414d 28be 66e3 32be 45f1 153c
00000110: 533f 233e d43d 293e 35f8 503d 27f4 01be
00000120: ed30 773d 64e8 6abd 9c72 61be b629 8abe
00000130: 018a 963d d7ec e83c 167c 613e 98ed 9f3e
00000140: 69b5 0a3e cd47 89be e521 97be c7ac 853e
00000150: 211f 043e 28a1 3dbe 8e47 ac3d 9d7b 64be
00000160: 938b 4fbe 835d 07be

gru.weight_hh_l0 f4 [30, 10]
-0.32990405 0.06126006 0.106790766 0.33619878 0.3735965 0.21333048 0.027472794 0.04438703
0.27735695 0.03658795 -0.014978303 0.12926777 -0.0584676 0.25308788 0.00014373922 0.19479237
0.1391782 -0.2913004 0.11431185 0.07652414 0.059081458 -0.17134795 -0.09741845 -0.13427877
0.21931699 -0.28911564 0.20444332 -0.38403872 -0.21595922 -0.33759734 0.11659681 -0.20115693
0.12186439 -0.1267085 -0.037395183 -0.12582369 -0.06839853 0.16698013 -0.34763652 0.34507093
-0.2054801 0.24286859 -0.33470032 0.2664348 0.24507761 0.12847963 0.33230022 0.021186331
0.2246466 -0.09800249 0.014136546 0.22024816 -0.09964322 0.035127606 -0.28089625 0.18026423
0.0111512225 0.2538041 0.20920299 -0.059841182 0.23942876 -0.29386353 -0.24535863 -0.35561308
-0.22091557 0.20309688 0.0037013397 -0.0672939 0.006330331 0.016220037 -0.0407254 -0.22359192
-0.20734844 -0.036781598 -0.00014991988 -0.039261404 -0.20967698 0.16241372 0.18849182 -0.07388307
0.2973208 0.03633838 -0.025020314 -0.34441665 -0.25753433 -0.054845713 0.08128604 -0.024949873
0.24724811 0.0058144713 -0.060597256 0.36992845 0.1074121 -0.1763086 0.1681074 -0.31486213
0.35836273 0.021712352 -0.09023458 -0.37662393 0.18999301 -0.29115546 -0.17623642 -0.44746315
-0.20894104 0.14114894 -0.061243385 0.1321927 -0.52385575 0.3872826 -0.20751517 0.072765335
0.35788894 0.1323963 -0.3261595 0.2246577 0.14874409 0.06574377 -0.30667487 -0.16139181
-0.010714791 -0.24126206 0.23121355 -0.12198352 -0.36430034 0.45608345 -0.12301347 0.5128307
-0.30588397 0.38215777 0.42970198 -0.42209214 0.33235133 -0.3338068 -0.004225391 0.4046533
-0.28320858 0.51988775 -0.38041493 0.23314606 -0.17788512 0.025384678 0.048512228 0.13869178
0.31677327 0.036569607 -0.16837677 -0.05826297 0.057022117 -0.099673875 0.3593142 -0.06744216
-0.18269792 -0.016428292 -0.30473626 -0.11333797 -0.02970425 0.3770947 -0.015372635 0.07520411
0.123876475 0.1923156 0.10570882 -0.033108998 -0.21660158 0.107441515 -0.26734728 -0.15266183
0.02587144 -0.28546467 -0.009370312 -0.31322536 0.23198356 0.22802065 0.15049483 -0.018811379
0.034764696 0.23628573 0.16015367 0.16247022 0.3312578 -0.53621817 -0.045574106 -0.61840093
-0.5679472 0.021763718 -0.44550863 0.57705754 -0.21010433 0.24560396 -0.079832196 -0.4591457
0.21588075 0.08710859 -0.1373615 0.29752743 -0.046658337 -0.06225905 -0.3374473 0.029267132
-0.17156456 0.16472697 0.4321523 -0.16560014 0.109160386 -0.22068302 0.30549708 -0.27969202
0.020836392 0.07038001 -0.1077062 0.004581893 0.13012002 0.22543356 0.079157926 0.05209452
0.3403509 0.019483563 0.2092879 0.029011674 -0.35235873 0.30192846 0.100707166 0.1985304
0.3023323 -0.2972989 0.21844146 -0.3229927 -0.23343965 0.16402607 -0.11351144 0.015217286
0.011294289 0.13267359 -0.010148484 -0.085617505 -0.35589013 -0.088033944 0.1433577 0.09656709
-0.35429633 0.32990468 -0.31553128 0.20969811 -0.2029129 0.20030624 0.09231121 -0.24962953
-0.16971996 0.038783405 0.20336595 -0.0028291743 0.17545396 -0.13541788 0.28986874 -0.24036144
00000000: 2fe9 a8be d4eb 7a3d 1eb5 da3d 3f22 ac3e
00000010: 0a48 bf3e 4e73 5a3e a00e e13c 2dcf 353d
00000020: bb01 8e3e 3fdd 153d 8e67 75bc c55e 043e
00000030: b97b 6fbd bc94 813e b4b8 1639 a777 473e
00000040: bb84 0e3e 5325 95be 551c ea3d b0b8 9c3d
00000050: 66ff 713d d675 2fbe 5383 c7bd 6080 09be
00000060: a294 603e f706 94be 9759 513e b9a0 c4be
00000070: 6a24 5dbe 8fd9 acbe 4fca ee3d 15fc 4dbe
00000080: 0a94 f93d dfbf 01be b12b 19bd edd7 00be
00000090: 8714 8cbd d7fc 2a3e 6afd b1be 23ad b03e
000000a0: 6069 52be 8bb2 783e d75d abbe 246a 883e
000000b0: a0f5 7a3e 2a90 033e 4123 aa3e f58e ad3c
000000c0: c209 663e 88b5 c8bd f99c 673c bc88 613e
000000d0: bf11 ccbd f7e1 0f3d a2d1 8fbe 3097 383e
000000e0: 9eb3 363c 9cf2 813e 4f39 563e 071c 75bd
000000f0: d02c 753e 4875 96be 4b3f 7bbe eb12 b6be
00000100: b137 62be a1f8 4f3e 2d92 723b 62d1 89bd
00000110: aa6e cf3b e2df 843c adcf 26bd 48f5 64be
00000120: 2653 54be 4da8 16bd d033 1db9 91d0 20bd
00000130: 90b5 56be c84f 263e 0004 413e 0250 97bd
00000140: 6f3a 983e 8ed7 143d 67f7 ccbc 6157 b0be
00000150: 8adb 83be e6a5 60bd 4c79 a63d ad63 ccbc
00000160: 9c2e 7d3e 5287 be3b d434 78bd 4367 bd3e
00000170: e0fa db3d 3e8a 34be 5924 2c3e 9c35 a1be
00000180: 527b b73e 1ade b13c e8cc b8bd dad4 c0be
00000190: 878d 423e 5412 95be 5277 34be e419 e5be
000001a0: a4f4 55be 5989 103e 58da 7abd 865d 073e
000001b0: 691b 06bf e849 c63e db7e 54be fe05 953d
000001c0: 383d b73e e592 073e 61fe a6be ab0c 663e
000001d0: 5f50 183e aba4 863d 7d04 9dbe e543 25be
000001e0: 178d 2fbc 670d 77be 3fc3 6c3e 7fd2 f9bd
000001f0: 9385 babe c583 e93e 7cee fbbd df48 033f
00000200: d39c 9cbe 2faa c33e e601 dc3e 761c d8be
00000210: f429 aa3e bae8 aabe 2675 8abb b82e cf3e
00000220: b700 91be 5d17 053f bfc5 c2be d7bd 6e3e
00000230: 8427 36be 87f3 cf3c c2b4 463d 3805 0e3e
00000240: 1b30 a23e 03ca 153d f66a 2cbe 27a5 6ebd
00000250: 0690 693d d121 ccbd 08f8 b73e 1d1f 8abd
00000260: 2a15 3bbe a094 86bc 6406 9cbe bd1d e8bd
00000270: 5456 f3bc 8e12 c13e 81dd 7bbc 9d04 9a3d
00000280: f3b2 fd3d 61ee 443e de7d d83d 4d9d 07bd
00000290: cecc 5dbe 4c0a dc3d bee1 88be 6253 1cbe
000002a0: 58f0 d33c 6d28 92be f085 19bc 135f a0be
000002b0: 198d 6d3e 3f7e 693e 511b 1a3e 521a 9abc
000002c0: 6d65 0e3d e3f4 713e 53ff 233e 985e 263e
000002d0: 9f9a a93e 9845 09bf eaab 3abd 864f 1ebf
000002e0: fd64 11bf d349 b23c b519 e4be 0bba 133f
000002f0: 9725 57be 9b7f 7b3e 107f a3bd 2515 ebbe
00000300: d80f 5d3e fd65 b23d 7ea8 0cbe 8455 983e
00000310: d01c 3fbd 5803 7fbd e4c5 acbe a0c1 ef3c
00000320: 9fae 2fbe 30ae 283e 1143 dd3e 1593 29be
00000330: 7b8f df3d bbfa 61be 1d6a 9c3e cb33 8fbe
00000340: 15b1 aa3c 6523 903d 1195 dcbd b423 963b
00000350: 2f3e 053e 0ed8 663e 8d1d a23d 1061 553d
00000360: 7942 ae3e fe9b 9f3c 914f 563e e4a9 ed3c
00000370: 5d68 b4be 5e96 9a3e 8f3f ce3d 8e4b 4b3e
00000380: 4dcb 9a3e 9037 98be 1eaf 5f3e 4d5f a5be
00000390: ce0a 6fbe 73f6 273e b078 e8bd ec51 793c
000003a0: ae0b 393c 96db 073e d445 26bc 3b58 afbd
000003b0: 3b37 b6be 244b b4bd 5ccc 123e f7c4 c53d
000003c0: 5466 b5be 44e9 a83e 518d a1be 1abb 563e
000003d0: 66c8 4fbe 141d 4d3e a90d bd3d e29e 7fbe
000003e0: 12cb 2dbe 59db 1e3d 2a3f 503e ab69 39bb
000003f0: 34aa 333e fcaa 0abe ad69 943e 4f21 76be

gru.bias_ih_l0 f4 [30]
-0.13107291 0.019357676 0.30869865 0.19063924 0.25729883 0.16705784 0.18448344 0.12377603
-0.32401812 0.33996314 -0.42580226 0.22983365 -0.47853208 -0.17891206 0.16962527 0.015292327
-0.09580311 0.25489265 -0.553411 -0.35109803 -0.17277047 0.31756446 0.32302436 0.14210679
0.25760132 0.3271118 -0.33646524 -0.08128102 0.23687302 0.34094885
00000000: fa37 06be fd93 9e3c c00d 9e3e ef36 433e
00000010: acbc 833e 3611 2b3e 3ae9 3c3e 4a7e fd3d
00000020: b4e5 a5be a60f ae3e c102 dabe 8359 6b3e
00000030: 2802 f5be b934 37be 3fb2 2d3e ab8c 7a3c
00000040: 6c34 c4bd 4a81 823e 58ac 0dbf 1fc3 b3be
00000050: beea 30be cf97 a23e 7363 a53e 7184 113e
00000060: 52e4 833e 337b a73e 2c45 acbe aa76 a6bd
00000070: d78e 723e d990 ae3e

gru.bias_hh_l0 f4 [30]
-0.12965953 -0.1834844 -0.23150253 -0.25082722 -0.15157263 0.3456289 0.23418173 -0.042815376
0.14880617 0.3507638 -0.5548807 -0.3647644 -0.46944803 -0.27856895 0.1649489 -0.26766148
-0.22103807 0.23780613 -0.2764063 -0.08399757 0.28180426 -0.07244099 -0.12312868 0.21318302
-0.101783715 0.25112408 0.19287528 -0.270777 -0.2810253 -0.023473745
00000000: 78c5 04be 56e3 3bbe 000f 6dbe 6d6c 80be
00000010: db35 1bbe 45f6 b03e 56cd 6f3e 2d5f 2fbd
00000020: a560 183e 5097 b33e a90c 0ebf 66c2 babe
00000030: 7e5b f0be 97a0 8ebe 5de8 283e ed0a 89be
00000040: ce57 62be 7383 733e 2085 8dbe eb06 acbd
00000050: a648 903e f15b 94bd e42a fcbd a64c 5a3e
00000060: fb73 d0bd 5693 803e 1981 453e 48a3 8abe
00000070: 8ce2 8fbe 034c c0bc

gru.weight_ih_l1 f4 [30, 10]
0.031908 -0.056578785 -0.3222319 -0.27074876 -0.2928539 0.07319517 0.25707006 -0.14923851
0.35331467 0.12731846 0.19932027 0.25283775 0.16322757 -0.2541924 -0.15152322 -0.13896838
0.052931063 0.123640396 0.19407073 0.33476797 -0.12345477 0.1694454 -0.2858072 0.013329803
0.10220156 -0.025571514 -0.09435725 0.06975033 -0.25295678 -0.009385211 -0.07806875 0.22271255
0.22258288 0.21790841 0.1180291 -0.31916356 0.29922298 0.1181641 0.15369542 -0.08622236
0.24606271 0.028877743 0.24531868 -0.16462754 0.13429996 -0.23662217 0.05185039 -0.067146115
-0.28756937 -0.1512035 -0.1726464 0.19505107 -0.067660674 -0.08479102 0.09976802 0.12867068
-0.23164119 0.12982893 -0.024859112 -0.38627002 0.2033893 0.13947777 0.23741841 -0.061688438
0.19582435 -0.15581697 -0.09384702 -0.28695035 -0.1260152 -0.109671466 0.26683596 0.12091588
-0.070002556 0.012390801 -0.24357629 -0.005450658 0.11787548 0.14867422 0.23490368 -0.30553365
0.21039745 0.0024091883 0.3032636 -0.02866095 0.23500517 0.012521375 -0.019590233 0.10808904
-0.13892117 0.11133872 0.12660532 -0.11103428 0.03355245 -0.21273477 -0.054553103 0.24633543
0.19908534 0.13556598 -0.06509325 0.047418818 0.1998181 -0.27062792 0.31201184 0.05524307
-0.38639644 0.3567666 -0.016521467 0.3350158 -0.13108318 0.3314031 0.53666884 -0.5127933
0.08138938 -0.27568075 -0.55718905 0.10055105 -0.112292305 0.40128163 -0.61321324 0.41142917
-0.1664415 0.048530955 0.07816282 0.13433509 -0.27400866 -0.23463339 0.1595417 -0.11535129
-0.19802478 -0.09853227 -0.11934526 -0.3193894 0.27059665 0.07289447 -0.42728472 0.020208886
-0.24821302 -0.094861835 -0.32992166 0.38481423 0.2662101 -0.39121476 0.3595427 -0.2274786
-0.43921477 0.43541217 -0.46788743 0.01942234 0.001634858 0.12820208 0.33224803 0.23719692
-0.25555032 -0.14263158 -0.14955267 0.26680255 0.07037943 0.35577446 -0.33995104 0.26915967
0.21284854 -0.37955225 0.46773523 -0.15269355 0.08245566 -0.04265586 0.04553659 0.038297676
-0.47281095 -0.022961177 -0.080086626 0.11655778 0.36510956 -0.06325467 -0.5138805 -0.12500855
-0.16728647 -0.07917046 -0.25389412 0.040057503 0.3626791 -0.18678741 0.35904032 -0.4360486
-0.35997456 0.5884956 -0.5234895 0.26973596 -0.32687983 0.3664414 -0.02262746 -0.12087746
-0.11695675 -0.44561788 -0.13702315 0.43025687 -0.43792433 0.039914783 0.05833112 -0.060033172
0.263217 -0.33092716 -0.060623825 -0.3095809 0.04512038 0.18343103 -0.018285729 0.07844731
0.19467779 -0.16006574 0.045123223 0.27815488 0.43165413 -0.048908968 0.11703757 0.18540141
0.012484525 -0.08442474 -0.3165377 0.19162972 0.34655705 0.18062353 -0.011816751 0.045959476
0.058621466 -0.19461147 -0.2945821 0.15557799 0.13244583 -0.09817835 0.032675385 -0.23835072
0.3379623 0.025125861 -0.25953966 -0.025449784 0.10214043 0.037590664 0.009836782 0.09501872
0.03752513 0.15474 -0.13964267 0.088871725 0.042984456 -0.2189356 -0.28122637 -0.042101543
-0.28679973 -0.30288094 0.13112906 -0.28804868 -0.08536513 0.1478347 -0.30175754 -0.001617765
00000000: f7b1 023d 28bf 67bd 94fb a4be 959f 8abe
00000010: f2f0 95be 59e7 953d b09e 833e fbd1 18be
00000020: a9e5 b43e c55f 023e 9d1a 4c3e f373 813e
00000030: 2125 273e 8225 82be e728 1bbe ba4d 0ebe
00000040: 3ece 583d 2d37 fd3d 7aba 463e b566 ab3e
00000050: dbd5 fcbd 1883 2d3e 5255 92be 3f65 5a3c
00000060: 0d4f d13d 5a7b d1bc 603e c1bd 43d9 8e3d
00000070: 8d83 81be 6ec4 19bc 82e2 9fbd c20e 643e
00000080: c4ec 633e 6223 5f3e 3eb9 f13d 6869 a3be
00000090: c133 993e 0500 f23d 5562 1d3e 5995 b0bd
000000a0: ddf7 7b3e 0491 ec3c d234 7b3e 1f94 28be
000000b0: ee85 093e 154d 72be 1361 543d e783 89bd
000000c0: 4b3c 93be 17d5 1abe 38ca 30be 78bb 473e
000000d0: ae91 8abd eaa6 adbd 2d53 cc3d 3fc2 033e
000000e0: 5933 6dbe e0f1 043e 56a5 cbbc 2fc5 c5be
000000f0: 4945 503e 43d3 0e3e d01d 733e 04ad 7cbd
00000100: 2e86 483e 7c8e 1fbe de32 c0bd 28eb 92be
00000110: 210a 01be 6f9b e0bd b99e 883e bfa2 f73d
00000120: 805d 8fbd c902 4b3c 106c 79be 6f9b b2bb
00000130: b368 f13d 0e3e 183e 978a 703e e86e 9cbe
00000140: 6e72 573e 79e3 1d3b 5e45 9b3e 5eca eabc
00000150: 32a5 703e 7426 4d3c b27b a0bc c95d dd3d
00000160: 5a41 0ebe 8e05 e43d d3a4 013e f165 e3bd
00000170: 4b6e 093d 25d7 59be 1373 5fbd 5b3f 7c3e
00000180: 07dd 4b3e cfd1 0a3e 9c4f 85bd 3c3a 423d
00000190: 1e9d 4c3e be8f 8abe 04c0 9f3e 8f46 623d
000001a0: c1d5 c5be 1daa b63e 0758 87bc 3187 ab3e
000001b0: ab3a 06be abad a93e 2163 093f 6c46 03bf
000001c0: 7aaf a63d 0726 8dbe f1a3 0ebf b5ed cd3d
000001d0: 82f9 e5bd c974 cd3e 8bfb 1cbf d8a6 d23e
000001e0: a46f 2abe 65c8 463d d413 a03d 238f 093e
000001f0: dd4a 8cbe bc43 70be e65e 233e 4c3d ecbd
00000200: 02c7 4abe 49cb c9bd 4a6b f4bd 0287 a3be
00000210: a58b 8a3e b249 953d 10c5 dabe 1b8d a53c
00000220: 8e2b 7ebe ec46 c2bd 7eeb a8be 5f06 c53e
00000230: b14c 883e 4d4d c8be fb15 b83e 26f0 68be
00000240: c2e0 e0be 58ee de3e f18e efbe 991b 9f3c
00000250: bb48 d63a 6847 033e 6a1c aa3e c0e3 723e
00000260: 7ed7 82be 030e 12be 5624 19be 589a 883e
00000270: 1723 903d 1228 b63e 100e aebe 4ccf 893e
00000280: f8f4 593e ac54 c2be fe7a ef3e b35b 1cbe
00000290: 83de a83d e9b7 2ebd 9384 3a3d 06de 1c3d
000002a0: 4714 f2be 1419 bcbc 7504 a4bd d8b5 ee3d
000002b0: a4ef ba3e aa8b 81bd ac8d 03bf 3e02 00be
000002c0: 254d 2bbe 1f24 a2bd 69fe 81be 5613 243d
000002d0: 13b1 b93e 3345 3fbe 22d4 b73e c341 dfbe
000002e0: 964e b8be a6a7 163f 6803 06bf d51a 8a3e
000002f0: cb5c a7be 359e bb3e 395d b9bc 9a8e f7bd
00000300: 0587 efbd 0728 e4be cc4f 0cbe a14a dc3e
00000310: 9e37 e0be af7d 233d 9dec 6e3d 58e5 75bd
00000320: 61c4 863e 496f a9be b050 78bd 6381 9ebe
00000330: 26d0 383d 58d5 3b3e f4cb 95bc fca8 a03d
00000340: 9d59 473e 46e8 23be 21d3 383d 516a 8e3e
00000350: c501 dd3e c554 48bd 65b1 ef3d ded9 3d3e
00000360: e58b 4c3c e1e6 acbd 3b11 a2be 953a 443e
00000370: ed6f b13e 60f5 383e 0c9b 41bc 0140 3c3d
00000380: 101d 703d 3b48 47be 77d3 96be d64f 1f3e
00000390: e19f 073e bb11 c9bd a0d6 053d 3612 74be
000003a0: 6509 ad3e c0d4 cd3c 62e2 84be 117c d0bc
000003b0: 002f d13d abf8 193d 742a 213c 2d99 c23d
000003c0: f3b3 193d 2a74 1e3e 7dfe 0ebe 6102 b63d
000003d0: 7810 303d a730 60be e7fc 8fbe ab72 2cbd
000003e0: 6ad7 92be 3613 9bbe b246 063e 1e7b 93be
000003f0: ead3 aebd fb61 173e f77f 9abe 300b d4ba

gru.weight_hh_l1 f4 [30, 10]
0.22654851 -0.08641714 -0.29914224 -0.23498254 -0.31384227 -0.08521378 0.091094434 -0.110269964
-0.20300561 0.120408736 0.09721593 -0.012538529 0.20740415 -0.19896913 -0.26881552 0.13148654
-0.14782421 -0.115141496 -0.09962399 0.20960741 -0.20806418 0.18273477 0.3046669 -0.303672
0.25426114 0.17758237 -0.20841742 0.010861359 -0.192559 -0.10236359 -0.124203146 -0.08680285
0.07893875 0.21091169 -0.102604054 0.19252858 -0.03901395 0.26232064 -0.15691456 -0.046702713
0.09054174 0.27105606 0.09896252 -0.21505669 0.0885418 0.24683894 -0.12321546 -0.027625492
-0.3108231 -0.16245976 0.1586176 -0.07239047 0.012498191 0.08277739 -0.3392483 0.20058973
0.20573895 0.02230226 0.04195704 -0.12342567 0.0012522524 0.21861504 0.0023129256 -0.063850105
-0.19267654 -0.16100727 0.15800028 0.15833743 -0.072365254 0.33394963 0.24268325 -0.29779634
-0.18449473 -0.17060763 0.29693007 0.22162567 -0.08277533 -0.047823127 -0.2246983 0.27472848
-0.3518196 0.2315442 0.18616807 -0.17801495 -0.06392356 -0.18949318 -0.20667775 0.29258835
-0.22931163 -0.22376916 0.24690183 0.004141105 0.07628808 0.32764867 -0.24200514 0.24576335
-0.33022338 -0.05946386 0.2699354 -0.05261642 0.03398681 -0.036059275 0.0800002 0.11811965
0.4223427 -0.038273532 0.13393368 -0.3509964 -0.17128363 0.08448787 0.28626794 0.034939006
0.09780304 0.16390927 0.10868717 0.21404931 -0.033721995 -0.49077228 -0.1032164 0.32494688
-0.2743533 -0.29831964 -0.082344435 -0.14327766 -0.16334939 -0.23448874 -0.015089345 -0.027035385
0.061472643 -0.038457442 -0.047882214 -0.3008494 -0.093093455 0.51892775 0.10434298 0.08067417
-0.11068046 -0.39688298 0.08280183 0.43977755 0.23738042 -0.14187458 0.31313944 0.29283333
-0.04116104 0.16689007 -0.13618223 0.055707373 0.2881927 0.3586644 0.1322048 0.22604395
0.32677144 -0.22702985 -0.2604747 0.30760017 -0.17095809 -0.18563785 0.25453064 0.07020685
0.09490582 -0.22678779 -0.06804797 0.010967137 0.16166338 0.010063896 0.06294792 -0.45327595
0.0075034844 0.22130415 0.1410883 -0.16006608 0.4129475 -0.11037062 0.25645667 0.13281916
-0.29441345 -0.03499884 -0.015245366 0.35694933 0.26874593 -0.17278281 0.07736601 0.12734719
0.42273438 0.5863203 -0.2790555 -0.36230725 0.43629062 0.07313663 0.03386439 -0.003966261
0.28548166 0.4401265 -0.023294672 0.445661 -0.0505483 -0.23794042 0.07832248 0.11490704
0.22869019 0.37296683 0.2975547 0.19092664 0.29906794 0.16474697 0.24810216 -0.3306785
-0.13670103 0.23837572 -0.08822106 0.0046269703 -0.23229371 0.32142627 0.093087375 -0.24855065
0.025903722 0.030523574 -0.26952505 -0.14453013 -0.19042605 0.0969483 -0.28324315 -0.13376161
0.074056484 -0.12766734 -0.3061763 -0.13567837 0.0121868225 -0.004452343 0.24226078 0.205219
0.07507038 0.17513241 0.16240223 -0.013061082 -0.028003432 0.1779128 0.05381581 -0.26681376
0.24663383 -0.3174903 -0.069947004 -0.050017226 0.029396895 0.28679165 0.037455272 -0.18449624
0.19041972 -0.091589205 0.2052644 0.0006026779 0.28600037 0.33670828 -0.2561527 0.098663434
00000000: 55fc 673e 78fb b0bd 2c29 99be 439f 70be
00000010: efaf a0be 9084 aebd b88f ba3d 38d5 e1bd
00000020: b4e0 4fbe db98 f63d 2519 c73d 676e 4dbc
00000030: c161 543e 90be 4bbe 30a2 89be 68a4 063e
00000040: 3b5f 17be 4ecf ebbd aa07 ccbd 53a3 563e
00000050: c70e 55be d31e 3b3e 4dfd 9b3e e57a 9bbe
00000060: 842e 823e 27d8 353e 606b 55be d7f3 313c
00000070: 302e 45be 00a4 d1bd 385e febd b1c5 b1bd
00000080: a4aa a13d 3cf9 573e 1322 d2bd 3626 453e
00000090: 17cd 1fbd e44e 863e 36ae 20be 584b 3fbd
000000a0: f36d b93d dcc7 8a3e ddac ca3d d237 5cbe
000000b0: 6755 b53d 59c3 7c3e 6358 fcbd db4e e2bc
000000c0: 3524 9fbe da5b 26be a76c 223e 7441 94bd
000000d0: 36c5 4c3c 3187 a93d f4b1 adbe 6567 4d3e
000000e0: 3bad 523e 3bb3 b63c 25db 2b3d 99c6 fcbd
000000f0: 9e22 a43a 9fdc 5f3e 7494 173b d8c3 82bd
00000100: 004d 45be 17df 24be d3ca 213e 3523 223e
00000110: 3c34 94bd 72fb aa3e f581 783e c378 98be
00000120: 30ec 3cbe c4b3 2ebe 3807 983e d7f1 623e
00000130: 1d86 a9bd 2fe2 43bd 5017 66be 36a9 8c3e
00000140: b321 b4be ec19 6d3e d8a2 3e3e 8d49 36be
00000150: 5bea 82bd 800a 42be 55a3 53be 24ce 953e
00000160: abd0 6abe be23 65be d5d3 7c3e 1bb2 873b
00000170: ed3c 9c3d 91c1 a73e 32d0 77be 63a9 7b3e
00000180: 0a13 a9be 6090 73bd f934 8a3e 5184 57bd
00000190: c135 0b3d e4b2 13bd 25d7 a33d b7e8 f13d
000001a0: 4d3d d83e b5c4 1cbd e925 093e cdb5 b3be
000001b0: fa64 2fbe fa07 ad3d b691 923e 341c 0f3d
000001c0: f64c c83d d5d7 273e 6197 de3d be2f 5b3e
000001d0: 1320 0abd 8146 fbbe 1f63 d3bd 705f a63e
000001e0: 0978 8cbe 5abd 98be 33a4 a8bd 61b7 12be
000001f0: 1045 27be d11d 70be 4d39 77bc 5079 ddbc
00000200: bdca 7b3d 8d85 1dbd 2420 44bd ef08 9abe
00000210: c8a7 bebd 73d8 043f c6b1 d53d 8038 a53d
00000220: 70ac e2bd 3f34 cbbe 0194 a93d 862a e13e
00000230: da13 733e 9247 11be d053 a03e 40ee 953e
00000240: 7b98 28bd 3be5 2a3e 5b73 0bbe 6a2d 643d
00000250: fe8d 933e dca2 b73e b260 073e 1178 673e
00000260: 964e a73e 837a 68be f15c 85be c57d 9d3e
00000270: a30f 2fbe d917 3ebe d751 823e 9cc8 8f3d
00000280: fc5d c23d 0f3b 68be bc5c 8bbd 82af 333c
00000290: 168b 253e 0ae3 243c d7ea 803d c913 e8be
000002a0: cadf f53b 8e9d 623e 7479 103e 5de8 23be
000002b0: db6d d33e fe09 e2bd 4a4e 833e bf01 083e
000002c0: 5cbd 96be f25a 0fbd b3c7 79bc 10c2 b63e
000002d0: 1199 893e faed 30be 1272 9e3d 4d67 023e
000002e0: a470 d83e 1619 163f 5de0 8ebe 5680 b9be
000002f0: 7c61 df3e a8c8 953d 63b5 0a3d 69f7 81bb
00000300: a72a 923e 4358 e13e 78d4 bebc ae2d e43e
00000310: bc0b 4fbd a7a6 73be 8967 a03d 6254 eb3d
00000320: c32d 6a3e 82f5 be3e 1759 983e 4682 433e
00000330: 6f1f 993e 6eb3 283e 7e0e 7e3e b14e a9be
00000340: 5bfb 0bbe c418 743e 3ead b4bd d79d 973b
00000350: 67de 6dbe fc91 a43e 98a4 be3d 1084 7ebe
00000360: 0b34 d43c 930c fa3c 30ff 89be b5ff 13be
00000370: 0cff 42be d58c c63d 3f05 91be cef8 08be
00000380: edaa 973d 3abb 02be 24c3 9cbe 45ef 0abe
00000390: 3dab 473c f6e4 91bb 3613 783e ee24 523e
000003a0: 80be 993d e955 333e c54c 263e 26fe 55bc
000003b0: 7467 e5bc c62e 363e f76d 5c3d d09b 88be
000003c0: 948d 7c3e 178e a2be 6040 8fbd ddde 4cbd
000003d0: c2d1 f03c 5bd6 923e b36a 193d 95ec 3cbe
000003e0: 63fd 423e 1f93 bbbd d530 523e 07fd 1d3a
000003f0: a46e 923e 0765 ac3e 7226 83be 0e10 ca3d

gru.bias_ih_l1 f4 [30]
0.27785355 0.13983917 0.08212626 0.0061345245 0.27502343 0.072274216 0.06274564 0.09615391
0.109744325 0.06636963 -0.3816823 -0.09678231 -0.2404675 -0.2705377 -0.11714539 0.05984737
-0.42244545 -0.3265341 -0.0022748655 -0.03374175 -0.16006388 0.07623823 -0.32836762 0.071794204
-0.23507784 0.16434252 -0.2593508 0.039727993 0.099914886 -0.27005702
00000000: d242 8e3e 0032 0f3e d031 a83d 1f04 c93b
00000010: dfcf 8c3e 8104 943d c980 803d 57ec c43d
00000020: a2c1 e03d cdec 873d dd6b c3be ce35 c6bd
00000030: 1d3d 76be eb83 8abe ece9 efbd 8422 753d
00000040: c54a d8be 7a2f a7be e915 15bb ca34 0abd
00000050: c9e7 23be ca22 9c3d cd1f a8be d708 933d
00000060: 3fb8 70be 6849 283e a1c9 84be d2b9 223d
00000070: 2da0 cc3d ea44 8abe

gru.bias_hh_l1 f4 [30]
0.21652423 0.24246246 0.309811 -0.30306128 0.047401525 0.10187053 0.06191641 -0.22499436
0.19776872 0.14001884 -0.059162166 -0.61151934 0.024652017 -0.29940796 -0.4552781 -0.22454615
0.01336549 -0.074997954 -0.3043064 -0.081242226 0.24936952 0.07573056 -0.24810278 -0.045356825
-0.29635012 0.047489904 -0.19505408 -0.13818906 -0.12912996 0.29114166
00000000: 87b8 5d3e 1448 783e 8c9f 9e3e d92a 9bbe
00000010: 1a28 423d 7fa1 d03d 109c 7d3d ec64 66be
00000020: e283 4a3e 1961 0f3e 0754 72bd 888c 1cbf
00000030: 07f3 c93c 004c 99be 361a e9be 6def 65be
00000040: eefa 5a3c 8798 99bd 0cce 9bbe 5362 a6bd
00000050: b95a 7f3e a018 9b3d a80e 7ebe 14c8 39bd
00000060: 34bb 97be c684 423d 42bc 47be 6f81 0dbe
00000070: a53a 04be 8510 953e
