best/timestep_10_att_prediction_model.pth (torch, 204848 bytes, 22 tensors)

cnn.0.weight f4 [8, 3, 2]
0	0xbeade694	-0.3396498
1	0x3eca32af	0.39491794
2	0xbc940aa1	-0.018071475
3	0x3e92cc18	0.28671336
4	0xbeaeca4f	-0.34138724
5	0xbd89edb0	-0.067347884
6	0xbe36e986	-0.1786252
7	0xbd810c92	-0.06301226
8	0x3ec42698	0.38310695
9	0xbdf43fec	-0.11926255
10	0xbe4ab62b	-0.19796054
11	0x3c6e9d22	0.014563831
12	0xbe47e022	-0.19519094
13	0xbd99f064	-0.07516554
14	0xbd97e51c	-0.07416746
15	0x3d1469d8	0.036233753
16	0xbea002de	-0.31252187
17	0x3e4f57fc	0.20248407
18	0x3eb7f492	0.3592878
19	0xbe86d468	-0.26333928
20	0xba80d95f	-0.0009830407
21	0x3e9fc565	0.31205288
22	0xbd80d903	-0.06291392
23	0xbe26f267	-0.16303407
24	0x3c02aa56	0.007975182
25	0x3edea13a	0.4348238
26	0x3cf1ab13	0.02950052
27	0xba980cec	-0.0011600531
28	0x3e0fff03	0.14062123
29	0xbec195cd	-0.378096
30	0x3e069639	0.13143243
31	0x3eb33ba7	0.3500645
32	0x3eb262a1	0.34840873
33	0xbe85f758	-0.2616527
34	0xbd093039	-0.033493254
35	0x3e527fe6	0.20556602
36	0xbe3c89b6	-0.18411908
37	0x3e40edeb	0.18840759
38	0xbdd34203	-0.10315325
39	0xbe68d21c	-0.227364
40	0xbcdb2238	-0.026749715
41	0xbec5751e	-0.38565916
42	0x3e607758	0.21920526
43	0x3ec43cc1	0.38327602
44	0x3e4d07ad	0.2002246
45	0xbe7a6b16	-0.24454913
46	0xbdbfbd44	-0.093622714
47	0x3eccd92b	0.40009436

cnn.0.bias f4 [8]
0	0x3e67da3e	0.22641847
1	0x3e111847	0.14169417
2	0xbda1b624	-0.07896069
3	0x3e880cfa	0.265724
4	0xbe9189f7	-0.2842557
5	0x3e8ec641	0.2788563
6	0xbe9b5489	-0.30337933
7	0xbe92fb17	-0.2870719

cnn.2.weight f4 [16, 8, 2]
0	0xbd9a3d24	-0.07531193
1	0xbe339000	-0.175354
2	0xbdddc0ec	-0.108278126
3	0x3e31cb76	0.1736277
4	0xbe16192c	-0.1465804
5	0x3e6e3f0a	0.23266235
6	0xbe0ea089	-0.13928427
7	0xbe208b72	-0.15678194
8	0xbe118d19	-0.1421398
9	0x3ca1b738	0.019740686
10	0x3b1bfc64	0.002380156
11	0xbe3b15db	-0.18270056
12	0xbdadccdc	-0.084863394
13	0x3c7ca280	0.015419602
14	0x3e11f1c8	0.14252388
15	0x3c7da73c	0.015481766
16	0x3e5947c0	0.21218777
17	0xbd815be6	-0.06316356
18	0xbe34db81	-0.17661859
19	0x3e8e8c75	0.27841535
20	0x3e684da0	0.22685862
21	0xbdbe87d4	-0.09303251
22	0xbdbf8a8d	-0.09352598
23	0x3e587fa4	0.21142441
24	0x3e32bf5b	0.17455809
25	0x3ddd75b5	0.108134665
26	0x3dbe6b40	0.092978
27	0xbe4d2912	-0.20035198
28	0x3e530d30	0.206105
29	0xbdab6fb9	-0.08370919
30	0x3dd8238f	0.10553657
31	0xbe346c1c	-0.17619365
32	0x3e423d19	0.1896862
33	0xbd45119d	-0.0481125
34	0xbdef3e20	-0.11681771
35	0xbe53f0ac	-0.20697278
36	0x3d7064c8	0.058689862
37	0x3e099f5c	0.13439697
38	0xbe287ce0	-0.16453886
39	0x3e29efc6	0.16595373
40	0xbb4a1027	-0.0030832381
41	0x3d87fffa	0.066406205
42	0xbe401c71	-0.1876085
43	0xbe4f5753	-0.20248155
44	0x3dd831c8	0.1055637
45	0xbdb4100c	-0.08792123
46	0xbe45ebc6	-0.19328222
47	0xbd93a41e	-0.07209037
48	0x3e28a28f	0.16468261
49	0xbce0ec9e	-0.027456578
50	0x3dc891f1	0.09793461
51	0xbe33bb32	-0.17551878
52	0x3e41c588	0.18923008
53	0x3e1b9e20	0.15197039
54	0x3d1f4efc	0.038893685
55	0xbe29a31d	-0.16566129
56	0x3e61fa72	0.22068194
57	0xbe64d3d4	-0.22346431
58	0x3e6c3785	0.23068054
59	0xbe1e9cf4	-0.1548956
60	0xbd2b651a	-0.041844465
61	0x3d5f1c67	0.054470446
62	0x3dd73d03	0.10509684
63	0xbdf41ddd	-0.119197585
64	0x3e53f4e2	0.20698884
65	0x3e50ceba	0.2039136
66	0xbda7873d	-0.081800915
67	0xbd6928ff	-0.056923863
68	0xbda1e0f8	-0.079042375
69	0x3dcfac58	0.10140294
70	0xbe146214	-0.14490539
71	0xbe16ed30	-0.14738917
72	0x3e4f36c8	0.20235741
73	0xbdc83c54	-0.09777132
74	0x3d742c59	0.059612606
75	0xbab51f78	-0.0013818583
76	0x3e6e5d33	0.2327774
77	0x3d3ac657	0.045599308
78	0x3e821124	0.25403702
79	0xbe5ee678	-0.21767604
80	0x3e068d11	0.1313975
81	0xbe1dc170	-0.15405822
82	0x3e898711	0.2686086
83	0x3e829337	0.2550294
84	0xbe184840	-0.14871311
85	0xbdaac72c	-0.0833877
86	0xbd167521	-0.036732797
87	0x3e00ecb1	0.1259029
88	0xbe3ce35e	-0.18446109
89	0x3e20cbb9	0.15702714
90	0xbe294aa5	-0.16532381
91	0x3e164293	0.14673834
92	0x3d8c73f9	0.068580575
93	0xbe1ba27c	-0.15198702
94	0xbb618c96	-0.003441607
95	0x3e1ed59c	0.15511173
96	0xbe0da21f	-0.13831376
97	0xbda040d2	-0.078248635
98	0x3d8567d6	0.06513946
99	0x3e25e45d	0.16200395
100	0xbd8a6e0c	-0.06759271
101	0x3d8aace4	0.067712575
102	0xbe387736	-0.18014225
103	0x3decb4e7	0.11557942
104	0x3d22ab5c	0.039714202
105	0x3dbbc4f0	0.09168422
106	0xbd0b93d8	-0.03407654
107	0x3c2f89a2	0.010713967
108	0xbe3bf41e	-0.18354842
109	0x3d22ad71	0.039716188
110	0xbe40d2f8	-0.18830478
111	0x3df5fec4	0.12011483
112	0xbe3e5be5	-0.18589742
113	0xbd34333b	-0.04399417
114	0x3b9a0186	0.0046998886
115	0x3d81ffbc	0.063476056
116	0x3e5cd944	0.21567255
117	0xbd64dc18	-0.05587396
118	0xbdd4fc03	-0.1039963
119	0x3c133032	0.008983659
120	0xbdec426b	-0.11536106
121	0x3e837ec9	0.25682667
122	0xbb07ce73	-0.0020722419
123	0x3e087150	0.13324475
124	0xbe3ea478	-0.18617427
125	0x3e428c18	0.18998754
126	0x3e23d95a	0.16000882
127	0x3d865848	0.06559807
128	0xbe591f34	-0.2120331
129	0xbcadef9c	-0.021232419
130	0x3d234b74	0.03986688
131	0x3e4f9f01	0.20275499
132	0x3dde07e4	0.10841349
133	0xbcbb7820	-0.022884429
134	0xbd64cafb	-0.05585764
135	0x3e662979	0.22476758
136	0x3e807f03	0.25096902
137	0x3e11a11a	0.14221612
138	0xbe3d46b6	-0.18484005
139	0x3e84b394	0.25918257
140	0xbe265019	-0.16241492
141	0xbdceac89	-0.10091502
142	0xbd809284	-0.06277946
143	0x3e5f093c	0.21780866
144	0xbe6e8078	-0.23291194
145	0x3a81f600	0.0009915233
146	0xbc9181e0	-0.017762125
147	0x3e7b7d76	0.24559578
148	0xbbc545c0	-0.0060202777
149	0xbe71ed6a	-0.23625723
150	0x3e6c31b2	0.23065832
151	0x3b8069c0	0.0039188564
152	0xbe270a28	-0.16312468
153	0xbd88e4e8	-0.066842854
154	0x3dc12d44	0.09432462
155	0xbdbe1f34	-0.09283295
156	0x3c3530e0	0.011059016
157	0x3dba2a00	0.09090042
158	0xbe37af7e	-0.17938039
159	0xbe30af78	-0.17254436
160	0x3e71cfaa	0.23614374
161	0xbe129753	-0.14315538
162	0xbd7f14ec	-0.062275812
163	0xbe3191c7	-0.17340766
164	0xbd983d88	-0.07433611
165	0x3e593fc8	0.21215737
166	0xbdc2ff3b	-0.095213376
167	0xbdeca027	-0.11553984
168	0x3d285318	0.04109487
169	0xbe5a6042	-0.21325782
170	0x3db465f5	0.08808509
171	0x3e721ac5	0.23643024
172	0x3dceedd7	0.10103958
173	0x3ba9f3ae	0.0051865196
174	0xbd183e75	-0.03716894
175	0xbd433759	-0.047660206
176	0xbd65ff92	-0.056151934
177	0x3e25b168	0.16180956
178	0x3dffba10	0.124866605
179	0xbe6dd884	-0.23227125
180	0x3de5e8a8	0.11226016
181	0x3e7c5768	0.24642718
182	0xbe483223	-0.19550376
183	0xbdf307be	-0.11866711
184	0xbdc62997	-0.096759014
185	0xbe4e9ec6	-0.20177755
186	0x3e810e56	0.2520625
187	0xbdc829f6	-0.097736284
188	0x3de89edb	0.11358424
189	0x3e792467	0.24330293
190	0xbd31a9bf	-0.043374773
191	0xbe63c0ab	-0.22241466
192	0x3e01d97d	0.12680621
193	0xbe1ad110	-0.15118814
194	0xbe0ec286	-0.13941392
195	0xbd9c16bd	-0.076215245
196	0x3da365d4	0.079784065
197	0x3de2c8d4	0.11073461
198	0xbe206ac2	-0.15665725
199	0x3e445b07	0.19175349
200	0x3d3b2097	0.045685377
201	0x3e1898b9	0.14902009
202	0x3c965665	0.018351743
203	0xbda9b5d2	-0.082866326
204	0x3dbf4d0b	0.09340867
205	0xbdb21b17	-0.08696573
206	0x3d847fe0	0.06469703
207	0x3dc31ef3	0.095273875
208	0x3e53dd75	0.20689948
209	0x3e0d38b7	0.13791166
210	0xbd04dae2	-0.032435305
211	0xbd408f08	-0.047011405
212	0x3e0ebb52	0.13938645
213	0xbdbd6500	-0.0924778
214	0xbc62a288	-0.013832696
215	0xbe18acfd	-0.1490974
216	0x3dab8ae6	0.08376102
217	0xbcb5f6dd	-0.02221244
218	0xbe0d5505	-0.13801964
219	0x3dd454c1	0.10367728
220	0x3e6692a0	0.2251687
221	0x3e6b493e	0.22977158
222	0x3e579429	0.21052612
223	0x3da3b742	0.07993938
224	0xbc2d5640	-0.010579646
225	0x3df6225c	0.12018272
226	0x3e6a979e	0.229094
227	0x3e4b5898	0.19858015
228	0xbe749e2e	-0.23888466
229	0x3db6fc70	0.089348674
230	0x3ba001c0	0.004883021
231	0xbe7305cc	-0.2373268
232	0xbc268e20	-0.010165721
233	0xbe71dde6	-0.23619804
234	0x3e6a28ee	0.22867176
235	0xbe485ddc	-0.19567055
236	0x3dedb000	0.11605835
237	0xbbdb3f80	-0.0066909194
238	0x3d1d2428	0.03836456
239	0xbe7b0600	-0.24514008
240	0x3ca09a11	0.019604715
241	0x3d51483e	0.051094286
242	0x3e7b72ef	0.24555562
243	0xbe6f9729	-0.23397507
244	0xbde03fb8	-0.109496534
245	0x3de73290	0.11288941
246	0xbe17d542	-0.14827445
247	0x3e4c2a3c	0.19937986
248	0xbdab0ad6	-0.08351676
249	0x3dc43e9f	0.095822565
250	0x3c7d5bcd	0.015463782
251	0x3e5e25df	0.21694134
252	0x3dfef8d1	0.12449802
253	0x3e7b69c8	0.24552071
254	0xbe32b150	-0.17450452
255	0x3e5a9aa4	0.21348053

cnn.2.bias f4 [16]
0	0x3d10bf45	0.03533866
1	0x3e7ce279	0.24695767
2	0x3da22ba4	0.0791848
3	0x3e71d1a3	0.23615126
4	0x3e504850	0.20340085
5	0x3e1eab03	0.15494923
6	0x3e3fa95b	0.18716948
7	0x3e173ac5	0.14768513
8	0x3dff61bd	0.12469814
9	0xbd9bde30	-0.07610738
10	0x3e6fbe15	0.23412354
11	0xbe045e1b	-0.12926523
12	0xbe03001d	-0.12793012
13	0x3dbdc121	0.09265352
14	0xbe6a7e30	-0.22899699
15	0xbc8c217a	-0.017105807

cnn.4.weight f4 [32, 16, 2]
0	0xbe1abe82	-0.15111735
1	0x3df036f6	0.11729233
2	0x3b6f6d07	0.0036533491
3	0x3e454e40	0.19268131
4	0x3e181898	0.14853132
5	0xbe2c2f20	-0.16814852
6	0xbe24192e	-0.1602523
7	0x3cddea55	0.027089277
8	0x3c89a453	0.016801989
9	0x3db1c4b5	0.08680097
10	0x3cf9860f	0.030459432
11	0x3ba2a661	0.0049636816
12	0x3e2fa38d	0.17152233
13	0xbddd094a	-0.107927874
14	0xbe1ee8ba	-0.15518466
15	0xbe1ffec1	-0.15624525
16	0x3d71a417	0.05899438
17	0x3d7109cc	0.058847234
18	0x3e27544d	0.16340752
19	0x3db10d46	0.0864511
20	0xbe2382e5	-0.15967901
21	0xbde2df1e	-0.110777125
22	0x3dc433ca	0.095801905
23	0x3dd8e286	0.10590081
24	0xbd6566e4	-0.056006327
25	0x3e3644be	0.1779966
26	0x3dc0c823	0.09413173
27	0x3d6feaf8	0.058573693
28	0x3bb42f40	0.0054987967
29	0x3d81b47a	0.06333251
30	0xbdd6bb99	-0.10485
31	0xbdb0cd54	-0.08632913
32	0x3d2d6f77	0.04234263
33	0xbc31db8c	-0.010855567
34	0xbe19a05a	-0.15002576
35	0x3dcd5869	0.100266285
36	0x3e1c6fd6	0.15277037
37	0x3daf4706	0.085584685
38	0xbe225139	-0.15851296
39	0xbe37f123	-0.1796308
40	0x3d2ce07a	0.042206265
41	0xbc002187	-0.007820494
42	0xbca88db3	-0.02057538
43	0x3ca09abb	0.019605031
44	0xbd9f4e93	-0.07778659
45	0x3de6eea8	0.11275989
46	0xbc304cd7	-0.010760508
47	0x3e4643a3	0.19361739
48	0x3bdd267a	0.0067489715
49	0x3d182c20	0.037151456
50	0x3d95cd00	0.07314491
51	0x3e2f5e75	0.17125876
52	0xbc6337f6	-0.013868323
53	0xbe21bcc9	-0.15794672
54	0xbde5c172	-0.112185374
55	0x3e14f964	0.1454826
56	0xbddd6317	-0.108099155
57	0xbdd77a2e	-0.10521351
58	0x3e320e70	0.1738832
59	0x3d1648f9	0.036690686
60	0xbd9368f4	-0.071977526
61	0xbe00a941	-0.12564565
62	0x3e1b2717	0.1515163
63	0xbd98055f	-0.074228995
64	0xbd82a8f5	-0.06379882
65	0x3cd26510	0.025682956
66	0x3e125891	0.14291598
67	0x3e267453	0.16255312
68	0x3e269cd9	0.1627077
69	0x3d8fffd2	0.07031216
70	0x3d7c66f2	0.061621614
71	0x3e3290ee	0.17438099
72	0xbd9c7919	-0.07640285
73	0x3dc50a78	0.096211374
74	0x3de876da	0.11350794
75	0x3d75e645	0.060034055
76	0x3d0ca377	0.03433558
77	0x3dd7b4f6	0.105325624
78	0x3d5f9fa2	0.054595597
79	0x3dd73190	0.105075
80	0xbe057cc7	-0.1303588
81	0xbe1ec3f7	-0.15504442
82	0x3e06728b	0.13129632
83	0x3de6c16e	0.112673625
84	0x3e3b56f7	0.18294893
85	0x3e4dd20e	0.20099661
86	0xbd585472	-0.05281491
87	0xbd51646c	-0.05112116
88	0xbda282cf	-0.07935106
89	0xbda8a365	-0.0823429
90	0x3e2687c9	0.16262735
91	0x3dbbc79b	0.09168931
92	0x3cc05618	0.023478553
93	0x3ccf0820	0.025272429
94	0xbe0f1930	-0.13974452
95	0xbcae11a1	-0.02124864
96	0xbe29aa29	-0.16568817
97	0x3d929e38	0.07159084
98	0xbb821340	-0.00396958
99	0xbe207623	-0.15670066
100	0xbdfb1d68	-0.12261468
101	0xbc210260	-0.009827226
102	0x3a84a480	0.0010119826
103	0x3d6f69d4	0.058450535
104	0xbe21da6f	-0.15805982
105	0x3de9574e	0.11393605
106	0x3e0011b3	0.12506752
107	0xbe1f095b	-0.15530913
108	0x3d5feb5c	0.054667816
109	0xbdbbca74	-0.09169474
110	0xbe24dddc	-0.16100258
111	0x3d0794dc	0.033100948
112	0xbe0ef188	-0.13959324
113	0xbc935278	-0.01798366
114	0xbc565a90	-0.013083115
115	0x3ca8a968	0.020588592
116	0x3cfc29b8	0.030781612
117	0x3d8fd7ca	0.0702358
118	0x3e208747	0.15676604
119	0x3d380a44	0.044931665
120	0xbdd29520	-0.102823496
121	0xbdaddfad	-0.084899284
122	0x3d4be030	0.04977435
123	0x3de5ecb6	0.1122679
124	0xbd964c82	-0.073388115
125	0xbd1e26c4	-0.03861119
126	0x3e0fc527	0.14040051
127	0xbbf63d60	-0.0075146407
128	0xbd09877c	-0.033576474
129	0x3ddd83ea	0.10816176
130	0xbd3b3d8c	-0.045712993
131	0xbd8e2eeb	-0.06942543
132	0xbd785c0e	-0.060634665
133	0x3dca85b6	0.098887846
134	0xbd88f1c2	-0.06686737
135	0xbde5f3f4	-0.11228171
136	0xbd99b5af	-0.075053565
137	0x3af62380	0.001877889
138	0xbb809620	-0.0039241463
139	0xbe22d872	-0.1590288
140	0x3c8981f0	0.016785592
141	0xba9aba00	-0.00118047
142	0xbe30fdab	-0.17284267
143	0xbc0be570	-0.008538589
144	0xbd3556b0	-0.044272125
145	0x3d2ca658	0.042150825
146	0x3e290f79	0.16509809
147	0x3cea3190	0.028588086
148	0x3df0831e	0.117437586
149	0xbd3ec6e4	-0.046576396
150	0x3d4e2ef4	0.050337747
151	0x3e0924bf	0.13392924
152	0xbe0c287e	-0.13687322
153	0x3dce24ee	0.100656375
154	0x3e17da2d	0.14829321
155	0xbddc3014	-0.10751358
156	0x3d52da24	0.051477566
157	0x3b8588e0	0.0040751547
158	0x3c02cbb0	0.007983133
159	0x3e02f26d	0.1278779
160	0xbcf6526e	-0.030068602
161	0xbe045a85	-0.12925155
162	0x3e0ff924	0.14059883
163	0x3d3c960e	0.04604154
164	0x3d9076d1	0.070539124
165	0x3e27ba21	0.16379596
166	0xbdcb9df9	-0.0994224
167	0xbde6aa60	-0.11262965
168	0xbd45a9dd	-0.048257697
169	0xbd03bbbc	-0.03216146
170	0xbdba4457	-0.09095066
171	0x3c081fa9	0.00830833
172	0x3cfd8969	0.030949311
173	0x3df0bbe7	0.117545895
174	0xbdab7c96	-0.08373372
175	0xbdfadd77	-0.12249272
176	0x3ca37e6b	0.019957742
177	0x3e0465af	0.12929414
178	0x3db2533e	0.087072834
179	0xbde8ec83	-0.11373236
180	0x3cc61fd7	0.024185104
181	0xbab44c6c	-0.0013755686
182	0xbd4428bf	-0.04789042
183	0x3d93d678	0.07218641
184	0x3e2c6464	0.16835171
185	0x3cff645c	0.031175785
186	0xbbfb2bc2	-0.0076651284
187	0x3d7b160c	0.061300322
188	0xbe18dc5b	-0.14927809
189	0xbd5f589c	-0.054527864
190	0x3e1743d1	0.14771964
191	0x3d4fd7e2	0.05074299
192	0xbd220263	-0.039553057
193	0x3d9b6e7e	0.07589434
194	0xbc42fbdb	-0.011900867
195	0x3d04c051	0.03240997
196	0xbd825037	-0.06362956
197	0xbddf8be3	-0.10915353
198	0x3e04529e	0.12922141
199	0xbe6b42a6	-0.22974643
200	0xbddb2acc	-0.10701522
201	0x3e05b520	0.13057375
202	0x3cf3120d	0.029671693
203	0x3ce89d2d	0.02839526
204	0xbda1c250	-0.0789839
205	0xba280ae1	-0.00064103125
206	0x3dc72872	0.09724511
207	0x3ddf3cfe	0.10900305
208	0x3e281e4d	0.16417809
209	0xbd158f61	-0.03651369
210	0x3d19083c	0.03736137
211	0xbde77a6e	-0.113026485
212	0x3db1ef73	0.086882494
213	0xbe1813b0	-0.1485126
214	0xbe1b49ac	-0.15164822
215	0xbd7b1a1d	-0.0613042
216	0xbda9aa34	-0.08284417
217	0xbdffa3df	-0.12482428
218	0x3dd2ed26	0.10299139
219	0x3ca6d299	0.020364093
220	0xbdfa3147	-0.1221643
221	0xbdabea45	-0.08394293
222	0xbd68253b	-0.05667613
223	0x3e280584	0.16408354
224	0x3e304513	0.1721385
225	0xbe257b0a	-0.16160217
226	0xbdd241aa	-0.10266431
227	0xbd6def16	-0.05808934
228	0x3e024ef1	0.12725426
229	0xbdc8c099	-0.0980236
230	0xbd86dd05	-0.06585125
231	0xbe276e77	-0.16350733
232	0xbe34f41f	-0.1767125
233	0x3d74465c	0.059637412
234	0xbd418db0	-0.047254264
235	0xbdb9925c	-0.09061119
236	0x3df5f8ba	0.120103315
237	0xbe0b222c	-0.13587254
238	0x3d151e54	0.036405876
239	0xbdec4f18	-0.115385234
240	0xbd4d4b54	-0.050120667
241	0xbc453890	-0.012037411
242	0x3c14f1b0	0.009090826
243	0xbde91d7e	-0.11382578
244	0x3cbf2230	0.023331732
245	0x3cb86630	0.022509664
246	0x3e1b65e5	0.15175588
247	0xbc6fdb20	-0.014639646
248	0x3d660e38	0.056165904
249	0x3e18f42b	0.14936893
250	0x3bb4f3c0	0.0055222213
251	0x3d0ba954	0.03409703
252	0xbe24e9d8	-0.1610483
253	0x3d0e1ef8	0.034697503
254	0xbce7e710	-0.028308421
255	0x3d9bac5e	0.07601236

cnn.4.bias f4 [32]
0	0x3c44ca76	0.012011161
1	0x3d0d3e27	0.0344831
2	0xbde18684	-0.11011985
3	0xbe04117b	-0.12897293
4	0x3d4ae228	0.049532086
5	0x3d14747d	0.036243904
6	0xbd67f09d	-0.05662595
7	0x3c9a3670	0.018824786
8	0xbd8d130e	-0.068884
9	0xbe14a55f	-0.14516209
10	0xbc86ab5f	-0.016439138
11	0x3daea5fe	0.08527754
12	0x3bca97fb	0.0061826683
13	0x3d8c4c19	0.06850452
14	0xbda5e998	-0.08101195
15	0x3e039cb6	0.12852749
16	0x3df2e21a	0.11859532
17	0xbe2743b9	-0.16334428
18	0xbd559af8	-0.052149743
19	0x3cb37dbe	0.021910544
20	0xbe22a661	-0.15883781
21	0xbdcc68fc	-0.09980962
22	0xbdd6abf1	-0.10482014
23	0x3d315a38	0.04329893
24	0xbe205598	-0.15657651
25	0x3bb6d742	0.00557986
26	0xbdd83ccc	-0.10558471
27	0xbde64310	-0.1124326
28	0xbe1268bb	-0.14297764
29	0x3c81a468	0.015825465
30	0xbd252f93	-0.040328573
31	0x3e0ea0bb	0.13928501

cnn_fc.weight f4 [128, 224]
0	0x3c24205a	0.010017479
1	0x3cbdcc5f	0.02316874
2	0xbca9d30a	-0.020730514
3	0x3d08b22a	0.033373035
4	0x3c603e8e	0.013686789
5	0xbbb9a647	-0.0056655738
6	0x3cc00900	0.023441792
7	0xbd78b1ae	-0.060716324
8	0xbd00803a	-0.031372286
9	0xbcde32c2	-0.027123813
10	0x3b41f2d7	0.0029594207
11	0x3ca0f658	0.019648716
12	0xbcc3e4f8	-0.023912892
13	0x3d8c42ab	0.068486534
14	0xbce8162a	-0.028330881
15	0x3bfb1732	0.007662677
16	0x3d6f5a42	0.058435686
17	0xbd4d7692	-0.050161906
18	0xbc5e3a89	-0.013563761
19	0xbd2e2697	-0.04251727
20	0xbda04ccc	-0.07827148
21	0xbd61acaf	-0.055096325
22	0x3d536a1a	0.05161486
23	0x3cd000c0	0.025390983
24	0xbd478b7c	-0.048717007
25	0x3a441380	0.00074797124
26	0x3be83890	0.007086821
27	0xbb46e8e0	-0.0030351207
28	0xbd37c7c2	-0.04486824
29	0xbd48cc9a	-0.04902325
30	0xbd23911a	-0.0399333
31	0xbcecd8b8	-0.028911933
32	0x3a6e7580	0.00090964884
33	0x3d087ae8	0.033320338
34	0x3b065e00	0.0020502806
35	0x3d564af4	0.052317575
36	0x3d1a8c50	0.03773147
37	0x3d658478	0.056034535
38	0xbd32fb54	-0.043696716
39	0x3d88dbee	0.06682573
40	0x3da2954e	0.07938634
41	0x3d5c52fa	0.05379007
42	0xbc95670d	-0.018237615
43	0x3cc784c6	0.024355303
44	0xbb106f6f	-0.0022039076
45	0x3cf19c57	0.029493494
46	0x3d8d2451	0.068916924
47	0x3cde0373	0.027101254
48	0x3db8b50b	0.09018906
49	0x3c204398	0.009781741
50	0xb8fa2000	-0.000119268894
51	0x3d4e4606	0.05035975
52	0xbb186bc0	-0.0023257583
53	0xbd408880	-0.047005177
54	0x3d454248	0.048158914
55	0x3d6b1e16	0.05740174
56	0xbcf8701a	-0.030326892
57	0xbcb71136	-0.022347074
58	0xbc8239ef	-0.015896766
59	0xbcedac71	-0.02901289
60	0xbd346a4a	-0.044046678
61	0x3d567dee	0.05236619
62	0x3d23b200	0.039964676
63	0x3d4dd591	0.0502525
64	0xbd20e3ba	-0.039279677
65	0x3d025463	0.03181876
66	0xbce53098	-0.027977273
67	0xbcc02f9f	-0.023460208
68	0xbd504b6a	-0.05085317
69	0xbd839171	-0.06424225
70	0x3bad1379	0.0052818623
71	0x3cdbf79e	0.026851472
72	0xbda0db6e	-0.07854353
73	0x3ccd2e0c	0.02504637
74	0xbdb030ec	-0.08603081
75	0x3cbb3920	0.022854388
76	0x3d5b82f9	0.053591702
77	0xbd2785b8	-0.04089901
78	0x3d4ba3b7	0.049716678
79	0xbc6df74f	-0.014524295
80	0x3c64b24b	0.013958524
81	0x3d19c7fb	0.03754423
82	0x3d296efd	0.041365612
83	0xb89a6898	-7.362774e-05
84	0x3d23a4fd	0.039952267
85	0xbd3ed3b7	-0.046588626
86	0x3c16974c	0.009191345
87	0x3cd485b2	0.025942657
88	0x3da747c2	0.081679836
89	0x3d743ba8	0.059627205
90	0x3d90a6de	0.070630774
91	0xbd1dc003	-0.038513195
92	0xbca992ed	-0.020699942
93	0x3d2295a2	0.039693482
94	0x3c9f7dd7	0.019469185
95	0xbc00d8b6	-0.007864168
96	0xbd87a872	-0.06623925
97	0xbbbc37af	-0.0057439427
98	0x3a978b00	0.0011561811
99	0xbb631282	-0.0034648483
100	0x3d6a0248	0.05713108
101	0x3b940f60	0.0045184344
102	0x3d196bdf	0.03745639
103	0x3cd31b2e	0.025769796
104	0xbd180da0	-0.03712237
105	0x3d7bbd9d	0.061460126
106	0x3d8907bc	0.06690928
107	0x3c9764b4	0.018480636
108	0x3c0151a9	0.007893004
109	0x3d6527c8	0.05594614
110	0xbcf743ec	-0.030183755
111	0xbbfe4754	-0.007759968
112	0xbd0f040f	-0.03491598
113	0xbbed3c40	-0.0072398484
114	0x3d656c20	0.05601132
115	0xbd44f440	-0.048084497
116	0xbd4876d4	-0.04894145
117	0xbc91ef10	-0.01781419
118	0x3d7fe89e	0.0624777
119	0xbcd1a924	-0.025593348
120	0xbd066ac3	-0.03281666
121	0xbcd6c716	-0.026217978
122	0xbd1c22c6	-0.0381191
123	0x3beb0ec0	0.007173389
124	0xbd13cbd9	-0.036083076
125	0x3cbc7e28	0.023009375
126	0x3d5cff47	0.05395439
127	0x3d82d66b	0.06388553
128	0xbd2c332c	-0.04204099
129	0x3d530ccd	0.05152588
130	0x3d395ef9	0.04525659
131	0xbcadef61	-0.021232309
132	0x3a8bc539	0.0010663635
133	0x3d37e5a4	0.044896737
134	0x3b76a8e0	0.0037637278
135	0x3ce57d53	0.02801386
136	0x3c205b84	0.009787444
137	0xbce10996	-0.027470391
138	0x3c0ea890	0.008707181
139	0x3debee91	0.11520112
140	0xbc35ca80	-0.011095643
141	0x3ca36368	0.019944862
142	0x3d190f00	0.03736782
143	0x3d1b892e	0.03797262
144	0x3d68d39c	0.05684243
145	0xbcb6dcbe	-0.022322055
146	0xbd487676	-0.0489411
147	0x3d5a541c	0.05330287
148	0x3c692590	0.014230147
149	0x3c05072d	0.008119387
150	0x3de141f4	0.10998908
151	0x3ccd16fc	0.025035374
152	0x3d88afa8	0.06674129
153	0x3d20b6d9	0.039236877
154	0x3d672666	0.056433104
155	0x3d84ccc3	0.06484368
156	0x3a88e080	0.0010442883
157	0xbc9c918e	-0.019112375
158	0x3d0b000e	0.0339356
159	0xbd11141a	-0.03541956
160	0x3c90cb5c	0.017675094
161	0x3b4d7280	0.0031348765
162	0xbc68ef00	-0.014217138
163	0x3d184e30	0.03718394
164	0xbd53c770	-0.05170387
165	0xbd033d74	-0.03204103
166	0x3d1dac38	0.03849432
167	0xbd87f08e	-0.06637679
168	0x3d475efe	0.048674576
169	0x3d39a4a6	0.045323037
170	0xbd5a17ea	-0.053245462
171	0xbd15688c	-0.036476657
172	0xbd4dc39a	-0.05023537
173	0xbcef522e	-0.029213991
174	0x3bcf51f0	0.0063269064
175	0x3d662df7	0.05619618
176	0xbd3d9596	-0.046285234
177	0xbd2f7085	-0.042831916
178	0xbc2cfda6	-0.010558521
179	0xbd0d671e	-0.03452217
180	0x3dae7608	0.085186064
181	0x3c89b798	0.016811177
182	0xbd189605	-0.037252445
183	0x3c10aef2	0.008830773
184	0xbcc0a017	-0.023513837
185	0xbd4873ce	-0.048938565
186	0xbd03ff12	-0.032225676
187	0x3c1ec678	0.009690873
188	0x3cbac6bd	0.022799844
189	0x3d5dba1c	0.054132566
190	0x3c651eee	0.013984425
191	0x3c333bd3	0.010939556
192	0xbba90383	-0.0051578893
193	0xbcde46fb	-0.027133456
194	0xbd893070	-0.06698692
195	0xbddc3408	-0.10752112
196	0xbcd4354c	-0.02590432
197	0x3ce99d10	0.028517276
198	0x3c7a45dc	0.015275445
199	0xbc856478	-0.016283259
200	0xbd041c9e	-0.032253854
201	0x3d4a6f08	0.049422294
202	0xbcd6a622	-0.026202265
203	0xbc4bfc68	-0.012450315
204	0x3aea1540	0.0017859116
205	0x3d12bbd0	0.035823643
206	0xbd379986	-0.044824146
207	0xbd54f0f3	-0.0519876
208	0xbcfa9892	-0.03059033
209	0x3bb939c0	0.0056526363
210	0xbcac7099	-0.021049784
211	0x3b0a34ee	0.0021088677
212	0xbc9c557e	-0.019083735
213	0x3cb5e24a	0.02220263
214	0x3cf5089b	0.02991133
215	0xbcaba473	-0.020952439
216	0xbd25dfbd	-0.040496577
217	0xbd4c2b63	-0.049846064
218	0x3a04c6dd	0.00050650333
219	0x3d8672c4	0.065648586
220	0x3d74c22f	0.0597555
221	0x3c5ccd79	0.013476723
222	0x3c7ac402	0.015305521
223	0x3d78a9f7	0.060708966
224	0x3cfc18ae	0.030773487
225	0x3d23b7f3	0.03997035
226	0x3c479855	0.012182315
227	0x3c517898	0.012785099
228	0x3d245878	0.040123433
229	0x3d889830	0.066696525
230	0x3c436300	0.011925459
231	0x3c06e367	0.008232928
232	0xbcb4217e	-0.021988627
233	0xbd6935ff	-0.05693626
234	0x3cfad3b8	0.030618533
235	0x3c8ebec4	0.017424949
236	0xbbf7c253	-0.007561007
237	0xbddabe56	-0.10680835
238	0x3d552a26	0.05204215
239	0x3cd34d98	0.025793836
240	0xbd567cb6	-0.052365027
241	0x3ae3e6be	0.0017387492
242	0xbce1408d	-0.0274966
243	0xbd259296	-0.040423
244	0xbbf32f03	-0.0074213757
245	0x3d15e754	0.036597565
246	0xbd37af27	-0.044844773
247	0xbd658164	-0.0560316
248	0xbcd0a788	-0.02547051
249	0xbcae4488	-0.021272913
250	0x3b366820	0.002783306
251	0x3d24c126	0.040223263
252	0x3bef08b0	0.007294737
253	0xbc99ad70	-0.01875946
254	0x3d1f17a8	0.03884092
255	0x3cd0b6b8	0.025477752

cnn_fc.bias f4 [128]
0	0xbd13d45e	-0.0360912
1	0xbcdcc263	-0.02694816
2	0x3d0f26d2	0.03494913
3	0x3d2aa5e3	0.04166211
4	0x3d67625a	0.05649028
5	0x3cecf4f9	0.028925406
6	0xbbb99bf3	-0.0056643425
7	0x3d62a1be	0.05533003
8	0x3b4b7ac4	0.0031048516
9	0x3c07688a	0.00826467
10	0x3d37468a	0.044745006
11	0xbcfb870c	-0.030704044
12	0xbc140b95	-0.0090359645
13	0xbc95d7e6	-0.018291425
14	0x3d792e2a	0.06083504
15	0x3cb2dbbb	0.021833291
16	0x3d3f0daf	0.04664391
17	0x3cefd66c	0.029277049
18	0x3c935db8	0.017989025
19	0xbd5bac63	-0.053631198
20	0xbd3449a2	-0.044015534
21	0x3d4dd1b5	0.05024882
22	0x3cdf4ced	0.02725836
23	0xbd3ab210	-0.04557997
24	0xbd19718a	-0.037461795
25	0x3ccb7861	0.024837675
26	0xbcd5c2ff	-0.026093958
27	0x3d86c0b7	0.06579726
28	0x3d22e4f8	0.039769143
29	0xbbd66d5e	-0.0065437993
30	0xbd4e345d	-0.050342906
31	0xbcc520fa	-0.024063576
32	0xbca28564	-0.019838996
33	0xbd15dfa5	-0.036590237
34	0xbd6f81a3	-0.05847324
35	0x3ce9f848	0.028560773
36	0x3d81ff61	0.06347538
37	0xbcbe1360	-0.023202598
38	0x3d46c615	0.04852875
39	0xbd4c507d	-0.049881447
40	0x3d586db9	0.052839015
41	0x3d8b4cb4	0.06801739
42	0x3cc2bd1d	0.023771817
43	0x3cf8dc06	0.030378353
44	0xbcd8336f	-0.026391713
45	0x3d77f248	0.06053379
46	0xbd2e7af9	-0.042597745
47	0x3d7eda54	0.062219933
48	0xbcd7a7a8	-0.026325062
49	0x3c7399d3	0.0148682175
50	0x3d64f6f7	0.055899587
51	0xbcf21543	-0.029551154
52	0xbd032233	-0.032015037
53	0x3d2be699	0.041967962
54	0xbc53a10a	-0.012916813
55	0xbd7f24a8	-0.062290817
56	0x3ce6fc84	0.02819658
57	0x3cc63af0	0.024198025
58	0x3c1d8048	0.009613104
59	0x3b266034	0.0025386931
60	0x3d0e2e63	0.034712207
61	0xbd402120	-0.04690659
62	0x3d01f4e4	0.031727687
63	0xbcfa0d13	-0.030523812
64	0x3d8c0d3d	0.068384625
65	0x3d85126b	0.064976536
66	0x3d49b7d4	0.049247578
67	0x3d0979de	0.033563487
68	0xbd3ce470	-0.046116292
69	0xbbf5e221	-0.0075037633
70	0xbd7072cb	-0.058703225
71	0xbd010b43	-0.03150488
72	0x3c1c6ca0	0.009547383
73	0xbd73d281	-0.059526924
74	0x3d149378	0.03627345
75	0xbd4a6533	-0.049412917
76	0xbca8cf75	-0.020606736
77	0xbc90795b	-0.017635992
78	0x3d1392b0	0.036028564
79	0x3c93af5b	0.018027952
80	0xbd7ff68f	-0.062490996
81	0x3d0f5412	0.034992285
82	0x39861b10	0.00025578635
83	0xbca92110	-0.020645648
84	0xbcfb4ea2	-0.030677143
85	0xbcc7093f	-0.024296401
86	0xbc6b944e	-0.01437862
87	0x39a7ac1a	0.00031980948
88	0x3c12bbb9	0.008955889
89	0x3c68747c	0.014187928
90	0x3d69c1d0	0.0570696
91	0xbd04558b	-0.032308143
92	0x3d407636	0.046987735
93	0x3cbbd151	0.022926958
94	0xbd8235ea	-0.063579395
95	0x3d28282e	0.041053943
96	0xbd57cf1c	-0.05268775
97	0xbc89478f	-0.016757755
98	0x3cc00b74	0.023442961
99	0x3c2f8268	0.010712244
100	0x3964d3d5	0.00021822688
101	0xbce7e403	-0.028306967
102	0xbcf7954d	-0.03022256
103	0x3d473c58	0.048641533
104	0x3c84b3d5	0.016199032
105	0x3ce79523	0.028269356
106	0x3d632e03	0.055463802
107	0xbd65849d	-0.056034673
108	0x3b39c58b	0.0028346505
109	0x3d0fa989	0.03507379
110	0xbd535928	-0.051598698
111	0xbbf2fa76	-0.007415111
112	0x3c12c23b	0.008957441
113	0x3d422c8d	0.04740577
114	0x3c991e02	0.018691067
115	0xbd811c15	-0.06304184
116	0x3d62eb47	0.05540016
117	0x3d344186	0.0440078
118	0x3d28236b	0.041049402
119	0x3ca5817f	0.02020335
120	0xbd0b1c77	-0.033962693
121	0x3ca1a9d2	0.019734297
122	0x3d237f54	0.03991635
123	0x3bfaf1c8	0.007658217
124	0x3d8cab5e	0.06868623
125	0x3d6b9a2b	0.057520073
126	0xbc04f810	-0.008115783
127	0xbd74cbf1	-0.059764806

gru.weight_ih_l0 f4 [30, 3]
0	0x3eb8929a	0.36049348
1	0xbda3bc3c	-0.07994887
2	0x3e7d5530	0.24739528
3	0x3da44cfe	0.080224976
4	0x3e7b3a22	0.24533895
5	0x3cd01ada	0.025403429
6	0xbe82b01c	-0.25524986
7	0xbd7a84ac	-0.061161682
8	0x3d9bef2c	0.07613978
9	0x3cade3d0	0.021226794
10	0xbe653e2f	-0.22387002
11	0x3e3ab97c	0.18234819
12	0x3eb8e176	0.36109513
13	0x3db1a95b	0.0867488
14	0x3c833b82	0.016019586
15	0x3e132a70	0.14371657
16	0xbda9aa26	-0.08284406
17	0x3cb562c3	0.02214182
18	0x3e1ffb13	0.15623121
19	0x3e94252e	0.28934616
20	0xbd77e859	-0.06052432
21	0x3e6ef505	0.23335655
22	0xbdb6fdf9	-0.0893516
23	0xbdf90993	-0.12160029
24	0xbebbae31	-0.36656335
25	0xbe619198	-0.22028196
26	0xbd7f0908	-0.062264472
27	0x3dafc23c	0.08581969
28	0xbc9aa183	-0.018875843
29	0x3e01acf7	0.12663637
30	0x3e683bd4	0.22679073
31	0xbd901cc4	-0.070367366
32	0x3dab8386	0.083746955
33	0x3e411a2f	0.18857644
34	0x3dcff0dc	0.10153362
35	0x3c83db0c	0.01609566
36	0x3e043bb6	0.12913403
37	0x3e5042eb	0.20338027
38	0x3e4088ce	0.18802187
39	0xbc1eed1a	-0.009700084
40	0x3e515fe8	0.20446742
41	0x3e6c21fb	0.23059838
42	0xbea0cef2	-0.31407887
43	0x3d94a532	0.07258071
44	0xbe880bef	-0.26571605
45	0xbdd7e164	-0.10541037
46	0xbea7b180	-0.3275261
47	0xbc8bff3c	-0.017089479
48	0xbe838a2d	-0.25691357
49	0x3dd02a25	0.101642884
50	0xbe9cca54	-0.30623114
51	0xbe1d2e63	-0.15349726
52	0xbdcc86f9	-0.099866815
53	0xbca19fdb	-0.019729545
54	0xbe7ce170	-0.24695373
55	0xbd820b1a	-0.06349774
56	0xbe7b998c	-0.24570292
57	0x3d7608a3	0.06006683
58	0x3ced1928	0.02894266
59	0xbe70d931	-0.23520352
60	0xbc97d1f5	-0.018532733
61	0xbe29889d	-0.1655602
62	0x3ea9f3c2	0.33193785
63	0x3e7af3cb	0.24507062
64	0x3e64ed79	0.22356214
65	0xbb3ca44f	-0.002878446
66	0xbdf6145f	-0.12015604
67	0xbe62f26c	-0.22162789
68	0x3d9e6d89	0.07735736
69	0xbe7eb0b2	-0.24872091
70	0x3e246055	0.16052373
71	0x3d7c9d65	0.06167354
72	0xbe852a8c	-0.26009023
73	0x3e471989	0.19443335
74	0xbe74bbf0	-0.23899817
75	0x3eac297d	0.33625403
76	0x3e60bdcb	0.219474
77	0x3e82ca16	0.25544804
78	0x3e165ab2	0.14683035
79	0xbd82f07d	-0.06393526
80	0xbc9931c0	-0.01870048
81	0xbe42ecb2	-0.19035605
82	0x3dd53ca1	0.10411955
83	0xbe0cab55	-0.13737233
84	0x3e83c3aa	0.25735217
85	0xbd8750fc	-0.066072434
86	0x3dfac472	0.122445
87	0xbd165757	-0.036704388
88	0x3d72e782	0.059302814
89	0xbd33e576	-0.043920003

gru.weight_hh_l0 f4 [30, 10]
0	0xbe72068e	-0.23635313
1	0xbe30659f	-0.17226265
2	0xbead5cd1	-0.33859876
3	0xbea321dc	-0.3186177
4	0x3e145061	0.14483787
5	0x3e20d29d	0.15705343
6	0x3e02e281	0.12781717
7	0xbe8520f2	-0.26001698
8	0xbd8ce27e	-0.068791375
9	0x3e780348	0.24220002
10	0x3e415f69	0.18884052
11	0x3e81253c	0.2522372
12	0xbec6de48	-0.38841462
13	0x3ce5ebae	0.028066482
14	0x3c096d76	0.008387914
15	0xbd183d5d	-0.037167896
16	0xbdc01092	-0.093781605
17	0x3e810cee	0.25205177
18	0x3e843ff5	0.25830045
19	0xbe1a7acb	-0.15085904
20	0x3df6fa6b	0.12059482
21	0xbe3012a3	-0.1719461
22	0xbd114224	-0.035463467
23	0x3e146bb1	0.14494206
24	0x3e8a0244	0.26954854
25	0xbe85b74d	-0.2611641
26	0xbe8fc4be	-0.2807979
27	0x3e628183	0.22119717
28	0xbe021c51	-0.12706114
29	0x3c2c02f6	0.010498753
30	0xbd720593	-0.059087347
31	0xbdedb161	-0.11606098
32	0x3d8ce195	0.06878964
33	0xbe1d476a	-0.15359274
34	0x3e467efe	0.19384381
35	0x3dbaa455	0.09113375
36	0xbea6a0dc	-0.325446
37	0xbe41427d	-0.1887302
38	0xbd9be392	-0.07611765
39	0x3e0445e9	0.12917294
40	0x3ed46a06	0.4148714
41	0x3e8e4078	0.2778356
42	0x3e4b6a2d	0.19864722
43	0x3e28a538	0.16469276
44	0xbd2f5961	-0.042809848
45	0x3ec2e996	0.38068837
46	0x3e0e5534	0.1389969
47	0xbcad4602	-0.021151546
48	0x3e45304a	0.19256702
49	0x3cda10ad	0.02661928
50	0x3dc83547	0.09775787
51	0xbe3f218e	-0.18665144
52	0x3e979e04	0.29612744
53	0x3e033621	0.12813617
54	0xbbebd8fc	-0.0071974974
55	0x3e879169	0.26478127
56	0xbda84703	-0.082166694
57	0x3a5ebe17	0.00084969535
58	0xbe85aa1e	-0.26106352
59	0xbdfd95c4	-0.12382081
60	0xbe8986ee	-0.26860756
61	0x3deb6d2a	0.11495431
62	0x3e47589c	0.19467396
63	0x3ea4f1eb	0.3221582
64	0x3d5bf1e7	0.053697493
65	0xbe8bc27f	-0.27296826
66	0xbe85f014	-0.26159728
67	0x3ebb8a2e	0.3662886
68	0xbdaaab76	-0.08333485
69	0x3c8f46a5	0.01748974
70	0x3d1460e0	0.0362252
71	0x3e339767	0.17538224
72	0xbe9e0249	-0.30861118
73	0xbdfc4944	-0.12318662
74	0xbd8d8814	-0.069107205
75	0x3eb718d5	0.35761133
76	0x3ed3bc07	0.4135439
77	0xbe792587	-0.24330722
78	0x3e242d48	0.16032898
79	0x3c89c1f5	0.016816119
80	0xbe9ff796	-0.3124358
81	0xbea08d8c	-0.31357992
82	0x3e932975	0.28742567
83	0x3c33e883	0.010980728
84	0xbe7576fc	-0.2397117
85	0xbe49900f	-0.1968386
86	0xbe0dc423	-0.13844351
87	0xbd266f25	-0.04063334
88	0x3e6a8cab	0.22905223
89	0x3e33d69a	0.17562333
90	0x3dbe42eb	0.09290107
91	0xbd269ca1	-0.040676717
92	0xbe26d177	-0.16290842
93	0xbdc1e669	-0.094677754
94	0x3e69bbe6	0.22825584
95	0x3de00b97	0.109397106
96	0xbe0d9df6	-0.13829789
97	0xbe693062	-0.22772363
98	0x3cf8ef9c	0.030387692
99	0x3cdad9ee	0.026715245
100	0xbdbfc354	-0.09363428
101	0x3e42c152	0.19019058
102	0xbda2ceb6	-0.07949583
103	0x3e58a4ed	0.21156664
104	0xbe6adff0	-0.22936988
105	0xbde5b312	-0.112157956
106	0x3e147b77	0.14500223
107	0xbe6a8a85	-0.22904404
108	0x3da5fd4f	0.081049554
109	0xbad64564	-0.0016347584
110	0xbe565899	-0.20932235
111	0xbe9bef07	-0.304558
112	0xbd64ebcb	-0.055888932
113	0xbc1fc99d	-0.009752658
114	0xbde2083d	-0.110367276
115	0xbd05e3af	-0.03268784
116	0x3e86e6e6	0.26348037
117	0x3c858ff6	0.016303997
118	0xbd960cfe	-0.07326697
119	0x3e125336	0.14289555
120	0xbee06a38	-0.43831038
121	0x3df7dc11	0.12102521
122	0x3ed38d95	0.41318956
123	0x3e00156d	0.12508173
124	0xbe0f8146	-0.14014158
125	0x3d8509f0	0.06496036
126	0xbd6eaef4	-0.058272317
127	0x3bcc9f51	0.006244578
128	0xbe6fd406	-0.23420724
129	0x3eb35c5f	0.3503141
130	0xbcd32959	-0.025776552
131	0xbd8757e0	-0.06608558
132	0xbe12aa46	-0.14322767
133	0x3ecb8f49	0.39757755
134	0xbdc0ed18	-0.09420222
135	0xbea74565	-0.3267013
136	0x3e102541	0.14076711
137	0xbc81829d	-0.015809352
138	0x3e3f9fdf	0.1871333
139	0x3ea9e098	0.33179164
140	0x3df7e94b	0.12105044
141	0x3e652555	0.22377522
142	0x3e351998	0.17685544
143	0xbe7b05ad	-0.24513884
144	0xbd6affe2	-0.057372935
145	0xbe133b99	-0.14378203
146	0xbe37d761	-0.17953254
147	0x3c74b197	0.014934919
148	0x3dad7f35	0.084715284
149	0x3c63a0a4	0.01389328
150	0x3eb200ee	0.34766334
151	0x3e25db84	0.1619702
152	0x3d5c8359	0.0538362
153	0xbe6bd14a	-0.23029056
154	0x3e7b572f	0.24544977
155	0xbd5fed05	-0.0546694
156	0x3da95811	0.082687505
157	0x3e7c508b	0.246401
158	0x3e43874a	0.19094577
159	0xbe35c74f	-0.17751811
160	0xbec61b27	-0.3869259
161	0xbef22345	-0.47292534
162	0xbd942e6a	-0.07235415
163	0x3d9bba28	0.07603866
164	0x3ee46d3e	0.44614595
165	0xbd931cc9	-0.07183225
166	0xbd68032f	-0.05664366
167	0x3e8df6bd	0.2772731
168	0x3c7ff078	0.015621297
169	0x3e05cf1a	0.13067284
170	0xbe937970	-0.28803587
171	0x3def5ac7	0.11687236
172	0x3e226ded	0.15862246
173	0x3ddb79eb	0.107166134
174	0x3f012760	0.50450706
175	0xbeb6d263	-0.35707387
176	0x3e1451aa	0.14484277
177	0x3e8e155f	0.2775068
178	0xbe9b1325	-0.30288044
179	0xbcc3e6a8	-0.023913696
180	0x3dfb79e7	0.122791104
181	0xbdc70c4d	-0.09719143
182	0xbd24e141	-0.04025388
183	0x3eb1f87d	0.34759894
184	0xbe0d6e10	-0.13811517
185	0xbea7ace0	-0.3274908
186	0x3e3a5d45	0.18199642
187	0x3e66d674	0.22542745
188	0xbebd6646	-0.3699209
189	0x3df37fa7	0.11889582
190	0x3e3152d1	0.17316748
191	0x3e41b7a3	0.18917708
192	0xbe98f520	-0.29874516
193	0xbdad31d9	-0.08456773
194	0x3e49972f	0.19686578
195	0x3db0e2fd	0.086370446
196	0x3dea806e	0.11450277
197	0x3c96af9f	0.01839429
198	0xbd79a8c3	-0.06095196
199	0x3eafaaeb	0.34310088
200	0x3e1a852b	0.15089862
201	0x3ea8eb61	0.3299208
202	0xbe2a3659	-0.16622294
203	0x3c1f7b3a	0.009733969
204	0xbe8b0327	-0.27150843
205	0xbd275abe	-0.040858023
206	0x3e8398da	0.25702554
207	0xbeb6fe3e	-0.35740846
208	0x3e0872c5	0.13325031
209	0xbea60e98	-0.3243301
210	0xbc8c0125	-0.01709039
211	0xbe289072	-0.16461352
212	0xbe7ff1b6	-0.24994549
213	0x3cbbe223	0.022934979
214	0x3e1bcfce	0.1521599
215	0x3e2ba895	0.16763528
216	0xbe20cdc7	-0.15703498
217	0xbd2bd8d3	-0.041954827
218	0xbec1bf13	-0.3784109
219	0x3e2e1e42	0.1700373
220	0x3eba3c8b	0.36374316
221	0xbe2e9787	-0.1704999
222	0xbe5f39d5	-0.21799405
223	0xbe2ef85b	-0.17086928
224	0x3e85811d	0.26075068
225	0xbe12ab22	-0.14323094
226	0xbe4156e5	-0.18880804
227	0xbe8ace4a	-0.2711051
228	0x3e644727	0.22292767
229	0xbd304810	-0.043037474
230	0xbe17ef62	-0.14837411
231	0xbe64ed4a	-0.22356144
232	0xbc9a5861	-0.01884097
233	0xbd9ddbd1	-0.07707942
234	0xbc00ad6e	-0.007853849
235	0xbdba1848	-0.090866625
236	0x3e286b5c	0.16447204
237	0x3dafccd4	0.0858399
238	0xbe07ca56	-0.13260779
239	0xbe94cc04	-0.29061902
240	0x3e46d9f4	0.1941908
241	0x3d69ce3d	0.05708145
242	0xbe40c188	-0.18823826
243	0xbddf80d2	-0.109132424
244	0xbe2c99cd	-0.16855545
245	0x3e71d6c2	0.2361708
246	0xbde8e5ef	-0.11371981
247	0xbe4e6934	-0.2015732
248	0x3e89d78f	0.2692227
249	0xbd80578e	-0.062667
250	0xbd91d06d	-0.07119832
251	0xbcc42049	-0.023941176
252	0x3e15e575	0.14638312
253	0x3e21e0fd	0.15808482
254	0x3e21e8be	0.1581144
255	0x3e60c71f	0.21950959

gru.bias_ih_l0 f4 [30]
0	0x3e82effe	0.25573725
1	0xbe69832b	-0.22803943
2	0xbe4609c6	-0.19339666
3	0x3e847111	0.25867513
4	0xbe000249	-0.12500872
5	0xbe10b5db	-0.14131872
6	0xbe9b476b	-0.30327925
7	0xbe32ff91	-0.17480303
8	0xbd322b55	-0.043498356
9	0x3e9d4d25	0.3072292
10	0xbdec0ca1	-0.11525846
11	0xbe3fd184	-0.18732268
12	0xbd362086	-0.04446461
13	0xbea2a916	-0.31769627
14	0xbdce7fcf	-0.10082971
15	0x3e7713bc	0.24128622
16	0xbeaa9e00	-0.3332367
17	0xbe32c574	-0.17458135
18	0xbd584c67	-0.052807238
19	0xbe0d84b2	-0.1382015
20	0xbdb94d59	-0.09047956
21	0x3d6b0d68	0.057385832
22	0xbd84891f	-0.06471466
23	0x3eb6a828	0.35675168
24	0x3cfef07c	0.031120531
25	0x3e852eae	0.26012176
26	0x3e61526b	0.22004096
27	0xbe80eb57	-0.2517955
28	0xbe25d23b	-0.16193478
29	0xbe9b5180	-0.30335617

gru.bias_hh_l0 f4 [30]
0	0x3d1aa29a	0.037752725
1	0x3ebf7737	0.3739564
2	0x3e32621b	0.17420237
3	0x3d358004	0.04431154
4	0x3c135e04	0.008994583
5	0xbcb11eee	-0.021621194
6	0x3cb1508d	0.021644855
7	0x3d82dded	0.06389985
8	0x3e316379	0.17323102
9	0xbe3f339b	-0.1867203
10	0xbe05e0c9	-0.1307403
11	0xbdcc2499	-0.09967918
12	0xbe407daa	-0.18797937
13	0x3e732639	0.2374505
14	0x3e88632c	0.26638162
15	0x3e4679e3	0.19382434
16	0xbe99af85	-0.30016723
17	0xbe54ddc1	-0.20787717
18	0xbe2b000f	-0.16699241
19	0x3dd85576	0.105631754
20	0x3cdd0e72	0.026984427
21	0x3d420af3	0.047373723
22	0x3db7530b	0.08951386
23	0x3e4e7ac0	0.20164013
24	0x3a2189dc	0.0006162205
25	0xbcd83bcf	-0.026395706
26	0x3e760d0f	0.24028419
27	0x3db42355	0.087958016
28	0xbbd09e32	-0.0063665146
29	0xbe3679fd	-0.17819972

gru.weight_ih_l1 f4 [30, 10]
0	0x3e3537cf	0.1769707
1	0xbe806864	-0.25079644
2	0xbe143548	-0.1447345
3	0xbd866dec	-0.06563935
4	0x3df8c76e	0.12147413
5	0x3c6c9359	0.014439427
6	0xbe24f7fc	-0.16110224
7	0x3c5d9d8c	0.013526332
8	0xbe80f2f0	-0.25185347
9	0x3dc95060	0.098297834
10	0x3d043853	0.032280277
11	0xbdd10d6b	-0.102076374
12	0x3e20850a	0.1567575
13	0x3e3fbe69	0.1872498
14	0xbe0c4374	-0.13697606
15	0xbe976dde	-0.2957601
16	0xbe247a16	-0.16062197
17	0x3e6825af	0.22670625
18	0x3d924fb0	0.071441054
19	0x3dcab87c	0.09898469
20	0xbe7507c5	-0.23928745
21	0xbe0b950b	-0.13631074
22	0xbdaf116d	-0.085482456
23	0x3e720f0d	0.23638554
24	0xbe0d397f	-0.13791464
25	0x3dee200e	0.11627208
26	0x3e5cbf83	0.21557431
27	0x3e81e0be	0.25366777
28	0x3d61f79f	0.05516779
29	0x3c3425b7	0.01099532
30	0x3e53b93b	0.20676129
31	0x3c81eb61	0.015859308
32	0x3e42243d	0.18959136
33	0xbe8ccdb9	-0.27500704
34	0x3e3f7b0d	0.18699284
35	0xbe2ad95c	-0.16684479
36	0x3de09396	0.1096565
37	0x3e2c9c78	0.16856563
38	0xbdc46375	-0.095892824
39	0x3e4dea91	0.20109011
40	0xbde67602	-0.11252977
41	0xbda2e927	-0.079546265
42	0x3e21a805	0.1578675
43	0x3e87f995	0.26557603
44	0x3d04f2b3	0.03245802
45	0x3e67e9ef	0.22647832
46	0xbe36c2b3	-0.1784771
47	0x3d7e2e7c	0.06205605
48	0x3ccdac4b	0.02510657
49	0xbdcda562	-0.1004131
50	0x3e5ada5f	0.21372364
51	0xbe49c844	-0.19705302
52	0xbd5cba32	-0.053888507
53	0x3d8f66ee	0.07002054
54	0x3d39fa8f	0.045404967
55	0x3e9b9d6b	0.30393538
56	0x3c9cdf67	0.019149495
57	0x3e9274d3	0.28604755
58	0xbdca0558	-0.098643005
59	0xbe9302ea	-0.2871316
60	0xbd02afeb	-0.03190605
61	0xbe90a135	-0.2824799
62	0x3d9e352b	0.07724985
63	0xbe08de3a	-0.13366023
64	0xbd56febe	-0.052489035
65	0x3e570e41	0.21001531
66	0xbe4face4	-0.20280796
67	0x3e845417	0.25845405
68	0xbe2ad78d	-0.16683789
69	0xbdc3f4f8	-0.095682085
70	0x3e6a5c22	0.22886708
71	0xbc6c4eec	-0.014423113
72	0xbe02df53	-0.12780504
73	0x3e5886cb	0.2114517
74	0x3dac091c	0.08400175
75	0x3e8d39fb	0.27583298
76	0xbe05627f	-0.13025855
77	0xbe479170	-0.19489074
78	0xbcdcda5a	-0.026959587
79	0x3d24c35b	0.040225368
80	0x3e67c2e4	0.22632939
81	0x3e4ef7ff	0.2021179
82	0x3e5ea02d	0.2174079
83	0xbe49e580	-0.19716454
84	0x3c70eb1b	0.014704491
85	0xbd94445d	-0.07239602
86	0xbe976ba9	-0.29574326
87	0xbdde250f	-0.10846912
88	0xbe5c305b	-0.21502821
89	0xbe621ba0	-0.2208085
90	0xbeb80438	-0.3594072
91	0xbdd69c30	-0.10479009
92	0xbd7a8a42	-0.06116701
93	0x3e26f66b	0.16304938
94	0xbd5ced9c	-0.05393754
95	0xbe224b9f	-0.1584916
96	0xbe5363fc	-0.2064361
97	0x3d28127e	0.04103326
98	0x3c9768e9	0.018482642
99	0xbcae72b8	-0.021294937
100	0xbe0022b2	-0.12513235
101	0xbeaaf744	-0.33391774
102	0x3e4e63ee	0.20155308
103	0xbc812f0f	-0.01576951
104	0x3ee1c1b1	0.44093087
105	0xbe816175	-0.25269666
106	0xbe94aae7	-0.29036638
107	0x3b9c87eb	0.004776945
108	0xbec5b24d	-0.38612595
109	0xbe140f64	-0.14458996
110	0x3e874660	0.2642088
111	0x3da6a9d5	0.08137862
112	0x3c2a0922	0.010378154
113	0x3d145cd4	0.03622134
114	0x3e03cc29	0.1287085
115	0xbd99c741	-0.07508708
116	0xbe61688e	-0.2201254
117	0x3e8abf59	0.27099112
118	0xbea66c0b	-0.32504305
119	0x3de99082	0.11404516
120	0xbe470196	-0.19434199
121	0x3d2edeee	0.04269307
122	0x3eb74d24	0.3580104
123	0xbc46e693	-0.012139934
124	0x3df597a0	0.11991811
125	0xbea70807	-0.32623312
126	0x3dfc8476	0.123299524
127	0x3d1b0a47	0.037851598
128	0xbeb0ea57	-0.34553787
129	0x3ed13d7b	0.40867218
130	0xbe17a729	-0.1480986
131	0xbe32fcf9	-0.17479314
132	0x3ec687ac	0.38775384
133	0x3cee2294	0.029069223
134	0x3f041273	0.5159065
135	0xbea6fe29	-0.32615784
136	0xbeb1d8bf	-0.34735677
137	0x3efb6409	0.49099758
138	0x3cfe30a3	0.031029051
139	0x3df46169	0.11932642
140	0xbdafc3d9	-0.08582277
141	0x3e7cc6f0	0.24685264
142	0x3e8e612d	0.27808514
143	0xbbecb3e8	-0.007223595
144	0x3daa4858	0.0831458
145	0x3e8e495d	0.27790347
146	0x3e09f8cc	0.13473815
147	0xbe85d3dd	-0.261382
148	0xbd018c6b	-0.031628054
149	0xbe9d3861	-0.30707076
150	0xbec50440	-0.38479805
151	0xbbf7feec	-0.007568231
152	0x3dcb4c08	0.09926611
153	0xbe089d8a	-0.13341346
154	0x3ea454b7	0.32095882
155	0x3b23a81b	0.0024972025
156	0x3d239aa2	0.03994239
157	0xbe0ab9c7	-0.13547431
158	0x3df945d3	0.12171521
159	0x3db27341	0.08713389
160	0xbe4e852a	-0.20167986
161	0xbeb18c6a	-0.3467744
162	0x3e466472	0.19374254
163	0x3ee8c7d9	0.45464972
164	0x3e398f94	0.18121177
165	0xbee26ff4	-0.44226038
166	0xbd93f986	-0.07225327
167	0x3f07ad93	0.5299923
168	0xbde9210c	-0.11383256
169	0x3ea21df4	0.31663477
170	0xbee5637a	-0.44802457
171	0xbec88f33	-0.39171752
172	0x3ead253e	0.33817476
173	0x3ecbc598	0.3979919
174	0x3d84973f	0.064741604
175	0xbec78f7c	-0.38976657
176	0xbceaaee4	-0.028647847
177	0x3efc3add	0.4926366
178	0xbdbd1d6d	-0.09234128
179	0xbdd2024f	-0.102543466
180	0xbee57384	-0.44814694
181	0xbcf8ff62	-0.030395214
182	0x3ead1f8a	0.33813125
183	0x3ea73462	0.32657152
184	0xbdf788d0	-0.12086642
185	0xbd820e08	-0.063503325
186	0xbeddf144	-0.43348134
187	0x3c2557e0	0.010091752
188	0xbef4beca	-0.4780181
189	0x3e4f03e2	0.20216325
190	0xbdbb31a8	-0.091403306
191	0xbe73b3e3	-0.2379909
192	0x3eb12c97	0.34604332
193	0x3e48e784	0.19619566
194	0x3e63d8cf	0.22250675
195	0xbaa56713	-0.001261922
196	0xbe1fcb7e	-0.1560497
197	0xbdaffa28	-0.085926354
198	0x3e37fadb	0.17966788
199	0x3ec4b1e4	0.3841697
200	0xbe54edac	-0.2079379
201	0xbe51e15b	-0.20496123
202	0x3cce511a	0.025185157
203	0xbdd5074d	-0.10401783
204	0x3cfac572	0.030611727
205	0xbe9cbf89	-0.3061488
206	0xbe593909	-0.21213163
207	0x3e817069	0.25281075
208	0xbe0303ab	-0.12794368
209	0xbcdb1ba3	-0.026746577
210	0xbe6db994	-0.23215324
211	0x3d2d0150	0.04223758
212	0xbc1c6dba	-0.009547645
213	0x3e42d45d	0.19026323
214	0x3e4fd7ec	0.20297211
215	0xbcf21bd4	-0.029554285
216	0x3e31fed1	0.17382361
217	0x3e3df7df	0.18551587
218	0x3e59bef9	0.21264257
219	0x3d9bcc87	0.0760737
220	0x3e959383	0.29214105
221	0xbb250985	-0.0025182676
222	0xbdf33818	-0.118759334
223	0x3e72d6ff	0.23714827
224	0x3ccce538	0.025011644
225	0xbe3047fc	-0.1721496
226	0xbe8bfcec	-0.27341402
227	0x3e58cff0	0.21173072
228	0xbb914632	-0.0044334168
229	0x3e013f17	0.12621723
230	0x3d95a869	0.07307512
231	0xbdd5a1cf	-0.10431253
232	0x3dccc389	0.09998233
233	0xbd418f7f	-0.04725599
234	0x3daaf777	0.083479814
235	0x3e652c42	0.22380164
236	0xbe3bcfdc	-0.18341011
237	0x3e8c5864	0.27411187
238	0x3b74ceee	0.0037354785
239	0xbe11e6eb	-0.14248244
240	0x3c3fb21f	0.011700182
241	0x3e6d8577	0.23195444
242	0xb996174b	-0.00028627584
243	0xbccbb595	-0.024866858
244	0x3c153696	0.009107253
245	0x3e7bcf9f	0.2459092
246	0xbe38c158	-0.18042505
247	0xbe64e9e7	-0.22354852
248	0xbe7a83bc	-0.24464315
249	0x3e6000e8	0.21875346
250	0xbddbf4de	-0.10740064
251	0xbe3dcd33	-0.18535309
252	0xbd822254	-0.06354204
253	0x3e7ec6ce	0.24880525
254	0xbe80b7a6	-0.25140113
255	0x3d22c725	0.0397407
